GameAI3/Config/results/dwarf_2/Dwarf/Dwarf-55969.onnx (onnx, 91956 bytes, 7 tensors)

network_body._body_endoder.seq_layers.0.weight f4 [128, 44]
000000 5b 7f 75 3d b8 1b 9f bd 77 ab 9f be a7 d2 f0 bc
       0.05993591 -0.07768959 -0.31185505 -0.029397322
000010 36 0e b4 3d 5b 7f fa bd a6 fe 5f 3c 27 b5 3c be
       0.08791773 -0.122313224 0.013671553 -0.18428479
000020 25 67 e5 3c 9e 0f 00 3e 8c aa 42 3e f8 ce 85 3d
       0.028003285 0.12505957 0.19010371 0.06533617
000030 89 76 2a 3d 0f 64 09 be 82 e0 31 3d 0c d9 ba 3d
       0.04161695 -0.13417076 0.043426998 0.0912343
000040 35 1f 76 3d 18 c6 8d 3e c7 e0 05 3c 1c c1 da bd
       0.060088355 0.27690196 0.008171267 -0.10681364
000050 df 63 89 be 83 33 db 3d 9e 7a bd 3c 84 00 15 3e
       -0.26834008 0.107031845 0.023129757 0.14550978
000060 76 ad 37 be e3 a0 bf 3d ca 4b bc 3c c8 8f 8f be
       -0.17937264 0.093568586 0.022985358 -0.28039384
000070 70 02 f3 3d b9 f9 93 3d 7f 56 45 be 8f cb 7c bd
       0.11865699 0.07225365 -0.19271277 -0.061717566
000080 7c 58 83 3d f2 c5 8e be 47 6c 50 bd 62 a7 2a be
       0.064133614 -0.27885395 -0.05088451 -0.16665414
000090 83 df 8c 3e 7f 61 0a 3e 08 94 e9 3c 7b 23 a0 3d
       0.27514276 0.13513754 0.02851297 0.07819267
0000a0 d6 8e aa be 78 6c dc 3d 6f ef 2c bd 6e d2 c3 be
       -0.333121 0.10762876 -0.04222053 -0.38246483
0000b0 b5 3a 95 bd e7 b8 e2 3a 2b 7f 29 3e 2f b5 9b 3e
       -0.07286588 0.0017297537 0.16552417 0.3041167
0000c0 6b 2d a0 3e 7e 0a c0 3d d5 79 0f 39 be fe 83 bd
       0.3128465 0.09377001 0.00013682929 -0.064450726
0000d0 f6 1c 7a 3d ae 43 38 3e ff ca 66 3d 62 09 d5 3b
       0.061062776 0.17994568 0.056345936 0.0065013627
0000e0 9d de de bd 9f a2 76 bd 9e 88 99 3e 05 f6 39 bd
       -0.10882304 -0.06021368 0.29987043 -0.045400638
0000f0 08 2a 66 bd 38 27 93 3d 69 21 fd 3d e1 55 6d be
       -0.056192428 0.07185215 0.12359888 -0.23177291
000100 7f 72 92 bb 84 36 71 be 1f 29 0e 3d c2 dc 04 be
       -0.0044692154 -0.23555952 0.034707185 -0.12974837
000110 4f 21 cd 3d 5c cd eb 3d 95 b2 aa be e6 6a ea 3d
       0.10016119 0.115137786 -0.33339372 0.114461705
000120 b0 ec 9c 3d 0f ba 32 3d 37 a5 c1 be 09 49 08 3e
       0.07662332 0.04363447 -0.3782136 0.1330911
000130 b6 cf 7a 3d 27 07 bc 3d 77 43 79 bd 88 81 f6 bc
       0.061233245 0.09181052 -0.060855355 -0.030091062
000140 3c 7c 7f bb 06 aa a7 bd 35 7f 24 3d 3a 2d 26 3e
       -0.0038983962 -0.08186726 0.040160377 0.1622819
000150 f3 2d 04 3e 0d 6e 6e 3d 2d a7 e2 bd fb da 9c bc
       0.12908153 0.05821042 -0.110670425 -0.019147387
000160 10 e8 0f 3e 17 e8 58 be 50 b2 25 3e 2d a3 93 bd
       0.14053369 -0.21182285 0.16181302 -0.07208858
000170 16 b3 85 3e 80 f9 d6 bc 99 f1 47 3a 4f 2f 5f 3a
       0.26113194 -0.026242018 0.00076272484 0.00085138244
000180 dd 3c 18 3e 4d 4a 22 bd 0f 38 23 3e 93 b6 d7 be
       0.14866967 -0.03962164 0.15939353 -0.4213148
000190 9a 25 07 be e5 e1 47 be ca 43 ed 3d 3d db af 3d
       -0.13197938 -0.19519766 0.11585195 0.08586738
0001a0 fc 43 85 3d 17 cd c4 ba 93 2f 97 3d 9b 63 1b 3d
       0.065071076 -0.0015014735 0.07382121 0.037936788
0001b0 9a ac 8d be b4 08 07 3d dc a0 57 be 3d 96 3a 3d
       -0.27670747 0.032967284 -0.21057457 0.045553435
0001c0 30 23 05 be 22 77 e3 bd 74 44 00 bd 33 03 b3 3d
       -0.13001704 -0.11106707 -0.031315282 0.087408446
0001d0 a9 4c 27 be 9a 80 d5 3d dc df 56 3d 99 3d 2f be
       -0.16337837 0.104249194 0.052459583 -0.17113341
0001e0 aa d9 1d be 6c cc 69 3e 3f 2a 24 be b3 9f 83 bb
       -0.15415064 0.22831887 -0.1603174 -0.0040168404
0001f0 74 74 2b 3e 29 5d 22 3e b9 11 a4 be 8b ae 5b be
       0.16743642 0.1585585 -0.3204477 -0.21453302
000200 b0 b4 80 bd a8 9c 56 3e 96 97 6d bc 1f 99 66 be
       -0.062844634 0.20958197 -0.014501473 -0.22519349
000210 11 9c 8b bd 5e 09 f5 be a8 3c 59 3e a5 1f 7c 3e
       -0.06816877 -0.4785871 0.21214545 0.24621446
000220 04 e8 b5 be e5 ae af bd 42 69 5b 3e 84 32 16 3e
       -0.35528576 -0.0857828 0.21426871 0.14667708
000230 ff ab fe bd b0 a4 88 3e 49 3c ea bd 8f 2a e9 bd
       -0.124351494 0.26688147 -0.1143728 -0.113850705
000240 7d c3 f2 bc 8e 4e 15 bd 47 a8 21 3e 91 2a 93 3d
       -0.029634232 -0.03645187 0.15786849 0.07185853
000250 c6 4b b6 3d 6d af 89 3e 2f 97 79 3e a9 db 02 3c
       0.089011714 0.26891652 0.24374078 0.007986941
000260 9b 00 a9 bc de e1 ab 3c 89 c5 0d 3e b4 73 22 be
       -0.020630172 0.020981725 0.13844885 -0.1586445
000270 db 22 59 3e 6c 68 8a 3d 6f cc a1 3e 80 5d 58 bd
       0.21204703 0.06758198 0.31601283 -0.052823544
000280 aa da d4 bd 2e a9 60 3d 0e d2 20 be e9 dd e5 bd
       -0.10393269 0.054848842 -0.1570513 -0.11223967
000290 6e e7 04 bd 2e bf b1 bd 29 0f 43 be 14 62 e5 3d
       -0.03244727 -0.08679043 -0.19048752 0.112003475
0002a0 bb 7e b9 bd 37 7f 4f be 94 65 d6 3d c4 4a b4 bd
       -0.09057375 -0.20263372 0.10468593 -0.08803323
0002b0 d6 ef b6 3e 2d d1 11 3e ae 20 e9 3c 65 4a 4b 3e
       0.35729855 0.1423995 0.028457966 0.19852598
0002c0 68 07 02 3e cc f1 85 bc c7 04 5c be d8 39 b6 3d
       0.12698138 -0.01635065 -0.21486197 0.088977516
0002d0 08 ca 2d 3e 4f a4 a3 bc dd ff dc 3b 11 31 93 be
       0.169716 -0.01997581 0.0067443685 -0.28748372
0002e0 91 e0 d9 bb 65 80 ac 3d 2c 55 af 3c c7 79 14 3e
       -0.006649085 0.08422927 0.021402918 0.1449958
0002f0 f5 69 29 be 3e ca a8 be 60 f5 85 be 51 7f f6 3c
       -0.16544326 -0.329668 -0.2616377 0.030090006
000300 3d 05 8b 3c 47 79 cc bd 16 21 b2 be 61 7a d8 bc
       0.016970271 -0.09984069 -0.34790868 -0.026425542
000310 1c 56 8d 3e da a6 84 3d 52 e0 e7 3c 20 b7 8a 3d
       0.2760476 0.06477137 0.028305206 0.067732096
000320 58 61 5f bb 7b 7a 12 3d 1b 3b 63 3b 23 60 5a 3e
       -0.003408512 0.035761338 0.003467268 0.21325736
000330 58 cb 99 bd 0b 41 e5 3c 6e ae 87 3e bf 2b 8e bd
       -0.07509488 0.027985116 0.26500267 -0.06941938
000340 73 e0 09 3e 19 51 a6 3d 4e 76 48 3e 74 61 92 bc
       0.13464527 0.08120937 0.1957638 -0.017868735
000350 fc 49 d5 3d a9 76 6d be 05 95 49 3d 69 8a 31 3d
       0.10414502 -0.23189797 0.04921438 0.04334489
000360 ac cf eb bd e7 e0 df 3d b0 64 14 3d 6e 55 18 be
       -0.1151422 0.109315686 0.036228836 -0.14876339
000370 ef e0 7a bd 14 9f 14 bd 11 ee 05 bd cb 25 2c bc
       -0.06124967 -0.03628452 -0.03269774 -0.010507057
000380 90 99 84 3d 8a 5b 97 3e 15 e5 52 3e 0d 05 6f 3e
       0.06474602 0.29562026 0.205952 0.2334177
000390 65 4a 81 3c 99 6e c6 3d 47 70 9f 3d 05 83 c5 3c
       0.015782544 0.096890636 0.07785087 0.024110327
0003a0 86 ba 88 bc 1f 4a 1c bd c8 63 21 3e cb 8f 85 3e
       -0.016690504 -0.038156625 0.1576072 0.26086268
0003b0 37 f8 fa 3c 5d 71 fe bc d9 71 97 be 95 cf 2d bd
       0.030635936 -0.031059915 -0.29579046 -0.042434294
0003c0 55 b2 e5 3d 5c 59 3b 3c b6 08 77 bc 6e 81 81 be
       0.11215655 0.011434879 -0.01507776 -0.2529406
0003d0 c9 c0 10 3d 49 4a 8e 3d 9f bf c9 bd 25 70 63 bd
       0.035340104 0.069477625 -0.09851002 -0.05552687
0003e0 9f 52 95 be a7 84 ba 3d 10 d2 ea 3c 72 eb 5e be
       -0.29164597 0.09107333 0.028664619 -0.21769503
0003f0 54 5c b4 3e 88 81 94 3b 01 b2 9a 3e 9d 9e 9f bd
       0.3522669 0.004532043 0.3021393 -0.07793925

network_body._body_endoder.seq_layers.0.bias f4 [128]
000000 e2 20 dd b9 f3 bc f3 bc f1 dd 83 bd 5f b5 58 bc
       -0.00042176904 -0.029753184 -0.06438816 -0.013226836
000010 ca 9b 3b bd a8 75 65 3c e8 12 f6 bc a3 70 92 ba
       -0.04580287 0.014005102 -0.030038312 -0.0011172484
000020 d0 b1 9c bc 6f 1e 9a 3b 15 c0 c4 3c f5 a6 18 bd
       -0.019127756 0.004703335 0.024017373 -0.037268598
000030 a4 1e 7a bc 4f 94 f9 bc 8c 8c 60 3c 82 b9 16 bd
       -0.015266094 -0.030466227 0.013705384 -0.036798008
000040 dd 3e f0 bc 82 12 e6 bc 29 c3 2d 3d 3e bd 74 bb
       -0.02932685 -0.028084997 0.042422447 -0.0037344242
000050 28 72 a5 bd 52 63 41 bd 2f 9a 82 bd a7 2b ea 3c
       -0.08078414 -0.04721386 -0.063770644 0.028585268
000060 69 82 c0 bc 35 d8 31 bb 27 40 31 bd 3f 54 4a bd
       -0.023499684 -0.0027136926 -0.04327407 -0.04939675
000070 53 63 32 bd 1b 64 8e bc c7 dd 6f bc c8 c8 5e 3b
       -0.043551754 -0.017381718 -0.014640278 0.0033994187
000080 ab 6d 5f bd 35 8b 33 bd 3a 43 7c bd 58 cc a4 ba
       -0.054547947 -0.04383393 -0.06158755 -0.0012573106
000090 b7 ea 1b bd 5a 59 1b bd 05 92 83 bd 2e e7 f4 bc
       -0.03806564 -0.03792701 -0.064243354 -0.029895391
0000a0 66 89 83 bd 3a 71 03 bd 83 0f 8c bc 75 cd f2 bc
       -0.06422691 -0.032090403 -0.01709724 -0.029638985
0000b0 6d 2f 59 bd f7 a5 76 3b b5 42 e6 bc 5a ee 18 3d
       -0.053023744 0.0037635544 -0.02810798 0.037336685
0000c0 37 87 36 bd 3d b2 f3 3c df 99 01 bc 87 bb 59 bd
       -0.044562545 0.029748077 -0.007910221 -0.053157356
0000d0 37 5f d4 bc 2f 8a 0e 3b e4 95 e8 bc 36 ac 34 3d
       -0.025924308 0.0021749844 -0.028391786 0.044109546
0000e0 62 0a b3 3c b4 79 2d bb 70 ac dc bc 1f d7 dd 3c
       0.021855537 -0.0026470246 -0.026937693 0.027080117
0000f0 ae dc 09 bd 2f 25 05 bd 8a 5a 43 bd 11 8e be bd
       -0.033657722 -0.032506164 -0.047693767 -0.09304441
000100 ef bb df bc a1 63 08 bc 47 6a c5 bb 8d 7b d9 bc
       -0.027311293 -0.008324535 -0.006024632 -0.026548171
000110 6b b8 08 bb a8 b5 87 bc 58 84 b6 3c 6a 83 12 bb
       -0.0020861875 -0.016566113 0.022279903 -0.002235616
000120 9a ac 15 bd c6 53 69 bc 5f 68 4d 3d 69 47 1f bc
       -0.03654156 -0.014241165 0.050148364 -0.009721615
000130 f5 2a 2f 3d 7d 25 06 bd 9a e2 10 3c 2c b2 17 3c
       0.042765576 -0.032750595 0.0088430885 0.009258788
000140 54 83 05 bd a5 f2 b6 3c af f6 00 bc 2e 64 02 bb
       -0.032595947 0.022332499 -0.007871314 -0.0019896138
000150 79 fb 02 3d b7 9e dd bc 96 5d 27 bd 07 50 e9 3c
       0.031978104 -0.02705322 -0.040860735 0.028480543
000160 fe 51 31 bd 7e a9 97 bb d4 a5 48 3b a1 13 93 3c
       -0.043291084 -0.0046283593 0.003061642 0.017953696
000170 30 a5 0a bc 03 47 82 bd 56 b4 57 bd cf 75 37 3c
       -0.008462235 -0.06361201 -0.052662216 0.011197521
000180 95 a2 b8 bd 57 29 4f bd 31 80 27 bd 31 d9 46 bc
       -0.09015385 -0.050576534 -0.040893737 -0.012136743
000190 6f 41 9b bd 22 d9 9b bc a0 fe 10 3c 0b ab f9 bc
       -0.0758084 -0.019024435 0.00884977 -0.030477067
0001a0 f4 a8 2d 3c 50 e5 52 3c 14 8b 80 3c 02 e4 9d bc
       0.010599364 0.012872055 0.015691318 -0.019273762
0001b0 3c d9 8d bb 0f b9 e4 bc fb a4 1c 3d b9 88 27 bb
       -0.004328875 -0.027920274 0.038243275 -0.002556367
0001c0 dc 67 3b bd 7b 7e 23 bd f2 f5 37 3d ac ea 9b 3c
       -0.045753345 -0.039915543 0.044912286 0.019032799
0001d0 e0 ff f3 bc 24 09 e9 3a 3d ad 0a bc de 90 2b bb
       -0.029785097 0.0017779213 -0.008464155 -0.0026178877
0001e0 49 bf c8 bc fd 37 0d bd 78 c1 4b bc 0a 6f 99 3c
       -0.024505274 -0.034477223 -0.012436263 0.018729705
0001f0 62 27 45 3a 09 a9 f4 bc f9 b1 c9 3a 6f ff f7 3b
       0.0007520822 -0.029865758 0.0015388123 0.007568292

network_body._body_endoder.seq_layers.2.weight f4 [128, 128]
000000 c2 85 e0 3c 92 e0 cf bc d8 e5 b2 bd 1e cf e3 bc
       0.02740753 -0.025375638 -0.087352455 -0.027808722
000010 bf da 52 3c a7 5c 01 be 8b 3b 1a 3d 82 1d 74 bd
       0.012869536 -0.12633 0.03765444 -0.059598453
000020 d5 a1 cd 3d 3f 84 99 bc 2b cc 69 bd f5 5b f2 3c
       0.10040633 -0.018739818 -0.057079475 0.029584864
000030 46 0f df 3d 49 a1 94 3c 89 1b 9b bc 2b 14 2c bd
       0.10891585 0.018143313 -0.018934028 -0.04201142
000040 5a 69 98 3d 39 62 7c 3d bf a7 c9 bd bc de d2 3c
       0.07441969 0.06161711 -0.09846448 0.025740974
000050 7b 37 31 3e 91 8f 8a 3d 3c 45 8d 3d 17 a3 10 be
       0.1730632 0.06765664 0.06897971 -0.14124714
000060 94 74 8e 3b 44 0e 27 bc 57 6a 95 3c 8a 8d a1 bd
       0.0043473933 -0.010196272 0.018239183 -0.078883246
000070 5a ce ac bd 22 ac a6 3c 43 9e 65 bd 50 6a 9c bc
       -0.08437796 0.020345751 -0.056059133 -0.019093663
000080 57 3d b4 3d 5d f2 07 3a 05 b5 ad bd 14 0c 49 bc
       0.08800762 0.0005185956 -0.08481792 -0.012270946
000090 ba 8e 98 bd 0c 2f 89 bd f7 24 b0 3d c2 06 b1 3b
       -0.07449098 -0.066984266 0.086008005 0.005402417
0000a0 79 7d 69 3c 8e 41 9c 3c 59 ba 8c bd 9e b4 ac bd
       0.014251106 0.019074228 -0.068714805 -0.084328875
0000b0 09 ff 95 3d 4b 50 ed bd 53 65 03 be 6a 95 83 bd
       0.07324035 -0.1158758 -0.12831621 -0.06424983
0000c0 3f 93 0f 3d 83 00 89 bc 04 fc a2 bb 8b 86 98 3c
       0.035052534 -0.016723877 -0.0049738903 0.018618843
0000d0 c9 df 54 3d e3 a5 dd bc 79 60 64 bd 97 45 32 bd
       0.05197123 -0.02705664 -0.055756066 -0.043523397
0000e0 24 0e 92 bd 56 31 9b 3c cf 40 27 3d 54 d3 c9 bd
       -0.07131603 0.018944424 0.04083329 -0.09854761
0000f0 8d b9 62 3c 54 0f 43 be f9 d8 d6 bc 80 b9 79 3c
       0.013838184 -0.19048816 -0.026226507 0.015241981
000100 7c d2 03 3e 24 e4 e4 3b 89 18 96 38 86 30 2f bd
       0.12873262 0.0069852043 7.1571274e-05 -0.042770885
000110 b3 66 89 3d f4 d4 ce bc f2 f2 05 3d 88 2b b7 3b
       0.067090414 -0.025248028 0.032702394 0.005589906
000120 6e c3 64 3d a7 5a 08 bd b7 95 54 3d ea 1c b9 3c
       0.05585044 -0.033289578 0.05190059 0.022596795
000130 56 ed 19 3e 09 35 f4 3d c0 2e 87 bc ff 82 06 be
       0.15031943 0.11924178 -0.016501784 -0.13135909
000140 9d fc f5 bc 1f bf 13 3d bb 4c c6 3d 36 8a 0b bc
       -0.030027682 0.03607094 0.09682604 -0.008516839
000150 b2 3d e9 3c 08 b9 dd 3d aa 98 03 3e b3 23 35 3e
       0.028471801 0.108263075 0.12851205 0.176894
000160 e3 ec 9d bc 71 a9 8a bd 7d 7a c2 3d 1e 6e 5e 3d
       -0.019277995 -0.067706 0.09496019 0.054304235
000170 e7 85 32 bd 9f f6 6c bd a9 05 17 bd 59 b8 8a bd
       -0.04358473 -0.057852384 -0.036870632 -0.06773443
000180 e2 57 92 3d 3c ed d8 bd db c7 62 3c ac 94 af bd
       0.071456686 -0.10592124 0.013841595 -0.08573279
000190 bb a1 7a 3d 25 95 d5 bb 1d 80 da 3b 1c b7 cd bd
       0.061189394 -0.0065180236 0.0066681043 -0.10044691
0001a0 72 f1 78 3d 42 b2 c9 bd 16 2d ba bd c3 85 17 3d
       0.060777135 -0.09848453 -0.09090631 0.0369928
0001b0 f0 a8 47 3d 07 51 66 bc 73 fa 7d 3d 57 8d 20 be
       0.048745096 -0.014057404 0.062006425 -0.15678917
0001c0 1d 9d 67 bd c8 2a e1 bc ff 9f 43 bd 64 9b 7a 3d
       -0.05654632 -0.02748622 -0.047760006 0.06118335
0001d0 e8 ca 04 be 3f e4 1a be 0c 31 0c 3d 76 72 41 3e
       -0.12968028 -0.15126131 0.034226462 0.1889132
0001e0 95 69 0c 3e 01 38 69 bd 7a 7a f0 bd a3 39 ab 3d
       0.13712151 -0.056938175 -0.117421106 0.08360603
0001f0 ce d3 1f bd a8 44 01 be b0 de 51 3d 70 13 e7 3c
       -0.039020352 -0.12623847 0.051237762 0.02820751
000200 d4 98 db 3d 88 91 22 3b 97 14 00 3e 38 c7 95 bc
       0.10722509 0.0024805982 0.12507854 -0.018283471
000210 1f 89 df 3d 68 43 b0 bd 32 76 a0 bd c0 cb 99 3d
       0.10914826 -0.08606607 -0.07835044 0.07509565
000220 d0 b1 0e 3c 8f 58 f9 3c 7b a5 ba bd 84 77 68 3d
       0.008709386 0.030437736 -0.09113594 0.056754604
000230 da 70 07 be ca c2 79 3c ff 28 35 3d be b0 97 bc
       -0.13226643 0.015244195 0.04422855 -0.018516894
000240 f6 3e c2 bd 78 57 ae 3b 8e 39 45 3e 13 1f e4 3d
       -0.09484665 0.0053204857 0.19260237 0.111387394
000250 3a 0b 17 bc 56 b0 a1 3d 5d 41 6f bc f8 2d c2 bc
       -0.009218985 0.078949615 -0.014602986 -0.02370356
000260 6e fd 38 bd 15 62 80 bd d9 79 dc bd 6b 2c a6 3b
       -0.045163564 -0.06268708 -0.10765428 0.005071213
000270 22 33 9d 3d 7a 29 10 3d 1f 1c f1 3d b3 95 0a 3d
       0.076757684 0.035195805 0.11772942 0.03383417
000280 d8 f6 4e 3d a4 6e 02 bd 02 9c 74 3c 36 d5 b8 bc
       0.050528377 -0.031843796 0.014929773 -0.022562604
000290 c5 48 1d 3d fd 01 26 3c 47 b3 71 3c a1 26 38 bd
       0.038399477 0.01013231 0.014752216 -0.044958714
0002a0 3b 4f a0 bc 25 97 2f bd 45 06 2a bd 9d ca d9 3c
       -0.01956903 -0.042868752 -0.041509885 0.026585871
0002b0 81 61 43 3c 78 44 49 bc 38 4f f9 3c e2 56 76 bd
       0.011925102 -0.012284391 0.030433282 -0.06014145
0002c0 7b 01 ef bd 16 a1 06 3e 78 7c 07 be a4 ba 92 bc
       -0.11670204 0.13147387 -0.13231075 -0.017911263
0002d0 50 78 f2 3d 9b de e9 3d c2 84 02 3d 73 c5 30 be
       0.11839354 0.11419412 0.03186489 -0.17262821
0002e0 12 3b 61 3d 5d ad b4 3d 92 da 4a 3c 7a 9b ec bd
       0.054987974 0.08822129 0.012381213 -0.11553092
0002f0 63 72 fa 3b 1a 4b 6e 3c c3 25 57 3e b4 51 18 be
       0.0076430305 0.014544273 0.21010499 -0.14874917
000300 cf a7 b1 3d d5 5d 9e bd cd d8 34 be c0 49 41 3e
       0.08674585 -0.07732741 -0.17660828 0.1887579
000310 43 db ce bd d1 6e 06 3e 9b cb ab bd 6b 90 14 bd
       -0.101004146 0.1312821 -0.08388444 -0.03627054
000320 7d 80 71 3d da b3 b5 bd 8c 1f d2 3d ad af fd bc
       0.058960427 -0.088721946 0.10259923 -0.030967558
000330 f9 fe 70 3e 91 3f 9d 3d f1 c4 2a bd 51 b2 2d bd
       0.23534764 0.0767814 -0.041691724 -0.042406384
000340 a4 ea ec 3d 83 1d 70 3c c2 af 2b 3d 1b da 00 be
       0.11568192 0.014655474 0.041915663 -0.125832
000350 a3 a8 d4 3d 1a 79 88 be 30 e5 08 bd c8 6d a4 bd
       0.103837274 -0.26654893 -0.033421695 -0.080287516
000360 fa 2b d0 3d b1 c8 4a 3c fb 6a cf 3b 8c a0 a1 3d
       0.10164638 0.01237695 0.0063298917 0.0789195
000370 7d 04 06 3d 3e 4e 8b bd b8 40 d2 bd 75 32 b2 3c
       0.032719124 -0.06802033 -0.1026625 0.021752575
000380 e1 4b 6e bd dd 05 1a 3d ce 2c 21 3d 84 fa 8f bc
       -0.058177833 0.037603248 0.03934937 -0.01757551
000390 4c 47 52 3d 10 f1 15 bd 28 0c be 3d d5 ed 40 3a
       0.051337525 -0.03660685 0.09279662 0.00073596585
0003a0 0b 0b 70 ba fc 5e 32 be dd c7 1b 3d db aa 2d 3e
       -0.0009156919 -0.17419046 0.0380324 0.16959707
0003b0 06 3b db 3d d0 83 79 bd a0 64 99 bc 5b 67 1a bd
       0.10704617 -0.06091672 -0.01872474 -0.037696224
0003c0 ad 29 c8 3d 70 ef 08 3e fe 54 ad 3c d8 97 88 bd
       0.09773574 0.13372588 0.021158691 -0.06669587
0003d0 98 11 07 3c e9 96 7d bd 65 46 32 3d 4f 27 10 be
       0.008243941 -0.061911497 0.043524165 -0.14077495
0003e0 1e bc 44 3e 62 93 1d be c5 78 d2 3d 86 b2 72 3d
       0.19212386 -0.15388253 0.10276941 0.059252284
0003f0 9b 8d e0 3d 8d 99 84 3d 05 12 79 bd b9 1f af bb
       0.10964509 0.064746 -0.0608082 -0.005344358

network_body._body_endoder.seq_layers.2.bias f4 [128]
000000 dc 4a df bb ba 83 c4 bc 18 73 29 bc a7 27 40 bd
       -0.006814344 -0.023988593 -0.010342382 -0.046912815
000010 38 20 fd bc 1f a3 d2 bc 57 d9 94 bc 0b e5 2a bd
       -0.030899152 -0.025712548 -0.018170042 -0.04172234
000020 64 8b 60 bd db e3 08 3b ef d8 0f bd 18 44 68 bd
       -0.054820433 0.0020887766 -0.035118993 -0.056705564
000030 8c 79 b6 bc e5 22 9d bc 5f 86 73 bc c0 d8 be bc
       -0.022274755 -0.019181678 -0.0148635795 -0.023296714
000040 44 27 15 bd 6a c3 c6 bc 51 e0 1e bd 95 d1 7b bc
       -0.0364144 -0.024263103 -0.038788144 -0.0153697925
000050 0c d0 f3 bc 05 6f 7c bc 61 a8 6f bc ae 84 04 bd
       -0.02976229 -0.0154073285 -0.014627547 -0.032353096
000060 d4 c0 0f bd 93 04 00 bc aa 3a 4a bc 5f f9 79 bc
       -0.035096005 -0.007813591 -0.012343088 -0.015257209
000070 56 5c ae bc 76 3a 28 bd 23 97 d4 3c fd 5d ba 3a
       -0.021284264 -0.041071378 0.025950974 0.0014218685
000080 f7 eb e9 3c 2e b0 31 bd bd 62 29 bd 9c df 83 bd
       0.0285549 -0.04338091 -0.04135393 -0.064391345
000090 a0 c7 f5 ba 6a 4e 9c bc ab ae 6c 3b 9e 67 15 3b
       -0.001875151 -0.01908036 0.0036114852 0.0022797356
0000a0 a1 e6 b9 bb 0e eb 6e bc 35 0a 0d bd b3 40 00 3c
       -0.005673245 -0.014582409 -0.034433562 0.0078279255
0000b0 7f 4f 2b bc d9 ff 8f bc f4 9a f8 3b e1 c4 e6 3c
       -0.010455965 -0.017578052 0.007586831 0.028170051
0000c0 21 c9 0f bd aa 7f 0f bd 74 4a 71 bc d6 3f 47 3a
       -0.03510392 -0.03503386 -0.014727224 0.000760076
0000d0 2c 0c 54 bc 7c 96 19 bd f9 2a 44 bd 12 79 ea bc
       -0.012942355 -0.03749703 -0.047892544 -0.028622184
0000e0 43 9c 29 bd a6 2d 46 bd 9d f3 1d bc 54 9c ca 3b
       -0.04140879 -0.048383377 -0.009640601 0.0061831865
0000f0 d6 ab ad bc c7 c6 48 bd d5 25 01 bd 24 31 a6 bc
       -0.021200102 -0.049017694 -0.03153022 -0.020287104
000100 4d 66 00 3c f8 3c b7 bc 77 9b 35 3d e4 0f aa 3c
       0.00783689 -0.02236794 0.044337716 0.02075953
000110 05 27 0d bd bd 3b b5 bc d3 4b 92 bb 37 58 26 bc
       -0.03446104 -0.022123212 -0.0044646054 -0.010152868
000120 a3 01 15 bd 52 35 8a bc af 87 45 bd de c3 40 bc
       -0.036378514 -0.016871128 -0.0482251 -0.011765448
000130 92 cc b4 3c 7c ee ff bc 7f 0b a6 bc 90 92 b0 bb
       0.022070203 -0.031241648 -0.020269154 -0.0053885654
000140 d9 e0 61 3a a6 52 dc bc b3 40 c9 bc 95 bb 77 bd
       0.0008616574 -0.026894879 -0.024566984 -0.060481627
000150 6a df c9 3c fb b4 cd bc 9b fb e2 bc 6b 8a 81 bc
       0.024642665 -0.025110712 -0.027707865 -0.015813073
000160 1c ad e7 bc 1e c4 1c bd a5 cd 8f bc 77 ad ab bc
       -0.028280787 -0.03827297 -0.017554114 -0.020956738
000170 ab 73 0e bd a2 4c 4a bc 42 e3 02 bd c0 53 ac 3c
       -0.03477828 -0.012347372 -0.03195501 0.021036029
000180 2f ab 9e bc de 48 ca bc 9a ef 46 bc f7 cb e4 bc
       -0.019368736 -0.024692949 -0.012142086 -0.02792929
000190 79 d6 67 bd 32 61 e2 bc b9 56 83 bc 60 ab ea bc
       -0.05660102 -0.027634237 -0.016032564 -0.028646171
0001a0 bd c4 3c bd 83 6e b8 bc 37 7e 3f bd 3f f5 04 3c
       -0.04608606 -0.022513634 -0.046751227 0.008115112
0001b0 5a d7 16 bd 41 60 4d bd 4b c9 4b bd 3e db 03 3b
       -0.03682647 -0.050140623 -0.049752515 0.0020119692
0001c0 3f 5a 1a bd 1a 4f d7 3c 04 29 c5 bc f7 fa 1a bd
       -0.03768372 0.026282836 -0.02406741 -0.037836995
0001d0 c3 06 48 3b 1d 2e 3d bd c2 84 29 bd 47 aa 23 bd
       0.0030521608 -0.046186555 -0.041386373 -0.03995731
0001e0 db 58 e7 bb 3e 6f 80 bd 0c 8a e9 bc e5 6e b4 bc
       -0.007060153 -0.06271218 -0.028508209 -0.022025535
0001f0 0b 4a 14 bd ba 96 12 bd 8d fa c4 bc 4c 7e 2c bc
       -0.036203425 -0.035788275 -0.024045253 -0.010528158

action_model._continuous_distribution.log_sigma f4 [1, 2]
000000 7d aa c0 bd 13 e8 20 be
       -0.09407518 -0.1571353

action_model._continuous_distribution.mu.weight f4 [2, 128]
000000 14 2a 07 bd 81 0d 22 bb f4 98 bc 3b 29 33 3a 3b
       -0.032999113 -0.0024727287 0.005755538 0.0028411841
000010 f7 97 e9 bc cb d3 d4 bc 2f a0 21 3d 6e a1 01 bd
       -0.028514845 -0.025979897 0.039459404 -0.031648092
000020 c6 1e 2e bc 6f f0 fe bb 2a 52 68 bc b9 27 fa 3a
       -0.010627454 -0.0077801268 -0.014179746 0.0019085325
000030 f5 17 04 bc b6 d9 38 3c d2 a4 c3 bc ea 48 43 3c
       -0.008062352 0.011282375 -0.023882303 0.01191924
000040 0f 93 6a bc 7d 39 96 bc 48 a7 5c bb 9f 04 f9 ba
       -0.014317288 -0.01833796 -0.0033669043 -0.001899857
000050 ee 20 ac 3b eb 4d e1 bc fc 09 c9 bc de ee 89 bc
       0.005252949 -0.027502974 -0.024540894 -0.016837534
000060 c8 13 ca 3a 3e 42 02 3d 69 67 f0 bb d5 c8 63 3c
       0.0015417272 0.031801455 -0.007336546 0.013902863
000070 f7 7f fa 3b 98 19 65 3a a6 80 3b bb fd db a1 bc
       0.007644649 0.00087394705 -0.0028610616 -0.019758219
000080 c7 c8 76 3a 22 dc f3 bc b1 1f 2d 3c b7 ca a5 3b
       0.00094140734 -0.029768053 0.010566638 0.005059566
000090 c1 e2 74 3d 9e 16 3f bd 8b b9 22 3d 57 8a d2 3c
       0.059786562 -0.04665243 0.03972773 0.025700731
0000a0 d5 42 0f bc 4c 8c 8a 3c db 07 f7 bb 5c 22 a4 bb
       -0.008743961 0.016912602 -0.0075387782 -0.005008979
0000b0 6a 1c e6 bb 63 fb 8b bc 40 6b 43 bc ea 06 97 3d
       -0.00702243 -0.017087644 -0.011927426 0.07374366
0000c0 36 c7 b3 bc d4 ff 5e bc 9c d7 cd bc ec 01 c8 bc
       -0.021945577 -0.013610799 -0.025127225 -0.024414979
0000d0 9f 6b 03 bc 5a 71 e6 3a e8 cd b5 3b 5b 76 ab bc
       -0.008021264 0.0017581389 0.0055482276 -0.02093046
0000e0 4b 91 0a bc 44 47 3d bb 75 1b 9a bc 1b fe 7c bc
       -0.008457492 -0.002888159 -0.01881192 -0.015441443
0000f0 26 3d 15 bc 6a e1 c4 ba a9 62 90 bc 7a e7 23 3d
       -0.009108817 -0.0015020792 -0.01762517 0.040015675
000100 e4 2a a3 bc d4 0b 21 bc 92 6c 79 3b 33 ba 60 bd
       -0.019917913 -0.00982948 0.0038059098 -0.054865073
000110 c9 e2 3a 3c 90 ec 8d bc ec 82 08 bd 6d 46 20 bc
       0.011406609 -0.017324716 -0.03332798 -0.009782416
000120 83 fe c4 bb 49 55 24 bc de 0c 93 bb 7c a0 4a 3d
       -0.0060117855 -0.010030099 -0.004487618 0.049469456
000130 4e a7 46 bc 65 b7 dd bc fe d4 7d 3b 38 c1 6d bc
       -0.0121248495 -0.027064988 0.003873169 -0.014511399
000140 6b 05 22 bc f3 8a b1 3c da f7 11 bc 61 45 e4 bb
       -0.009888987 0.021672701 -0.00890919 -0.0069662784
000150 45 95 6e bd 9c cb a7 bc 6a a8 ce bb 81 5d 97 bc
       -0.058247823 -0.02048283 -0.0063066976 -0.018477203
000160 2d d7 06 bd 9e 5e 16 3b 25 05 09 bd 7c bd 89 bb
       -0.03292005 0.002294458 -0.03345217 -0.0042034965
000170 1b b2 9a bc 94 fc 2f 3d d7 0d a2 3b f6 d1 44 bd
       -0.018883755 0.042965487 0.0049454975 -0.048051797
000180 87 f5 04 bb ba 9f bb 3c cf 5a b7 bc e5 3c 4c 3b
       -0.0020287947 0.022903312 -0.022382168 0.0031164226
000190 72 53 16 3c 93 a2 a0 bc e2 0b d8 bc f9 c7 4d bc
       0.009175168 -0.019608771 -0.026372854 -0.012559884
0001a0 15 23 0e bb d9 32 b5 bb a6 c2 57 bb 4a 84 d6 bb
       -0.002168839 -0.005529743 -0.0032922416 -0.006546532
0001b0 f4 c0 86 bb 8a 78 66 3b 50 32 92 bb e6 a4 7f bc
       -0.0041123573 0.0035167062 -0.004461564 -0.01560328
0001c0 e7 0e b9 bb 60 61 81 3c 37 fc ca bc 17 cb a0 39
       -0.0056475285 0.015793502 -0.024778469 0.00030668892
0001d0 7c 54 5c 3c 4c 70 58 bc 10 e9 d9 3b 65 87 0c bb
       0.013447877 -0.013210367 0.0066500977 -0.0021443006
0001e0 77 4d 11 3d 83 5a 37 bb 33 07 77 bc 58 23 fd 3c
       0.035474267 -0.0027977533 -0.0150774 0.030900642
0001f0 27 d8 c3 bb 21 ce 0e bd 9e ed 43 3c 3a ae 32 bd
       -0.005976695 -0.03486455 0.011958508 -0.043623187
000200 0c 67 16 3d db d7 30 3c e8 5b c9 bb e0 b0 99 3c
       0.036719367 0.010793651 -0.0061449893 0.018761098
000210 13 cf 79 3c 79 0c 04 3d 32 df d1 3c 20 a8 70 3c
       0.015247124 0.032238457 0.025619123 0.014688522
000220 78 fd 88 3c ff de 2d 3d 14 45 e2 3c 62 6a 6e 3c
       0.016722426 0.042448994 0.02762083 0.014551731
000230 62 30 8c 3c 41 5e 68 3c 28 e1 10 3d 34 eb 1e 3d
       0.017112914 0.014182628 0.035370976 0.038798526
000240 20 f0 c0 3c 92 e6 fb 3c 02 06 14 bc 61 72 ef 3c
       0.023552 0.030749593 -0.0090346355 0.029229345
000250 91 dc c5 3b 4f 4f f4 3c fb 70 96 3c 3f 8e 01 3c
       0.0060382565 0.029822974 0.01836442 0.007907449
000260 bd 07 b8 3c 45 68 82 3d cd 52 78 bb 5b 5c 94 bc
       0.022464627 0.06367544 -0.003789115 -0.018110445
000270 d6 82 af 3c 95 2f af bb 24 74 76 bd 28 b5 23 bd
       0.021424692 -0.0053462484 -0.060169354 -0.039967686
000280 93 b7 64 bd ed 26 9e 3c ca a3 8d 3c b9 0d 43 3c
       -0.055839133 0.01930567 0.017290015 0.011905127
000290 94 db 0e 3a 0e 54 32 3d 4f f3 5a bc 3e 80 35 3d
       0.000544959 0.043537192 -0.013363673 0.044311754
0002a0 3f 40 34 3d 03 4b ca 3b f3 f1 dd 3c 29 fe 0b bd
       0.044006582 0.006173493 0.02709291 -0.034177933
0002b0 40 ad 30 3d 5f dc 46 3d 26 16 18 3d ff ab 9d bc
       0.043133974 0.048550006 0.037130497 -0.019247053
0002c0 07 52 f1 3c 12 96 d4 3c f1 09 eb 3c ab ab 7d 3d
       0.029458059 0.025950465 0.028691264 0.061931293
0002d0 14 16 67 3d 02 be d5 3c 76 67 37 3c c3 27 09 3d
       0.05641754 0.02609158 0.011194101 0.033485185
0002e0 0b 83 b5 3c d3 7c ca 3c 09 69 be 3c da 80 18 3d
       0.022157213 0.024717724 0.023243444 0.037232257
0002f0 18 43 91 3c 85 c3 95 3c 4a 40 eb 3c 8d 0b 49 3c
       0.017732188 0.018281708 0.028717179 0.01227082
000300 9c f3 4d 3d 97 28 ec 3c a4 bb 3f bd 7f 93 83 bd
       0.050281152 0.028827948 -0.046809807 -0.06424617
000310 7a fb b2 3a 03 0b fe 3c 36 d8 48 3d bd 4d bf 3c
       0.0013655268 0.03101111 0.04903432 0.023352498
000320 1d 90 90 3c 59 c1 09 3d 0f 6d dd 3c 24 86 89 3b
       0.017646844 0.033631656 0.027029542 0.004196899
000330 08 65 52 bd f1 87 b3 bb c7 90 ba 3b 01 ad 52 3d
       -0.051365882 -0.005478852 0.0056935283 0.05143452
000340 7a e2 ba b9 c2 13 c8 3c 03 83 10 bc f5 7a d7 3c
       -0.00035645423 0.024423484 -0.008820298 0.026303748
000350 96 b9 91 3d 63 5e 0d 3d cf af c5 3b cc aa 1c 3d
       0.07115476 0.034513842 0.006032921 0.038248822
000360 f7 08 95 3c 15 53 b5 3c 3c 37 a6 3c 7b e3 b4 3c
       0.018192751 0.022134343 0.02029001 0.022081127
000370 fb da cd 3c 02 73 03 3c 66 21 94 3c 75 a5 83 bd
       0.025128832 0.0080230255 0.018082332 -0.06428043
000380 67 e3 31 3d 60 e4 18 3d 9e c3 8c bc 97 73 e8 3c
       0.04342976 0.03732717 -0.017183121 0.02837543
000390 cd 9a 67 3c 82 44 87 3c fd 0c 34 3d e9 2d 08 3d
       0.0141360285 0.01651216 0.0439577 0.03324691
0003a0 75 77 b3 3c ac d4 12 3d a3 0f 78 3c cd e4 2d bd
       0.021907547 0.03584735 0.015140447 -0.04245453
0003b0 d8 95 c5 3c af fa 2b 3c a1 92 bb 3b 95 5d e8 3c
       0.024119303 0.010496779 0.0057242666 0.028364936
0003c0 a2 93 48 3c 1c 61 1b bd f1 f6 35 3d 85 01 f3 3c
       0.01224223 -0.037934408 0.044424955 0.02966381
0003d0 2a 67 0c bd b6 4a 2d 3c 5b 52 76 3c 82 72 ce 3c
       -0.034278072 0.0105768945 0.0150342835 0.025201086
0003e0 a9 f0 a9 3c 9b 28 cf 3c dc 25 3f 3c 39 68 11 3d
       0.020744639 0.025287917 0.011666741 0.035499785
0003f0 e7 b3 9a 3c 92 fc 54 3c 0f f4 f5 3c 50 f6 cb 3c
       0.018884612 0.012999671 0.030023603 0.024897724

action_model._continuous_distribution.mu.bias f4 [2]
000000 3b b4 8a 3c 89 31 c1 bc
       0.016931644 -0.02358319
