GameAI3/Config/results/dwarf_2/Dwarf/Dwarf-27008.pt (torch, 555487 bytes, 36 tensors)

network_body._body_endoder.seq_layers.0.weight f4 [128, 44]
0	0x3e0b98b6	0.13632473
1	0x3d71100a	0.058853187
2	0xbebc5b01	-0.3678818
3	0x3ec60b48	0.38680482
4	0x3e270ca1	0.16313411
5	0xbe851ce6	-0.2599861
6	0xbe358d6b	-0.17729728
7	0x3d962eb2	0.07333125
8	0x3d0c9273	0.034319352
9	0xbdab5a40	-0.08366823
10	0xbda01a7f	-0.07817554
11	0xbe1306b0	-0.1435802
12	0x3e344547	0.17604552
13	0xbdd58475	-0.10425655
14	0xbe04fcda	-0.1298708
15	0x3dabbce2	0.08385636
16	0x3e438bfd	0.1909637
17	0x3e4f058a	0.20216957
18	0xbab20f1a	-0.0013584823
19	0x3e312674	0.17299825
20	0xbd901c36	-0.07036631
21	0xbc907852	-0.017635498
22	0x3cba321b	0.02272897
23	0x3da5a476	0.08088009
24	0x3d3f5707	0.046713855
25	0x3dc4d1ef	0.09610354
26	0xbd16d452	-0.03682358
27	0xbd68ba9e	-0.056818597
28	0xbc327af3	-0.010893571
29	0xbe50bd53	-0.20384721
30	0x3e6d4106	0.23169336
31	0xbd32b048	-0.043625146
32	0xbea244c6	-0.31693095
33	0x3e6df3ef	0.23237585
34	0xbea061e7	-0.31324694
35	0xbcdd6346	-0.027024876
36	0x3e8b18b4	0.27167284
37	0xbe8ec6fc	-0.27886188
38	0x3e02a35f	0.12757634
39	0x3e8deb82	0.2771874
40	0xbdae3c8a	-0.08507641
41	0xbe280e82	-0.16411784
42	0xbdab2115	-0.08355919
43	0x3df592bd	0.11990879
44	0x3db3794a	0.087633684
45	0xbd8a539d	-0.06754229
46	0xbdbd57c2	-0.09245254
47	0xbdec44eb	-0.115365826
48	0xbcb7dda9	-0.022444563
49	0xbd039d63	-0.032132518
50	0x3ed73d31	0.42038873
51	0x3dd09306	0.101842925
52	0x3d65b1d6	0.0560778
53	0x3c949dc1	0.01814163
54	0xbe2af712	-0.16695812
55	0x3c94c42b	0.018159946
56	0x3e43c3c7	0.19117652
57	0x3e562354	0.20911914
58	0x3dc29881	0.09501744
59	0xbcac96e3	-0.021068042
60	0x39d9e069	0.00041556664
61	0x3e56bda3	0.20970778
62	0xbe47f17b	-0.19525711
63	0x3db9eeb4	0.09078732
64	0x3dd79535	0.10526506
65	0xbdc89f6e	-0.09796034
66	0xbe5184e5	-0.20460851
67	0x3e018369	0.12647785
68	0xbe4a5b54	-0.19761401
69	0xbd27b46a	-0.04094354
70	0xbe1f8dd8	-0.15581453
71	0x3d17ece7	0.037091162
72	0x3d0ec4ea	0.03485576
73	0x3dc7af66	0.097502515
74	0xbd59212a	-0.053010143
75	0x3d75281c	0.059852704
76	0xbd3f1a72	-0.04665608
77	0xbe1b56e8	-0.15169871
78	0x3dd4ed57	0.103968315
79	0x3eddbc02	0.433075
80	0x3e0aef44	0.13567835
81	0xbdeaed0d	-0.11470995
82	0x3d168fa2	0.036758073
83	0xbde884e6	-0.11353473
84	0x3e2c2ba0	0.16813517
85	0xbd34a152	-0.04409916
86	0xbdf26a99	-0.11836738
87	0x3e2d2647	0.16909133
88	0x3d86b1f2	0.06576909
89	0xbe32bc75	-0.17454703
90	0xbea605dc	-0.32426345
91	0xbdb5d89b	-0.08879205
92	0x3de8dee0	0.11370635
93	0x3d8ac349	0.06775529
94	0xbddff77b	-0.10935875
95	0xbd4260d0	-0.04745561
96	0x3da3fb20	0.08006883
97	0x3d7a63a3	0.061130177
98	0xbe218415	-0.15773042
99	0xbbb05e45	-0.0053823316
100	0xbece0d64	-0.4024459
101	0x3d2fb526	0.042897366
102	0xbcc01d9b	-0.023451617
103	0xbe474f28	-0.1946379
104	0x3e4608bd	0.19339271
105	0x3dc94214	0.098270565
106	0x3d10458d	0.03522258
107	0xbe722761	-0.23647834
108	0x3cf45ca4	0.02982933
109	0xbe449278	-0.19196498
110	0xbcfb8190	-0.030701429
111	0xbe78b38a	-0.24287239
112	0xbdea209c	-0.11432001
113	0xbc2bb0b3	-0.01047914
114	0xbe146026	-0.14489803
115	0xbe5b3ebc	-0.2141065
116	0xbdb8abb1	-0.090171225
117	0xbddd6f03	-0.108121894
118	0xbded1051	-0.11575378
119	0x3e0d2d7d	0.13786884
120	0xbc815b15	-0.015790502
121	0xbdd9a63f	-0.10627412
122	0xbe02c3b8	-0.12769973
123	0xbe551eb5	-0.20812495
124	0xbe0d57d3	-0.13803034
125	0xbddf48fb	-0.10902592
126	0x3cde404d	0.02713027
127	0x3e4e8657	0.20168434
128	0x3e41e61a	0.18935433
129	0xbddecf48	-0.108793795
130	0x3e28bec0	0.16479015
131	0x3e0cf903	0.13766865
132	0x3e35dd39	0.17760171
133	0xbe1da98d	-0.1539671
134	0xbdfc7c66	-0.123284146
135	0xbc8bf76b	-0.017085752
136	0xbdd9371e	-0.10606216
137	0xbd471624	-0.0486051
138	0x3e401e21	0.18761493
139	0xbe77a7fd	-0.24185176
140	0xbdd8c19c	-0.10583803
141	0x3b2d16ec	0.0026411368
142	0xbdb1e679	-0.08686537
143	0xbd8156b7	-0.06315368
144	0xbe2a8f19	-0.1665615
145	0x3e443af2	0.19163111
146	0xbcf1c99f	-0.029515086
147	0x3e28433a	0.16431895
148	0x38916fde	6.934976e-05
149	0xbd8ca012	-0.068664685
150	0x3d1141dd	0.035463203
151	0xbe19bfbe	-0.1501455
152	0x3e41039f	0.18849038
153	0xbe9192c6	-0.28432292
154	0x3e13f064	0.1444717
155	0xbdefc1e6	-0.11706905
156	0x3d7d5f8b	0.061858695
157	0xbcfd3f1c	-0.030913882
158	0x3e07bac2	0.13254836
159	0x3e0d5bad	0.13804503
160	0xbe3fe116	-0.18738207
161	0x3dd409f7	0.10353463
162	0xbe549e39	-0.20763482
163	0x3daade19	0.08343143
164	0xbc94466c	-0.018099986
165	0x3ed6a60c	0.4192356
166	0x3e8d9936	0.27655953
167	0x3da21d13	0.07915702
168	0x3da8eb97	0.0824806
169	0x3bc1cde8	0.0059144385
170	0xbd57bcc9	-0.052670274
171	0x3d2c4a8c	0.04206328
172	0x3ce3d143	0.027809745
173	0xbdc8cbea	-0.098045185
174	0x3e27bb88	0.16380131
175	0xbce62e24	-0.028098173
176	0x3e21074a	0.15725437
177	0xbd5168c6	-0.05112531
178	0xbe07549b	-0.13215868
179	0x3daac86a	0.08339007
180	0xbcc115ed	-0.023570025
181	0x3e41f674	0.1894167
182	0x3a00bdfc	0.00049111224
183	0xbdab7b11	-0.083730824
184	0xbea75e5e	-0.32689184
185	0xbdd1e8dd	-0.10249493
186	0xbe82408e	-0.25439876
187	0xbeb2450f	-0.34818313
188	0x3e3b268d	0.18276425
189	0x3ddf3328	0.10898429
190	0xbd7046b6	-0.058661185
191	0x3d40f8f2	0.047112413
192	0xbddc5c36	-0.10759775
193	0x3dd471ff	0.103733055
194	0x3e5574fa	0.20845404
195	0xbd895c4a	-0.06707056
196	0x3d3f526c	0.046709463
197	0x3c58f940	0.01324302
198	0xbdc7d82d	-0.09758029
199	0xbe36944d	-0.1783001
200	0x3d9cd061	0.076569326
201	0xbe17a739	-0.14809884
202	0xbd814c88	-0.06313425
203	0xbe60f8de	-0.21969935
204	0x3e93b511	0.2884908
205	0x3e8b9823	0.2726451
206	0xbc7087cd	-0.014680815
207	0x3e619cf3	0.22032528
208	0xbe902cbb	-0.28159127
209	0xbe7c0f22	-0.24615148
210	0xbe4752bb	-0.19465153
211	0xbcb31092	-0.021858487
212	0xbc6fe67b	-0.014642353
213	0x3cefdcc4	0.029280074
214	0xbcc487ca	-0.02399053
215	0x3e0bb7c9	0.13644327
216	0x3d90322a	0.07040818
217	0xbd375ae0	-0.0447644
218	0x3e736e90	0.23772645
219	0x3d74a1ed	0.059724737
220	0x3e8a825b	0.27052578
221	0x3e402a30	0.18766093
222	0xbd988d8e	-0.074488744
223	0x3e982a91	0.29719976
224	0xbdd54571	-0.104136355
225	0xbdc51770	-0.09623611
226	0x3d8f6b87	0.07002931
227	0xbd0a0514	-0.03369625
228	0xbe13c166	-0.14429244
229	0x3de43609	0.11143119
230	0x3db64a84	0.089009315
231	0x3e11dbed	0.14244051
232	0x3d19c3bc	0.037540182
233	0x3d9af40b	0.07566079
234	0xbd40a89e	-0.047035806
235	0x3d4a4931	0.049386207
236	0xbcace324	-0.021104403
237	0x3d5fdba1	0.054652814
238	0x3d0f0f73	0.034926843
239	0x3e3cfaf6	0.18455109
240	0x3dd1ec6e	0.102501735
241	0xbd507595	-0.050893385
242	0xbdffcbe8	-0.12490064
243	0x3e74cc07	0.23905955
244	0x3d98f522	0.074686304
245	0xbdc519d3	-0.09624066
246	0xbd65a72c	-0.05606763
247	0x3d3fcdd3	0.04682715
248	0xbd956b50	-0.07295859
249	0x3e1eaada	0.15494862
250	0x3ced6e13	0.028983152
251	0x3d3a0db2	0.045423217
252	0x3e89551c	0.26822746
253	0x3d6978a1	0.056999806
254	0x3a96c8b6	0.0011503908
255	0x3d15b183	0.03654624

network_body._body_endoder.seq_layers.0.bias f4 [128]
0	0xbadb0e58	-0.0016712649
1	0x3b0bfa01	0.002135873
2	0x3be76bae	0.007062397
3	0x39a93ee5	0.00032281052
4	0xbb873c30	-0.004127048
5	0x3a991ea7	0.0011682109
6	0xb8f77a02	-0.000118006035
7	0x3becb666	0.007223892
8	0xbb1390ba	-0.0022516684
9	0xbaed4018	-0.0018100766
10	0xbb085fee	-0.0020809132
11	0xbbacb9e7	-0.0052711847
12	0x3b611f62	0.003435098
13	0x3b6c1100	0.0036020875
14	0xb946bae2	-0.00018952371
15	0x392c6c8c	0.00016443635
16	0x3b0197bd	0.001977428
17	0x3a8f40c4	0.0010929336
18	0xbb55fc7d	-0.0032651715
19	0xba89b164	-0.0010505137
20	0xbb6782e1	-0.0035325813
21	0x3b859740	0.0040768683
22	0xbba4595c	-0.0050155353
23	0xbaf13555	-0.0018402735
24	0x3c462c0b	0.012095462
25	0x3b5a8da3	0.0033348582
26	0x3ae3aacd	0.0017369628
27	0xbb4ed85f	-0.0031562073
28	0xb8b2ac48	-8.519791e-05
29	0xba9482b3	-0.0011330455
30	0xbbb5d46e	-0.005549005
31	0xbaebc765	-0.0017988501
32	0xbbd6413f	-0.0065385397
33	0xbaf99bbb	-0.0019043604
34	0xbb516c7a	-0.0031955526
35	0x3b337705	0.0027384174
36	0x3a88559b	0.0010401489
37	0x3bd0c7f9	0.006371495
38	0xb740fd86	-1.150312e-05
39	0x3a6f7820	0.00091350265
40	0xbc0f794f	-0.00875695
41	0x3abb2915	0.0014279211
42	0xb8d0dabb	-9.9589546e-05
43	0x37d0ec20	2.4905486e-05
44	0x399dd026	0.00030100456
45	0xbb21ec1b	-0.002470738
46	0x3b0abf63	0.0021171204
47	0xba9d0ed5	-0.001198257
48	0xbad5b167	-0.001630348
49	0x3b0492a4	0.0020229006
50	0x3b230304	0.0024873624
51	0xbb25b822	-0.0025286754
52	0xbb03aad3	-0.0020090833
53	0xbb2eb22c	-0.0026656492
54	0xba55079c	-0.0008126439
55	0x3c5a9a88	0.013342507
56	0x3a8881c9	0.0010414656
57	0xbb2f5795	-0.0026755084
58	0xba9df03a	-0.0012049743
59	0xb9398079	-0.00017690835
60	0x3c26e708	0.010186918
61	0xbb6d3d43	-0.0036199845
62	0x3bdbe9e6	0.0067112325
63	0xbb32aeff	-0.002726495
64	0x3b4f4058	0.0031624045
65	0xbaf99f68	-0.0019044699
66	0xb9ef9549	-0.00045696858
67	0x3a9631ec	0.001145897
68	0x3a14c142	0.00056745496
69	0x3ad2f8a6	0.0016095832
70	0x3b909ed5	0.0044134655
71	0x3b004768	0.0019573811
72	0x3b454bb0	0.0030104928
73	0xb9b84e4b	-0.00035153548
74	0x3b35e1ae	0.0027752924
75	0xbab88052	-0.0014076328
76	0xbab6e4ac	-0.0013953648
77	0x3b81e016	0.0039634807
78	0xbb61f4eb	-0.0034478258
79	0xbb5d003d	-0.0033722066
80	0xb87f7bfd	-6.091221e-05
81	0x3b4cd449	0.0031254462
82	0x3b650dd3	0.0034950867
83	0xbad07a85	-0.0015905654
84	0x3a92c34d	0.001119712
85	0xb9c89951	-0.00038261202
86	0xbafb50f0	-0.0019173902
87	0xbb166b6f	-0.002295222
88	0xbb747fdf	-0.0037307662
89	0xbb146888	-0.0022645313
90	0xbadaf67e	-0.001670554
91	0x39e6d447	0.00044027178
92	0xbb0e8592	-0.0021747095
93	0x3a480ae6	0.00076310185
94	0xbb99f543	-0.004698427
95	0xbada75ed	-0.0016667225
96	0x39fa8912	0.0004778584
97	0xba9dbabe	-0.0012033803
98	0xbaccb640	-0.001561828
99	0x3797c34e	1.8091549e-05
100	0xbb02ea22	-0.001997598
101	0xbbed7842	-0.007247002
102	0x3c0657c7	0.008199639
103	0xbaac79de	-0.0013158878
104	0xbb27e530	-0.0025618784
105	0xbbba76c7	-0.005690429
106	0x3b25c4b9	0.0025294258
107	0x3b29af73	0.002589193
108	0xbb8db38e	-0.004324383
109	0x3a25c2b4	0.00063232635
110	0xbb6794e8	-0.0035336558
111	0x3b086699	0.0020813106
112	0xbb1f50a3	-0.0024309538
113	0x3a37bb9e	0.0007008853
114	0xbb028bef	-0.0019919833
115	0x39b12832	0.0003379002
116	0xb9fbca72	-0.00048025284
117	0xbb884252	-0.0041582966
118	0xbb42f2a9	-0.0029746688
119	0xb92b416e	-0.00016332205
120	0xbabb9918	-0.0014312593
121	0xbb095d48	-0.002096014
122	0xb91b462c	-0.00014808093
123	0xbaa2f3ae	-0.0012432241
124	0xbb9249a2	-0.004464344
125	0x3b576270	0.003286507
126	0xbace556d	-0.0015742012
127	0xba2aafdf	-0.0006511192

network_body._body_endoder.seq_layers.2.weight f4 [128, 128]
0	0xbd13f2bb	-0.036120158
1	0xbd1c342f	-0.038135704
2	0x3d800b81	0.06252194
3	0x3c8c1ed2	0.01710454
4	0xbd766062	-0.06015051
5	0x3db15896	0.086594746
6	0x3d1dbd2f	0.038510498
7	0xbca87f0b	-0.020568391
8	0x3db15211	0.08658231
9	0x3cc86eed	0.024466956
10	0xbc54d409	-0.012990006
11	0xbd3c8773	-0.046027612
12	0xbacb8b81	-0.0015529246
13	0xbe0d9400	-0.13825989
14	0xbdf17093	-0.1178905
15	0xbe94ff7f	-0.29101178
16	0xbcf6a429	-0.030107575
17	0x3d3015e5	0.04298963
18	0xbd967524	-0.073465616
19	0x3d2b2ee4	0.041792765
20	0xbde6d9e2	-0.112720266
21	0xbc28548e	-0.010274066
22	0xbc35f08b	-0.011104713
23	0xbe0541a8	-0.13013327
24	0x3d794e6e	0.060865812
25	0x3d9c7445	0.07639364
26	0xbc8a2fa9	-0.01686843
27	0x3dfc1e07	0.12310415
28	0x3cfb2f87	0.030662311
29	0xbb3958bf	-0.0028281657
30	0x3c65a029	0.014015236
31	0xbdba726b	-0.09103855
32	0xbd3adce4	-0.045620814
33	0xbe01b7ef	-0.12667821
34	0xbc6c7ddb	-0.014434303
35	0xbca97fe3	-0.020690864
36	0x3cfc5a5c	0.030804805
37	0x3d0a5a94	0.03377779
38	0xbc4b928e	-0.012425078
39	0xbd352d4d	-0.044232655
40	0x3dbd3852	0.09239258
41	0x3e38bbb5	0.18040355
42	0x3d8e59da	0.069507316
43	0xbe2dd4ec	-0.16975754
44	0x3d9bebdc	0.07613346
45	0xbcab3fcd	-0.020904446
46	0x3d94091f	0.07228302
47	0xbd148288	-0.036257297
48	0x3d74c991	0.05976254
49	0x3d8b9ef9	0.06817431
50	0x3b4a636c	0.0030882014
51	0x3d75e591	0.060033385
52	0xbdecf557	-0.11570232
53	0x3d6cdcd4	0.057827786
54	0x3c432c1c	0.011912372
55	0x3e32f6f9	0.17477025
56	0x3d76f920	0.060296178
57	0x3cd5f0ba	0.026115764
58	0x3d2a458e	0.04157024
59	0x3e7b946f	0.24568342
60	0x3e2227db	0.15835516
61	0x3defd5dd	0.11710713
62	0xbccaf81c	-0.02477651
63	0xbd217f9a	-0.03942833
64	0xbd53c5ca	-0.0517023
65	0xbd8113d8	-0.06302613
66	0xbdc72217	-0.09723299
67	0x3dcdd20f	0.10049831
68	0x3d6b181f	0.05739605
69	0x3d312e24	0.043256894
70	0x3d53465d	0.051580776
71	0x3d977c87	0.073967986
72	0x3d04a053	0.03237946
73	0xbe602468	-0.21888888
74	0xbcb8774a	-0.022517819
75	0xbdc055c7	-0.09391361
76	0x3d5cae4f	0.05387717
77	0xbdc8658a	-0.09784992
78	0xbc16f479	-0.00921356
79	0xbd2db310	-0.042407095
80	0x3d862b17	0.065511875
81	0xbbcd8849	-0.00627235
82	0x3ca2e409	0.019884126
83	0x3e057719	0.13033713
84	0xbbc5f5d6	-0.006041269
85	0xbe551d48	-0.20811951
86	0x3d85b22e	0.06528126
87	0xbe45f2fb	-0.19330971
88	0xbb539f57	-0.003229102
89	0xbda38f5e	-0.079863295
90	0x3e27f12a	0.1640059
91	0xbe1fb1d6	-0.15595183
92	0xbe17c7ea	-0.14822355
93	0xbdab2847	-0.08357292
94	0x3d966fb0	0.073455215
95	0xbc89bfc8	-0.016815081
96	0x3cfa7a42	0.030575875
97	0x3c9b855d	0.018984491
98	0xbdd67b71	-0.10472763
99	0xbd8fe0a6	-0.0702527
100	0xbd2d14be	-0.04225611
101	0x3e1a85d3	0.15090112
102	0xbe177308	-0.14789975
103	0x3e0dab25	0.13834818
104	0xbdad8498	-0.08472556
105	0x3d40c467	0.047062304
106	0xbc18dee9	-0.00933049
107	0x3cd27fa0	0.025695622
108	0x3c668e39	0.014071994
109	0xbb55a42b	-0.0032599072
110	0xbcd97e98	-0.026549622
111	0x3cc1135f	0.023568807
112	0xbce69d81	-0.028151276
113	0x3d8828dd	0.06648419
114	0xbe5c69ca	-0.2152473
115	0x3df0b0c6	0.11752467
116	0x3e2231cd	0.1583931
117	0xbd0cbd3c	-0.034360155
118	0xbe1b90ed	-0.15192004
119	0x3dec483a	0.115372136
120	0x3dc138c0	0.09434652
121	0xbe15ab5f	-0.14616154
122	0x3bd3a8df	0.00645934
123	0x3dbfa568	0.093577206
124	0xbdf8acba	-0.1214232
125	0x3dba6acc	0.09102401
126	0xbe20485b	-0.15652601
127	0xbdbb7523	-0.091532014
128	0x3e03f91e	0.12888
129	0x3cc38f38	0.023872003
130	0x3cae410d	0.021271253
131	0xbcedbf4b	-0.02902188
132	0xbd2c17bd	-0.042014826
133	0x3ca14059	0.019684004
134	0x3cde1460	0.027109325
135	0x3d994644	0.07484105
136	0xbceaf392	-0.028680597
137	0x3d1ac81c	0.037788495
138	0xbdbc2ae1	-0.09187866
139	0xbde8ffcd	-0.11376915
140	0x3e263bbd	0.16233726
141	0x3d4fccab	0.050732296
142	0x3d1741b2	0.036927886
143	0xbdaea9f2	-0.08528508
144	0xbe11fd74	-0.14256841
145	0xbe8450c1	-0.2584286
146	0x3d8aabd6	0.06771056
147	0xbd13021e	-0.03589069
148	0x3db0f342	0.08640148
149	0x3cacdf7f	0.021102665
150	0x3d344270	0.044008672
151	0xbd4fb7ad	-0.050712276
152	0x3c90612e	0.017624464
153	0x3de6e393	0.11273875
154	0x3da72cb3	0.081628226
155	0x3e285e58	0.1644224
156	0xbdd4ae8f	-0.10384857
157	0x3e0b7ce9	0.13621868
158	0x3e118a55	0.14212926
159	0xbd569adb	-0.052393775
160	0x3d5d99f2	0.05410189
161	0x3cc83473	0.024439072
162	0x3c81bdc4	0.015837558
163	0xbd0b89e9	-0.03406707
164	0xbd4ca8c9	-0.049965654
165	0x3c884c5a	0.01663797
166	0x3df8d336	0.1214966
167	0xbd4a7fc6	-0.04943826
168	0x3c855f56	0.016280811
169	0xbc277f4a	-0.010223219
170	0xbc85ea6c	-0.016347133
171	0xbd069ce9	-0.032864485
172	0x3c833126	0.016014647
173	0x3d2b1840	0.041771173
174	0x3db565c7	0.08857303
175	0xbd0b5f8b	-0.034026664
176	0xbc3f0dcc	-0.011661004
177	0xbe1ceee7	-0.15325509
178	0x3def0d9e	0.11672519
179	0xbcab1103	-0.020882135
180	0xbde03b90	-0.10948861
181	0xbcfd61f8	-0.030930504
182	0x3d882fab	0.06649717
183	0x3dd7f9f2	0.1054572
184	0x3df8b473	0.12143793
185	0xbe15e161	-0.14636756
186	0xbc526d45	-0.012843435
187	0x3cc54ed3	0.024085438
188	0x3ca6658b	0.020312091
189	0xba53de99	-0.0008082181
190	0x3d44082d	0.04785936
191	0xbd39aa96	-0.0453287
192	0x3dd11d22	0.10210635
193	0x3cc9d21d	0.024636323
194	0xbd9eaddc	-0.07748005
195	0x3e344a8e	0.17606565
196	0xbc097967	-0.008390761
197	0x3dc6c6a3	0.09705856
198	0xbd91a630	-0.07111776
199	0xbc8d98af	-0.01728472
200	0xbc1ad9a2	-0.009451302
201	0xbd0721ad	-0.0329911
202	0x3d15f00b	0.036605876
203	0x3d06c5c9	0.032903466
204	0x3df994d1	0.121865876
205	0xbd8fec3b	-0.07027479
206	0xbc24581a	-0.010030771
207	0xbdba1203	-0.09085467
208	0xbbf697ee	-0.0075254356
209	0xbdd762bd	-0.1051688
210	0x3bff4316	0.0077899797
211	0x3d598f26	0.053115033
212	0xbd950641	-0.072765835
213	0x3d0765f8	0.03305623
214	0x3d58f5e8	0.05296889
215	0x3d0018d7	0.03127369
216	0x3c3a8ae6	0.011385655
217	0xbc02d68c	-0.007985722
218	0x3d3bbe4f	0.04583579
219	0x3d47b7bf	0.04875922
220	0xbc96e5be	-0.018420096
221	0xbce1f2d2	-0.027581606
222	0x3dc72f9d	0.097258784
223	0x3dd3457b	0.10315987
224	0x3e02cf07	0.12774287
225	0xbdacf3e4	-0.08444956
226	0xbd8fb61d	-0.07017157
227	0xbe00d975	-0.12582953
228	0xbc0c3a68	-0.008558847
229	0xbd832f81	-0.06405545
230	0xbd2b29bd	-0.04178785
231	0x3e1aca5b	0.15116255
232	0xbd029382	-0.031878956
233	0x3bd04677	0.0063560563
234	0xbd607e99	-0.054808233
235	0x3e31de0a	0.17369857
236	0x3cc7f2c2	0.024407748
237	0xbbfee4b8	-0.0077787302
238	0xbd12f46f	-0.03587764
239	0xbd91a1f9	-0.07110972
240	0x3d36e1bf	0.044648882
241	0x3e3e17d3	0.18563776
242	0x3e3fa5eb	0.18715636
243	0xbe3f2871	-0.18667771
244	0x3d824b26	0.0636199
245	0xbd8acdda	-0.06777544
246	0xbd14b1d3	-0.0363024
247	0x3d6ff517	0.058583345
248	0xbdcc3c3c	-0.09972426
249	0xbcc601f8	-0.02417086
250	0xbd1d09a5	-0.038339276
251	0x3d649fe4	0.055816546
252	0x3d488384	0.048953548
253	0xbd91da65	-0.071217336
254	0xbbf06a6a	-0.0073369043
255	0xbdc6e247	-0.09711128

network_body._body_endoder.seq_layers.2.bias f4 [128]
0	0xbb980328	-0.004639048
1	0xbb9b266d	-0.0047348053
2	0xba625120	-0.00086333044
3	0xbaba2ffb	-0.0014204973
4	0xbaf6c984	-0.0018828367
5	0xba241a4d	-0.00062600226
6	0xb9081956	-0.00012979409
7	0xba7ab67e	-0.00095639366
8	0xbba0b873	-0.0049048006
9	0xbaa5008c	-0.0012588664
10	0xba1d7e5d	-0.00060079043
11	0xbae9b85e	-0.0017831435
12	0x3a60c293	0.00085739157
13	0xbb0f055e	-0.0021823267
14	0xba23d545	-0.0006249736
15	0xba832101	-0.0010004343
16	0xba843a5d	-0.0010088194
17	0xbacfefeb	-0.0015864348
18	0xbaaa380d	-0.0012986675
19	0xba3c2ead	-0.0007178586
20	0xba0e0fa2	-0.00054191996
21	0xbb17cfa2	-0.002316453
22	0xba4dc5b1	-0.0007849588
23	0xb9b71aab	-0.0003492435
24	0xbaf4614d	-0.001864472
25	0xba6cc8dd	-0.00090326165
26	0x3b117291	0.002219353
27	0x392e68a9	0.00016632922
28	0xbac12d05	-0.0014738148
29	0xbbe0bee6	-0.0068586944
30	0xbb3973f2	-0.0028297869
31	0xbbeabc2b	-0.0071635447
32	0x3ba1d0cb	0.00493822
33	0xbafd2c76	-0.0019315619
34	0xba6245e9	-0.0008631633
35	0xbb34cd1b	-0.0027588073
36	0xba8694ef	-0.0010267774
37	0xba58c003	-0.0008268358
38	0x3ad45827	0.0016200588
39	0xba6bb0ec	-0.0008990902
40	0xbb0e3d7e	-0.0021704133
41	0xbab29332	-0.001362419
42	0xbad3a7c6	-0.0016148023
43	0xb92090ef	-0.00015312781
44	0xbb1c14a1	-0.0023816007
45	0xbb776665	-0.003775024
46	0x39fb788b	0.00047964262
47	0xba853536	-0.0010162953
48	0xba2dcb77	-0.0006629745
49	0xbbb0eb33	-0.0053991317
50	0x3a3c9653	0.0007194031
51	0xba131422	-0.0005610605
52	0xbbf52c2a	-0.0074820714
53	0xb9a857d3	-0.0003210889
54	0xb818f7ce	-3.647041e-05
55	0xbacbf811	-0.00155616
56	0xbb0c4b68	-0.002140725
57	0x3a3994dd	0.00070793723
58	0x3b59b426	0.003321895
59	0x3b478bf3	0.0030448406
60	0xba03ff09	-0.00050352566
61	0xba0478dc	-0.000505341
62	0xba662f4f	-0.0008780853
63	0xbaab9760	-0.0013091378
64	0x3b20e5d8	0.002455106
65	0xbb0301df	-0.001999013
66	0x3a3da2a8	0.00072340155
67	0x3b44c12e	0.003002237
68	0xb99f5537	-0.00030390333
69	0xbaa8b0d6	-0.0012870084
70	0x3998edc0	0.00029168837
71	0x3840a794	4.5932436e-05
72	0x3b97bb84	0.004630508
73	0xba8f2173	-0.0010920003
74	0x3a096811	0.00052416424
75	0xba232466	-0.00062233803
76	0x39bde4e8	0.00036219438
77	0xba27b558	-0.0006397567
78	0xba66e50d	-0.0008807935
79	0xbabc1a5b	-0.0014351116
80	0xbaa4a9bd	-0.0012562793
81	0xba8198f1	-0.0009887499
82	0xba0a9772	-0.00052868493
83	0xba1ad52a	-0.0005906398
84	0x39e2e727	0.000432783
85	0xba98b281	-0.0011649878
86	0xb93a4cec	-0.00017766998
87	0xbafe8a80	-0.0019419938
88	0xbac11071	-0.0014729631
89	0x39a160f6	0.00030780555
90	0xba038106	-0.00050164794
91	0xbae48036	-0.0017433229
92	0x3a4af6a9	0.00077424437
93	0xbb4c4e6e	-0.0031174677
94	0xbaed4e60	-0.0018105023
95	0xba848fd3	-0.0010113664
96	0xbb022be3	-0.0019862584
97	0xbab54aa3	-0.0013831448
98	0xba207c6d	-0.00061220565
99	0xb9320795	-0.00016978227
100	0xbae94664	-0.0017797467
101	0xba76aa3e	-0.00094095233
102	0xbaa1c3e2	-0.0012341703
103	0xba52e37f	-0.0008044764
104	0xbb026040	-0.0019893795
105	0xbacd3a56	-0.0015657644
106	0xbba02a40	-0.004887849
107	0xb9d84bbd	-0.0004125516
108	0xbaacd656	-0.0013186436
109	0xba2ac340	-0.000651408
110	0xbb1466ef	-0.002264436
111	0xba3a4449	-0.0007105512
112	0xbb298ced	-0.0025871352
113	0xbaebd6a5	-0.0017993046
114	0xba547e0a	-0.00081059395
115	0xbaabd4da	-0.0013109699
116	0xbb0d42bd	-0.0021554672
117	0xbb73314a	-0.0037108236
118	0xb9aa9fa4	-0.00032543868
119	0xbb169668	-0.0022977833
120	0xba9868da	-0.0011627928
121	0xba3cd1bc	-0.0007202884
122	0xba098d56	-0.0005247196
123	0xba394ab0	-0.0007068319
124	0xbaed63cc	-0.0018111407
125	0xb93ba20a	-0.00017894074
126	0xba2ea917	-0.00066627696
127	0x3bbc048a	0.005737846

action_model._continuous_distribution.log_sigma f4 [1, 2]
0	0xbbdb7ac8	-0.0066979863
1	0xbc296e87	-0.010341293

action_model._continuous_distribution.mu.weight f4 [2, 128]
0	0xbc8b050f	-0.016970186
1	0xb8b3c37a	-8.5717955e-05
2	0x3c129e9a	0.008948946
3	0x3baad451	0.0052132984
4	0xbc9b4687	-0.018954528
5	0x3c8d8ae4	0.017278142
6	0xbc836733	-0.01604042
7	0xbc595e7c	-0.013267156
8	0x3b3ceda4	0.0028828168
9	0x3c661b63	0.014044615
10	0xbc9301b0	-0.01794514
11	0xbb4f4827	-0.00316287
12	0xbc1e0427	-0.009644545
13	0xbbe9a076	-0.007129724
14	0x3c98baa2	0.018643681
15	0x3c7fd34c	0.015614342
16	0x3c773836	0.015089085
17	0x3c0f521c	0.008747604
18	0xbbdad959	-0.006678742
19	0xbc98240f	-0.018571882
20	0x3c4bb1ef	0.012432559
21	0xbcc5aaf8	-0.024129376
22	0x3c92a963	0.017903036
23	0xbbd51bf4	-0.0065035764
24	0x3cfae288	0.030625597
25	0x3d23c6ab	0.039984386
26	0x3d160cb5	0.036633212
27	0x3d01e682	0.03171397
28	0x3cea2769	0.028583245
29	0xbd32ee07	-0.04368403
30	0xbb9492c1	-0.004534096
31	0xbc7f5f54	-0.015586693
32	0x3cb4d375	0.022073487
33	0xbbba8a2b	-0.0056927404
34	0x3c1e1490	0.009648457
35	0x3c0a5792	0.00844373
36	0x3cb8d5b3	0.022562837
37	0xbc51d706	-0.012807613
38	0x3cb5fadb	0.022214344
39	0x3b6a3fe0	0.003574364
40	0x3a8c1944	0.0010688682
41	0xbca1ba5b	-0.019742182
42	0xbcbec8f0	-0.023289174
43	0xbcb7af3a	-0.022422422
44	0x3ac3d55e	0.0014940908
45	0xbbba3754	-0.005682865
46	0xbc0bd51d	-0.008534697
47	0xbc54107d	-0.012943384
48	0xbc13b6e2	-0.009015771
49	0x3bf0d3aa	0.007349451
50	0x3ad6d767	0.0016391099
51	0x3c31e2fd	0.010857341
52	0xbd70596c	-0.05867903
53	0x3c540e0b	0.012942801
54	0xbd024619	-0.03180513
55	0x3b5aff36	0.0033416278
56	0xbc8ad2ac	-0.01694616
57	0xbc890fa6	-0.016731095
58	0xbc5e12b4	-0.013554264
59	0x3d22f59e	0.03978502
60	0x3d0de090	0.034637988
61	0xbc5fec2b	-0.013667147
62	0xbc902877	-0.01759742
63	0x3d05bfac	0.032653496
64	0xbc173ee8	-0.009231307
65	0xbcbc068b	-0.022952339
66	0xbcabd4e7	-0.020975543
67	0x3c30a475	0.010781397
68	0xbc95d863	-0.018291658
69	0xbc0abcb2	-0.00846784
70	0xbd34353c	-0.04399608
71	0xbb52403e	-0.0032081748
72	0x3cb8b858	0.02254884
73	0x3c663ed2	0.0140530635
74	0xbd00a88d	-0.031410743
75	0xbc0bcd59	-0.008532845
76	0x3d15458f	0.03644329
77	0xbbd74cd6	-0.006570439
78	0x3c529be4	0.01285455
79	0x3cc704f6	0.024294358
80	0xbbe0433a	-0.0068439515
81	0xbaca2c71	-0.0015424622
82	0xbccbba35	-0.024869064
83	0xbb931140	-0.0044881403
84	0xbcf57d15	-0.02996687
85	0xba5b3b40	-0.0008363016
86	0x3d08b4a1	0.033375386
87	0x3c4579c7	0.01205296
88	0xbcede7c9	-0.029041188
89	0x3cc362e7	0.023850871
90	0xbca3a20f	-0.019974736
91	0xbc3413d8	-0.010991059
92	0x3b9599f3	0.0045654713
93	0xbb93244a	-0.00449041
94	0x3c55fcd8	0.013060771
95	0xbc96f663	-0.018428033
96	0x3ba0f6e0	0.0049122423
97	0x3bef5181	0.007303417
98	0x3bc9532b	0.0061439476
99	0x3beb4364	0.0071796644
100	0xbaeb5f10	-0.0017957408
101	0x3bcc5eff	0.0062369104
102	0x3955aa1a	0.0002037663
103	0xbba9a16b	-0.005176713
104	0xbbbdb606	-0.005789521
105	0xbc007438	-0.007840209
106	0x3b8cd756	0.004298131
107	0x3d1c31dc	0.038133487
108	0xbc851a32	-0.016247842
109	0x3cb8d33c	0.022561662
110	0x3bf2a420	0.007404819
111	0xbc428600	-0.011872768
112	0x3bd9b12c	0.006643435
113	0xbb89a3bc	-0.004200427
114	0x3c2c9e55	0.010535796
115	0x3c9fd678	0.019511446
116	0xbbd09999	-0.0063659665
117	0xbb369a79	-0.002786307
118	0xbb64fbb2	-0.003494006
119	0xbc360f32	-0.011112021
120	0x3c497067	0.012294865
121	0xbcedf71b	-0.029048493
122	0x3c8daa71	0.017293187
123	0xbd07af79	-0.03312633
124	0x3b398a23	0.0028311096
125	0xbba2f047	-0.004972491
126	0xbcf71c03	-0.030164724
127	0x3d17cd12	0.037060805
128	0x3bbe6f5a	0.005811614
129	0x3b32766e	0.0027231234
130	0xbc747f56	-0.014922937
131	0xbc25a6cb	-0.010110567
132	0xbbc6515f	-0.0060521807
133	0x3ab6bbde	0.0013941487
134	0x3c00e639	0.007867389
135	0xbbc63c40	-0.006049663
136	0xbacc1439	-0.0015569992
137	0xbc035b28	-0.008017339
138	0xbcc1ba18	-0.023648307
139	0x3aae7ac8	0.0013311738
140	0x3bccde77	0.006252106
141	0xbb4436be	-0.0029939855
142	0x3c8f39a4	0.01748354
143	0x3c8cf6ac	0.017207466
144	0xbcbe358d	-0.023218894
145	0x3ca609a3	0.020268267
146	0x3c5d7422	0.013516458
147	0xbba92fb6	-0.0051631583
148	0x3bb4380b	0.005499845
149	0xbc2f3621	-0.010694058
150	0xbbcbd501	-0.0062204604
151	0x3cb21652	0.021739159
152	0x3c8d999b	0.017285159
153	0x3affc774	0.0019514398
154	0x3c7f0f9c	0.015567686
155	0x3c49d4e2	0.012318822
156	0x3c70b95f	0.014692633
157	0xbbb2f572	-0.0054613883
158	0x3d14390b	0.036187213
159	0xbc443edb	-0.011977877
160	0xbb671bf6	-0.0035264469
161	0x3c65de01	0.014029981
162	0xbc83b23d	-0.016076202
163	0xb9e3ac18	-0.00043425034
164	0xbc8db481	-0.017297985
165	0x3c2ff516	0.010739585
166	0x3cbbbf78	0.022918448
167	0x3c9f4511	0.019442113
168	0xbbd397d2	-0.0064573074
169	0xbc9e9ebf	-0.019362805
170	0x3c985b6b	0.018598279
171	0x3d179bcf	0.037013825
172	0xbc81359d	-0.015772635
173	0x3bec2525	0.0072065764
174	0x3c8afa24	0.01696498
175	0x3c854e3f	0.016272662
176	0x3c649b38	0.013953023
177	0x3ad7c73b	0.0016462574
178	0x3be916a1	0.0071132933
179	0x3ce70c64	0.02820415
180	0x3c107049	0.008815833
181	0x3cc7df44	0.024398454
182	0x3c5c5258	0.013447367
183	0xbc78f2b5	-0.015194585
184	0xbcdbfd52	-0.026854191
185	0xbb7cf3be	-0.003859743
186	0x3cd3bbd2	0.025846396
187	0xbb4c3493	-0.0031159266
188	0xbc249967	-0.01004634
189	0xbcbb804c	-0.022888325
190	0x3b956983	0.004559697
191	0x3c1cbac0	0.009566009
192	0xbaf0aba7	-0.0018361703
193	0x3c950660	0.018191516
194	0xbc284b1e	-0.010271816
195	0x3cb3c65b	0.02194517
196	0x3d013fc0	0.031554937
197	0xbbfc7252	-0.0077040577
198	0xbcfed993	-0.031109607
199	0x3c069212	0.008213537
200	0x3c18e33d	0.009331522
201	0x3b74ace0	0.0037334487
202	0x3b442a8e	0.002993259
203	0x3d5c87d8	0.05384049
204	0xbc0bfb87	-0.0085438555
205	0xbc7e558a	-0.015523324
206	0xbc2f6fe5	-0.01070783
207	0x3758203e	1.288211e-05
208	0xbbad7511	-0.0052934964
209	0x3c28656e	0.010278089
210	0xbd1b577c	-0.03792523
211	0x3c31e92c	0.010858815
212	0x3bc7e5cc	0.006100392
213	0x3c51aa86	0.012797004
214	0xbd1bc21a	-0.038026907
215	0xbb56ac44	-0.0032756487
216	0xba2b1d07	-0.0006527458
217	0x3ca2cf51	0.019874247
218	0x3cc878c0	0.02447164
219	0xbc701bea	-0.014655093
220	0xbb32b2df	-0.002726726
221	0x3a895508	0.0010477612
222	0xbbb622ef	-0.0055583636
223	0x3b9fc352	0.004875579
224	0x3bf093f1	0.0073418547
225	0xbc054dc1	-0.008136214
226	0x3ce4e66b	0.027941903
227	0xbc73beaa	-0.014877001
228	0x3bd5df72	0.006526881
229	0xbbc9fdda	-0.0061642947
230	0x3d040c0c	0.03223805
231	0x3c9d64cd	0.019213105
232	0x3cb5800f	0.02215579
233	0x3bca64fc	0.006176589
234	0x3ba0b945	0.0049048983
235	0x3cc7d146	0.024391782
236	0xbcd4d128	-0.02597864
237	0xbd205a02	-0.03914834
238	0xbab5981a	-0.0013854534
239	0xbc85b669	-0.016322332
240	0xbcb1ac5b	-0.02168863
241	0xbbb4bc3d	-0.005515604
242	0xbce2606e	-0.027633872
243	0x3c368d98	0.011142157
244	0x3cb1188f	0.021618156
245	0xbc3397cb	-0.010961483
246	0x3c70a20d	0.014687073
247	0x3cbb706a	0.022880752
248	0xbbb95abc	-0.0056565683
249	0xbaffdca5	-0.0019520713
250	0x3bd3174e	0.006441987
251	0xbc984236	-0.01858626
252	0xbc7b7473	-0.015347588
253	0x3d00c249	0.031435285
254	0x3c37803b	0.011200006
255	0xbac34fe7	-0.0014901132

action_model._continuous_distribution.mu.bias f4 [2]
0	0x398a57ff	0.00026386973
1	0x3985f4e1	0.00025550186

exp_avg f4 [128, 44]
0	0xb505135a	-4.957452e-07
1	0x00000000	0.0
2	0xb28d8400	-1.6474587e-08
3	0xb3d13482	-9.741872e-08
4	0xb4fe6ade	-4.7388943e-07
5	0x00000000	0.0
6	0xb324a0aa	-3.833035e-08
7	0xb40d7f16	-1.3177882e-07
8	0xb4c3a831	-3.6443956e-07
9	0x00000000	0.0
10	0xb41ead89	-1.4778028e-07
11	0xb4dff176	-4.1712673e-07
12	0xb4cbfcb2	-3.7995557e-07
13	0x00000000	0.0
14	0xb40e0484	-1.3226423e-07
15	0xb4a3fc80	-3.0544834e-07
16	0xb3c14d41	-9.001315e-08
17	0x00000000	0.0
18	0xb4e2aba6	-4.222067e-07
19	0xb4e54ace	-4.2709001e-07
20	0x32dfac54	2.6038983e-08
21	0x00000000	0.0
22	0xb5107cdd	-5.382588e-07
23	0xb502a7d9	-4.8673024e-07
24	0xb4a0ce6a	-2.9952508e-07
25	0x00000000	0.0
26	0xb464610e	-2.1269463e-07
27	0xb48edb65	-2.6609192e-07
28	0xb467da7e	-2.1593038e-07
29	0x00000000	0.0
30	0xb49f11b4	-2.962894e-07
31	0xb50d04ac	-5.253339e-07
32	0xb4efeb6a	-4.4688505e-07
33	0x00000000	0.0
34	0xb38c4e20	-6.533469e-08
35	0xb49951e3	-2.855805e-07
36	0x3626075f	2.4740218e-06
37	0xb708b97d	-8.149419e-06
38	0xb3638e7c	-5.2982145e-08
39	0x36535ff0	3.1497293e-06
40	0xb60043b1	-1.9112888e-06
41	0x00000000	0.0
42	0x355446d3	7.9079217e-07
43	0x352090ee	5.9815545e-07
44	0xb8123734	-3.4860524e-05
45	0x00000000	0.0
46	0xb5aa72ea	-1.2699431e-06
47	0x3391ae50	6.783796e-08
48	0xb82d37ac	-4.1298263e-05
49	0x00000000	0.0
50	0x36ad66ea	5.1677825e-06
51	0x36049988	1.97589e-06
52	0xb822bb9a	-3.8798527e-05
53	0x00000000	0.0
54	0x36330ceb	2.6680598e-06
55	0xb6d3e62c	-6.3150856e-06
56	0xb82d63ca	-4.133935e-05
57	0x00000000	0.0
58	0x36aec800	5.208887e-06
59	0x36f40511	7.2723565e-06
60	0xb82ea80a	-4.164133e-05
61	0x00000000	0.0
62	0x36b8ea0f	5.5108753e-06
63	0xb7017049	-7.715143e-06
64	0xb80b79e4	-3.3253702e-05
65	0x00000000	0.0
66	0xb6410e54	-2.8767581e-06
67	0x36d75063	6.4168576e-06
68	0xb8248a0a	-3.9229206e-05
69	0x00000000	0.0
70	0x364ff433	3.0987546e-06
71	0xb7aec9b2	-2.0836338e-05
72	0xb7f0a2b4	-2.8685994e-05
73	0x00000000	0.0
74	0xb6f9cbb8	-7.4444943e-06
75	0x363920f3	2.7586327e-06
76	0xb797db06	-1.8102593e-05
77	0x00000000	0.0
78	0xb7973a93	-1.8027878e-05
79	0xb7fdb3e2	-3.0243715e-05
80	0x3936fcb8	0.00017451018
81	0xba16b08f	-0.0005748355
82	0xb67accb5	-3.7372058e-06
83	0x399d5d1f	0.00030014754
84	0xba1f2fb0	-0.00060724746
85	0x00000000	0.0
86	0x38fc39fe	0.00012027098
87	0x3792ea0a	1.751354e-05
88	0xb74fcf3e	-1.2386414e-05
89	0x00000000	0.0
90	0xb4104748	-1.3436977e-07
91	0xb52606dd	-6.1849806e-07
92	0xb75b56ef	-1.3073658e-05
93	0x00000000	0.0
94	0x35146925	5.52873e-07
95	0xb6519a88	-3.1233376e-06
96	0xb7547c66	-1.26651485e-05
97	0x00000000	0.0
98	0x341b02a0	1.4436455e-07
99	0xb497e384	-2.829148e-07
100	0xb722e580	-9.709387e-06
101	0x00000000	0.0
102	0xb63cab6f	-2.811397e-06
103	0xb6802f64	-3.8202143e-06
104	0xb74d5984	-1.2239794e-05
105	0x00000000	0.0
106	0xb496db3e	-2.8099197e-07
107	0x35ca5bf8	1.5076939e-06
108	0xb775ca11	-1.4650185e-05
109	0x00000000	0.0
110	0x360ee6c6	2.1293977e-06
111	0xb42a4040	-1.5855858e-07
112	0xb7528b03	-1.2549342e-05
113	0x00000000	0.0
114	0x32f54c64	2.8556492e-08
115	0xb682652e	-3.886081e-06
116	0xb710bbbc	-8.626779e-06
117	0x00000000	0.0
118	0xb682a946	-3.894008e-06
119	0xb7095740	-8.186151e-06
120	0xb7408940	-1.1476048e-05
121	0x00000000	0.0
122	0xb58c3912	-1.0447422e-06
123	0xb6d30e13	-6.2899285e-06
124	0x387da6f7	6.04754e-05
125	0xb950e1e0	-0.00019920571
126	0xb5add376	-1.2951048e-06
127	0x38c85fa7	9.55456e-05
128	0xb91b6ff5	-0.00014823659
129	0x00000000	0.0
130	0xb7b4a38a	-2.1533826e-05
131	0xb7dda980	-2.6424183e-05
132	0xb7e1ef67	-2.693357e-05
133	0x00000000	0.0
134	0x342ad5d8	1.591028e-07
135	0xb6671ced	-3.443852e-06
136	0xb7b8f0b6	-2.2046599e-05
137	0x00000000	0.0
138	0xb69ea40c	-4.7278645e-06
139	0xb6d7e47d	-6.434099e-06
140	0xb7e85a78	-2.7698683e-05
141	0x00000000	0.0
142	0x357817a4	9.24216e-07
143	0xb72530fa	-9.84617e-06
144	0xb7c4f577	-2.3479324e-05
145	0x00000000	0.0
146	0xb65d220a	-3.295138e-06
147	0xb70a3794	-8.238381e-06
148	0xb7b40e07	-2.1464204e-05
149	0x00000000	0.0
150	0xb6b22eca	-5.3102603e-06
151	0xb70a9d68	-8.26209e-06
152	0xb74f7854	-1.23661775e-05
153	0x00000000	0.0
154	0xb771bb22	-1.440829e-05
155	0xb784b923	-1.5821837e-05
156	0xb7b3c6b0	-2.1430984e-05
157	0x00000000	0.0
158	0xb6b34c28	-5.3434815e-06
159	0xb73b0837	-1.1147981e-05
160	0xb7d84918	-2.5783243e-05
161	0x00000000	0.0
162	0xb5850a3c	-9.912251e-07
163	0xb55f5246	-8.31937e-07
164	0xb7d67b3e	-2.5568177e-05
165	0x00000000	0.0
166	0xb5a1e7cf	-1.20629e-06
167	0xb71c542f	-9.317925e-06
168	0x39079a3e	0.00012932063
169	0xb9df564f	-0.0004259818
170	0xb639dadb	-2.7694539e-06
171	0x39454fc3	0.00018817098
172	0xb9b71c9a	-0.0003492579
173	0x00000000	0.0
174	0x381c48a2	3.7260943e-05
175	0x38cc1e54	9.733127e-05
176	0x37997776	1.829465e-05
177	0x00000000	0.0
178	0x352f5bcc	6.532616e-07
179	0x373af6d8	1.1143937e-05
180	0x378f0e59	1.705361e-05
181	0x00000000	0.0
182	0x35fe405c	1.8943206e-06
183	0x3718a08f	9.097289e-06
184	0x37af5907	2.0903082e-05
185	0x00000000	0.0
186	0xb603358b	-1.9551687e-06
187	0x353165a0	6.608552e-07
188	0x37b9e2b4	2.2159285e-05
189	0x00000000	0.0
190	0xb65782e4	-3.2113685e-06
191	0x36dfb3e8	6.6668617e-06
192	0x376afff2	1.4007079e-05
193	0x00000000	0.0
194	0x36a5c95d	4.940825e-06
195	0x370d48f5	8.421242e-06
196	0x37f83296	2.958746e-05
197	0x00000000	0.0
198	0xb732806c	-1.0639527e-05
199	0x36916158	4.332669e-06
200	0x379155d8	1.7325321e-05
201	0x00000000	0.0
202	0x35d9c7b3	1.622588e-06
203	0xb65a5cac	-3.2538474e-06
204	0x37b07a59	2.1037808e-05
205	0x00000000	0.0
206	0xb60c3ffa	-2.0898865e-06
207	0x3772b564	1.4466557e-05
208	0x37d1bc3d	2.5002397e-05
209	0x00000000	0.0
210	0xb6cb2780	-6.05447e-06
211	0xb70c1145	-8.348671e-06
212	0xb8bfed91	-9.15184e-05
213	0x399e0d73	0.0003014613
214	0x360386d7	1.9599008e-06
215	0xb950e368	-0.00019921141
216	0x3955fcb8	0.00020407408
217	0x00000000	0.0
218	0x388cc580	6.7125075e-05
219	0x390156ac	0.00012334686
220	0xb82f72b7	-4.1830088e-05
221	0x00000000	0.0
222	0x34b9bc24	3.4595826e-07
223	0xb7938ef6	-1.7590337e-05
224	0xb7fc5c6e	-3.0083782e-05
225	0x00000000	0.0
226	0xb73f441f	-1.1400348e-05
227	0xb7987a2e	-1.8176706e-05
228	0xb8553417	-5.083167e-05
229	0x00000000	0.0
230	0x371cd363	9.347542e-06
231	0xb7269e50	-9.931231e-06
232	0xb8299fc7	-4.0441544e-05
233	0x00000000	0.0
234	0xb58bef1a	-1.0425895e-06
235	0xb742e8c3	-1.1617495e-05
236	0xb81ee3f2	-3.7882426e-05
237	0x00000000	0.0
238	0xb671b4d0	-3.6017045e-06
239	0xb794de10	-1.774638e-05
240	0xb814c594	-3.546996e-05
241	0x00000000	0.0
242	0xb6c9cd59	-6.0141724e-06
243	0xb7688ac8	-1.386059e-05
244	0xb7efef6c	-2.860251e-05
245	0x00000000	0.0
246	0xb7581e2a	-1.2881626e-05
247	0xb7b7ccce	-2.191067e-05
248	0xb81d0d21	-3.7443944e-05
249	0x00000000	0.0
250	0xb68790e0	-4.040179e-06
251	0xb7374090	-1.0922682e-05
252	0xb8062760	-3.198476e-05
253	0x00000000	0.0
254	0xb71f5f7c	-9.49937e-06
255	0xb7935d28	-1.7567145e-05

exp_avg_sq f4 [128, 44]
0	0x2c5583ee	3.0342356e-12
1	0x00000000	0.0
2	0x2a8d6858	2.5119034e-13
3	0x2b63b767	8.090112e-13
4	0x2c5136bf	2.9731077e-12
5	0x00000000	0.0
6	0x2a8fa56c	2.5516687e-13
7	0x2b62130e	8.0317773e-13
8	0x2c4a79ef	2.8773613e-12
9	0x00000000	0.0
10	0x2b08c0e3	4.858459e-13
11	0x2b8b001a	9.876572e-13
12	0x2c3ad078	2.6547913e-12
13	0x00000000	0.0
14	0x2b2735ab	5.94048e-13
15	0x2b99e7c8	1.0935636e-12
16	0x2c2bdbb4	2.4422521e-12
17	0x00000000	0.0
18	0x2b49d89c	7.171015e-13
19	0x2bbaecde	1.3281839e-12
20	0x2c180999	2.1605827e-12
21	0x00000000	0.0
22	0x2bb691e0	1.2972366e-12
23	0x2bee5bf3	1.6936438e-12
24	0x2c1f1095	2.2604464e-12
25	0x00000000	0.0
26	0x2b5313c7	7.4989705e-13
27	0x2bbb747f	1.3319483e-12
28	0x2c28e51e	2.4001422e-12
29	0x00000000	0.0
30	0x2b5a8559	7.7634215e-13
31	0x2bb4a311	1.2835029e-12
32	0x2c30f571	2.5147352e-12
33	0x00000000	0.0
34	0x2b421d86	6.896362e-13
35	0x2bae1132	1.2368216e-12
36	0x2eabcc73	7.812497e-11
37	0x306902c2	8.4768825e-10
38	0x29215cbf	3.5829626e-14
39	0x2f2ff419	1.6002878e-10
40	0x2f3aeff3	1.7001849e-10
41	0x00000000	0.0
42	0x2cf8e31a	7.0737973e-12
43	0x2d831b5e	1.490513e-11
44	0x32e7be1f	2.6978396e-08
45	0x00000000	0.0
46	0x2fca74c6	3.6826558e-10
47	0x30c337c1	1.4203964e-09
48	0x32e00507	2.6079318e-08
49	0x00000000	0.0
50	0x300eda3c	5.196943e-10
51	0x30dd69f9	1.6109986e-09
52	0x32e7ea75	2.6998558e-08
53	0x00000000	0.0
54	0x2efbe917	1.14555636e-10
55	0x30aa03c5	1.2370199e-09
56	0x32e1cae3	2.628571e-08
57	0x00000000	0.0
58	0x300584d4	4.857388e-10
59	0x30f346ec	1.7700734e-09
60	0x32eda167	2.7663829e-08
61	0x00000000	0.0
62	0x2f107a75	1.3140229e-10
63	0x30b2a206	1.2997254e-09
64	0x32e5014a	2.6659695e-08
65	0x00000000	0.0
66	0x2ffe93f8	4.630747e-10
67	0x3107aefd	1.9744555e-09
68	0x32df9353	2.6027612e-08
69	0x00000000	0.0
70	0x2fbc7f91	3.4287642e-10
71	0x30f54f1e	1.7848583e-09
72	0x32dfa086	2.6033614e-08
73	0x00000000	0.0
74	0x302d0ac4	6.295233e-10
75	0x31254c7b	2.4054134e-09
76	0x32deaa1d	2.592156e-08
77	0x00000000	0.0
78	0x3049d127	7.34206e-10
79	0x312151d8	2.3475106e-09
80	0x352bd159	6.4007105e-07
81	0x36e9096c	6.945038e-06
82	0x2fa1614f	2.935487e-10
83	0x36066461	2.0025984e-06
84	0x36ae01d7	5.1858183e-06
85	0x00000000	0.0
86	0x3308f959	3.1891748e-08
87	0x3348abd8	4.672242e-08
88	0x30af99f7	1.2776685e-09
89	0x00000000	0.0
90	0x2bcd7bd0	1.4600491e-12
91	0x2da2271c	1.8434636e-11
92	0x30b1d3d4	1.293865e-09
93	0x00000000	0.0
94	0x2c8299f9	3.7119166e-12
95	0x2d9d3e45	1.7876487e-11
96	0x30b0b207	1.2856284e-09
97	0x00000000	0.0
98	0x2c002669	1.8211216e-12
99	0x2dae9012	1.984549e-11
100	0x30a87733	1.2257487e-09
101	0x00000000	0.0
102	0x2dce6341	2.3463566e-11
103	0x2e3d3d1d	4.3027904e-11
104	0x30b0b33c	1.2856627e-09
105	0x00000000	0.0
106	0x2c2b2b24	2.432451e-12
107	0x2dc68771	2.2570142e-11
108	0x30ac9572	1.2557122e-09
109	0x00000000	0.0
110	0x2df5a211	2.7925247e-11
111	0x2e989b2d	6.9397245e-11
112	0x30b06e41	1.2837021e-09
113	0x00000000	0.0
114	0x2c486599	2.8478107e-12
115	0x2e0abab4	3.1543393e-11
116	0x30a742a1	1.2169786e-09
117	0x00000000	0.0
118	0x2e50d0c9	4.7479163e-11
119	0x2f00b076	1.1704224e-10
120	0x30aef651	1.2730174e-09
121	0x00000000	0.0
122	0x2c2ad506	2.4276705e-12
123	0x2e69011e	5.297906e-11
124	0x33002e1d	2.9844262e-08
125	0x34add9d3	3.238225e-07
126	0x2d70c970	1.3687149e-11
127	0x33afc3a0	8.1846565e-08
128	0x348ef535	2.6627973e-07
129	0x00000000	0.0
130	0x312f0eb5	2.5474212e-09
131	0x319ee2b5	4.624179e-09
132	0x324edcab	1.2040952e-08
133	0x00000000	0.0
134	0x2ea54ba9	7.516771e-11
135	0x30366caa	6.6365635e-10
136	0x32410155	1.1234381e-08
137	0x00000000	0.0
138	0x30044276	4.8115767e-10
139	0x308e36a0	1.0347385e-09
140	0x324cda62	1.1924017e-08
141	0x00000000	0.0
142	0x2f02e60c	1.190516e-10
143	0x301b2012	5.6434246e-10
144	0x3238d5fe	1.0758866e-08
145	0x00000000	0.0
146	0x302d2387	6.298752e-10
147	0x30c8e46c	1.4616837e-09
148	0x3243f95a	1.140719e-08
149	0x00000000	0.0
150	0x2f6c23a0	2.1476732e-10
151	0x30312893	6.4449884e-10
152	0x32439c9a	1.1386101e-08
153	0x00000000	0.0
154	0x2fe5de0f	4.181264e-10
155	0x30beb381	1.3875338e-09
156	0x323ee342	1.1111128e-08
157	0x00000000	0.0
158	0x2fd2372d	3.8237982e-10
159	0x307420a7	8.8813085e-10
160	0x3244f8a5	1.1465237e-08
161	0x00000000	0.0
162	0x2fd1f2d2	3.8189413e-10
163	0x30ccb638	1.4894743e-09
164	0x32405347	1.1194806e-08
165	0x00000000	0.0
166	0x3020d0a8	5.850418e-10
167	0x30a6bdea	1.2132066e-09
168	0x3497e447	2.8292035e-07
169	0x364e02cb	3.0698018e-06
170	0x2f0eaa25	1.2975272e-10
171	0x356303a0	8.4569365e-07
172	0x3608926e	2.0350813e-06
173	0x00000000	0.0
174	0x32ecfb12	2.758819e-08
175	0x32944074	1.7258778e-08
176	0x3301947f	3.017021e-08
177	0x00000000	0.0
178	0x2f866f00	2.4453328e-10
179	0x30b19efd	1.2923632e-09
180	0x32fd1f7a	2.946739e-08
181	0x00000000	0.0
182	0x2ffb12f1	4.5670093e-10
183	0x30ea1b35	1.7033474e-09
184	0x3300cd93	2.998929e-08
185	0x00000000	0.0
186	0x2f3e868e	1.7328203e-10
187	0x3070938c	8.752117e-10
188	0x32f92c86	2.9007662e-08
189	0x00000000	0.0
190	0x300c7c8a	5.1108684e-10
191	0x311910eb	2.2274047e-09
192	0x32f8fc1b	2.8985644e-08
193	0x00000000	0.0
194	0x2f59cde8	1.9809188e-10
195	0x306bbb5a	8.5758745e-10
196	0x32fb5d98	2.9262807e-08
197	0x00000000	0.0
198	0x303778ba	6.6746575e-10
199	0x313ae258	2.7195224e-09
200	0x32fc2203	2.9352128e-08
201	0x00000000	0.0
202	0x2f112626	1.3201226e-10
203	0x307827d4	9.0278474e-10
204	0x32f7c199	2.8842623e-08
205	0x00000000	0.0
206	0x3059f83b	7.9296897e-10
207	0x316d85e9	3.4564158e-09
208	0x32ff7f75	2.9743868e-08
209	0x00000000	0.0
210	0x2fa11634	2.9301506e-10
211	0x30d0ed5a	1.5201451e-09
212	0x353e7dc2	7.096352e-07
213	0x37012e82	7.699828e-06
214	0x2fb2eb57	3.254523e-10
215	0x360c5cbf	2.091561e-06
216	0x36bae763	5.570169e-06
217	0x00000000	0.0
218	0x337041e2	5.5939275e-08
219	0x3371d150	5.6302554e-08
220	0x31cd60cd	5.97729e-09
221	0x00000000	0.0
222	0x304670db	7.219236e-10
223	0x310cf649	2.0512678e-09
224	0x31cc3db9	5.9441985e-09
225	0x00000000	0.0
226	0x3066adf1	8.39207e-10
227	0x310a26e5	2.0103752e-09
228	0x31cb6ce2	5.920456e-09
229	0x00000000	0.0
230	0x308da038	1.0304637e-09
231	0x31254913	2.4052198e-09
232	0x31cadc16	5.9039946e-09
233	0x00000000	0.0
234	0x304ab5db	7.3745604e-10
235	0x3100112c	1.8636213e-09
236	0x31b2bbb8	5.201823e-09
237	0x00000000	0.0
238	0x30a81522	1.2229615e-09
239	0x3136fb01	2.6627165e-09
240	0x31c309e4	5.6763714e-09
241	0x00000000	0.0
242	0x30a50af9	1.2008449e-09
243	0x31188e05	2.219964e-09
244	0x31c1eac8	5.643731e-09
245	0x00000000	0.0
246	0x30a2dc59	1.1849678e-09
247	0x312811c8	2.4457325e-09
248	0x31bdbc0c	5.5220024e-09
249	0x00000000	0.0
250	0x3081473d	9.406232e-10
251	0x31128a70	2.1324489e-09
252	0x31d7fae8	6.2858483e-09
253	0x00000000	0.0
254	0x30255a94	6.015537e-10
255	0x310467fb	1.9267634e-09

exp_avg f4 [128]
0	0xb5097f7d	-5.1221997e-07
1	0xb8178acd	-3.6130474e-05
2	0xb752105b	-1.25207835e-05
3	0xb7e099bb	-2.6774467e-05
4	0x379ef24b	1.8947894e-05
5	0xb82dff3f	-4.148413e-05
6	0x3885a966	6.373487e-05
7	0xb70987c8	-8.19745e-06
8	0x3604dd87	1.9798479e-06
9	0x38e87366	0.00011084117
10	0xb8f1e86a	-0.00011535066
11	0x37ca585e	2.4121426e-05
12	0xb750ab4b	-1.2437648e-05
13	0xb5ed0d9e	-1.7661839e-06
14	0x391d042a	0.00014974238
15	0xb58efe0e	-1.0653764e-06
16	0x3736f563	1.0905179e-05
17	0xb7970312	-1.8002032e-05
18	0x37d1023c	2.4915782e-05
19	0x398d4e50	0.00026951963
20	0x37003314	7.641287e-06
21	0x38456ae1	4.7068e-05
22	0xb82ff9ff	-4.195608e-05
23	0xb6bd021d	-5.632885e-06
24	0x36af16a2	5.218041e-06
25	0xb7163e5f	-8.955219e-06
26	0xb63fa8b4	-2.8559416e-06
27	0xb84463d3	-4.682301e-05
28	0x394ec976	0.00019720741
29	0xb8fbd9bd	-0.000120091696
30	0x378097af	1.5329422e-05
31	0xb88c1348	-6.6793116e-05
32	0xb51af85c	-5.773088e-07
33	0x388df4e3	6.769018e-05
34	0x38c36096	9.316315e-05
35	0x35687ad6	8.6605485e-07
36	0x37b50efb	2.1583857e-05
37	0xb743b08c	-1.1664011e-05
38	0xb70cf0da	-8.400728e-06
39	0x3906062a	0.00012781532
40	0xb859374a	-5.1788324e-05
41	0xb873e641	-5.8150155e-05
42	0x3891ee32	6.958506e-05
43	0xb908626d	-0.00013006637
44	0xb91b6812	-0.00014820721
45	0xb7c7fa02	-2.3839068e-05
46	0xb6734b96	-3.6253819e-06
47	0xb5f72607	-1.8414001e-06
48	0xb76d1bb2	-1.4132749e-05
49	0x36ac61b1	5.137372e-06
50	0x3739fcca	1.1085716e-05
51	0xb7245323	-9.7945185e-06
52	0xb735081a	-1.0790327e-05
53	0xb84d3d1a	-4.8932714e-05
54	0xb4a8f210	-3.1468562e-07
55	0x37c8fc47	2.3959334e-05
56	0xb8cec03e	-9.858653e-05
57	0xb8b1bfb2	-8.475724e-05
58	0x3865a7a0	5.4753968e-05
59	0x370b5376	8.304478e-06
60	0xb71c3264	-9.310057e-06
61	0xb84669d0	-4.7305424e-05
62	0x378bed2e	1.6680537e-05
63	0xb830ab22	-4.212105e-05
64	0x360bd60a	2.0837201e-06
65	0xb6d97b68	-6.4814703e-06
66	0x34e537fa	4.2695302e-07
67	0x383aa75a	4.4501714e-05
68	0xb93c5bf6	-0.00017963335
69	0x35b09214	1.3155536e-06
70	0x372e8b96	1.0403708e-05
71	0xb5fb01bc	-1.8701462e-06
72	0xb85fc45a	-5.335021e-05
73	0xb92596c2	-0.00015791788
74	0x38b27682	8.509775e-05
75	0x384eeec9	4.9336613e-05
76	0x37bfdb28	2.2871027e-05
77	0x36f5066c	7.3023166e-06
78	0xb86a1ed6	-5.5818666e-05
79	0xb5030a28	-4.881608e-07
80	0x36c11560	5.7543366e-06
81	0xb6da030f	-6.4972623e-06
82	0xb71e2327	-9.425718e-06
83	0x3694dd3a	4.436498e-06
84	0x38966283	7.1709066e-05
85	0xb675a516	-3.6603938e-06
86	0x388c7af6	6.6986235e-05
87	0xb6497ef3	-3.0025228e-06
88	0xb38eed00	-6.6555e-08
89	0xb8d64f53	-0.000102190905
90	0x36ad3776	5.1622583e-06
91	0xb8db2444	-0.00010449489
92	0x356b4650	8.764664e-07
93	0xb701854f	-7.7200375e-06
94	0x3819f628	3.6707293e-05
95	0xb93bec14	-0.00017921656
96	0xb89d9a45	-7.515078e-05
97	0x394cd2ac	0.00019533437
98	0x390d6f1a	0.00013488196
99	0xb93d2e00	-0.00018041581
100	0x352f4c8a	6.530396e-07
101	0x375a9bf3	1.3030122e-05
102	0xb72dd724	-1.0361695e-05
103	0xb8cb3d9e	-9.6912714e-05
104	0x3613a730	2.2002023e-06
105	0x38d80502	0.000103006154
106	0x38db3443	0.00010452468
107	0x387f6f1a	6.090021e-05
108	0x38aec9b6	8.334538e-05
109	0x3844433c	4.679266e-05
110	0x382cefa9	4.1231197e-05
111	0x356f26a0	8.9090645e-07
112	0x38d9df95	0.00010389012
113	0xb8ec9ee4	-0.000112829526
114	0x394a36f2	0.0001928469
115	0x38da9eaa	0.000104246035
116	0x3682cdb0	3.898247e-06
117	0x373b2668	1.1155011e-05
118	0x38d859c4	0.00010316403
119	0x378f10de	1.7054783e-05
120	0xb8036016	-3.132232e-05
121	0xb887e08d	-6.4791275e-05
122	0x3895933f	7.1323004e-05
123	0xb61f6509	-2.3751656e-06
124	0xb8fac5ec	-0.00011957795
125	0xb699eb83	-4.5871725e-06
126	0xb6820ea2	-3.8760054e-06
127	0x390d42a8	0.00013471639

exp_avg_sq f4 [128]
0	0x2c6ba78c	3.3488516e-12
1	0x32ebae3d	2.7436835e-08
2	0x30afd2ca	1.2792836e-09
3	0x3250592b	1.2127468e-08
4	0x3302a5b8	3.0418704e-08
5	0x31f19592	7.0310273e-09
6	0x341d6194	1.4657263e-07
7	0x2f233c8a	1.4846271e-10
8	0x2dbd4679	2.1518108e-11
9	0x338c855c	6.543516e-08
10	0x334b3061	4.730862e-08
11	0x325d7d87	1.2892435e-08
12	0x320f4e52	8.3415035e-09
13	0x2ce715cb	6.5678344e-12
14	0x33d4effe	9.9156736e-08
15	0x2ffdc6f2	4.616179e-10
16	0x31962d7c	4.3707455e-09
17	0x31091e35	1.9953295e-09
18	0x32129d6a	8.53411e-09
19	0x3482659e	2.4288323e-07
20	0x33109bab	3.3669192e-08
21	0x32404569	1.1191653e-08
22	0x32d708d0	2.5033302e-08
23	0x2f45eb50	1.8000645e-10
24	0x2f5fc1fe	2.0350652e-10
25	0x31559346	3.1079295e-09
26	0x32ad19ab	2.0151523e-08
27	0x3306c84b	3.138147e-08
28	0x3430f48d	1.6480244e-07
29	0x3414bb33	1.3851677e-07
30	0x328eb382	1.6612606e-08
31	0x33171c35	3.518308e-08
32	0x2e6ddb6c	5.4082447e-11
33	0x32ed2a3a	2.7609634e-08
34	0x32eee87f	2.7812574e-08
35	0x2e9c6661	7.112245e-11
36	0x3204a5f6	7.721146e-09
37	0x2fd21256	3.8211806e-10
38	0x320468d3	7.7072455e-09
39	0x3402357e	1.2126654e-07
40	0x323df1d6	1.1056235e-08
41	0x33d71b60	1.0016697e-07
42	0x32caf5b9	2.3627637e-08
43	0x33b45735	8.397766e-08
44	0x3411c8aa	1.3577178e-07
45	0x31def6bd	6.4891013e-09
46	0x2fa775f7	3.0460942e-10
47	0x2e943582	6.739766e-11
48	0x319b5b9f	4.52151e-09
49	0x2f256449	1.5042291e-10
50	0x30ccc0f8	1.4897799e-09
51	0x311abe2a	2.2518045e-09
52	0x33065673	3.127793e-08
53	0x3403503e	1.2229518e-07
54	0x2f53a42b	1.9248662e-10
55	0x3099d99e	1.1194066e-09
56	0x34007025	1.1961727e-07
57	0x33cc2bab	9.5074334e-08
58	0x34289cdc	1.5703284e-07
59	0x308ca1da	1.0232342e-09
60	0x2ee2c94b	1.0313047e-10
61	0x33be4c70	8.8614684e-08
62	0x31a10a67	4.6868993e-09
63	0x33a6e9f1	7.772531e-08
64	0x2fb40d4c	3.2751257e-10
65	0x2fada10e	3.1582953e-10
66	0x2ed85a75	9.838611e-11
67	0x326a1de1	1.3627386e-08
68	0x341fcac8	1.48818e-07
69	0x31478052	2.9031253e-09
70	0x30c35c3d	1.4214333e-09
71	0x30405577	6.9970646e-10
72	0x32dd6693	2.5774431e-08
73	0x35030175	4.8803423e-07
74	0x333451e9	4.1984013e-08
75	0x33ba3947	8.6717186e-08
76	0x32cd6182	2.3909482e-08
77	0x3255af91	1.2438151e-08
78	0x33338a97	4.1802732e-08
79	0x30abf153	1.2510476e-09
80	0x33628279	5.273839e-08
81	0x2fee47ac	4.3342874e-10
82	0x2f8a8a43	2.5200295e-10
83	0x2eeb0497	1.0687378e-10
84	0x33495f11	4.688542e-08
85	0x2e62ba0b	5.155169e-11
86	0x33dd804d	1.0314452e-07
87	0x303944d7	6.7400435e-10
88	0x31daa98a	6.3639094e-09
89	0x33d62976	9.972693e-08
90	0x300b2333	5.0617927e-10
91	0x33acff4e	8.055814e-08
92	0x319decc5	4.596219e-09
93	0x302436c9	5.9740707e-10
94	0x331fc3ae	3.7198042e-08
95	0x34105cb1	1.3444766e-07
96	0x32ae1599	2.0266087e-08
97	0x3477fce7	2.3095673e-07
98	0x344ee9cb	1.9270298e-07
99	0x3499c3ad	2.8640844e-07
100	0x2f38cdc0	1.68078e-10
101	0x3091ac9e	1.0599199e-09
102	0x3204d1ea	7.73114e-09
103	0x343ced55	1.7595205e-07
104	0x3309123a	3.1914375e-08
105	0x3302ce7f	3.045579e-08
106	0x33c58e11	9.199369e-08
107	0x3301c739	3.0216345e-08
108	0x32eca78e	2.7550211e-08
109	0x341cd975	1.4607743e-07
110	0x33257073	3.8519328e-08
111	0x305341a0	7.685461e-10
112	0x3382489d	6.066805e-08
113	0x336cef8f	5.516591e-08
114	0x34198373	1.4297056e-07
115	0x33990d40	7.127028e-08
116	0x2ee311b3	1.0325909e-10
117	0x32e4bfea	2.6629966e-08
118	0x33acce5d	8.0469114e-08
119	0x30a9b573	1.2347939e-09
120	0x339619c3	6.989605e-08
121	0x32d4813f	2.4738823e-08
122	0x33e76bc2	1.0776377e-07
123	0x3006b3c2	4.900437e-10
124	0x33e638d1	1.07205445e-07
125	0x318923a5	3.991277e-09
126	0x304cca11	7.450192e-10
127	0x33bd31fb	8.81009e-08
