GameAI3/Config/results/dwarf_2/Dwarf/Dwarf-127940.onnx (onnx, 73485 bytes, 7 tensors)

network_body._body_endoder.seq_layers.0.weight f4 [128, 8]
0.06071725 0.14173622 -0.036217563 -0.18510355 0.29049808 0.455396 -0.004470936 0.46811947
-0.37093356 0.09767588 -0.097380206 -0.28096712 -0.14668667 0.1121252 0.35527223 -0.08678089
-0.25869307 0.12094748 -0.33196962 -0.40972528 -0.6105219 -0.39144215 -0.3202086 0.10048627
0.20089227 -0.38663244 0.45594913 0.46309707 0.04061049 -0.029302152 -0.37729904 0.084422655
-0.13377449 0.24513245 0.23729748 0.1157886 0.19853346 -0.04391881 0.40856084 -0.29916754
-0.069472335 -0.054996192 -0.09794442 0.1992535 -0.17102227 -0.41634056 -0.5631896 0.48798224
-0.42525873 -0.19183011 0.058218203 -0.03374137 0.24848872 -0.12052675 0.0156201115 -0.0011397698
-0.040335048 0.21071796 -0.5043004 0.17905614 -0.46845356 -0.04613116 0.00012935205 0.04213781
0.29605538 -0.3963027 -0.044057965 0.41109115 0.3460637 -0.40040457 0.2885997 0.36058956
0.24250147 -0.0029650675 0.90591633 0.1520544 -0.40647805 -0.29129985 0.416843 0.31244066
-0.31634054 0.07682124 -0.19857806 0.7202083 0.43389502 0.24759486 -0.33361673 0.23335804
0.4984844 0.017402804 0.07267858 0.16712144 -0.060101658 0.57769424 0.22770776 0.1894902
-0.15335722 -0.11492296 0.30728602 -0.06386277 0.061646827 -0.2603051 -0.038837217 -0.3602353
-0.17977962 -0.49096066 -0.19954334 -0.17013925 0.49659243 -0.07455397 0.05764277 0.39469784
0.38912848 -0.42572212 -0.4592401 0.17941074 0.4326304 -0.058415197 -0.2080137 0.043178216
-0.33368042 -0.18897215 0.06562989 0.14381507 -0.02931796 0.35357612 -0.2707725 -0.17386094
-0.22279508 0.4952112 -0.7777868 -0.1953369 -0.0778639 -0.7094678 -0.49719098 -0.20929155
0.26414785 0.13923347 -0.45144784 0.5037521 -0.35354322 -0.09115042 0.21908727 0.13382919
0.1656399 -0.48959133 -0.26508284 0.06687745 0.26851767 -0.019231463 -0.772112 0.20917873
0.038089175 0.31174827 -0.18006468 -0.13737233 -0.06310208 -0.035524625 0.2278332 0.20629714
-0.047428664 -0.11903608 -0.52625513 -0.09688707 -0.14223118 -0.19817092 0.26996556 0.4080707
0.16979837 -0.980597 -0.22239584 -0.24580167 -0.07871872 -0.4224442 -0.21989027 0.53558135
-0.06217478 0.073780455 -0.42655024 0.21778072 0.10622647 0.70873165 -0.22744586 -0.03689949
0.4413174 0.16393664 0.21233547 0.1864807 -0.24336189 -0.22237019 0.6311079 0.6279609
-0.20433635 0.67150956 -0.2533762 -0.1588259 0.3105722 0.4569183 0.49320477 0.0064647957
-0.4683413 0.035673503 -0.90309 0.053624265 -0.07788786 0.14495218 -0.10926746 0.14395674
-0.33918005 0.16641656 0.40734547 -0.027687317 -0.75106364 0.32876086 0.29125917 0.17383228
0.71176785 -0.54025155 0.83531725 0.096100144 -0.36735737 0.26998144 -0.11383047 0.1957984
0.19563003 0.3749686 0.20344792 0.8421253 -0.42492917 0.54398876 -0.45462012 -0.3643356
-0.44457436 0.17633773 0.42638066 -0.003391362 -0.29094493 0.08379631 -0.35583326 0.5637246
-0.5506007 0.7397022 -0.12563069 0.24386296 0.5293074 0.1593677 0.09377168 -0.13922048
0.38254654 0.35089797 0.11676117 0.3986035 -0.64686024 0.7948167 -0.6675723 -0.4003759
00000000: a7b2 783d 4d23 113e de58 14bd c98b 3dbe
00000010: 2abc 943e aa29 e93e ee80 92bb 5bad ef3e
00000020: 01eb bdbe 4b0a c83d 466f c7bd ecda 8fbe
00000030: 0835 16be e6a1 e53d 3ee6 b53e 2eba b1bd
00000040: 6b73 84be 50b3 f73d ecf7 a9be 83c7 d1be
00000050: 2a4b 1cbf 1b6b c8be 62f2 a3be bfcb cd3d
00000060: b4b6 4d3e b0f4 c5be 2a72 e93e 0f1b ed3e
00000070: 2f57 263d 110b f0bc 572d c1be c9e5 ac3d
00000080: 2efc 08be 0004 7b3e 1cfe 723e 9322 ed3d
00000090: 5b4c 4b3e 36e4 33bd e32e d13e 7d2c 99be
000000a0: 8347 8ebd b043 61bd 1697 c8bd 1c09 4c3e
000000b0: 7620 2fbe 972a d5be 322d 10bf cfd8 f93e
000000c0: 83bb d9be 1d6f 44be 3676 6e3d 6434 0abd
000000d0: d473 7e3e bbd6 f6bd 7feb 7f3c 5464 95ba
000000e0: 5d36 25bd 73c6 573e d519 01bf 7e5a 373e
000000f0: 25d9 efbe 07f4 3cbd ada2 0739 b298 2c3d
00000100: 9294 973e 30e8 cabe 2076 34bd 8a7a d23e
00000110: 432f b13e d401 cdbe 57c3 933e 329f b83e
00000120: 4e52 783e 9451 42bb 22ea 673f 26b4 1b3e
00000130: e41d d0be 4125 95be 726c d53e 39f8 9f3e
00000140: 63f7 a1be 7454 9d3d 0c58 4bbe 925f 383f
00000150: 7d27 de3e 8289 7d3e d0cf aabe 69f5 6e3e
00000160: 5939 ff3e 5390 8e3c 82d8 943d e221 2b3e
00000170: 282d 76bd c5e3 133f 392c 693e b809 423e
00000180: ad09 1dbe bb5c ebbd 9854 9d3e 7cca 82bd
00000190: 6281 7c3d b646 85be c613 1fbd c370 b8be
000001a0: 2618 38be 325f fbbe 1755 4cbe fc38 2ebe
000001b0: 5d41 fe3e c0af 98bd d31a 6c3d d615 ca3e
000001c0: d93b c73e 40f8 d9be 8521 ebbe 73b7 373e
000001d0: bb81 dd3e c644 6fbd 8b01 55be a4db 303d
000001e0: 29d8 aabe ea81 41be f768 863d 4244 133e
000001f0: 382c f0bc ee07 b53e b1a2 8abe 9a08 32be
00000200: 6524 64be 538c fd3e 091d 47bf 6506 48be
00000210: 1c77 9fbd af9f 35bf d18f febe 8650 56be
00000220: 633e 873e 3893 0e3e 2c24 e7be e6f5 003f
00000230: 9e03 b5be 12ad babd 6a58 603e 850a 093e
00000240: 829d 293e b7ab fabe f0b8 87be 0bf7 883d
00000250: 267b 893e 4d8b 9dbc 22a9 45bf f332 563e
00000260: 6503 1c3d 789d 9f3e e062 38be 55ab 0cbe
00000270: aa3b 81bd 4582 11bd 1b4d 693e 8f3f 533e
00000280: 8f44 42bd 30c9 f3bd a8b8 06bf ba6c c6bd
00000290: 0da5 11be 51ed 4abe ed38 8a3e a5ee d03e
000002a0: a0df 2d3e 6808 7bbf bcbb 63be 6fb3 7bbe
000002b0: 4837 a1bd 9b4a d8be ea2a 61be dc1b 093f
000002c0: fbaa 7ebd 351a 973d cb64 dabe e901 5f3e
000002d0: 438d d93d 706f 353f 91e7 68be eb23 17bd
000002e0: 5bf4 e13e 02df 273e 786e 593e ccf4 3e3e
000002f0: dc33 79be 03b5 63be 4a90 213f 0cc2 203f
00000300: 8c3d 51be 0de8 2b3f 86ba 81be 42a3 22be
00000310: 5203 9f3e 32f1 e93e 5685 fc3e a3d6 d33b
00000320: 6eca efbe 611e 123d e830 67bf 1ea5 5b3d
00000330: ac83 9fbd 586e 143e 9ec7 dfbd 6569 133e
00000340: 02a9 adbe 1a69 2a3e 968f d03e 83d0 e2bc
00000350: b545 40bf 5853 a83e ec1f 953e 1701 323e
00000360: 6b36 363f ed4d 0abf 5ad7 553f 27d0 c43d
00000370: 4416 bcbe 023b 8a3e f31f e9bd 607f 483e
00000380: 3d53 483e e2fb bf3e a754 503e 8695 573f
00000390: 5190 d9be d942 0b3f f8c3 e8be 328a babe
000003a0: 409f e3be e191 343e 914e da3e 9d41 5ebb
000003b0: bcf6 94be 669d ab3d c72f b6be 4150 103f
000003c0: 2bf4 0cbf 205d 3d3f 55a5 00be 36b7 793e
000003d0: b180 073f 4931 233e 5e0b c03d d08f 0ebe
000003e0: 24dd c33e e6a8 b33e 7b20 ef3d c215 cc3e
000003f0: a298 25bf 1b79 4b3f 05e6 2abf 12fe ccbe

network_body._body_endoder.seq_layers.0.bias f4 [128]
-0.038099244 0.01003587 -0.0127195325 -0.09790821 0.015511465 0.025544014 -0.04005906 0.039504085
0.0888928 -0.0071764914 0.0118582975 0.0012090665 -0.016105294 0.01028482 -0.08082859 0.031023031
-0.101243064 0.025064802 -0.076057725 -0.023733588 0.0029315413 -0.05721249 0.011030012 -0.017347675
-0.02935612 -0.06381631 0.028327115 -0.019359253 -0.0006455713 -0.03320797 -0.039829746 0.051961444
0.033268627 -0.0040273075 -0.101949394 -0.0063633393 0.007683387 0.013023419 0.04987186 0.021869157
-0.021743778 0.011585665 -0.0713608 -0.05532814 -0.029000832 -0.017062232 0.019812236 -0.076740794
0.024755979 -0.10897505 -0.063986026 0.08635011 -0.04423858 0.04558811 0.088983305 -0.022076039
-0.0027019223 -0.01087277 -0.054207135 -0.021533053 -0.020348882 0.022761509 -0.047119893 -0.05536772
-0.008984851 0.016605604 -0.01271048 -0.057541717 -0.0073579755 -0.064104296 -0.075274736 -0.02613179
0.0522777 -0.032281015 -0.0046405136 -0.032070342 0.022797085 -0.103058845 -0.021853326 -0.019603353
-0.015939197 -0.023018204 -0.056953937 -0.0029966675 0.0013434842 0.031228429 -0.0016807283 0.04217316
-0.0628958 0.023836397 0.03068608 -0.021369485 -0.06407688 0.05318778 -0.038916882 -0.018758602
0.007376837 -0.030119557 0.015920542 -0.029791946 -0.05121168 0.077026494 -0.034072135 -0.018819224
-0.061517097 -0.018861445 0.035604347 -0.009855275 0.04254151 -0.035441972 -0.021674344 -0.031516816
-0.035977505 -0.005145182 -0.0017249641 -0.0036001247 -0.02449028 -0.036001224 -0.054422457 0.06653856
0.050977435 -0.014898145 -0.0035597724 0.048404627 -0.019842524 0.055495474 -0.012804852 0.0113511495
00000000: f40d 1cbd 7d6d 243c 9665 50bc 1984 c8bd
00000010: cd23 7e3c ae41 d13c f814 24bd 09cf 213d
00000020: 6e0d b63d c628 ebbb 4e49 423c 8a79 9e3a
00000030: 40ef 83bc a981 283c 7689 a5bd 0324 fe3c
00000040: 8658 cfbd b354 cd3c 27c4 9bbd f16c c2bc
00000050: 1a1f 403b a557 6abd 39b7 343c b61c 8ebc
00000060: 3f7c f0bc 20b2 82bd 440e e83c 4c97 9ebc
00000070: 8e3b 29ba 1505 08bd 8424 23bd 86d5 543d
00000080: af44 083d 81f7 83bb d8ca d0bd 8f83 d0bb
00000090: ecc4 fb3b 2e60 553c 6f46 4c3d f226 b33c
000000a0: 0220 b2bc cdd1 3d3c 9c25 92bd c29f 62bd
000000b0: 2793 edbc 18c6 8bbc 454d a23c 472a 9dbd
000000c0: 0dcd ca3c 502e dfbd 1b0b 83bd 54d8 b03d
000000d0: 8333 35bd 99ba 3a3d e13c b63d cfd8 b4bc
000000e0: bc12 31bb b423 32bc 4d08 5ebd 1666 b0bc
000000f0: b3b2 a6bc 5876 ba3c ca00 41bd 43c9 62bd
00000100: 3235 13bc 7a08 883c 9e3f 50bc ddb0 6bbd
00000110: 2c1b f1bb 1d49 83bd a429 9abd 5612 d6bc
00000120: 2421 563d 1939 04bd 730f 98bb 315c 03bd
00000130: f4c0 ba3c 8410 d3bd bf05 b3bc 3697 a0bc
00000140: eb92 82bc ac90 bcbc 8848 69bd bd63 44bb
00000150: d917 b03a c3d2 ff3c e24b dcba c3bd 2c3d
00000160: 83cf 80bd 8c44 c33c 6061 fb3c 0f0f afbc
00000170: bd3a 83bd 6edb 593d 4f67 1fbd a4ab 99bc
00000180: 65b9 f13b 4abd f6bc cc6b 823c 3d0e f4bc
00000190: 57c3 51bd 11c0 9d3d 398f 0bbd c62a 9abc
000001a0: 5af9 7bbd 5183 9abc ddd5 113d 0578 21bc
000001b0: 0240 2e3d 9a2b 11bd 658e b1bc c717 01bd
000001c0: 265d 13bd ea98 a8bb 3118 e2ba 12f0 6bbb
000001d0: d79f c8bc 0576 13bd 15ea 5ebd 5e45 883d
000001e0: b7cd 503d 5917 74bc 124b 69bb ee43 463d
000001f0: ca8c a2bc 394f 633d 71cb 51bc 2cfa 393c

network_body._body_endoder.seq_layers.2.weight f4 [128, 128]
-0.059581716 -0.083229564 -0.15197843 0.06344652 -0.14376037 0.011864403 -0.0851692 0.012815891
0.11684211 -0.0036472818 -0.04467484 -0.14036271 0.13110265 -0.041721467 0.14149575 0.12327792
0.08090109 0.13506368 0.016692856 -0.19792584 -0.068579584 0.12896255 -0.021487886 -0.13291763
-0.03669613 0.037656393 -0.08900649 0.16572422 -0.0012507089 -0.029412054 -0.12817086 -0.044645842
0.06871908 0.0059344308 -0.067108326 -0.09119784 0.008302168 -0.077735916 -0.12806748 0.015400422
0.05291539 -0.022878753 -0.0021458915 0.030884486 -0.06315594 -0.060311258 -0.14661123 -0.018799607
0.10206613 -0.029225385 0.09474739 -0.06546404 -0.09784169 0.055073988 0.04179905 0.08296091
-0.16505547 0.07497538 0.015224371 0.02057268 -0.003941987 0.24682641 -0.20960188 -0.0029769274
0.019786349 0.08625951 0.08190942 -0.078738414 -0.036974717 0.12606385 0.20925032 0.08283713
0.22848934 -0.057138316 0.107740566 0.038312048 0.14348368 0.11537909 -0.114725135 -0.061488893
0.1648694 -0.014577041 -0.2193822 0.043258622 -0.05039122 -0.1183663 0.07919877 -0.07679927
-0.08905229 0.008332825 0.18357715 -0.1890546 0.02211366 -0.05350954 -0.07695788 -0.1391688
0.08255892 -0.041980688 -0.029587444 -0.034537736 -0.020511078 0.111073524 -0.07316593 -0.009794011
-0.007931222 0.012261077 0.20627965 -0.04104075 0.057789925 -0.031833157 0.065973744 0.09066784
0.115144305 0.06558014 -0.09653108 -0.10294898 0.02817582 -0.11007947 -0.06863279 0.046651024
-0.06067862 -0.012568201 0.07156654 -0.07688889 0.010355302 -0.050437067 -0.020670427 0.019487586
0.0001593262 -0.033819124 0.25659883 -0.22335254 0.06373041 0.038199708 0.041531447 -0.18048893
0.047784965 -0.06212481 -0.051588286 -0.0470384 0.066801704 0.044236064 -0.02849241 0.0660283
0.035762906 0.21483803 -0.14165014 -0.12627038 -0.052361898 0.081774876 0.13729645 -0.20562182
0.07740409 0.18101098 -0.11113113 0.1604399 0.058484357 -0.019849012 0.035250355 -0.083252005
0.094304435 -0.0044018473 0.080401346 -0.1321954 -0.08218061 -0.08879354 -0.0193852 -0.0077344575
-0.026047861 -0.08802409 -0.025892975 0.12103623 -0.030044107 0.0021740827 -0.109913975 -0.017405096
-0.07602186 -0.09706952 0.14046115 -0.14876628 -0.08110729 0.05077546 -0.081630066 -0.15618278
-0.2948632 0.008960913 -0.019849613 -0.017220428 0.004571737 0.04881252 0.09224076 -0.20793447
-0.10288577 0.18271841 0.06824393 0.14390287 -0.02824127 0.16092409 0.0068574473 -0.0557931
0.1289015 0.0003248959 0.23817484 0.3025792 -0.019739041 0.113482 0.054562684 -0.01744642
0.10644971 0.028118422 -0.16414708 -0.0027064476 0.086982384 -0.2213403 -0.06927332 -0.030253826
0.009733218 -0.092034884 0.13807014 -0.17168325 0.059805922 0.099367015 0.007534618 0.04604297
-0.071821675 0.067266285 -0.07643651 -0.02203993 0.011653012 0.05700198 0.002588108 -0.1263705
0.064741105 -0.036896672 0.015123968 0.035108898 0.0073450743 0.021056885 0.07483531 -0.11231204
-0.024650991 0.044030815 0.14333396 -0.10847532 -0.036172073 0.17775968 -0.21959035 -0.12467763
0.103745125 0.19480659 0.06942468 0.009214781 0.0830853 -0.10906019 -0.112372436 0.19919753
00000000: f50b 74bd 4374 aabd 3ca0 1bbe 40f0 813d
00000010: eb35 13be ea62 423c 316d aebd bef9 513c
00000020: eb4a ef3d 3c07 6fbb f7fc 36bd 3ebb 0fbe
00000030: c63f 063e 21e4 2abd 43e4 103e 2279 fc3d
00000040: 78af a53d 224e 0a3e 75bf 883c 12ad 4abe
00000050: 7473 8cbd c20e 043e 5d07 b0bc 8f1b 08be
00000060: ae4e 16bd 973d 1a3d 0949 b6bd 9cb3 293e
00000070: d4ee a3ba 8cf1 f0bc 393f 03be 8fde 36bd
00000080: 97bc 8c3d 9d75 c23b 1770 89bd efc5 babd
00000090: d105 083c 0234 9fbd 1f24 03be 0d52 7c3c
000000a0: cfbd 583d 396c bbbc 16a2 0cbb 7601 fd3c
000000b0: e757 81bd f008 77bd 4121 16be a201 9abc
000000c0: 0c08 d13d 136a efbc eb0a c23d 0312 86bd
000000d0: 3961 c8bd 4395 613d 7b35 2b3d 69e7 a93d
000000e0: 4d04 29be b18c 993d a46f 793c 0988 a83c
000000f0: c92b 81bb 10c0 7c3e e0a1 56be 8e18 43bb
00000100: fb16 a23c d3a8 b03d 20c0 a73d 9b41 a1bd
00000110: cd72 17bd e216 013e b745 563e 83a6 a93d
00000120: 1cf9 693e de09 6abd 16a7 dc3d 18ed 1c3d
00000130: 63ed 123e df4b ec3d 03f5 eabd c7db 7bbd
00000140: 86d3 283e 8bd4 6ebc baa5 60be f42f 313d
00000150: 0667 4ebd 086a f2bd f732 a23d f048 9dbd
00000160: 0c61 b6bd 6786 083c a6fb 3b3e 8797 41be
00000170: b527 b53c d22c 5bbd 189c 9dbd 4482 0ebe
00000180: a714 a93d f1f3 2bbd 5e61 f2bc 7177 0dbd
00000190: d906 a8bc 847a e33d 05d8 95bd 0f77 20bc
000001a0: f5f1 01bc afe2 483c f93a 533e 581a 28bd
000001b0: 21b5 6c3d 7c63 02bd 3e1d 873d 0fb0 b93d
000001c0: c7d0 eb3d e14e 863d 16b2 c5bd ead6 d2bd
000001d0: fad0 e63c 5871 e1bd 598f 8cbd 2515 3f3d
000001e0: 258a 78bd dbea 4dbc 7a91 923d ec77 9dbd
000001f0: 49a9 293c 1997 4ebd 0755 a9bc 6ea4 9f3c
00000200: cd10 2739 ec85 0abd ec60 833e 87b6 64be
00000210: 1785 823d 4c77 1c3d e11c 2a3d 17d2 38be
00000220: 2bba 433d 9676 7ebd 3d4e 53bd 56ab 40bd
00000230: 55cf 883d e030 353d ea68 e9bc d839 873d
00000240: 207c 123d 80fe 5b3e bc0c 11be 064d 01be
00000250: 6e79 56bd 9679 a73d 7197 0c3e 878e 52be
00000260: 0986 9e3d f15a 393e b898 e3bd 5b4a 243e
00000270: 4b8d 6f3d 659a a2bc ad62 103d 0780 aabd
00000280: af22 c13d 5f3d 90bb 76a9 a43d 3b5e 07be
00000290: 4f4e a8bd 63d9 b5bd b6cd 9ebc 5571 fdbb
000002a0: 5362 d5bc f945 b4bd 811d d4bc d8e1 f73d
000002b0: 0f1f f6bc 0e7b 0e3b 941a e1bd 2295 8ebc
000002c0: 59b1 9bbd 62cc c6bd 0cd5 0f3e 3056 18be
000002d0: 941b a6bd eef9 4f3d aa2d a7bd 61ee 1fbe
000002e0: 4ff8 96be cbd0 123c a89b a2bc db11 8dbc
000002f0: 82ce 953b a3ef 473d b9e8 bc3d c6ec 54be
00000300: c6b5 d2bd 891a 3b3e 79c3 8b3d 465b 133e
00000310: 3c5a e7bc 49c9 243e 70b4 e03b 4e87 64bd
00000320: c1fe 033e ca56 aa39 1be4 733e a9eb 9a3e
00000330: c5b3 a1bc 4069 e83d 1f7d 5f3d cbeb 8ebc
00000340: 4e02 da3d 9b58 e63c 2c16 28be a85e 31bb
00000350: d223 b23d 08a7 62be 2cdf 8dbd dfd6 f7bc
00000360: 1378 1f3c c97c bcbd 4262 0d3e bccd 2fbe
00000370: 0ef7 743d ef80 cb3d f5e4 f63b 8e97 3c3d
00000380: 3e17 93bd e8c2 893d bf8a 9cbd 158d b4bc
00000390: 46ec 3e3c e87a 693d 3f9d 293b 4567 01be
000003a0: fc96 843d f720 17bd 85ca 773c 59ce 0f3d
000003b0: f3ae f03b 7d7f ac3c 4143 993d db03 e6bd
000003c0: e0f0 c9bc a859 343d 23c6 123e 4f28 debd
000003d0: 2b29 14bd a206 363e 4bdc 60be fc56 ffbd
000003e0: 5378 d43d 617b 473e 872e 8e3d 98f9 163c
000003f0: a028 aa3d f35a dfbd 8523 e6bd 70fa 4b3e

network_body._body_endoder.seq_layers.2.bias f4 [128]
-0.022009993 0.0020709054 -0.05449124 -0.0300616 0.0030702916 -0.006026727 0.0106078815 -0.08450289
-0.04551655 0.020581469 -0.043197066 0.018184373 0.00944215 -0.1157058 -0.06447272 -0.024018768
0.011124003 -0.09820607 -0.032652665 0.02483466 -0.09110885 0.011486788 -0.066150345 -0.017852912
-0.031382512 -0.11004559 -0.04307425 -0.056347936 0.024212867 0.022442069 -0.04680823 0.017496817
0.01027305 0.0006750375 -0.023954798 0.003278728 -0.02004273 -0.083622195 -0.0316794 0.0019056132
-0.07268529 -0.05048739 -0.0294058 -0.031900007 0.042658914 -0.06647099 0.01264823 0.011612128
-0.03881939 -0.05237789 -0.02844014 -0.0767069 -0.09618261 -0.073406644 0.03652773 0.012391329
0.007225821 0.020414053 -0.061855532 -0.05129335 -0.046098463 -0.021767832 -0.069141954 0.006395341
-0.00401323 0.02218783 -0.08424376 -0.09141926 0.021358818 -0.006751582 -0.040148716 0.04556887
0.019980485 -0.012648741 -0.004167264 0.029528981 -0.03291369 -0.04467874 0.030376086 -0.018774055
-0.07339214 0.026869489 0.015227659 -0.028699057 -0.048088815 -0.009137827 -0.080407776 -0.0020704945
0.02896549 -0.029502219 -0.034362853 -0.057216097 0.0030457533 -0.022526568 -0.046850447 -0.026796168
-0.08123016 0.013955169 -0.10266215 -0.081232175 -0.021466704 0.041885663 -0.023205647 -0.092857346
-0.01577396 -0.024160486 -0.003701988 -0.07086968 -0.037280373 -0.1038224 0.026533438 -0.056511056
-0.04156332 -0.021240158 0.002249175 0.002177587 -0.018640487 -0.050867062 0.008565737 -0.039072208
-0.08555769 0.0042727436 -0.07753624 0.034561485 -0.048129845 -0.08835185 0.045548744 0.0110356985
00000000: 4d4e b4bc 07b8 073b 3532 5fbd bf43 f6bc
00000010: f236 493b da7b c5bb aecc 2d3c da0f adbd
00000020: 906f 3abd 789a a83c 68ef 30bd 65f7 943c
00000030: 3fb3 1a3c 2af7 ecbd 460a 84bd 02c3 c4bc
00000040: 7341 363c 4420 c9bd cdbe 05bd 0f72 cb3c
00000050: 4797 babd 1533 3c3c d579 87bd 4540 92bc
00000060: f38a 00bd 955f e1bd a06e 30bd 18cd 66bd
00000070: 105a c63c 6ed8 b73c fdb9 3fbd 7c55 8f3c
00000080: 4b50 283c 00f5 303a da3c c4bc eedf 563b
00000090: a730 a4bc 1d42 abbd 42c2 01bd c5c5 f93a
000000a0: 06dc 94bd decb 4ebd 6fe4 f0bc 95a9 02bd
000000b0: 1dbb 2e3d f121 88bd 863a 4f3c cb40 3e3c
000000c0: 1501 1fbd 338a 56bd 4cfb e8bc 8218 9dbd
000000d0: 63fb c4bd 3956 96bd 1a9e 153d 0005 4b3c
000000e0: 94c6 ec3b 5f3b a73c 3a5c 7dbd fa18 52bd
000000f0: bed1 3cbd 7452 b2bc 4c9a 8dbd 0290 d13b
00000100: 6a81 83bb 41c3 b53c fe87 acbd 053a bbbd
00000110: b0f8 ae3c 603c ddbb fb72 24bd 6ca6 3a3d
00000120: 1dae a33c aa3c 4fbc 8b8d 88bb c3e6 f13c
00000130: 81d0 06bd 0e01 37bd 45d7 f83c 0ccc 99bc
00000140: 9e4e 96bd 671d dc3c 6e7d 793c 491a ebbc
00000150: c7f8 44bd d3b6 15bc d5ac a4bd 22b1 07bb
00000160: 0949 ed3c a3ae f1bc 10c0 0cbd 6d5b 6abd
00000170: 439b 473b a389 b8bc 41e6 3fbd a383 dbbc
00000180: 005c a6bd 39a4 643c 8940 d2bd 0e5d a6bd
00000190: f1da afbc 4d90 2b3d c519 bebc fe2b bebd
000001a0: 6438 81bc 36ec c5bc 0d9d 72bb 1f24 91bd
000001b0: 4eb3 18bd d7a0 d4bd a75c d93c 2378 67bd
000001c0: 4d3e 2abd d7ff adbc e566 133b d9b5 0e3b
000001d0: efb3 98bc fb59 50bd 4e57 0c3c 2e0a 20bd
000001e0: df38 afbd 5f02 8c3b 52cb 9ebd 5890 0d3d
000001f0: cd23 45bd d1f1 b4bd 5291 3a3d 13cf 343c

action_model._continuous_distribution.log_sigma f4 [1, 2]
0.0027247155 -0.12234753
00000000: 2491 323b 5891 fabd

action_model._continuous_distribution.mu.weight f4 [2, 128]
0.018977875 -0.06949036 0.05086665 0.07021295 0.05809447 -0.030449264 0.03532243 0.020764496
0.06866137 -0.08797456 0.05904278 0.06823052 0.01414493 5.9908845e-05 -0.02776971 0.06320971
0.052039083 0.00602332 0.0066225296 -0.053629216 0.0054515232 0.0529576 -0.0067147287 0.01784953
-0.014107071 0.0031948094 0.029955855 -0.0026708923 0.05846429 0.0329316 0.006474133 -0.06868371
-0.07192024 0.0064011086 0.029402187 -0.012515747 0.028014483 -0.0052988348 0.0868753 -0.09203944
0.011166682 -0.0042215586 0.06418711 0.009893245 0.07064606 -0.0031475392 -0.058775794 0.00047769124
0.011555416 0.001671976 0.020788843 0.00059550547 0.0042117075 0.005736538 -0.09324289 0.06478002
0.040443454 0.060762305 0.004051994 0.015785731 0.06401117 -0.08033616 0.0016306313 0.009378782
0.08307772 0.0110684 0.0013363203 0.0012312592 -0.0611478 -0.0026629518 0.03567346 0.08695486
0.0686499 0.030431123 0.003437065 -0.08353273 0.047704473 0.095118575 0.062193613 0.031187577
-0.009978129 -0.07865739 -0.03228765 0.057337433 0.0008124214 0.039073586 0.0009635171 -0.023740489
-0.09780123 -0.0042869733 0.029152025 0.04270257 0.0322442 -0.08839111 0.012409458 0.00259712
0.0050057443 -0.05973727 0.00043480945 0.004064225 0.012033959 -0.115842566 0.080558136 -0.0013739925
0.011392815 0.021231424 0.03818957 -7.9787416e-05 0.026399646 0.007510495 -0.060200043 0.0030678574
0.0067003663 0.0027217013 -0.10310977 0.035329383 0.0005859434 -0.010135949 -0.063009724 0.066794135
-0.004360388 -0.027388778 0.004634197 -0.11241792 0.052046552 0.00042606436 -0.044469725 -0.07841176
0.0021181768 0.031739116 -0.013757812 -0.050052196 0.033437047 -0.01851884 0.01790136 0.00306881
-0.00950738 -0.0006874833 -0.05298779 0.051776566 0.04821643 0.004143381 -0.014230495 0.07417318
0.037501205 -0.0007691368 -0.00035111015 0.04173245 0.0011377538 0.03968217 -0.008628734 0.020899357
0.020165008 0.003273785 -0.029685808 -0.0011968877 0.043846384 0.02515177 -0.062063925 0.01122915
0.0010761571 -0.10155118 0.032064248 -0.06583911 0.034887012 -0.004157982 -0.067701325 0.026251141
-0.011698515 -0.019619644 -0.043746255 0.013522887 0.036896054 -0.007328726 0.013457677 0.06999295
-0.002620857 0.034321066 -0.023195231 -0.00025509295 -0.00025146507 0.012105491 -0.0146615915 0.035167236
0.029320244 0.037390273 0.016858233 0.007825639 -0.033552174 0.037016645 0.009403143 -0.10169896
0.034948085 0.07386952 0.0018390942 -0.0033596738 0.003082843 -0.067581244 0.012518386 0.046647273
0.04343553 0.02169429 0.016754813 -0.012522075 0.015630271 -0.05487068 0.036603693 0.02471945
0.0016437534 0.0034635235 0.034828372 -0.042346753 0.013690728 0.010448897 -0.00029405148 0.054733876
0.022472816 0.0027366828 0.019555025 -0.039569024 0.029493766 0.021291204 0.050290417 -0.01656033
-0.0013922835 0.015970808 0.0011687803 -0.005580344 0.043429147 -0.017378533 0.08386425 -0.0028416978
0.055447474 0.01562274 -0.07423355 0.0016916838 0.04601714 -0.004928532 -0.041775133 -0.0009447797
0.0511679 -0.02017038 0.030113041 0.06244264 -0.01588091 0.03229453 0.018565433 -0.016197301
0.007864932 -0.056589607 -0.0027351598 0.03491039 -0.07119226 0.02110881 -0.02611767 0.027624592
00000000: 7d77 9b3c f650 8ebd 8c59 503d cfcb 8f3d
00000010: 78f4 6d3d bc70 f9bc 41ae 103d 4e1a aa3c
00000020: 559e 8c3d 022c b4bd d8d6 713d 71bc 8b3d
00000030: 23c0 673c a246 7b38 4e7d e3bc 1874 813d
00000040: ef26 553d 455f c53b ce01 d93b 4faa 5bbd
00000050: b1a2 b23b 12ea 583d 3a07 dcbb 2d39 923c
00000060: 5821 67bc 0260 513b fb65 f53c 230a 2fbb
00000070: 4078 6f3d 49e3 063d f724 d43b 0caa 8cbd
00000080: eb4a 93bd 64c0 d13b dbdc f03c d90e 4dbc
00000090: a17e e53c d9a1 adbb adeb b13d 2d7f bcbd
000000a0: 75f4 363c 0055 8abb 8874 833d 4717 223c
000000b0: e2ae 903d f246 4ebb e3be 70bd a272 fa39
000000c0: ed52 3d3c 3426 db3a 5d4d aa3c b21b 1c3a
000000d0: 5d02 8a3b 92f9 bb3b 21f6 bebd 63ab 843d
000000e0: 09a8 253d e5e1 783d 97c6 843b 1451 813c
000000f0: 4a18 833d 4987 a4bd e8ba d53a 76a9 193c
00000100: a724 aa3d 3c58 353c 7827 af3a 3462 a13a
00000110: 1e76 7abd eb84 2ebb 561e 123d 6415 b23d
00000120: 5298 8c3d b14a f93c 6240 613b 3513 abbd
00000130: c465 433d 87cd c23d bbbe 7e3d 177d ff3c
00000140: 4e7b 23bc 2017 a1bd 0e40 04bd a8da 6a3d
00000150: adf8 543a a00b 203d 8a94 7c3a 6a7b c2bc
00000160: 034c c8bd bd79 8cbb 3ad0 ee3c e4e8 2e3d
00000170: 7f12 043d 6606 b5bd 0a51 4b3c 7134 2a3b
00000180: 3a07 a43b 11af 74bd 23f7 e339 312d 853b
00000190: 152a 453c de3e edbd aafb a43d 8a17 b4ba
000001a0: eea8 3a3c 86ed ad3c ab6c 1c3d 8b53 a7b8
000001b0: 1244 d83c 991a f63b 5294 76bd 1b0e 493b
000001c0: bf8e db3b 925e 323b 372b d3bd 8bb5 103d
000001d0: ff99 193a 4011 26bc 3e0b 81bd 5dcb 883d
000001e0: 96e1 8ebb 6e5e e0bc 76da 973b 5e3b e6bd
000001f0: c42e 553d 6461 df39 e325 36bd 5896 a0bd
00000200: 1cd1 0a3b e000 023d 7268 61bc 8803 4dbd
00000210: 49f5 083d d3b4 97bc dfa5 923c 171e 493b
00000220: d8c4 1bbc 3938 34ba ba09 59bd aa13 543d
00000230: 977e 453d 33c5 873b 0627 69bc 1ce8 973d
00000240: dd9a 193d e69f 49ba 3515 b8b9 a5ef 2a3d
00000250: af20 953a c589 223d 895f 0dbc 2135 ab3c
00000260: 1631 a53c 008d 563b a72f f3bc e3e0 9cba
00000270: 4498 333d 160b ce3c be36 7ebd 78fa 373c
00000280: d70d 8d3a 11fa cfbd cd55 033d a8d6 86bd
00000290: afe5 0e3d ae3f 88bb fea6 8abd a20c d73c
000002a0: 21ab 3fbc 60b9 a0bc 462f 33bd 198f 5d3c
000002b0: 5120 173d cf25 f0bb 977d 5c3c 7758 8f3d
000002c0: afc2 2bbb 3f94 0c3d ed03 bebc ffbd 85b9
000002d0: 12d7 83b9 1c56 463c 2c37 70bc 850b 103d
000002e0: 0231 f03c 8b26 193d 471a 8a3c 1c37 003c
000002f0: 016e 09bd c49e 173d a40f 1a3c 8b47 d0bd
00000300: b925 0f3d e748 973d c30d f13a f92d 5cbb
00000310: 8609 4a3b 0968 8abd eb19 4d3c 3611 3f3d
00000320: 74e9 313d 39b8 b13c 6441 893c 6429 4dbc
00000330: 0e0b 803c 14c0 60bd c1ed 153d 7280 ca3c
00000340: 3673 d73a 48fc 623b 32a8 0e3d ca73 2dbd
00000350: 134f 603c da31 2b3c ec2a 9ab9 a130 603d
00000360: e918 b83c eb59 333b dc31 a03c 2113 22bd
00000370: e99c f13c e46a ae3c 53fd 4d3d 87a9 87bc
00000380: 487d b6ba 36d5 823c c231 993a 51db b6bb
00000390: c3e2 313d 6d5d 8ebc 05c1 ab3d c73b 3abb
000003a0: e41c 633d 85f6 7f3c c207 98bd 7dbb dd3a
000003b0: 787c 3c3d 867f a1bb 671c 2bbd 18ab 77ba
000003c0: 6f95 513d 5a3c a5bc a0af f63c dbc3 7f3d
000003d0: af18 82bc 4547 043d 8916 983c 34b0 84bc
000003e0: eadb 003c 81ca 67bd 5e40 33bb 32fe 0e3d
000003f0: 3fcd 91bd 62ec ac3c b9f4 d5bc f84c e23c

action_model._continuous_distribution.mu.bias f4 [2]
-0.02783662 0.046718996
00000000: a009 e4bc 6b5c 3f3d
