GameAI3/Config/results/dwarf_2/Dwarf/Dwarf-10880.pt (torch, 583135 bytes, 36 tensors)

network_body._body_endoder.seq_layers.0.weight f4 [128, 53]
00000000: e52e 95bb 09fa 98bc 3242 ccbc 0e0d 713e
00000010: f348 843c a320 5e3c a2ff 43be f29c e0bc
00000020: aa36 6bbb d5a4 ebbd 2f4a 33be a0bc 4f3e
00000030: e42b 9cbd bb92 8b3d ab12 ad3d f5b2 b3bd
00000040: 7fd4 bd3d 9c19 7b3d 96a8 65be aa25 cebd
00000050: e3fc 81bd d999 17bd d6f7 3e3e 2d0a 5dbe
00000060: 1cdb 81be 5e44 db3c 7eb7 2f3d 0194 753e
00000070: c02d 3abe 19b2 eabd 1649 0dbe affe 1c3e
00000080: 565e 32bd 28fc bdbc 0192 dfbd e86d 423d
00000090: 3da0 04be a2d2 c8bc b425 54bd a867 933e
000000a0: 7f66 6fbe 7d5d 4bbd 88f2 3dbd 1a98 963e
000000b0: 2ce7 983e 4a9c a43e b13f efbd 9de3 833d
000000c0: d573 1a3d 4be4 ff3c bcd0 bfbd 0860 5b3e
000000d0: b1a9 103e de59 e7bd 4494 3e3e 03e7 013e
000000e0: da87 383e 767b c63c 4ed4 b5be 9735 efbd
000000f0: d50f da3c c098 183e 15d9 1d3d 965b 0ebd
00000100: d645 783e cd00 2e3e b791 1cbd ee45 34bd
00000110: 5722 bfbd 6052 8d3e 6c16 0cbe 5e65 513e
00000120: 5799 aa3d e0aa 773c 09e7 5c3c a464 2bbd
00000130: 31a1 4e3d 5aa9 22be 5a6e a23e 7b6d 0e3e
00000140: 3312 293d fe5b 3ebd bdbe 2cbd 4709 5cbe
00000150: ef68 33be d384 b83d f25e 1f3e fec5 31be
00000160: 1739 2c3e c4c1 943d 6de0 f83d a4ee b3bd
00000170: 3378 d8bc 4d03 52bd f2b5 813e bd44 a7bc
00000180: 7757 93bc ed2d 76be 095a c9bd 37fb 55be
00000190: 9663 3e3e dcec d63d 4a16 b33b 30d4 79be
000001a0: f323 933c d806 25bd 7476 973d b9fb 62bd
000001b0: 7a0f 4dbd 519c d93d 04b1 283e 18b6 52bc
000001c0: 4dee b9bd ed4f 1cbe 7183 b53d 4c56 803e
000001d0: 24fc 53bd bec5 94bc fe45 69be 5335 21bd
000001e0: 8ddd 143d a70c b4bd 8e9f 42bd 2c4b 81be
000001f0: 6913 89bd ec54 b6bc 66f8 753e 6540 f4bd
00000200: 3234 7ebe 5719 31be 5adb 8dbd 71e9 483d
00000210: f7a2 9cbc 2a6a 01be 78eb 32bd 2de0 423d
00000220: 1ad6 043e 0b62 0e3e 969f ecbd 45c7 81bd
00000230: 6e68 76be a6f4 83be d649 32be 60f7 ce3c
00000240: 3660 9dbd c81b 8fbd 2781 c83c 7205 243e
00000250: 0be5 afbe 4d0d ed3c a10e 34be d5c7 be3d
00000260: 6e96 0dbe 72b8 903d a515 e43c 88eb c5bd
00000270: 5249 50be 1201 bcbe 9678 e73e 0c32 2bbe
00000280: a3b9 12be 45e7 a73d a11a 513c 7874 c13d
00000290: 3135 be3d edde c63d 6fd8 b4bd 6aa3 c1be
000002a0: 82d0 c7bd 5136 91bd 771e 2f3d 30cf d03d
000002b0: 34d2 01be 55d5 78bc 7513 9e3e f837 ee3b
000002c0: 36c3 a7ba 76c6 49bc a73a 68be 64f3 f5bd
000002d0: 3111 3e3e 9145 2d3d e8c7 33bd 5a0c ab3e
000002e0: 6954 90bd 12d5 65be 23f2 3a3d cb1c cdbd
000002f0: c21e a13d 8a02 de3c 7d5a 63be 5f30 d23d
00000300: 2d6f ed3d 1592 5abd e808 26be a09c 64be
00000310: 4941 d6bd 1d68 41be d3c4 043d 2b43 eabd
00000320: 1dfb 6ebd 4ee6 ad3d f450 8b3e fdbb 8a3d
00000330: bca9 8a3d aaea b7bd 7127 48bd b47c 94bb
00000340: ec44 d9bd f7fd f23e 5e87 0bbe b63d 0fbe
00000350: 6e23 61be deb7 8cbe ff14 e3ba 873e f23c
00000360: 3530 853d faf2 a2bd dc7c 04bc bd18 7f3e
00000370: a041 753e 89a8 b9bd 11cb e0bc 53e4 f93d
00000380: bd60 a5be e859 8e3e 61ef d83d eca9 9a3e
00000390: deaf fabd 081f 11be ac32 fabd af17 ce3d
000003a0: f09f 9ebd 673b 72bd 0d20 da3e 0881 9b3c
000003b0: 4ca4 59be 71cf 943d 9112 6fbe 8509 0e3e
000003c0: a4c0 e7bc 0828 063e 8e41 80be 8aef 55be
000003d0: 2afc b23e 8907 1bbe d7a1 963d c12c 10be
000003e0: 6a07 1ebd cc68 143e e161 413d 8394 253e
000003f0: 62ad 26be 63ff 17bd 38ef cd3d 828e 8e3e
-0.0045527094 -0.018673914 -0.024933908 0.23540136 0.016148066 0.013557586 -0.19140485 -0.027418587
-0.0035890737 -0.115060486 -0.17508768 0.20286798 -0.07625559 0.06815096 0.08450826 -0.08774368
0.09269046 0.06130372 -0.22427592 -0.100657776 -0.063470624 -0.037011955 0.1864923 -0.21585913
-0.2536248 0.026765998 0.0428996 0.2398224 -0.18181515 -0.11459751 -0.13797411 0.15331529
-0.043546997 -0.023191527 -0.1091652 0.047468096 -0.12951751 -0.0245145 -0.05179377 0.2879002
-0.23378943 -0.049649704 -0.046373874 0.2941292 0.2986387 0.3215049 -0.1168207 0.06439898
0.037708122 0.031236788 -0.09365985 0.21423352 0.14127232 -0.11296438 0.18611246 0.1268578
0.18020573 0.024228793 -0.35513538 -0.11680143 0.026618877 0.1490202 0.038537104 -0.034755312
0.2424539 0.16992493 -0.038224902 -0.044012003 -0.09332722 0.2760191 -0.13680428 0.20448825
0.083300285 0.015116423 0.013482817 -0.041844025 0.050446693 -0.15884915 0.31724817 0.13908951
0.04127712 -0.04647445 -0.04217409 -0.21487914 -0.17520498 0.09009709 0.15563563 -0.17360684
0.16818653 0.0726352 0.12152181 -0.087857515 -0.026424503 -0.05127268 0.25334126 -0.02041852
-0.017986042 -0.24040957 -0.09831626 -0.20896612 0.18592677 0.10494396 0.0054653035 -0.2439735
0.017961478 -0.04028973 0.0739564 -0.055415843 -0.050063588 0.10625518 0.16473776 -0.012860797
-0.090786554 -0.15264864 0.08862961 0.2506584 -0.051754132 -0.018160697 -0.22780606 -0.039357495
0.0363441 -0.08791476 -0.047515444 -0.25252664 -0.06693155 -0.02225729 0.24020538 -0.11926345
-0.24824598 -0.17294823 -0.069266036 0.049050752 -0.019120676 -0.12638155 -0.04368159 0.047577072
0.12972298 0.13904588 -0.11553876 -0.06336836 -0.24063274 -0.2577259 -0.17410979 0.025264442
-0.076843664 -0.06987721 0.024475647 0.16017702 -0.34354433 0.028937006 -0.17583705 0.09315459
-0.13826916 0.0706643 0.027842352 -0.09664065 -0.2034047 -0.36719567 0.45209187 -0.1671831
-0.14328627 0.08198408 0.0127626965 0.09446043 0.09287489 0.097104885 -0.08830344 -0.37819988
-0.097565666 -0.07090438 0.042753663 0.10195768 -0.12677842 -0.015187581 0.3087422 0.0072698556
-0.0012799266 -0.012315383 -0.22678624 -0.12009314 0.18561246 0.04230267 -0.043891817 0.3340786
-0.0704735 -0.22444561 0.045641076 -0.100152574 0.07867195 0.02710082 -0.22202487 0.10263132
0.11593471 -0.05336197 -0.16214335 -0.22325373 -0.10461671 -0.18887372 0.03241427 -0.114385925
-0.05834495 0.08491193 0.272102 0.06774137 0.067706555 -0.089803055 -0.04886574 -0.0045314673
-0.10608849 0.47459385 -0.13625857 -0.13988385 -0.21986172 -0.2748403 -0.0017324983 0.029570831
0.065033354 -0.079565 -0.008086409 0.2491178 0.23950815 -0.09065349 -0.02744058 0.122017525
-0.32300368 0.27802968 0.10592533 0.30207765 -0.12240575 -0.14171994 -0.12216696 0.10063111
-0.077453494 -0.05913868 0.42602578 0.018982425 -0.2125408 0.07266129 -0.23346926 0.13870819
-0.0282901 0.13101208 -0.25050014 -0.20892158 0.3495801 -0.15139593 0.07355087 -0.14079572
-0.03858129 0.14493102 0.047212485 0.16169934 -0.16277078 -0.03710879 0.10055393 0.278431

network_body._body_endoder.seq_layers.0.bias f4 [128]
00000000: 2b1b bb39 1143 163a fec5 84b9 62e5 8cbb
00000010: 68d5 12bb 9262 0f3a c556 8bbb 502a 9f3b
00000020: 20cf 40ba 2f06 32ba 2bbc 29ba 9266 d0bb
00000030: 25f8 3fbb 34b6 92ba 9cea 7e39 766b 7839
00000040: 5e42 d6ba 4fee 743a e078 d1ba 258a 0e3b
00000050: 937a 55bb 1cfb 3cba 0ef8 7cba 9ead 04bb
00000060: f3f3 863a b919 45b9 c09b c4b6 3f39 bcb8
00000070: 4278 e5ba 4e16 a1ba 64a4 2dba 488e 9837
00000080: 4f2d ab3a 7f46 fcb8 1aef cd3b bd05 d23a
00000090: e6e8 9dba a4fb 3eba 01d8 f83a a1fe 513a
000000a0: 0156 1dbb 90eb b0ba e5f0 37ba ce3f cd39
000000b0: 2892 663c 839c b9ba 2461 993a e1c1 22bb
000000c0: a266 72ba 7a7e 85ba 1e34 0bba cf87 aaba
000000d0: 9c11 3e3a 2ca4 6fb9 19ca 263a 66d9 6cba
000000e0: 4842 9fba fd6e 13bb 0502 31bb 4e8a bf39
000000f0: 522a 573a a849 d9bb 2229 fbba 8bed 74ba
00000100: 3b39 593b 22e5 c4ba a9c4 33bb fbf1 1cbb
00000110: 42bc 273a d482 a4bb 0aeb 12bb 717b 13ba
00000120: 18d0 46ba 85ee ea38 ebd0 e239 b618 6c3a
00000130: 6102 d5ba 1741 93ba 4c47 1d38 1f5a 223a
00000140: 6ed8 0bbb 4cf7 abba 86d2 68bb 02d2 b439
00000150: e610 c3ba f704 223b 04e2 c7ba 96b8 72b9
00000160: 9101 cdbb 718d 79ba c8c1 a938 5a31 6aba
00000170: c6cb f639 236d 3db8 8496 a7b9 921b e3ba
00000180: 1a6e fbba afd6 57ba a42f 6639 6f18 913a
00000190: fadd 50ba 6d8a c2ba 4bef 68ba 61f7 14ba
000001a0: f2f3 27ba 2c3e c439 58c2 3e3a 22bc f6ba
000001b0: 3af7 7dba 9871 eeba c00f a7ba f44a 56bb
000001c0: 0ea8 50b9 70d9 1dba 27c8 6a3b 749c 38bb
000001d0: 49fe 2ebb f125 023b 13f0 093a ea2f 1938
000001e0: 28ff 7c3a ccb1 81ba 62e1 053a 4a26 8c38
000001f0: 8d29 62ba 5119 4bba 1d0d 9139 3444 bdba
0.0003568766 0.00057320396 -0.00025324518 -0.0042998055 -0.0022405032 0.0005469705 -0.004252287 0.004857339
-0.0007355083 -0.00067910826 -0.00064748776 -0.0063598836 -0.0029292193 -0.0011193217 0.00024310726 0.00023691155
-0.0016346683 0.0009343372 -0.0015981458 0.002174982 -0.003257428 -0.0007209049 -0.000965 -0.0020245085
0.0010296091 -0.00018796966 -5.859387e-06 -8.9752015e-05 -0.0017507153 -0.0012289973 -0.00066239224 1.8186067e-05
0.0013059768 -0.00012029427 0.0062846066 0.0016023439 -0.0012047559 -0.0007285422 0.0018985273 0.000801066
-0.002400756 -0.0013497937 -0.0007016792 0.00039148185 0.014072932 -0.0014161024 0.0011701924 -0.00248348
-0.0009246861 -0.0010184788 -0.0005310195 -0.0013010445 0.0007250549 -0.00022853975 0.00063625124 -0.00090350804
-0.0012150491 -0.0022496574 -0.002700926 0.00036533404 0.00082079053 -0.006631095 -0.0019162039 -0.0009343258
0.0033145684 -0.00150219 -0.002743045 -0.0023947943 0.0006398597 -0.0050204787 -0.0022417926 -0.0005625999
-0.0007584109 0.00011202417 0.00043261735 0.0009006368 -0.0016251319 -0.0011234608 3.7498117e-05 0.00061932387
-0.002133872 -0.0013119965 -0.0035525872 0.00034488743 -0.0014882355 0.0024722198 -0.0015249853 -0.00023147682
-0.0062562902 -0.00095196726 8.0946425e-05 -0.00089337456 0.000470726 -4.5162753e-05 -0.00031964865 -0.0017326942
-0.0019182593 -0.00082335895 0.00021952257 0.0011069904 -0.00079676474 -0.001484228 -0.0008885755 -0.0005682614
-0.0006406895 0.00037430355 0.0007276884 -0.0018824378 -0.0009688024 -0.0018191813 -0.0012745783 -0.0032698484
-0.00019899031 -0.00060214754 0.0035824866 -0.0028169425 -0.0026701859 0.001985904 0.0005261909 3.6522666e-05
0.00096510584 -0.0009894907 0.0005107132 6.682852e-05 -0.00086274074 -0.0007747608 0.00027666325 -0.0014439882

network_body._body_endoder.seq_layers.2.weight f4 [128, 128]
00000000: b762 10be 2314 933c b664 c4bd 7be7 35bd
00000010: 580c 9f3d 6a1c f83b 2928 21bd 9397 71bd
00000020: c6a9 483d 05d6 8e3d f5f7 03be 13e0 ca3c
00000030: 9e2a ff3d 0ff4 cd3d c833 4cbd 3a91 e3bc
00000040: bdae 843d 4152 ffbd 4944 973c 7508 75bd
00000050: f218 10bd 0fa0 abbb 4315 2a3c a46e 18bd
00000060: c4e7 073d d0fa 4cbe 52b0 6ebd b4de 20bd
00000070: 5278 27bd 8c7d b7bc fcd0 babd 1a1d f83d
00000080: 1f5d 3b3b 6c3a 053d 50da 1d3e 44ab a9bb
00000090: 4514 df3c 7f4d 363d 7735 eebc 9a55 19bd
000000a0: 9ebe 77bc 5dce 42bc a759 573d f243 eabd
000000b0: 158c aebd 5388 ea3d 0306 da3d 6bc2 c5ba
000000c0: 8f49 c23d 208c 9c3c 7485 723d 9a73 cabc
000000d0: 9b96 0c3e b38f fe3b 0ce0 04bc a31c 523e
000000e0: eb8e b73c e615 eb3d c8f2 3dbd c6a8 623c
000000f0: 750e df3c e9d5 ff3d 014b a2bb 9d88 293d
00000100: 9c39 28bd d953 393e f279 57b9 a8d7 74bd
00000110: e7f5 ecbd 5a5b 98bd 7335 0cbe fd37 343d
00000120: 8048 883d c772 8dbc b399 cb3b 4d69 6d3c
00000130: 6d36 f3bd 9dd2 e5bd 1ac1 29be 4a4d 9f3d
00000140: baa1 59bd 1ea7 e43c 3f3f 03bd 16b8 483d
00000150: c83c 023e c2f2 db3c 34b9 7d3c c8a9 893d
00000160: 3d41 01bd 59e2 77bc 8553 8ebd 527e f4bc
00000170: 3499 68bc 1763 21bd 3e67 bdbd 6177 e1bd
00000180: b3f7 cabd 4089 2a3e bb9c 7c3d cbf5 67bd
00000190: bae0 a13d cc3e 84bd 0de7 37bd eae3 0abd
000001a0: f852 ba3d 0f31 d9bc 1fff d0bc 1234 88bd
000001b0: 5aa2 b63d a27e 29bc ccb1 613d f8c0 3fbd
000001c0: 8e01 e63c 050f a5bd 8a49 90bd a44a 1f3e
000001d0: d292 3c3d 0e5b 9a3d 0ccd dd3d bde4 243a
000001e0: 0a2c b3bd f77d c6ba da68 cf3d 9fd8 4b3e
000001f0: 6cd1 02bd 60b0 f13c 0cf2 f0bc f90d d2bd
00000200: 8bbe 103d 3e94 7bbd 74ee c73d b32b ed3c
00000210: dd24 243d 391f 1cbe 647e cc3d 0da0 57bd
00000220: b152 fbbd d3c9 803d f416 8f3d 6f8f 9abd
00000230: 5ee4 793a 00fa 163d 3076 2fbd b59d e43d
00000240: ad6c 8abd 7574 6fbd c925 2f3e 159f 88be
00000250: b405 02be 3b93 a3bd b877 273e 339c df3c
00000260: a41d a4bc 092b b83c 9895 733a 87cc 3e3d
00000270: 9de5 c53d 38e4 15be c837 8b3a 4a28 86bd
00000280: 7c09 043e 41b7 5fbd 6d1f 05bc 9a8d 173d
00000290: e443 a6bd aa45 56bd d613 ffbd 34ce 073c
000002a0: 29c5 97bd c11f 9b3c 4680 c0bd c0c7 223d
000002b0: 621e 083d 9121 033d a7c3 d93c 2cf7 97bc
000002c0: 1cf9 9139 28a1 ad3d 68a5 30be 79cc dbbd
000002d0: 06f9 9dbc 3063 5d3d e2fe cdbd ae87 84bb
000002e0: 1160 f83c 974a 5cbc 5618 873d 443b f23c
000002f0: a781 c13d d265 6bbd d375 bebd 0062 9e3d
00000300: 3804 c83c ae13 c33d b7af 023e 9f4a 073d
00000310: 60c8 1a3e bb4f 32be 3770 a5bd c892 7dbc
00000320: 7772 10be a095 683d ac73 ddbd c60e 88bd
00000330: df2c a83d a264 7abd ad0d 413d 195c 553d
00000340: 34c4 933d 3e42 0a3e 16e3 98bc 2eee e2bd
00000350: 4825 b23d 4e7e 96bd 509f b53c e783 cfbc
00000360: 6456 f2bc b6ec 22bd 0183 e2bd c505 b8bb
00000370: 90ba 92bd 7722 563d e9bb 3b3c 1206 d3bd
00000380: 1bfe 043c 0382 ee3d a7f3 bbbd 1cf9 3f3d
00000390: ce0b debc bd47 4e3d 55cc 293d 76a9 a1bd
000003a0: 1aa2 203e 056c d03c 36de a73c 2e8c 0abd
000003b0: e5ea acbd 14c1 133e 5c60 403e 5765 f83d
000003c0: b248 0f3e 9df4 093e 0a47 3cbd 64e4 933c
000003d0: 63b7 9a3d feaf 48bc 2741 ca3d 87a7 233e
000003e0: b88d efbc 6399 0b3d 0330 95bd f853 9ebd
000003f0: 2079 d73c aadf 953d 2549 343e 9e93 683d
-0.14100157 0.017953938 -0.095895216 -0.04441021 0.07766026 0.0075717466 -0.03934494 -0.058982443
0.048990034 0.06974415 -0.12887557 0.02476505 0.124593005 0.10056316 -0.04985407 -0.02777921
0.06478641 -0.124668606 0.018465178 -0.05982252 -0.03518004 -0.0052375863 0.010381046 -0.03721489
0.033180013 -0.20017552 -0.05827362 -0.039274886 -0.04088623 -0.022398733 -0.09121892 0.12114926
0.002858944 0.03252642 0.15415311 -0.005177887 0.027231345 0.0445075 -0.029078228 -0.03743515
-0.01512113 -0.011890021 0.052575734 -0.11438741 -0.08522812 0.11451783 0.10645678 -0.0015087848
0.094866864 0.019109786 0.059209302 -0.024713326 0.13729326 0.007768595 -0.008110058 0.20518737
0.022407016 0.11478786 -0.046374112 0.013834184 0.027228573 0.12491972 -0.004952789 0.04139005
-0.041070566 0.18098392 -0.00020549426 -0.05977598 -0.1157034 -0.07439299 -0.13692264 0.043998707
0.06654453 -0.017266644 0.0062133907 0.014490438 -0.11875615 -0.11221812 -0.16577569 0.077784136
-0.05313275 0.027911719 -0.032042738 0.049003683 0.12718499 0.026849154 0.01548605 0.06721836
-0.031556357 -0.015129649 -0.06949524 -0.02984539 -0.014196683 -0.03940114 -0.092482075 -0.11009098
-0.09910526 0.16653919 0.061672907 -0.05663089 0.07904191 -0.0645729 -0.04489808 -0.033908762
0.09097856 -0.02651265 -0.025512276 -0.066505566 0.08917685 -0.010345133 0.0551012 -0.04681489
0.028076913 -0.080595054 -0.070452765 0.15555817 0.046038456 0.075368986 0.10830125 0.0006290188
-0.08748634 -0.0015143742 0.10127421 0.19906853 -0.031938 0.029503047 -0.029412292 -0.10256571
0.035337966 -0.06142067 0.09762278 0.028951501 0.040074218 -0.15246285 0.099850446 -0.05264287
-0.122716315 0.06288495 0.069868 -0.07546889 0.00095326256 0.036859512 -0.04283732 0.11162893
-0.067590095 -0.05846067 0.17104258 -0.2668387 -0.12697488 -0.07987066 0.16354263 0.027296161
-0.020033665 0.022481458 0.00092920056 0.04658177 0.09662936 -0.1463784 0.0010621483 -0.06550653
0.12894243 -0.054618124 -0.008125168 0.037000276 -0.08118418 -0.05231253 -0.12454955 0.008288909
-0.07410652 0.01893604 -0.09399466 0.039741278 0.0332321 0.032014433 0.026582552 -0.018550478
0.00027842156 0.08478004 -0.17250597 -0.107323594 -0.019283783 0.05404967 -0.10058381 -0.0040444946
0.030319246 -0.013445518 0.065964386 0.029569276 0.09448557 -0.05747015 -0.09299817 0.07733536
0.024416074 0.09525238 0.12762342 0.03303015 0.151155 -0.17413227 -0.08078044 -0.01547689
-0.14106165 0.05678332 -0.10813078 -0.06643443 0.082116835 -0.061131127 0.047132183 0.052089784
0.07215157 0.13501832 -0.01866297 -0.110805854 0.08698517 -0.073483095 0.022170693 -0.02533145
-0.02958221 -0.039776526 -0.11060143 -0.005615922 -0.0716449 0.052278962 0.0114583755 -0.10303892
0.008117224 0.116458915 -0.09177332 0.04686843 -0.027105238 0.050361384 0.04145463 -0.0789365
0.15686837 0.025442133 0.0204917 -0.033825092 -0.0844324 0.14429122 0.18786758 0.12128704
0.13992575 0.13472219 -0.045966186 0.018053241 0.075545095 -0.012248991 0.09875708 0.15981875
-0.029242381 0.034081828 -0.07284548 -0.077308595 0.026302874 0.07318051 0.17606027 0.056781404

network_body._body_endoder.seq_layers.2.bias f4 [128]
00000000: 06f2 a2ba 2cb6 8f39 9e59 0abb de01 9db9
00000010: 64dd 47b9 59f5 8cb8 7c32 563a e3ec 0839
00000020: 7a77 1eba dd74 96ba d8a7 8dba 516f 71ba
00000030: 4115 ccb9 e388 d03a 9a5a 963a 3024 a538
00000040: bde6 8fba 207a 48b9 ce33 55bb c92e 10ba
00000050: 63b5 3b39 5136 cfb8 dd33 a339 bb5b 3dbb
00000060: 4ac1 1ab9 58f0 02ba d66e c2ba 85d9 c239
00000070: 9d94 9ab9 49a2 203a e265 1f3b 44a8 a13a
00000080: c82e a5ba b5f4 6a39 5ad3 c4ba fd48 77ba
00000090: 1a0c 08ba b24a 0bb9 fd28 51ba 96f8 53ba
000000a0: 67be 25bb f6f1 153b be69 d3b9 875e 1d3a
000000b0: c084 d8b9 a6ea 6238 852d c73a 4084 e2b5
000000c0: 7c2a 4eba b643 a5ba cfa4 4039 75f1 433a
000000d0: e460 443a 85fc b6b9 d0ef 60bb 0c9d f3b8
000000e0: 4c02 803b e699 23ba be59 00ba d2a0 f1b9
000000f0: d005 653a 075e 75ba 0d61 b43b 0b47 0f39
00000100: 4ce3 7438 ebd4 3dba e128 833a 7576 3bbb
00000110: c589 6f3a b6af 9039 3f93 97ba bfcd 153b
00000120: a319 80ba 3e16 9d39 f81d 683a dd87 d2ba
00000130: ab26 bfb9 3c8c 493a 4242 a5ba eba0 f138
00000140: 66c0 323a e459 9339 1ba2 9aba 2985 5eba
00000150: f4c8 263b 3695 a8ba d73a 5dba 08b8 b339
00000160: 0afc b8ba cc34 6cba d75d 04bb aea2 b1ba
00000170: 5863 80ba 9f29 28b9 96aa c1ba 560b 2139
00000180: e6b3 3b3b 4522 89ba eea4 8bb9 3cc9 c0b9
00000190: d826 6d3a 9e3e bbba 6feb b5ba b20a c739
000001a0: 8abe f0b9 9e46 94ba 7962 96ba 7714 7ebb
000001b0: a5bb 23ba 787c a43a 2ec4 4fba 46c7 9bba
000001c0: 8ef7 a73a e9be 8fba c134 723b cbbb 87ba
000001d0: 3340 97ba 4fd9 aaba c562 58bb 6e46 6c3a
000001e0: 20e8 a2ba a51c 72ba fa3d a1ba f129 cf39
000001f0: 2b3b adbb 8e87 cbba 068c e0b9 ae60 6eba
-0.0012431748 0.00027410814 -0.0021110545 -0.00029946765 -0.00019060593 -6.72142e-05 0.0008170975 0.00013058218
-0.0006045025 -0.001147892 -0.0010807468 -0.0009210008 -0.00038925748 0.0015909936 0.0011471093 7.8745536e-05
-0.00109788 -0.00019118981 -0.0032532099 -0.00055001356 0.00017901282 -9.8806464e-05 0.00031128424 -0.0028893787
-0.0001475859 -0.00049949205 -0.0014834057 0.00037164628 -0.00029483894 0.0006127698 0.0024322201 0.0012333472
-0.0012602443 0.0002240714 -0.0015016601 -0.00094331783 -0.00051897916 -0.00013283899 -0.0007978825 -0.00080860534
-0.002529049 0.0022879816 -0.0004032384 0.00060031604 -0.00041297637 5.4101132e-05 0.0015196061 -1.6876802e-06
-0.0007864607 -0.001260868 0.00018371943 0.00074746396 0.00074912445 -0.00034901887 -0.0034322627 -0.00011616395
0.003906524 -0.0006240889 -0.0004896185 -0.00046086923 0.0008736523 -0.00093600195 0.0055047334 0.00013664008
5.838582e-05 -0.0007241505 0.001000669 -0.0028604541 0.0009137656 0.00027596735 -0.0011564268 0.002285823
-0.0009773265 0.00029961945 0.00088545633 -0.0016062219 -0.0003645917 0.0007688438 -0.0012608247 0.00011521749
0.0006818831 0.00028105 -0.0011797579 -0.00084884703 0.0025449367 -0.0012861851 -0.0008439249 0.00034278654
-0.00141132 -0.0009010553 -0.0020197534 -0.0013552511 -0.0009795232 -0.00016037234 -0.001477557 0.0001535838
0.0028641163 -0.0010462484 -0.00026635028 -0.00036771025 0.00090466207 -0.0014285629 -0.0013879369 0.00037964206
-0.0004591833 -0.001131255 -0.0011473439 -0.0038769522 -0.0006245918 0.0012549302 -0.00079256564 -0.001188495
0.0012814866 -0.001096693 0.0036957713 -0.0010355649 -0.0011539519 -0.0013034734 -0.0033017856 0.00090131804
-0.0012428798 -0.0009235836 -0.0012301796 0.00039513365 -0.0052865944 -0.0015528069 -0.00042828935 -0.0009093386

action_model._continuous_distribution.log_sigma f4 [1, 2]
00000000: ba72 00bc 887a bc3a
-0.007839853 0.0014379779

action_model._continuous_distribution.mu.weight f4 [2, 128]
00000000: 29cd b7bc ce03 9fbc 4caa ae3c cd89 febb
00000010: 2659 3bbc de5d eebc 6a46 5fbc a6cb 843c
00000020: ed33 ac3b 8a60 d13b e68f ed3a 6279 b4bc
00000030: 512b 64bc ef61 8b3c c8d0 28bc a66a 71bc
00000040: ab56 cfb9 149a e83a 4f49 d1bb 9345 353d
00000050: 62e7 bebc 8350 173d 2215 103b bdc5 bc3a
00000060: 9b90 adbc 7e16 3fbc e786 003c 8ea7 29bd
00000070: 8f6d 3abc 2986 993b 8533 f83c b05b 6d3c
00000080: e324 9abb 2ecb ebbc 460a 083d 08ff 5aba
00000090: 7ebe 7fbc c358 ecbc 9678 33bc 99d3 d43a
000000a0: 3313 51ba 4c5c fe3c 95f3 743c 5ef8 193d
000000b0: 1502 20bc c29e 843c 01c7 393b ac87 de3c
000000c0: 1675 263c dd34 bfbc 6b13 54bc 6d72 0d3c
000000d0: 8ee5 e6bc 1efe 64bc cb25 b2ba 62a5 d53b
000000e0: 47cd 8fbc 280e d4bc 2e07 da3c 0b8a f1bb
000000f0: 67d4 5abb 1985 e7bb 5d6a 9a3c 7a28 f7bc
00000100: 2e16 863a 59a0 06bc 0040 cd3c e7ca 0e3c
00000110: 2f3e 06bd 808a 1dbc 14f7 1bbc ce59 e5bc
00000120: 51e3 253c 1e12 62bc af69 5e3b 626c 16bc
00000130: 5b62 843c df74 1d3c b1f1 a83c 79f9 7abb
00000140: d8a3 26bc 3e09 213c 6069 103b 43c0 2bbb
00000150: 6c9b 96bc cf78 34bc 13a8 083c 181f 693a
00000160: d439 963c a129 b53a 24c8 3f3b fdc5 8f3c
00000170: 2f4f 3b3a 4fd2 14bc 7fa5 e53c a19b b4bc
00000180: a884 9ebc 13be 0cbc d02d aebc 5161 febb
00000190: bde4 ccba f08d 573c fb0b 8cbc 55d8 49bc
000001a0: 28a8 873c 634f 21bc 8e01 bebb b6e8 613b
000001b0: e6f0 21bc 6d45 abbc 4b05 d43b fdd7 cabc
000001c0: c615 41bc 59b6 4c3b 54e0 333d 80fc 8bbb
000001d0: 0cac 8ebb ad85 1c3d 9f71 48bc 5286 86bb
000001e0: 1c51 65bb 1bed 8b3c 5899 1f3b 657e 023c
000001f0: b646 cb3a ddd9 cfbc 9af2 1abc 400b 363c
00000200: accf dc3c 0306 c1bc 0ae1 7cbc ac1d a33c
00000210: 2a5d 0fbc 8620 983c 8ea4 2a3c aa69 31bd
00000220: 96db 0cb9 01b6 a43b 0568 043d b8e4 6ebb
00000230: 721e 363c 87e4 95bc a64d 4cbc fa7c bf3c
00000240: 6e9b 97bb d813 3fbc 2524 493c 8c64 dbbc
00000250: a006 5ab9 67d6 3e3c 5afb 94bc 3daf 0f3b
00000260: 126a 183c b059 c1bb b958 43bc 45a4 d33c
00000270: 5315 1ebc 54e4 023d 418e c2bc b368 1cbc
00000280: 08a2 ac3b 296b 4b3b f87e 3ebd 34f4 1bbc
00000290: 7bac 23bc e3e9 eb3c 1594 ad3c 22fb 04bc
000002a0: 7531 b1bb 5293 623c bff4 e93b d2aa 5cbc
000002b0: 315b 8bba cb7c 3f3c 3c80 043b 6e47 b33b
000002c0: beab 92bc 2fac 0b3c 37cf ef38 b470 343c
000002d0: dc05 3bbd 0ca8 dabb 1c5f 903c c30f 233b
000002e0: d244 c23b da5a d93c 8e9d 3fbb cf37 9a3c
000002f0: 57f1 62bc c77f c1ba 03e2 1fbd 8a3f bc3c
00000300: fbd5 8bbc 4822 553c d11a 56bc e14e d1b9
00000310: 0105 273b 9be8 86bc 9f25 58bc 5224 5f3c
00000320: 6b46 2d3c 5141 f23b b02b 9e3c 6f1b a83b
00000330: ecf3 043b eaa6 543c 4f38 243d f74e 393c
00000340: caff 18bd 28c2 2fbc 38a9 943c ac61 043c
00000350: 010b 343b c225 b33c 0345 e3bb cfae 14bd
00000360: c70b bebb 6bae 15bc ab82 82ba 107a 583b
00000370: 3271 67bc 9eae 1b3c f06c 5039 c76c de3c
00000380: 30ee 1ebd 9638 83bb e1d4 95bb 1ab8 0b3a
00000390: be02 3dbc 722a 8bbb 873d 2cbb f614 9fbc
000003a0: 1997 38bc b626 fabb 3e4d 5b39 8f3a 993c
000003b0: 06f5 f13c 7aeb d0bc ef80 553c 13fb d3bb
000003c0: 38c2 0cbd 8919 37bb a7cb 64bc 9fad d73b
000003d0: 103b 203c 43dc 2fbc dc21 1a3d 3b06 cf3c
000003e0: 8b55 7a3c 3dc9 8e3c c531 183d 614a e33b
000003f0: 102f dfba de4d 803b 81ab ee3c 4d2c 47bc
-0.022436695 -0.019410994 0.021321438 -0.007767892 -0.011434829 -0.029097494 -0.013627628 0.016210388
0.0052552135 0.006389682 0.001812455 -0.022030536 -0.013926343 0.017014472 -0.010303684 -0.0147349
-0.0003954669 0.0017746114 -0.006386913 0.044255804 -0.023303691 0.036942016 0.0021985252 0.0014402192
-0.021187117 -0.011663077 0.007844663 -0.04141956 -0.01137866 0.0046851826 0.030298004 0.014487192
-0.0047041043 -0.028783407 0.033212923 -0.00083540427 -0.015609382 -0.028850919 -0.010954043 0.0016237377
-0.0007975578 0.03104987 0.014950653 0.037590377 -0.009766121 0.016188983 0.0028347375 0.027164303
0.010159751 -0.023340637 -0.012944083 0.008633238 -0.028185632 -0.013976602 -0.0013591585 0.0065199593
-0.017553939 -0.025885656 0.026614752 -0.0073711923 -0.0033390762 -0.007065427 0.018849546 -0.030170668
0.0010229999 -0.008216941 0.025054932 0.008715368 -0.032774147 -0.0096155405 -0.009519357 -0.027996924
0.010124997 -0.013798265 0.0033937504 -0.009181114 0.01616018 0.009610384 0.02062306 -0.003829567
-0.010170899 0.009828864 0.0022035465 -0.0026207126 -0.018384658 -0.011015131 0.008340853 0.0008892878
0.018338121 0.001382161 0.002926358 0.017550463 0.0007145283 -0.009083345 0.028033016 -0.022046866
-0.019350365 -0.008590239 -0.02126208 -0.007763066 -0.0015632134 0.013156399 -0.017095556 -0.012319644
0.016559675 -0.009845587 -0.005798525 0.0034470982 -0.009884095 -0.020907128 0.0064703575 -0.024761194
-0.011784976 0.0031236617 0.043915108 -0.0042720437 -0.0043540057 0.03821342 -0.012234121 -0.0041053677
-0.0034990972 0.017080834 0.0024352875 0.007964705 0.0015508744 -0.02537244 -0.009457255 0.011111081
0.026954494 -0.023562437 -0.015434513 0.01991161 -0.008750239 0.018570196 0.010415209 -0.04331366
-0.00013433243 0.0050265794 0.032325763 -0.0036452245 0.011115657 -0.018297447 -0.012469685 0.023375023
-0.004626683 -0.011662446 0.012276684 -0.026781343 -0.00020792568 0.011647797 -0.01818626 0.0021924519
0.009302633 -0.005900584 -0.011923009 0.025835166 -0.009648639 0.031956032 -0.023749473 -0.009546447
0.005268339 0.0031039214 -0.046507806 -0.009518672 -0.009989853 0.02879805 0.021188775 -0.008116515
-0.005407507 0.013829069 0.0071397717 -0.013468461 -0.0010632036 0.011687468 0.0020218035 0.0054711616
-0.017904159 0.0085249385 0.00011435005 0.011013199 -0.045659885 -0.006672865 0.017623477 0.002488122
0.005928614 0.02653258 -0.0029238197 0.01882544 -0.013851485 -0.0014762812 -0.0390339 0.022979517
-0.017069807 0.013008662 -0.013067917 -0.00039922356 0.002548516 -0.016468337 -0.013192563 0.013619499
0.010575871 0.00739304 0.019307941 0.0051302235 0.002028699 0.012979249 0.040092763 0.011310331
-0.037353314 -0.010727443 0.018147096 0.008079927 0.002747238 0.02186859 -0.006935717 -0.036299523
-0.005799744 -0.009135823 -0.0009957155 0.003303174 -0.014126109 0.009502081 0.00019877008 0.027151478
-0.038801372 -0.0040045483 -0.0045724963 0.00053298625 -0.011536298 -0.0042470032 -0.002628179 -0.019419175
-0.011266493 -0.0076340092 0.00020914242 0.01870468 0.029535782 -0.025502909 0.013031228 -0.0064691394
-0.03436491 -0.0027938804 -0.01396457 0.0065819765 0.009779707 -0.010733667 0.037629947 0.025271526
0.015279184 0.017429942 0.03715684 0.006936357 -0.0017027576 0.0039155325 0.029134514 -0.012156558

action_model._continuous_distribution.mu.bias f4 [2]
00000000: 3534 18ba 2914 21ba
-0.00058061193 -0.00061446667

exp_avg f4 [128, 53]
00000000: c01f aeb4 0000 0000 0000 0000 c807 d9b5
00000010: dac9 93b5 44c5 a1b4 0000 0000 0000 0000
00000020: 5c1e dcb5 f685 50b6 67eb 25b6 0000 0000
00000030: 0000 0000 368e 0e35 93fe 3db5 8034 27b2
00000040: 0000 0000 0000 0000 a4a0 01b6 0bfc 94b6
00000050: 540e 83b5 0000 0000 0000 0000 6881 81b5
00000060: cf18 0435 4e1f cdb5 0000 0000 0000 0000
00000070: 84c1 ddb4 8d74 4fb6 e791 19b5 0000 0000
00000080: 0000 0000 cec6 b7b5 f63f 07b5 8037 e033
00000090: 0000 0000 0000 0000 9649 09b6 47c7 88b6
000000a0: f038 bab5 0000 0000 0000 0000 84ad 14b5
000000b0: 1f85 8cb4 3040 1237 458c 01b8 9a47 feb4
000000c0: 8246 7e37 80e9 97b3 0000 0000 52b6 35b7
000000d0: 62e4 26b7 9fd5 0737 0000 0000 0000 0000
000000e0: 50d9 bfb4 1eb0 0f36 66e6 ee36 0000 0000
000000f0: 0000 0000 153a 2635 1aa3 8e36 a86d 2836
00000100: 0000 0000 0000 0000 d676 af36 90fc 6436
00000110: f0fa 1037 0000 0000 0000 0000 af41 72b5
00000120: ec9a 1236 d55d 1137 0000 0000 0000 0000
00000130: 1370 78b5 230d b135 4210 0937 0000 0000
00000140: 0000 0000 d02d e7b4 6484 8936 4a4c 1537
00000150: 0000 0000 0000 0000 a6ab 9bb5 9289 4b35
00000160: a4f5 c236 0000 0000 0000 0000 0670 0136
00000170: fcb8 0737 0eb3 ee36 0000 0000 0000 0000
00000180: cdd4 2735 b3ed ee35 0206 1cb8 de1b 0139
00000190: 31ef 6a35 06cf a1b8 3275 8b38 0000 0000
000001a0: 1008 b735 02b6 4437 ef94 15b7 0000 0000
000001b0: 0000 0000 d6aa 12b5 19a6 61b6 6af1 acb6
000001c0: 0000 0000 0000 0000 d08d 90b6 a4a0 b3b6
000001d0: bf2b 16b7 0000 0000 0000 0000 de3d 09b5
000001e0: 4c67 86b6 eef4 02b7 0000 0000 0000 0000
000001f0: 6c55 deb5 e3aa 4ab6 aa3e 1db7 0000 0000
00000200: 0000 0000 9879 c0b3 2427 98b6 9ee1 0db7
00000210: 0000 0000 0000 0000 faef 86b5 a9b3 91b6
00000220: dc09 09b7 0000 0000 0000 0000 fdad adb5
00000230: 89b8 57b6 06e9 ceb6 0000 0000 0000 0000
00000240: 662c 5db6 9ec5 d0b6 50c3 d8b6 0000 0000
00000250: 0000 0000 d177 49b6 5d6c 95b6 e030 4438
00000260: 06db 1db9 ca82 0fb5 0482 ad38 d4dd 99b8
00000270: 0000 0000 3272 a435 fe58 43b7 3fec 1fb7
00000280: 0000 0000 0000 0000 6073 4a35 b262 0eb6
00000290: 7ae9 f5b6 0000 0000 0000 0000 6682 c2b5
000002a0: cd0d 63b6 14fd 00b7 0000 0000 0000 0000
000002b0: b83f 92b5 e251 65b6 1d9f 0fb7 0000 0000
000002c0: 0000 0000 b87a 69b4 d12b ffb5 8a04 2cb7
000002d0: 0000 0000 0000 0000 e8fb c535 02c6 19b6
000002e0: 7686 dfb6 0000 0000 0000 0000 3f07 0eb6
000002f0: 9270 9eb6 b4aa 1bb7 0000 0000 0000 0000
00000300: 805a 0635 3a26 16b6 7a53 f8b6 0000 0000
00000310: 0000 0000 7bda b8b5 9be8 e6b6 eb34 3cb7
00000320: 0000 0000 0000 0000 92bf 2336 c1d5 90b5
00000330: c21c 2e38 f670 12b9 970f abb5 fdb7 c238
00000340: 7242 beb8 0000 0000 6a29 f2b5 ef1a 2ab7
00000350: d6fc 2b37 0000 0000 0000 0000 179d 3eb7
00000360: 667e 9eb6 22c7 11b7 0000 0000 0000 0000
00000370: c64d fe36 fa88 8436 c2c4 f336 0000 0000
00000380: 0000 0000 a282 0cb7 7c25 50b6 f2b5 1fb7
00000390: 0000 0000 0000 0000 b215 0d37 e0db e936
000003a0: 8ea9 bfb6 0000 0000 0000 0000 0f69 9a36
000003b0: cc84 d2b4 cbb1 31b7 0000 0000 0000 0000
000003c0: 8911 1f37 b371 8c36 1a48 ffb6 0000 0000
000003d0: 0000 0000 a107 da36 76cf 8136 c206 a936
000003e0: 0000 0000 0000 0000 3c47 ceb6 9257 7bb6
000003f0: d5e1 92b6 0000 0000 0000 0000 b242 5b36
-3.2433127e-07 0.0 0.0 -1.6170025e-06 -1.10111e-06 -3.0132117e-07 0.0 0.0
-1.6400113e-06 -3.107239e-06 -2.4723938e-06 0.0 0.0 5.3106066e-07 -7.077844e-07 -9.7326165e-09
0.0 0.0 -1.9316003e-06 -4.4400854e-06 -9.764431e-07 0.0 0.0 -9.648911e-07
4.9209933e-07 -1.5282801e-06 0.0 0.0 -4.130526e-07 -3.0913245e-06 -5.720926e-07 0.0
0.0 -1.3692422e-06 -5.0384494e-07 1.0440908e-07 0.0 0.0 -2.0457423e-06 -4.076315e-06
-1.3874651e-06 0.0 0.0 -5.5386795e-07 -2.617389e-07 8.717223e-06 -3.0886633e-05 -4.7363284e-07
1.5155996e-05 -7.073959e-08 0.0 -1.08308905e-05 -9.947546e-06 8.096365e-06 0.0 0.0
-3.5734638e-07 2.1411174e-06 7.1197746e-06 0.0 0.0 6.192434e-07 4.2509173e-06 2.509778e-06
0.0 0.0 5.2292407e-06 3.4121658e-06 8.641495e-06 0.0 0.0 -9.024761e-07
2.1845872e-06 8.6645205e-06 0.0 0.0 -9.255029e-07 1.3191351e-06 8.169622e-06 0.0
0.0 -4.3060436e-07 4.0983305e-06 8.8988545e-06 0.0 0.0 -1.1598356e-06 7.5823584e-07
5.810247e-06 0.0 0.0 1.9287704e-06 8.089697e-06 7.1137974e-06 0.0 0.0
6.2522014e-07 1.7801561e-06 -3.7198894e-05 0.0001231278 8.751986e-07 -7.7156394e-05 6.649866e-05 0.0
1.3636909e-06 1.1724887e-05 -8.915768e-06 0.0 0.0 -5.463784e-07 -3.3624294e-06 -5.1541037e-06
0.0 0.0 -4.3080436e-06 -5.3533167e-06 -8.950882e-06 0.0 0.0 -5.1126506e-07
-4.0055365e-06 -7.805631e-06 0.0 0.0 -1.656515e-06 -3.0199815e-06 -9.372519e-06 0.0
0.0 -8.9628145e-08 -4.5345096e-06 -8.4567855e-06 0.0 0.0 -1.005362e-06 -4.342252e-06
-8.168132e-06 0.0 0.0 -1.2940142e-06 -3.214491e-06 -6.166406e-06 0.0 0.0
-3.295741e-06 -6.2218887e-06 -6.460039e-06 0.0 0.0 -3.0021076e-06 -4.453161e-06 4.677556e-05
-0.0001505428 -5.3461974e-07 8.2735e-05 -7.336927e-05 0.0 1.2252187e-06 -1.1643626e-05 -9.532144e-06
0.0 0.0 7.5418757e-07 -2.1217097e-06 -7.3287492e-06 0.0 0.0 -1.4492077e-06
-3.383367e-06 -7.688319e-06 0.0 0.0 -1.0896392e-06 -3.4171321e-06 -8.560511e-06 0.0
0.0 -2.1744461e-07 -1.9011733e-06 -1.0253056e-05 0.0 0.0 1.4750958e-06 -2.2914032e-06
-6.661571e-06 0.0 0.0 -2.1163867e-06 -4.721872e-06 -9.278465e-06 0.0 0.0
5.0050585e-07 -2.2373993e-06 -7.400694e-06 0.0 0.0 -1.3772654e-06 -6.881613e-06 -1.1217994e-05
0.0 0.0 2.4400401e-06 -1.0791047e-06 4.1511616e-05 -0.00013965726 -1.274503e-06 9.284911e-05
-9.0722824e-05 0.0 -1.8042458e-06 -1.0139061e-05 1.0251262e-05 0.0 0.0 -1.1361458e-05
-4.7234817e-06 -8.689038e-06 0.0 0.0 7.578844e-06 3.9498527e-06 7.26487e-06 0.0
0.0 -8.375066e-06 -3.1016234e-06 -9.519501e-06 0.0 0.0 8.409306e-06 6.969538e-06
-5.7119823e-06 0.0 0.0 4.601788e-06 -3.921217e-07 -1.0591418e-05 0.0 0.0
9.481221e-06 4.1855615e-06 -7.607986e-06 0.0 0.0 6.4977944e-06 3.868651e-06 5.037379e-06
0.0 0.0 -6.147571e-06 -3.7452887e-06 -4.3774294e-06 0.0 0.0 3.2672365e-06

exp_avg_sq f4 [128, 53]
00000000: 5d8c 822e 0000 0000 0000 0000 9805 a62d
00000010: 3895 ce2d e938 822e 0000 0000 0000 0000
00000020: b8d1 722d 037c cf2d f983 942e 0000 0000
00000030: 0000 0000 f313 7f2d 8f84 b42d 1ba6 8f2e
00000040: 0000 0000 0000 0000 2538 482d 50e9 c62d
00000050: 495a 8f2e 0000 0000 0000 0000 e5b7 0a2d
00000060: 83dd 9e2d fe7f 882e 0000 0000 0000 0000
00000070: ce4e 2a2d 3a1e e22d 2def 842e 0000 0000
00000080: 0000 0000 059c 2b2d d6ca b02d aa90 712e
00000090: 0000 0000 0000 0000 4378 922d 97b7 082e
000000a0: ac71 4b2e 0000 0000 0000 0000 5832 cb2d
000000b0: 12b2 032e fa2a ef30 d2c6 9d32 8c3f 1b2b
000000c0: 6299 c631 68f6 1b32 0000 0000 188f 002f
000000d0: 2159 552f 561c b22e 0000 0000 0000 0000
000000e0: e5bd 762e 1f73 a12e 8f61 be2e 0000 0000
000000f0: 0000 0000 7c8d 5f2e 8965 9b2e cbe6 052f
00000100: 0000 0000 0000 0000 e3b6 bf2d dcf4 6c2e
00000110: 21b5 d12e 0000 0000 0000 0000 e9de 2c2e
00000120: cf23 8e2e c5c8 0d2f 0000 0000 0000 0000
00000130: 8166 5b2d 4056 502e 1f51 062f 0000 0000
00000140: 0000 0000 fd41 ac2d 97f5 4d2e d28f ef2e
00000150: 0000 0000 0000 0000 d9b4 c72d 3564 7f2e
00000160: 1db6 022f 0000 0000 0000 0000 db26 9c2d
00000170: 4e9d 652e de26 032f 0000 0000 0000 0000
00000180: e74b c32d 366c 6a2e d25f 7e31 f5e9 2633
00000190: d219 8e2b 45fb 3532 31d4 0032 0000 0000
000001a0: d0ca 3c2f 1fc5 a02f 328a b32e 0000 0000
000001b0: 0000 0000 bb8c 572d 21ad bc2d 1f1f a72e
000001c0: 0000 0000 0000 0000 b4a6 5a2d f7c1 e02d
000001d0: cd14 d62e 0000 0000 0000 0000 b6f1 c62c
000001e0: fb40 962d 0878 cb2e 0000 0000 0000 0000
000001f0: 3058 4e2d d8f5 e52d 708d d12e 0000 0000
00000200: 0000 0000 fb8a 462c 0a89 7e2d 5383 bd2e
00000210: 0000 0000 0000 0000 ef77 912d ce42 182e
00000220: dd26 ce2e 0000 0000 0000 0000 4f12 eb2c
00000230: bb2a 952d 9a25 be2e 0000 0000 0000 0000
00000240: c9dd b52d 0515 2b2e a62f c82e 0000 0000
00000250: 0000 0000 c55a 462d 041d d32d 0f21 2831
00000260: f0b0 dd32 a2bb 5e2b 15ad 1132 296e 7c32
00000270: 0000 0000 0d84 272f ce0e b72f 3c70 062f
00000280: 0000 0000 0000 0000 4730 2f2e adc9 912e
00000290: 7587 1c2f 0000 0000 0000 0000 9f75 f82d
000002a0: 6aa6 5c2e 1997 232f 0000 0000 0000 0000
000002b0: 77c3 c72d 5a7d 7d2e 2603 202f 0000 0000
000002c0: 0000 0000 a400 e52d c90b 682e 03cc 2e2f
000002d0: 0000 0000 0000 0000 c9f6 9b2d 5190 6f2e
000002e0: 7d38 202f 0000 0000 0000 0000 b4ba ed2d
000002f0: dcaa 712e baf4 1a2f 0000 0000 0000 0000
00000300: 2c32 d12d 6a32 882e fb08 202f 0000 0000
00000310: 0000 0000 b38d 002e 1a2f 892e d183 252f
00000320: 0000 0000 0000 0000 5765 d32d 68fa 8c2e
00000330: 3e14 9c31 703b 4d33 963a b22b 82dc 7b32
00000340: eaeb 6332 0000 0000 4c9c 442f 8a8e b22f
00000350: 7050 432f 0000 0000 0000 0000 5dd7 a02f
00000360: d4dd a82f 42c4 932f 0000 0000 0000 0000
00000370: 439b 772f 4519 8a2f 617b 5f2f 0000 0000
00000380: 0000 0000 e8e4 472f b36a 952f 7a42 d42f
00000390: 0000 0000 0000 0000 c226 9d2e 5c33 292f
000003a0: 845f b52f 0000 0000 0000 0000 0c27 932e
000003b0: b645 622f 5f26 d02f 0000 0000 0000 0000
000003c0: c6b3 b42e 8d66 202f d4c0 c22f 0000 0000
000003d0: 0000 0000 5c2e c42e 7674 732f 9bc4 a62f
000003e0: 0000 0000 0000 0000 3787 442f 4acf 712f
000003f0: 2a34 b12f 0000 0000 0000 0000 6813 0f2f
5.936649e-11 0.0 0.0 1.88745e-11 2.3485755e-11 5.921825e-11 0.0 0.0
1.3802674e-11 2.3588248e-11 6.753704e-11 0.0 0.0 1.4499501e-11 2.0522499e-11 6.5323934e-11
0.0 0.0 1.138115e-11 2.2613605e-11 6.518925e-11 0.0 0.0 7.885225e-12
1.8060891e-11 6.2073e-11 0.0 0.0 9.680879e-12 2.5706649e-11 6.045151e-11 0.0
0.0 9.754868e-12 2.009896e-11 5.4925543e-11 0.0 0.0 1.6651685e-11 3.108588e-11
4.6257817e-11 0.0 0.0 2.3100785e-11 2.994411e-11 1.7401753e-09 1.8367619e-08 5.515525e-13
5.779996e-09 9.078214e-09 0.0 1.1692369e-10 1.9403902e-10 8.099536e-11 0.0 0.0
5.6102584e-11 7.341882e-11 8.6575296e-11 0.0 0.0 5.0829993e-11 7.06662e-11 1.2178274e-10
0.0 0.0 2.1795404e-11 5.3877666e-11 9.5363946e-11 0.0 0.0 3.9306256e-11
6.463773e-11 1.2895203e-10 0.0 0.0 1.2471469e-11 4.737033e-11 1.2216049e-10 0.0
0.0 1.958344e-11 4.682973e-11 1.0894009e-10 0.0 0.0 2.2703993e-11 5.806929e-11
1.1888131e-10 0.0 0.0 1.7752402e-11 5.2208286e-11 1.1928189e-10 0.0 0.0
2.220264e-11 5.330155e-11 3.7016332e-09 3.886267e-08 1.0096873e-12 1.0592719e-08 7.498827e-09 0.0
1.7170554e-10 2.9243893e-10 8.164526e-11 0.0 0.0 1.22525835e-11 2.145001e-11 7.599809e-11
0.0 0.0 1.2428881e-11 2.555199e-11 9.735288e-11 0.0 0.0 5.6543338e-12
1.7081883e-11 9.252693e-11 0.0 0.0 1.1729326e-11 2.6143462e-11 9.529344e-11 0.0
0.0 2.8214642e-12 1.4468657e-11 8.618053e-11 0.0 0.0 1.6537853e-11 3.4620133e-11
9.374699e-11 0.0 0.0 6.6811344e-12 1.6958315e-11 8.646879e-11 0.0 0.0
2.067581e-11 3.8899568e-11 9.103411e-11 0.0 0.0 1.1275152e-11 2.4000808e-11 2.446601e-09
2.5808248e-08 7.9130637e-13 8.479465e-09 1.4693378e-08 0.0 1.5235475e-10 3.3298025e-10 1.2227103e-10
0.0 0.0 3.9833272e-11 6.6296614e-11 1.4236241e-10 0.0 0.0 2.824657e-11
5.0170014e-11 1.4878444e-10 0.0 0.0 2.2710485e-11 5.7636874e-11 1.4553034e-10 0.0
0.0 2.603457e-11 5.276116e-11 1.5897687e-10 0.0 0.0 1.7731054e-11 5.4470487e-11
1.4571984e-10 0.0 0.0 2.7026693e-11 5.494881e-11 1.4093163e-10 0.0 0.0
2.378283e-11 6.193519e-11 1.4555106e-10 0.0 0.0 2.9229685e-11 6.2384056e-11 1.5053493e-10
0.0 0.0 2.4032927e-11 6.410944e-11 4.542499e-09 4.778434e-08 1.2663922e-12 1.4660261e-08
1.326678e-08 0.0 1.7881624e-10 3.2479291e-10 1.7763724e-10 0.0 0.0 2.9256855e-10
3.071664e-10 2.6878594e-10 0.0 0.0 2.2519679e-10 2.512001e-10 2.0325565e-10 0.0
0.0 1.8180268e-10 2.7178756e-10 3.860981e-10 0.0 0.0 7.146418e-11 1.5388707e-10
3.2991576e-10 0.0 0.0 6.691722e-11 2.0579347e-10 3.7862244e-10 0.0 0.0
8.2173865e-11 1.4588349e-10 3.5425407e-10 0.0 0.0 8.921283e-11 2.2142096e-10 3.033492e-10
0.0 0.0 1.7874134e-10 2.1992466e-10 3.2233177e-10 0.0 0.0 1.3012669e-10

exp_avg f4 [128]
00000000: db47 02b6 d4d6 0137 9fbf 1eb7 0945 13b7
00000010: 0702 95b5 64fa bf38 07cb 3337 608a 3ab7
00000020: 249a 11b9 f279 b637 c8a3 db37 20e8 b3b4
00000030: 9bcd 08b6 6eb1 4736 02cf 4f38 5a4d acb6
00000040: 36fe 3738 a4b3 d9b5 5b5b 25b8 daa1 3736
00000050: 7cc7 55b8 0f99 b036 e332 f337 07c4 8335
00000060: cd91 bcb7 f905 c5b5 2acc 1a39 346a 0db6
00000070: 4ac0 0838 1c88 d037 a6bc dab8 42bd 1a38
00000080: 8492 ddb7 f280 0bb7 d575 2e36 851c 0337
00000090: 8a29 04b9 a6a8 ae38 a7ee 7eb7 cc02 3738
000000a0: f3cb 98b8 7b0d 0c39 c4de 9fb7 aaf2 8439
000000b0: 6957 18b7 ea07 8ab7 e0bf 6db8 849e 9d38
000000c0: 2e66 0537 d03c 4736 6e7e 9cb8 2efc 26b6
000000d0: 9211 b2b6 14c6 37b8 17f7 0d37 31e6 9038
000000e0: 2649 5533 73a7 0338 d4cc 8435 3e8c 49b8
000000f0: 5445 94b7 74f5 ee36 52c5 ae36 9cdf fd38
00000100: 86c8 0238 274c 9f38 4af9 c2b7 1613 79b6
00000110: e3b4 7638 4c29 1535 d6bb e037 74a8 6c37
00000120: 8026 0737 5013 27b9 a270 9139 95b9 8b37
00000130: cb2e 4f37 3c2e 9bb8 b63d 3637 cc2f c8b5
00000140: 44c1 9bb7 6099 02b8 272c a038 66d9 c437
00000150: a607 e9b8 153e d1b6 3e26 2738 bd23 2c37
00000160: e039 e833 c371 c637 b016 8736 c004 9eb8
00000170: 40d6 0139 1cd9 2937 7440 fdb6 c24f 25b7
00000180: 5fd2 7537 5138 f236 3510 9bb5 2262 f337
00000190: aa6c f4b8 e769 ccb6 2ace cf36 0214 c2b8
000001a0: 28e7 1d36 7387 1f36 faa6 b734 8e27 8bb8
000001b0: 4627 f736 1113 fcb7 5a11 2339 14e4 bd33
000001c0: e63d cfb6 c808 1eb9 6a92 bcb7 8926 feb7
000001d0: 89fd d238 6622 bcb6 de68 1c39 1a8d d936
000001e0: e8d0 fc38 e0d7 20b6 3649 4cb8 ea7d 8bb7
000001f0: 56cd 0139 52c3 d3b7 e95b 94b5 bce9 60b9
-1.9413335e-06 7.739018e-06 -9.462149e-06 -8.777956e-06 -1.1101955e-06 9.1542286e-05 1.0716502e-05 -1.1118682e-05
-0.000138857 2.1752876e-05 2.6183101e-05 -3.351024e-07 -2.0385257e-06 2.9756588e-06 4.9545437e-05 -5.1350044e-06
4.3867352e-05 -1.6220042e-06 -3.9424147e-05 2.7363335e-06 -5.096894e-05 5.263027e-06 2.8991553e-05 9.817312e-07
-2.247924e-05 -1.4679382e-06 0.00014762642 -2.1072456e-06 3.260401e-05 2.4858913e-05 -0.000104301886 3.689272e-05
-2.641348e-05 -8.315068e-06 2.5996608e-06 7.814849e-06 -0.00012603975 8.32838e-05 -1.5195145e-05 4.3633205e-05
-7.285913e-05 0.00013356462 -1.905801e-05 0.000253578 -9.080258e-06 -1.6454567e-05 -5.66839e-05 7.515869e-05
7.951208e-06 2.9688708e-06 -7.462209e-05 -2.4882715e-06 -5.306859e-06 -4.3815075e-05 8.461785e-06 6.9093316e-05
4.9659455e-08 3.1388783e-05 9.894379e-07 -4.8052745e-05 -1.7675258e-05 7.1215272e-06 5.208575e-06 0.000121056306
3.1181167e-05 7.595895e-05 -2.3242686e-05 -3.7115e-06 5.8819434e-05 5.556692e-07 2.6790349e-05 1.4105917e-05
8.055591e-06 -0.00015933556 0.00027740473 1.665651e-05 1.2349056e-05 -7.399588e-05 1.0862414e-05 -1.4915072e-06
-1.8567436e-05 -3.1137257e-05 7.6376185e-05 2.3466255e-05 -0.000111117304 -6.2359127e-06 3.985152e-05 1.026032e-05
1.0813869e-07 2.3656414e-05 4.0259547e-06 -7.534912e-05 0.00012382213 1.0123735e-05 -7.547491e-06 -9.853336e-06
1.4652119e-05 7.218718e-06 -1.1553117e-06 2.9013554e-05 -0.00011655067 -6.0920024e-06 6.1930814e-06 -9.2543676e-05
2.3529374e-06 2.3771688e-06 3.4207898e-07 -6.635404e-05 7.3657457e-06 -3.004962e-05 0.00015551355 8.8424855e-08
-6.1762867e-06 -0.00015071325 -2.2479526e-05 -3.0297104e-05 0.00010060805 -5.606841e-06 0.00014916385 6.4835303e-06
0.00012055208 -2.3967514e-06 -4.8705573e-05 -1.6628725e-05 0.00012378892 -2.5244113e-05 -1.1053609e-06 -0.00021449378

exp_avg_sq f4 [128]
00000000: 1191 9f2e c3ce 282f d234 e02e 898f 4f2f
00000010: 6ed2 e82f 3b58 2133 6b15 3030 82f3 2031
00000020: 6023 b133 acfc e42f 9b1f a532 8838 1c2f
00000030: 8dc7 392e e1a1 1e2d 7865 bc32 967d 2930
00000040: eb4b 2431 7d52 1431 5906 0532 bfd1 972e
00000050: 2550 dd31 abd7 da2d e714 3532 998b 282d
00000060: f4f5 0a31 8562 932d 12c5 2e34 338d 3e2f
00000070: 9b40 f731 b59f 6532 46d4 a232 48c2 7632
00000080: 74d8 3e30 c5b2 9d2e 20ce ac2d 8e8b 152f
00000090: 18fe e732 50aa c332 8b9b 4c30 a7fa a832
000000a0: 5d8b 3633 e3f2 9332 0e2a 4532 20bc 8233
000000b0: 193b 9030 637b 1430 95cc a732 9826 9b32
000000c0: 8499 ab31 cdab f92e 9d76 f432 079f ed2f
000000d0: 1d45 2d31 20f0 8731 42a2 772f 3048 3532
000000e0: c1ba 232a aed4 3332 b12a cd2e 3450 c730
000000f0: 7b27 cd2f 393e b730 abee f72e 8135 6a32
00000100: 0bd0 f42f f08d 0333 2280 2031 6d46 ab2e
00000110: 98d1 ef31 648f 862c b4f6 0031 ebdc e42f
00000120: a0b2 aa30 8032 0833 9851 de33 4cef b330
00000130: 6941 8b30 166f a232 3dbf 0f2f 195e b42f
00000140: 0860 2133 845d 5732 1253 2a32 d5e6 7230
00000150: af4b 8233 eb5f f52f e3cc 0c34 c07a e530
00000160: ac83 3b2e 950a b631 99e9 c933 2d12 f332
00000170: be21 5532 9834 a332 d0bc 622f c223 342f
00000180: 1bae 2d2f 0482 1433 c692 ca2d a7a9 8332
00000190: 0867 7333 cd23 612f c5cf cd2f e98c f932
000001a0: 1c76 162e 17dd 162f 2d9c 102b 776c 1732
000001b0: c9c2 372f 5854 a232 afd8 bf32 226c 2d2c
000001c0: 2624 6b2e cf25 4933 0521 ed30 d6ec 5532
000001d0: 11db ab32 b4ba 982e 8286 6d32 be58 5b31
000001e0: 40b5 8c32 d7fc 1a2f 2641 bf31 808d 4332
000001f0: a2ad cf32 42eb fb32 f333 fa2d 1af0 6a33
7.256252e-11 1.5352968e-10 1.01957234e-10 1.8877534e-10 4.2350073e-10 3.756598e-08 6.4058864e-10 2.3421483e-09
8.2486395e-08 4.1652493e-10 1.92229e-08 1.4208201e-10 4.2241367e-11 9.0172045e-12 2.1932223e-08 6.166031e-10
2.3908295e-09 2.1583724e-09 7.743062e-09 6.9039434e-11 6.441058e-09 2.4879506e-11 1.0540339e-08 9.580691e-12
2.0221451e-09 1.6755717e-11 1.6276707e-07 1.7330563e-10 7.195991e-09 1.33658675e-08 1.8955813e-08 1.4363259e-08
6.9429196e-10 7.171289e-11 1.9645674e-11 1.3601051e-10 2.7007488e-08 2.2778437e-08 7.443581e-10 1.9671758e-08
4.2501927e-08 1.7223504e-08 1.1476471e-08 6.0878165e-08 1.0494176e-09 5.401743e-10 1.9534392e-08 1.8061925e-08
4.9942077e-09 1.1353727e-10 2.8459278e-08 4.3223045e-10 2.52141e-09 3.956316e-09 2.2522165e-10 1.0552e-08
1.4542102e-13 1.0467529e-08 9.329904e-11 1.4501951e-09 3.7317335e-10 1.3332687e-09 1.12746555e-10 1.3632758e-08
4.4531165e-10 3.0629906e-08 2.33559e-09 7.78869e-11 6.9796435e-09 3.8244286e-12 1.8766686e-09 4.162993e-10
1.2419896e-09 3.1710897e-08 1.03525224e-07 1.3091976e-09 1.0132172e-09 1.8909798e-08 1.3073716e-10 3.280867e-10
3.7573074e-08 1.253591e-08 9.91419e-09 8.836712e-10 6.0673635e-08 4.4633394e-10 1.3113053e-07 1.6696831e-09
4.2635825e-11 5.2981e-09 9.402283e-08 2.8297189e-08 1.2405904e-08 1.8999614e-08 2.062166e-10 1.6383608e-10
1.5796113e-10 3.4577184e-08 2.3029922e-11 1.5327556e-08 5.6671553e-08 2.047635e-10 3.7436912e-10 2.9051494e-08
3.4210954e-11 1.3720967e-10 5.1375814e-13 8.814019e-09 1.6712955e-10 1.8897637e-08 2.2333863e-08 2.4644804e-12
5.346492e-11 4.6833346e-08 1.7253404e-09 1.2452082e-08 2.000664e-08 6.945325e-11 1.3825799e-08 3.1919138e-09
1.6380568e-08 1.4096045e-10 5.566238e-09 1.1382667e-08 2.417693e-08 2.9327229e-08 2.844478e-11 5.470074e-08
