GameAI3/Config/results/dwarf_2/Dwarf/Dwarf-35840.pt (torch, 555487 bytes, 36 tensors)

network_body._body_endoder.seq_layers.0.weight f4 [128, 44]
-0.010447977 -0.012773127 -0.23461403 -0.101966314 -0.022310225 0.11083651 0.21353844 -0.03250229
-0.2391291 -0.1112355 -0.041811943 0.013968717 -0.041229077 0.04582544 -0.06261009 0.021744048
0.032803375 -0.142346 -0.009145118 0.33646196 0.1959579 -0.32079926 0.039708145 0.10474633
-0.0051701805 -0.15042634 -0.098852895 -0.1991453 0.25700042 0.14487399 -0.10996319 -0.16155301
-0.25950435 -0.1205663 0.007828905 0.15442835 0.19511256 -0.05756329 -0.061086312 0.0024277228
0.06679701 -0.046784323 -0.022078143 -0.11370637 0.08313409 -0.029881207 -0.023233423 -0.09817728
0.05951028 -0.055023395 -0.115377866 0.009012214 -0.14046006 -0.082940206 -0.061111737 -0.22297825
-0.09743559 -0.007973579 -0.094464146 0.09291382 -0.0480929 0.1393388 -0.020724762 0.21404372
-0.070298 -0.010468225 -0.21362023 0.010146665 -0.10219422 0.06975356 0.21201889 0.14099695
0.097395666 -0.056273032 -0.12517527 -0.16681372 0.17459266 0.05232612 -0.07731864 0.011060616
0.04679212 0.019028835 -0.04672264 0.31604105 -0.221282 0.15764737 0.44617608 0.1802244
-0.06869915 0.054558493 -0.09857616 -0.06792577 0.10062262 0.003456404 -0.07722599 0.23671263
0.0028069266 -0.01392283 0.21852079 -0.26533696 -0.1503399 0.14596272 -0.21127506 0.23703495
0.40829015 -0.14001678 -0.27644518 0.004329567 0.009851349 0.05814665 -0.2581586 -0.34348997
0.14505267 -0.033216644 0.0358162 0.086602144 -0.07741047 -0.2875465 -0.1458775 -0.028573658
0.03663971 0.049971323 0.10278427 -0.1289139 -0.09384046 0.2502632 -0.056680933 -0.03340453
-0.032001685 0.08075912 -0.16130726 -0.098114505 -0.113924906 0.042650096 0.24924834 -0.13601589
0.23655361 0.0737356 -0.09823428 -0.13281208 0.1921409 -0.08895312 0.054340027 -0.037546832
-0.0744025 0.21240526 -0.2220768 -0.067033075 0.029337883 0.012922589 0.04005486 -0.007320798
-0.35498652 -0.32638294 0.050507206 0.15015061 -0.11869682 0.18401688 -0.11922693 -0.20638892
0.06872016 0.23456231 -0.08707483 0.08454392 -0.12264105 -0.11640079 -0.01941616 0.072738916
-0.28219774 -0.19672485 0.029413508 0.07532324 -0.060243428 -0.01463725 0.43971235 0.009324264
-0.013523396 0.25427294 0.240632 0.26252526 -0.13773327 0.09502195 0.0010462106 -0.021179682
0.22963458 0.1676859 0.03321729 -0.05725719 -0.2746648 0.21399105 -0.13698268 -0.2395316
0.04431435 0.117371604 0.15476045 0.08810524 -0.1956123 0.21093184 0.086817145 0.0024379408
-0.1809537 0.11248624 -0.12336152 0.018633261 -0.2627609 -0.014082943 -0.0016743602 -0.16387638
-0.17313476 0.0017354831 0.16894059 0.2842309 0.33273706 0.036974076 0.041135788 -0.15893869
0.11675675 0.16560285 0.12800007 0.06807761 -0.11851889 -0.07612267 -0.07341095 -0.21213071
0.13872725 0.115969904 -0.12255079 0.038074028 0.031691547 0.12253181 -0.16647817 0.01966047
0.21948195 -0.018688286 -0.025748173 -0.010448302 0.022623094 -0.09356909 0.106802 0.23437533
-0.113447964 0.13183326 0.026420584 -0.15412232 0.035552826 0.101242825 -0.010666791 0.19235002
0.23706774 0.074938156 0.093275584 0.15448442 -0.007669018 -0.016164463 0.13619319 -0.015170843
00000000: fe2d 2bbc 6146 51bc a93e 70be b7d3 d0bd
00000010: efc3 b6bc 41fe e23d d2a9 5a3e 1f21 05bd
00000020: 42de 74be 70cf e3bd 0043 2bbd 0cdd 643c
00000030: d2df 28bd 75b3 3b3d b839 80bd 9320 b23c
00000040: d55c 063d 26c3 11be 68d5 15bc be44 ac3e
00000050: 30a9 483e cd3f a4be 02a5 223d 3e85 d63d
00000060: 9e6a a9bb 5d09 1abe 6373 cabd bfec 4bbe
00000070: 8f95 833e d959 143e 6234 e1bd 276e 25be
00000080: c1dd 84be 77eb f6bd cf44 003c 7722 1e3e
00000090: 96cb 473e 7cc7 6bbd a435 7abd 6e1a 1f3b
000000a0: dfcc 883d eba0 3fbd 39dd b4bc e3de e8bd
000000b0: 3542 aa3d 6fc9 f4bc 0554 bebc 2b11 c9bd
000000c0: 0dc1 733d 3660 61bd 3b4b ecbd f7a7 133c
000000d0: c3d4 0fbe 8edc a9bd 4d50 7abd 6954 64be
000000e0: 508c c7bd 9da3 02bc 6b76 c1bd 9a49 be3d
000000f0: 10fd 44bd d5ae 0e3e fac6 a9bc 472e 5b3e
00000100: 66f8 8fbd eb82 2bbc 43bf 5abe 333e 263c
00000110: 344b d1bd f4da 8e3d 7b1b 593e 8161 103e
00000120: 6177 c73d 8d7e 66bd f22d 00be 37d1 2abe
00000130: 6bc8 323e ea53 563d 3c59 9ebd 9637 353c
00000140: 18a9 3f3d 5ce2 9b3c 3d60 3fbd 22d0 a13e
00000150: c097 62be 506e 213e 3171 e43e bf8c 383e
00000160: 24b2 8cbd ba78 5f3d 4ce2 c9bd ab1c 8bbd
00000170: 3b13 ce3d d684 623b a928 9ebd cc64 723e
00000180: 6af4 373b 951c 64bc eac3 5f3e 3fda 87be
00000190: b4f2 19be 4077 153e 7d58 58be 4ab9 723e
000001a0: 680b d13e 8f60 0fbe 398a 8dbe 0adf 8d3b
000001b0: 8d67 213c 2f2b 6e3d 5d2d 84be ebdd afbe
000001c0: b088 143e 2d0e 08bd 02b4 123d 775c b13d
000001d0: 6189 9ebd 4b39 93be e960 15be 4e13 eabc
000001e0: 8513 163d bbae 4c3d 8f80 d23d 0102 04be
000001f0: 6d2f c0bd 8022 803e 442a 68bd 30d3 08bd
00000200: 3314 03bd 0a65 a53d bb2d 25be 42f0 c8bd
00000210: 7651 e9bd deb1 2e3d f53a 7f3e c047 0bbe
00000220: 1c3b 723e b102 973d 0e2f c9bd e4ff 07be
00000230: 96c0 443e 0e2d b6bd a693 5e3d b5ca 19bd
00000240: 5760 98bd c480 593e 1a68 63be a348 89bd
00000250: 0056 f03c 44b9 533c 9110 243d 4ee3 efbb
00000260: cbc0 b5be aa1b a7be a5e0 4e3d 15c1 193e
00000270: 5217 f3bd ec6e 3c3e 402d f4bd 9e57 53be
00000280: 28bd 8c3d 1a31 703e 4a54 b2bd 5d25 ad3d
00000290: 3b2b fbbd 8a63 eebd a40e 9fbc 24f8 943d
000002a0: 397c 90be 3d72 49be 99f4 f03c 1243 9a3d
000002b0: d0c1 76bd 14d1 6fbc fa21 e13e ccc4 183c
000002c0: 3c91 5dbc 1030 823e 3c68 763e b669 863e
000002d0: f309 0dbe de9a c23d 0121 893a 0381 adbc
000002e0: 5425 6b3e dab5 2b3e da0e 083d 8486 6abd
000002f0: dda0 8cbe 7820 5b3e 3045 0cbe c647 75be
00000300: f782 353d 8660 f03d 8679 1e3e 8570 b43d
00000310: 974e 48be 84fe 573e 30cd b13d dcc5 1f3b
00000320: ed4b 39be 305f e63d f7a4 fcbd c8a4 983c
00000330: 9988 86be 25bc 66bc 3576 dbba 36cf 27be
00000340: 3d4a 31be 2679 e33a c3fe 2c3e b686 913e
00000350: 835c aa3e 2172 173d 007e 283d d3c0 22be
00000360: 2a1e ef3d cb93 293e 7312 033e 466c 8b3d
00000370: 08ba f2bd 34e6 9bbd 7b58 96bd cb38 59be
00000380: 840e 0e3e a181 ed3d e9fb fabd 83f3 1b3d
00000390: ffce 013d f5f1 fa3d 4179 2abe fe0e a13c
000003a0: e0bf 603e 2d18 99bc d5ed d2bc 5b2f 2bbc
000003b0: 1154 b93c 27a1 bfbd 02bb da3d 1600 703e
000003c0: 6857 e8bd 4cff 063e fb6f d83c 3ed2 1dbe
000003d0: d79f 113d 6658 cf3d c4c3 2ebc 67f7 443e
000003e0: e3c1 723e 2d79 993d 4507 bf3d 2a31 1e3e
000003f0: 634c fbbb 566b 84bc 3a76 0b3e 218f 78bc

network_body._body_endoder.seq_layers.0.bias f4 [128]
-0.00834404 0.001341328 -0.0026013474 0.001308482 0.0012837149 -0.001724503 -0.00036648387 0.00059619325
-0.0018386691 -0.002532385 -0.004797204 1.3446897e-05 -0.0006841765 -0.010725148 -0.003459369 -0.010160963
-0.002483165 0.0005851838 0.0038304147 -0.0039489157 0.0018795389 -0.004702872 0.0022430816 0.0009616776
-0.0040374137 -0.0032410081 -4.4174798e-05 0.0014918201 -0.00963262 -0.0034691964 -0.00015022093 -0.0027541588
-0.0023608168 0.0012516638 -6.388359e-05 -0.00450027 0.0069360947 -0.001006067 0.00024263829 -0.0010371355
-0.00292512 0.0029964244 0.0026888445 -0.0019094014 0.00050366065 -0.001024944 0.0019780535 -0.0022989472
-0.003198688 -0.002801729 -0.0029047371 -0.0012720176 -0.0007345768 0.0015633171 -0.00097000645 -0.0070828814
0.00082132936 -0.0018170716 -0.0039209607 -0.0013663898 -0.0017185984 0.009997817 -0.0057222103 -0.004276739
-0.00068679184 0.0008809008 -0.0030757412 -0.00015314078 0.00057158864 -0.0076841703 -0.0037243953 0.0042861975
-0.006091107 -0.0014694977 0.0020812089 -0.00024024607 -0.0026723857 -0.0025495426 0.0009116862 -0.0030103908
-0.00076945155 7.201516e-05 0.0046795164 -0.0013158899 0.003179996 -0.0003434757 0.0008175399 -0.00027069106
-0.008877465 0.0026095095 0.0010740064 -0.0026780977 -0.0007204175 -0.0002403651 0.005190526 -0.0005819339
0.002420729 0.00047856668 0.006651744 0.008049095 0.0020242762 -0.0023016203 -0.008160655 -0.0012893109
0.0005503392 1.4802253e-05 -0.0026256747 0.0005853719 -0.006417476 -0.008121433 -0.0028196876 -0.0018336027
-0.0032042381 0.00059260026 0.0034146602 -0.0019056355 0.0044517005 -0.0035784496 -0.0049959696 -0.0008846668
-0.0013400037 -0.0014059687 -0.0016654838 -0.0039991406 -0.002650292 0.0006360894 -0.002358991 -0.0017651491
00000000: 71b5 08bc 80cf af3a 5e7b 2abb 5f81 ab3a
00000010: 5342 a83a b808 e2ba a224 c0b9 da49 1c3a
00000020: 7fff f0ba 5ff6 25bb dd31 9dbb fc99 6137
00000030: 4f5a 33ba 88b8 2fbc 95b6 62bb 2b7a 26bc
00000040: 98bc 22bb 0567 193a b207 7b3b e865 81bb
00000050: dc5a f63a 8d1a 9abb aa00 133b 1719 7c3a
00000060: 484c 84bb 1867 54bb 5448 39b8 2d89 c33a
00000070: 23d2 1dbc 755b 63bb a084 1db9 1e7f 34bb
00000080: efb7 1abb de0e a43a 3ef9 85b8 0077 93bb
00000090: 2e48 e33b 02de 83ba b86c 7e39 7ef0 87ba
000000a0: 5fb3 3fbb a95f 443b 5337 303b e144 faba
000000b0: 1808 043a 6a57 86ba 3ba2 013b efa9 16bb
000000c0: 14a1 51bb 369d 37bb 675d 3ebb d4b9 a6ba
000000d0: 9d90 40ba 38e8 cc3a 0848 7eba 8417 e8bb
000000e0: 7b4e 573a ce2a eeba 677b 80bb 6f18 b3ba
000000f0: 9842 e1ba e2cd 233c 6181 bbbb e323 8cbb
00000100: d209 34ba 41ec 663a 6092 49bb 6a94 20b9
00000110: aad6 153a 7ecb fbbb fc14 74bb 3b73 8c3b
00000120: e997 c7bb 299c c0ba e464 083b 90ea 7bb9
00000130: 3123 2fbb 3a16 27bb 3afe 6e3a fa49 45bb
00000140: 05b5 49ba d806 9738 a156 993b f079 acba
00000150: 7b67 503b 8714 b4b9 2d50 563a 8aeb 8db9
00000160: c972 11bc 4e04 2b3b adc5 8c3a 0683 2fbb
00000170: 66da 3cba 840a 7cb9 4a15 aa3b ec8c 18ba
00000180: 18a5 1e3b 22e8 fa39 dff6 d93b 5ae0 033c
00000190: b8a9 043b c8d6 16bb 45b4 05bc 18fe a8ba
000001a0: a344 103a 3157 7837 8313 2cbb a573 193a
000001b0: b149 d2bb c20f 05bc 82ca 38bb 7f55 f0ba
000001c0: 32fe 51bb bb58 1b3a 7ec8 5f3b 84c6 f9ba
000001d0: 92df 913b 6c84 6abb 3bb5 a3bb fce8 67ba
000001e0: 10a3 afba 7b48 b8ba 5d4c daba 390b 83bb
000001f0: 85b0 2dbb 3dbf 263a 4d99 1abb 935c e7ba

network_body._body_endoder.seq_layers.2.weight f4 [128, 128]
0.009520235 -0.0012553782 0.04680222 0.021927381 -0.057402376 -0.097511984 0.0096251005 0.14648215
0.16073789 -0.089332 -0.06148763 -0.09797599 0.050313286 0.01757043 -0.016088672 0.018633839
0.07765364 0.06971399 -0.100659 -0.065410055 -0.02213612 0.023898974 0.08868649 -0.0024764538
-0.13671565 0.09997704 0.27191347 -0.024733426 0.08434093 -0.036102753 -0.124718085 0.010688348
0.22550201 0.059937734 -0.12802224 -0.0047364393 0.18664189 0.054055035 -0.020482251 -0.09487391
0.037025474 -0.08829857 -0.10778433 -0.01474511 -0.24581735 0.03380314 0.04019667 0.009411515
-0.042809043 -0.12740977 -0.007866802 0.011032879 0.0304473 0.11706666 -0.045836274 -0.1325917
0.07465311 -0.036851786 -0.00525105 -0.1295586 0.06172413 -0.07161623 0.055885144 -0.07253671
-0.04727175 0.23707955 -0.016220944 0.011248569 -0.23845005 0.014502793 -0.0165356 0.0793109
0.085421085 0.034532312 0.072763704 -0.028494602 -0.026356751 0.19426706 0.0617755 -0.03726712
0.034257185 0.053401556 -0.06648702 0.12479253 -0.17323732 0.10929619 0.09919487 -0.032802403
0.14047314 0.07286534 0.14297846 0.098992914 -0.01930186 0.15957803 0.021572273 0.11754459
0.07866098 -0.10826314 0.12542766 0.009098091 0.05899519 0.07600313 0.12193378 -0.11212142
0.15059166 -0.049688302 -0.06288468 0.042885818 3.290541e-05 0.19886605 -0.09875122 -0.014145004
0.007305433 0.14075358 0.04724379 0.079183765 -0.0137100015 0.10543583 -0.0045824214 0.1830949
0.001794827 -0.020385193 0.17199218 -0.0850163 0.0025205328 -0.044428263 -0.15640996 -0.115053326
-0.0038238661 -0.08613351 -0.08628314 0.09773329 0.07933759 0.03301788 -0.08973758 -0.019671133
0.089186355 0.04444491 0.08568178 0.060328707 -0.14533524 0.023376195 -0.0766463 0.08394807
-0.009471444 -0.005920512 0.023532333 -0.063396 -0.057951305 0.11370961 -0.11398039 -0.035853952
0.028707666 0.09043515 0.10567889 0.06676463 0.008287558 -0.047811836 0.06638315 -0.08088553
-0.10810915 0.0010545774 0.058812585 0.025760727 -0.034152664 -0.02132328 -0.030792352 -0.00857594
0.099410474 0.13941441 -0.0028347028 0.09876946 0.20017304 -0.2043456 -0.10881068 -0.11868103
0.1274778 -0.11400154 -0.08370333 -0.03806478 0.026816277 -0.08615273 0.12316566 -0.24434946
0.039501823 0.07640499 0.11164253 -0.15691517 0.10650154 0.12335087 -0.102478854 0.05686627
-0.18520525 0.25079083 -0.053767722 -0.034015562 -0.19710216 -0.13121465 -0.0660088 -0.055885594
-0.00021120718 0.008186057 -0.03340774 0.032478318 0.084001265 -0.09826761 0.03532219 -0.050043
0.015620851 0.052712943 0.010368651 0.038364924 0.052243687 0.053186037 0.0713127 0.034248043
0.15574683 -0.07334079 0.009356045 -0.06707917 0.031720016 -0.0740971 0.06312168 0.1360346
0.041440662 -0.04334756 0.07248771 0.15891358 0.004116816 -0.060172524 -0.035354313 0.03694693
0.064269766 -0.039624862 -0.035857067 -0.107852206 -0.04595876 0.037269283 0.0017370112 0.038715072
0.021875802 0.051433876 0.16624549 0.023426803 0.0018247485 0.08078748 0.07091232 -0.14950202
0.12398685 0.08673036 -0.20151082 -0.008785551 -0.10387036 0.05770866 -0.116266586 -0.07953422
00000000: c2fa 1b3c 818b a4ba afb3 3f3d 0da1 b33c
00000010: c11e 6bbd 5db4 c7bd 99b2 1d3c 6bff 153e
00000020: 7998 243e b2f3 b6bd 74da 7bbd a3a7 c8bd
00000030: 4e15 4e3d ddef 8f3c 64cc 83bc fea5 983c
00000040: df08 9f3d 35c6 8e3d 4e26 cebd b5f5 85bd
00000050: cf56 b5bc c8c7 c33c 43a1 b53d 004c 22bb
00000060: 30ff 0bbe c3c0 cc3d 3e38 8b3e c19d cabc
00000070: f0ba ac3d 7be0 13bd 326c ffbd 2e1e 2f3c
00000080: 00ea 663e 4581 753d 4318 03be 2234 9bbb
00000090: 0d1f 3f3e d068 5d3d 65ca a7bc 414d c2bd
000000a0: 06a8 173d e1d5 b4bd 08be dcbd 7995 71bc
000000b0: 8bb7 7bbe 2975 0a3d 43a5 243d c132 1a3c
000000c0: 8958 2fbd b577 02be c2e3 00bc 40c3 343c
000000d0: 9e6c f93c a5c0 ef3d d1be 3bbd 1ec6 07be
000000e0: bbe3 983d e6f1 16bd 0011 acbb 02ab 04be
000000f0: 71d2 7c3d 88ab 92bd d2e7 643d 208e 94bd
00000100: 06a0 41bd fbc4 723e c9e1 84bc eb4b 383c
00000110: 402c 74be 1f9d 6d3c ab75 87bc c16d a23d
00000120: 40f1 ae3d c171 0d3d 2305 953d 836d e9bc
00000130: 1dea d7bc f2ed 463e 4f08 7d3d 68a5 18bd
00000140: 4351 0c3d 97bb 5a3d 592a 88bd 3a93 ff3d
00000150: 2065 31be aed6 df3d ae26 cb3d d05b 06bd
00000160: 31d8 0f3e 6c3a 953d f268 123e ccbc ca3d
00000170: ef1e 9ebc 6c68 233e 56b8 b03c 38bb f03d
00000180: 0219 a13d 11b9 ddbd 1c70 003e 2910 153c
00000190: f1a4 713d 87a7 9b3d 6bb8 f93d ea9f e5bd
000001a0: b334 1a3e f685 4bbd afc9 80bd 0aa9 2f3d
000001b0: ea03 0a38 8ba3 4b3e 143e cabd 72c0 67bc
000001c0: 6a62 ef3b b521 103e b482 413d 192b a23d
000001d0: ea9f 60bc beee d73d 2328 96bb 3b7d 3b3e
000001e0: 6740 eb3a d9fe a6bc b81e 303e 071d aebd
000001f0: 862f 253b 69fa 35bd ef29 20be 14a1 ebbd
00000200: d499 7abb c466 b0bd 37b5 b0bd 6428 c83d
00000210: bf7b a23d c23d 073d 56c8 b7bd 5b25 a1bc
00000220: 56a7 b63d de0b 363d ee79 af3d 3c1b 773d
00000230: c3d2 14be 6f7f bf3c bcf8 9cbd f7ec ab3d
00000240: 1e2e 1bbc db00 c2bb e1c6 c03c c3d5 81bd
00000250: 595e 6dbd 96e0 e83d 8d6e e9bd 98db 12bd
00000260: 572c eb3c 1036 b93d 2d6e d83d e5bb 883d
00000270: 8ac8 073c 58d6 43bd e4f3 873d 50a7 a5bd
00000280: 5468 ddbd bf39 8a3a 77e5 703d 2908 d33c
00000290: aae3 0bbd 29ae aebc 3e40 fcbc 1982 0cbc
000002a0: b897 cb3d a7c2 0e3e 6cc6 39bb a547 ca3d
000002b0: 29fa 4c3e f93f 51be 22d8 debd 0a0f f3bd
000002c0: 8a89 023e a479 e9bd a76c abbd d1e9 1bbd
000002d0: cfad db3c d870 b0bd 473e fc3d bf36 7abe
000002e0: aacc 213d 387a 9c3d d7a4 e43d 5fae 20be
000002f0: 7b1d da3d 629f fc3d 6fe0 d1bd 9bec 683d
00000300: 72a6 3dbe a867 803e 8b3b 5cbd e753 0bbd
00000310: 26d5 49be 225d 06be 9f2f 87bd 4be8 64bd
00000320: 7f77 5db9 d01e 063c 8ed6 08bd fc07 053d
00000330: db08 ac3d 8740 c9bd 00ae 103d e4f9 4cbd
00000340: 99ee 7f3c 87e9 573d 46e1 293c 8a24 1d3d
00000350: 7afd 553d 9ad9 593d 650c 923d ad47 0c3d
00000360: 197c 1f3e b233 96bd 194a 193c ce60 89bd
00000370: d9ec 013d 38c0 97bd f045 813d a74c 0b3e
00000380: afbd 293d 368d 31bd 7074 943d 3eba 223e
00000390: 5be6 863b 7777 76bd afcf 10bd aa55 173d
000003a0: de9f 833d ae4d 22bd dcde 12bd 9ee1 dcbd
000003b0: 413f 3cbd ada7 183d 6dac e33a b293 1e3d
000003c0: e234 b33c 54ac 523d 423c 2a3e 91e9 bf3c
000003d0: 662c ef3a e873 a53d 7a3a 913d 0f17 19be
000003e0: d1ec fd3d b09f b13d da58 4ebe 46f1 0fbc
000003f0: fcb9 d4bd ea5f 6c3d 2d1d eebd d6e2 a2bd

network_body._body_endoder.seq_layers.2.bias f4 [128]
-0.0029995795 -0.0010575622 -0.0016512914 -0.004330223 -0.0022445624 -0.001739176 -0.0009559865 -0.0025573787
-0.0038413336 -0.0033485647 -0.0029703053 -0.0022289678 -0.0021052724 -0.0033421915 -0.00059283135 -0.007017938
-0.001066388 -0.0033908375 -0.00091591215 -0.0035949384 0.0070181563 -0.0006165978 -0.00012169929 -0.0005183991
-0.0022206313 -0.00034124966 0.0030793098 -0.004516198 0.005375489 -0.0019636618 -0.00017176438 -0.0014122856
0.00042892102 -0.0015420123 -0.0038581255 -0.00074972585 -0.0017705623 0.0006999892 0.0002163786 -0.0002055076
-0.0023539406 -0.0008208237 -0.0006156815 -0.0011821422 -0.008458443 -0.0013383216 -0.004472102 -0.0018040687
-0.0028582935 -0.00344225 -0.0016457146 -0.0008482186 -0.0042205523 -0.002462536 0.003916221 -0.0017568886
-0.00033176993 -0.0020674444 0.0067282096 0.0007129891 -0.0065902094 -0.0008812096 -0.0013369363 -0.0074555166
-0.0033139212 -0.0049077244 -0.0021025257 -0.0010032762 -0.0033141938 -0.0011292243 -0.0036683448 -0.004191358
-0.00071114703 -0.00014766592 -0.0012748372 0.0011965404 -0.0008558205 -0.0025003126 -0.0068979124 -0.0022839357
-0.00019043029 -0.0012931507 0.0026866351 -0.0014242392 -0.0009901102 -0.0018695751 -0.00066902343 0.004152941
-0.0010415574 -0.0011734351 -0.016498964 -0.0013165287 -0.0015834622 -0.0006561977 0.00011308858 -0.0030599595
-5.8655925e-05 0.0008363283 -0.0032806902 -0.0018069334 0.0008434398 -0.0013354863 -0.0025306346 3.6460664e-05
-0.0063169664 5.7959365e-05 -0.0012553035 -0.0019242067 -0.0023263302 -0.0046529393 -0.0007314031 -0.00087023625
-0.001659352 0.002953961 -0.0015004408 -0.0005967872 0.0012738889 -0.001920814 0.0032174273 -0.00029779912
-0.0011278378 -0.0014586587 -0.0038351433 -0.0022676263 -0.002936907 -0.0049920273 -0.00070765335 -0.0032338016
00000000: 9894 44bb e69d 8aba 2570 d8ba 8be4 8dbb
00000010: 8219 13bb 10f5 e3ba 2b9b 7aba b299 27bb
00000020: e2be 7bbb 9873 5bbb 74a9 42bb e013 12bb
00000030: 9cf8 09bb ab08 5bbb 3d68 1bba bbf6 e5bb
00000040: 0bc6 8bba d038 5ebb d319 70ba 0f99 6bbb
00000050: 90f8 e53b 2ea3 21ba cf38 ffb8 2de5 07ba
00000060: 0388 11bb c1e9 b2b9 3fce 493b 9dfc 93bb
00000070: df24 b03b c7b0 00bb a61b 34b9 711c b9ba
00000080: cee0 e039 591d caba 9bd8 7cbb 4089 44ba
00000090: 3612 e8ba 7b7f 373a b0e3 6239 877d 57b9
000000a0: 9244 1abb 8c2c 57ba b065 21ba 1cf2 9aba
000000b0: 4895 0abc 9f6a afba b68a 92bb 8076 ecba
000000c0: 3552 3bbb 5f97 61bb 05b5 d7ba fd5a 5eba
000000d0: 8f4c 8abb 8062 21bb a553 803b 6647 e6ba
000000e0: 68f1 adb9 f67d 07bb 5078 dc3b e3e7 3a3a
000000f0: aff2 d7bb fa00 67ba 233c afba 684d f4bb
00000100: 5f2e 59bb fad0 a0bb 87ca 09bb 5d80 83ba
00000110: f232 59bb 7b02 94ba 9d68 70bb a957 89bb
00000120: 456c 3aba c5d6 1ab9 7018 a7ba 3cd5 9c3a
00000130: 2459 60ba 49dc 23bb e207 e2bb 15ae 15bb
00000140: 3eae 47b9 f07e a9ba 4212 303b 8aad baba
00000150: 96c6 81ba 880c f5ba 6761 2fba 6515 883b
00000160: de84 88ba f3cd 99ba d628 87bc 5f8f acba
00000170: 2d8c cfba af04 2cba f829 ed38 9a89 48bb
00000180: 5205 76b8 0b3d 5b3a d900 57bb a0d6 ecba
00000190: 491a 5d3a 7c0b afba 01d9 25bb 57ed 1838
000001a0: 8efe cebb 6519 7338 ff88 a4ba aa35 fcba
000001b0: 5875 18bb af77 98bb a2bb 3fba 9120 64ba
000001c0: 9d7e d9ba 3e97 413b 70aa c4ba b671 1cba
000001d0: 9ef8 a63a d3c3 fbba 79db 523b ec21 9cb9
000001e0: f5d3 93ba 7730 bfba 0757 7bbb 759c 14bb
000001f0: 2079 40bb 2994 a3bb d081 39ba 30ee 53bb

action_model._continuous_distribution.log_sigma f4 [1, 2]
-0.022580253 -0.0021943287
00000000: 39fa b8bc bace 0fbb

action_model._continuous_distribution.mu.weight f4 [2, 128]
-0.022598395 0.010410266 -0.01851813 -0.0038511443 0.010986227 0.025240207 0.013999169 0.00043918146
0.0060401964 -0.01831604 0.0018717087 -0.011532865 0.008945194 0.0039738542 -0.016670683 -0.000116152354
0.0069689625 -0.0070944233 -0.01257189 0.012838153 0.008102131 0.027182203 0.0053724097 -0.025217786
-0.0050428724 -0.014284446 -0.010965777 -0.007886705 0.0050604236 -0.0008697822 -0.024137337 0.028185045
0.027429823 -0.0048614186 -0.004531934 0.02040653 0.0038378427 0.025677396 0.011749062 -0.023918705
-0.01168745 -0.03154675 -0.022717575 0.0027628199 -8.588109e-05 -0.016523488 0.003452586 -0.0102381
-0.004039036 0.01830118 -0.005710771 0.013468672 0.020787783 -0.018552294 -0.017858965 0.0032371718
0.007895158 0.0115554 -0.020402152 -0.00028538148 -0.005181132 -0.011343226 -0.015447497 -0.011109046
-0.04670395 0.0016386063 -0.00738982 0.0022043833 -0.00428653 -0.03191062 -0.0050229593 0.00022722948
0.02421113 -0.0082295425 0.00633525 -0.012975781 -0.01735894 0.009469368 -0.0017549264 -0.003479208
-0.026355488 -0.0122673735 -0.016210156 -0.022154758 0.024156913 0.008416113 -0.007058746 0.005013474
-0.0031769655 0.02498737 -0.0012968528 0.019340102 0.034277067 -0.023582999 0.014192971 -0.0024269396
0.010105118 -0.003911198 0.023315312 -0.012725799 -0.009423942 0.011807939 -0.0050632535 0.01098381
0.0005754713 -0.012288805 -0.00856694 -0.009449506 0.0015307198 0.030791352 0.0061607715 -0.014127813
-0.0021266884 0.01012502 -0.03214292 -0.03019907 0.009954259 -0.008390662 -0.024472253 -0.021716872
0.007602101 0.0013788047 0.04446364 -0.0126994215 0.026600845 -0.0038675107 -0.040776532 -0.005326939
0.012143957 0.020918064 -0.017464247 -0.0003137539 0.02871769 0.006862231 0.012556412 0.006095731
0.00024201181 -0.007975135 0.0065175155 -0.0035382262 -0.021378644 -0.0056783226 0.0063569522 0.0006831607
0.0060608783 0.0043348917 0.053553633 -0.003075915 0.005708307 -0.030564127 0.018624617 0.023264982
0.011351341 -0.025452511 0.038078137 -0.033398174 0.004905949 -0.009054939 -0.0015474343 -0.015191018
0.037033737 -0.014375463 -0.0066701183 -0.009689043 0.01200394 -0.007437957 0.013374963 -0.035908442
-0.024995234 -0.021952983 0.008514686 0.021276873 -0.00027507995 0.021418879 0.025869831 0.016890023
-0.0054981993 0.018357584 -0.0111456895 0.011420216 -0.008519053 -0.009053331 0.02304011 -0.0117101995
0.013540819 0.0026500495 -0.0014822886 -0.001111177 -0.0031563055 -0.026568491 -0.0012070416 0.019016435
-0.010794515 -0.0006168427 0.005586665 -0.0035937459 -0.00031116308 0.016934674 0.0015822639 0.005302274
-0.00472001 -0.011717614 -0.0024102603 -0.01705476 0.026112536 0.003161703 -0.0009325457 0.009975291
-0.006718406 0.008405832 -0.018279 -0.02180486 -0.018467365 -0.004251526 0.010945547 -0.0074990336
-0.011087948 0.02615915 -0.0005235276 -0.015238875 0.025878526 -0.016906718 -0.045465607 -0.008327611
0.0061518922 0.005911555 -0.0068164575 -0.010124921 -0.024905208 0.009797449 -0.0094382875 0.035773735
-0.0045565856 -0.02464207 0.015562914 0.032316577 0.011802246 -0.019822445 -0.01005308 -0.013097874
-0.000989754 0.009954784 0.013312538 -0.023606053 -0.0045365146 0.0070946207 -0.01677049 -0.017983755
0.008030245 0.020155707 -0.017127424 0.0071004634 0.028365279 -0.0005990864 -0.0391738 0.01021659
00000000: 4520 b9bc d28f 2a3c 55b3 97bc 7b63 7cbb
00000010: 93ff 333c 8dc4 ce3c c55c 653c f041 e639
00000020: d7ec c53b 850b 96bc 1f54 f53a 58f4 3cbc
00000030: dd8e 123c 1b37 823b f590 88bc d296 f3b8
00000040: e55b e43b 5678 e8bb 54fa 4dbc 1e57 523c
00000050: cdbe 043c 36ad de3c 0a0b b03b 8895 cebc
00000060: ae3e a5bb 4f09 6abc cda9 33bc 3d37 01bc
00000070: e9d1 a53b 1802 64ba aabb c5bc 53e4 e63c
00000080: 82b4 e03c 894c 9fbb 9e80 94bb 982b a73c
00000090: 5184 7b3b 6759 d23c 237f 403c 29f1 c3bc
000000a0: b87c 3fbc 2a37 01bd 351a babc 6d10 353b
000000b0: 0f1b b4b8 445c 87bc c844 623b b4bd 27bc
000000c0: e459 84bb 5bec 953c 6b21 bbbb b4ab 5c3c
000000d0: 244b aa3c fbfa 97bc f74c 92bc bb26 543b
000000e0: b15a 013c dc52 3d3c 6a22 a7bc 419f 95b9
000000f0: 7cc6 a9bb f0d8 39bc 8017 7dbc b702 36bc
00000100: a44c 3fbd 81c6 d63a 4e26 f2bb 6a77 103b
00000110: 0576 8cbb b6b4 02bd a397 a4bb 7344 6e39
00000120: 6b56 c63c 34d5 06bc ee97 cf3b 5f98 54bc
00000130: 5634 8ebc 6825 1b3c 8f05 e6ba 6d03 64bb
00000140: 77e7 d7bc 18fd 48bc 29cb 84bc e57d b5bc
00000150: b8e4 c53c bde3 093c 0e4d e7bb 1148 a43b
00000160: a334 50bb 50b2 cc3c 29fb a9ba 226f 9e3c
00000170: 1c66 0c3d 2231 c1bc a389 683c 4a0d 1fbb
00000180: f08f 253c 8229 80bb c1ff be3c df7f 50bc
00000190: e166 1abc 1676 413c a6e9 a5bb 70f5 333c
000001a0: 3adb 163a fc56 49bc 5a5c 0cbc 1ad2 1abc
000001b0: 6fa2 c83a 253e fc3c 4ce0 c93b 5878 67bc
000001c0: e95f 0bbb 69e3 253c 4ba8 03bd 0a64 f7bc
000001d0: 3017 233c fd78 09bc 097a c8bc 95e7 b1bc
000001e0: 0c1b f93b 02b9 b43a 811f 363d 3c11 50bc
000001f0: 04ea d93c 1076 7dbb 4b05 27bd 9a8d aebb
00000200: 73f7 463c 5c5c ab3c 2e11 8fbc 567f a4b9
00000210: 5c41 eb3c 91dc e03b 69b9 4d3c b3be c73b
00000220: 8dc4 7d39 24aa 02bc e290 d53b 96e1 67bb
00000230: 4422 afbc 3911 babb fb4d d03b 2316 333a
00000240: 559a c63b b50b 8e3b 0e5b 5b3d 4a95 49bb
00000250: c00c bb3b 9f61 fabc a792 983c 3496 be3c
00000260: fafa 393c c981 d0bc d2f7 1b3d 86cc 08bd
00000270: 15c2 a03b 2b5b 14bc 47d3 caba bfe3 78bc
00000280: b0b0 173d 1087 6bbc 0291 dabb cbbe 1ebc
00000290: 2cac 443c 1bba f3bb a922 5b3c bb14 13bd
000002a0: cec2 ccbc bed6 b3bc 2e81 0b3c d64c ae3c
000002b0: 9b38 90b9 a576 af3c f8ec d33c f25c 8a3c
000002c0: 3d2a b4bb a562 963c 699c 36bc dc1b 3b3c
000002d0: 8093 0bbc 6c54 14bc 9dbe bc3c 23dc 3fbc
000002e0: 50da 5d3c 74ac 2d3b 5a49 c2ba eaa4 91ba
000002f0: 05da 4ebb 2aa6 d9bc 9835 9eba 5bc8 9b3c
00000300: 7adb 30bc 9db3 21ba 5810 b73b 0d85 6bbb
00000310: 9a23 a3b9 96ba 8a3c f763 cf3a b3be ad3b
00000320: 50aa 9abb 3cfb 3fbc 75f5 1dbb 6db6 8bbc
00000330: f5e9 d53c 9334 4f3b 1576 74ba 676f 233c
00000340: 1326 dcbb 9db8 093c d7bd 95bc 1ba0 b2bc
00000350: df48 97bc 6350 8bbb f454 333c 74ba f5bb
00000360: 3aaa 35bc b74b d63c 583d 09ba 79ac 79bc
00000370: 34ff d33c f57f 8abc 253a 3abd 8870 08bc
00000380: d095 c93b b8b5 c13b 975c dfbb ffe2 25bc
00000390: 0206 ccbc 7b85 203c 0ca3 1abc 7b87 123d
000003a0: 694f 95bb 2bde c9bc 98fb 7e3c 635e 043d
000003b0: 355e 413c ae62 a2bc acb5 24bc 7798 56bc
000003c0: a2ba 81ba 6419 233c d51c 5a3c 7b61 c1bc
000003d0: 0ba7 94bb fe79 e83b 4462 89bc ab52 93bc
000003e0: 4a91 033c 951d a53c d04e 8cbc 01ab e83b
000003f0: 4d5e e83c 020c 1dba b574 20bd 7c63 273c

action_model._continuous_distribution.mu.bias f4 [2]
6.533893e-05 -1.7832792e-05
00000000: 9206 8938 a197 95b7

exp_avg f4 [128, 44]
-3.7016357e-06 0.0 5.350027e-06 6.710936e-08 -1.8697551e-06 0.0 3.5181483e-06 2.2425866e-09
9.781779e-06 0.0 -8.133388e-06 -6.5157196e-06 1.0535832e-06 0.0 5.948099e-07 -6.3623634e-07
7.3154515e-06 0.0 -5.6670624e-06 -3.9687116e-06 -1.8661717e-07 0.0 1.8350105e-06 1.271359e-06
2.8222657e-06 0.0 -1.173875e-06 -3.0303642e-07 -2.670522e-07 0.0 1.9154409e-06 2.6730086e-06
6.2919667e-06 0.0 -4.643576e-06 4.6370658e-07 -7.961733e-06 2.622596e-05 1.7050334e-07 -1.6906288e-05
1.3194614e-05 0.0 -9.400948e-06 1.6690623e-05 -4.931278e-06 0.0 6.2584527e-06 1.2079167e-06
-4.477196e-06 0.0 5.8043724e-06 2.4641618e-06 -2.318543e-07 0.0 1.5590314e-06 3.9301613e-06
8.477173e-08 0.0 1.2424048e-06 2.1962296e-06 3.7692148e-06 0.0 -2.442034e-06 9.309749e-07
1.4239199e-06 0.0 -9.6738574e-08 -3.233681e-07 1.4405687e-06 0.0 -1.13388545e-07 8.6878003e-07
4.588881e-06 0.0 -3.261702e-06 -9.747077e-07 -1.625508e-06 0.0 2.9526877e-06 9.547666e-07
-6.4102514e-06 2.1115433e-05 1.3727794e-07 -1.3292254e-05 -3.1310065e-06 0.0 -7.0070837e-07 4.9649007e-06
-0.000110760746 0.0 7.017133e-05 5.7030193e-05 -6.864761e-05 0.0 2.8058217e-05 1.12785965e-05
-2.1784224e-05 0.0 -1.8805187e-05 7.191095e-07 -4.436199e-05 0.0 3.7726193e-06 -1.808118e-05
3.95647e-05 0.0 -8.01541e-05 -4.0539657e-05 -5.3561846e-05 0.0 1.297245e-05 -4.502972e-06
-3.1098753e-06 0.0 -3.747957e-05 -2.4830197e-05 -8.61061e-05 0.0 4.551674e-05 3.0017098e-05
-0.00016564887 0.0 0.00012505951 -6.9260523e-06 0.00019604684 -0.00064577814 -4.19842e-06 0.00038793043
-0.0006290159 0.0 6.054821e-05 0.00020391183 -2.373229e-06 0.0 -6.291439e-07 2.06322e-06
2.5455843e-06 0.0 -5.547957e-06 7.455096e-07 -1.2038436e-07 0.0 -2.881986e-06 -4.6658047e-06
-6.166383e-07 0.0 -2.3857317e-06 6.509076e-07 2.1554092e-07 0.0 -3.2179137e-06 -6.479054e-06
-5.2927267e-06 0.0 2.2903553e-06 1.4456723e-06 -6.883622e-07 0.0 -2.3140083e-06 -4.4619633e-06
-7.949893e-06 0.0 4.947523e-06 3.611091e-06 -1.7276964e-06 0.0 -1.2746755e-06 -2.5746554e-06
1.4501454e-05 -4.776773e-05 -3.1055447e-07 2.9779036e-05 -3.6321857e-05 0.0 1.3465502e-05 1.5704056e-05
-8.638114e-06 0.0 -1.6545106e-05 -7.1840545e-06 -8.643711e-06 0.0 -1.653951e-05 -9.798565e-06
-1.3803387e-05 0.0 -1.13798405e-05 -2.0770374e-05 -2.2592374e-05 0.0 -2.5908412e-06 1.6105259e-06
-2.9451236e-05 0.0 4.2680235e-06 -1.2643548e-05 -2.1841013e-05 0.0 -3.3422148e-06 -6.4090455e-07
-1.6664942e-05 0.0 -8.518273e-06 -1.8141067e-05 -2.961907e-05 0.0 4.435855e-06 -1.8782193e-06
-4.903018e-06 0.0 -2.0280202e-05 -1.7889502e-05 0.000121634956 -0.00040066504 -2.60486e-06 0.00024306864
-0.00016005209 0.0 1.666358e-06 1.3930496e-05 0.00011715796 0.0 -2.3551002e-06 -4.04198e-06
9.5364405e-05 0.0 1.9438407e-05 2.7642147e-05 4.4334876e-05 0.0 7.046799e-05 7.944037e-05
9.037017e-05 0.0 2.4432653e-05 3.772115e-05 4.4630047e-05 0.0 7.017281e-05 7.994451e-05
0.000109921035 0.0 4.881793e-06 3.207545e-05 7.900756e-05 0.0 3.579527e-05 5.493221e-05
0.00015810713 0.0 -4.3304295e-05 1.8754217e-06 0.00016324865 0.0 -4.8445792e-05 3.3700067e-05
00000000: 9e69 78b6 0000 0000 6284 b336 c31d 9033
00000010: 4cf4 fab5 0000 0000 5419 6c36 001c 1a31
00000020: 6c1c 2437 0000 0000 a374 08b7 9ba1 dab6
00000030: d868 8d35 0000 0000 06ab 1f35 d4c9 2ab5
00000040: 4077 f536 0000 0000 b227 beb6 f92a 85b6
00000050: f060 48b4 0000 0000 7b4a f635 90a3 aa35
00000060: 2866 3d36 0000 0000 0a8e 9db5 02b1 a2b4
00000070: 605f 8fb4 0000 0000 068b 0036 f061 3336
00000080: 951f d336 0000 0000 04d0 9bb6 59f3 f834
00000090: 6293 05b7 d2ff db37 9a13 3734 fad1 8db7
000000a0: 705e 5d37 0000 0000 c4b8 1db7 d702 8c37
000000b0: 5b77 a5b6 0000 0000 b3ff d136 b41f a235
000000c0: d23a 96b6 0000 0000 2ec3 c236 fa5d 2536
000000d0: a0f3 78b4 0000 0000 e93f d135 d4df 8336
000000e0: c00b b633 0000 0000 b4c0 a635 f062 1336
000000f0: 9ef2 7c36 0000 0000 d3e1 23b6 1ce8 7935
00000100: 841d bf35 0000 0000 98be cfb3 609b adb4
00000110: 9059 c135 0000 0000 0380 f3b3 1c36 6935
00000120: 30fa 9936 0000 0000 9de3 5ab6 b4d2 82b5
00000130: 082c dab5 0000 0000 ca26 4636 8825 8035
00000140: a417 d7b6 0c21 b137 ac66 1334 cc01 5fb7
00000150: 481e 52b6 0000 0000 5018 3cb5 2c98 a636
00000160: 3948 e8b8 0000 0000 f228 9338 b433 6f38
00000170: e8f6 8fb8 0000 0000 905e eb37 3439 3d37
00000180: 44bd b6b7 0000 0000 d5bf 9db7 d408 4135
00000190: 5311 3ab8 0000 0000 1b2d 7d36 0aad 97b7
000001a0: 46f2 2538 0000 0000 6818 a8b8 2009 2ab8
000001b0: 98a7 60b8 0000 0000 40a4 5937 3c18 97b6
000001c0: 40b3 50b6 0000 0000 6233 1db8 714a d0b7
000001d0: dc93 b4b8 0000 0000 3ae9 3e38 3acd fb37
000001e0: 08b2 2db9 0000 0000 6822 0339 5666 e8b6
000001f0: ec91 4d39 7049 29ba 27e0 8cb6 2463 cb39
00000200: 8be4 24ba 0000 0000 25f5 7d38 2ad1 5539
00000210: c443 1fb6 0000 0000 71e2 28b5 da75 0a36
00000220: ced4 2a36 0000 0000 9628 bab6 081f 4835
00000230: 0043 01b4 0000 0000 2468 41b6 f58e 9cb6
00000240: 1087 25b5 0000 0000 8f1a 20b6 08ba 2e35
00000250: 706f 6734 0000 0000 56f3 57b6 a666 d9b6
00000260: 2d98 b1b6 0000 0000 01b4 1936 ec08 c235
00000270: e4c7 38b5 0000 0000 5c4a 1bb6 f9b7 95b6
00000280: 8860 05b7 0000 0000 e602 a636 1256 7236
00000290: 32e3 e7b5 0000 0000 8415 abb5 3ec8 2cb6
000002a0: 454b 7337 365a 48b8 48ba a6b4 fecd f937
000002b0: 4c58 18b8 0000 0000 e4e9 6137 34bc 8337
000002c0: 6bec 10b7 0000 0000 58ca 8ab7 8f0e f1b6
000002d0: 7504 11b7 0000 0000 54be 8ab7 8464 24b7
000002e0: 1995 67b7 0000 0000 0bec 3eb7 0a3c aeb7
000002f0: c184 bdb7 0000 0000 50de 2db6 4029 d835
00000300: 0c0e f7b7 0000 0000 0b36 8f36 a01f 54b7
00000310: 3837 b7b7 0000 0000 d04a 60b6 a00a 2cb5
00000320: b1cb 8bb7 0000 0000 b4e9 0eb7 a52d 98b7
00000330: 7876 f8b7 0000 0000 b4d7 9436 2017 fcb5
00000340: 9b84 a4b6 0000 0000 671f aab7 6a11 96b7
00000350: 4516 ff38 5a10 d2b9 27cf 2eb6 3ee0 7e39
00000360: a8d3 27b9 0000 0000 a0a7 df35 06b7 6937
00000370: b3b2 f538 0000 0000 500c 1eb6 58a0 87b6
00000380: 60fe c738 0000 0000 a90f a337 0fe1 e737
00000390: 36f4 3938 0000 0000 37c8 9338 3999 a638
000003a0: 1e85 bd38 0000 0000 b9f4 cc37 c736 1e38
000003b0: 2631 3b38 0000 0000 be29 9338 e2a7 a738
000003c0: 6885 e638 0000 0000 48ce a336 c188 0638
000003d0: dcb0 a538 0000 0000 e122 1638 0367 6638
000003e0: 8fc9 2539 0000 0000 a2a1 35b8 00b7 fb35
000003f0: ba2d 2b39 0000 0000 4632 4bb8 2c59 0d38

exp_avg_sq f4 [128, 44]
6.6258765e-10 0.0 1.3734691e-10 2.825415e-10 6.5944833e-10 0.0 1.4040694e-10 2.8945904e-10
6.8725214e-10 0.0 1.6543633e-10 2.8057476e-10 6.8853173e-10 0.0 1.242536e-10 2.6879876e-10
7.4217843e-10 0.0 1.4106967e-10 2.903249e-10 6.59854e-10 0.0 1.4486903e-10 3.130136e-10
7.5550666e-10 0.0 8.2321226e-11 2.7570465e-10 6.2230676e-10 0.0 1.8968051e-10 3.2837297e-10
7.018389e-10 0.0 1.786174e-10 2.9560843e-10 1.9074283e-08 2.069637e-07 8.747833e-12 6.4403935e-08
1.9398227e-08 0.0 2.0787614e-09 4.5668562e-09 1.0390441e-09 0.0 4.8398585e-10 6.777974e-10
8.2402224e-10 0.0 5.8028665e-10 8.394167e-10 1.3365637e-09 0.0 2.1081582e-10 4.5979925e-10
9.856282e-10 0.0 5.371372e-10 7.694403e-10 1.0682792e-09 0.0 4.0492565e-10 6.213656e-10
1.2898752e-09 0.0 2.9205502e-10 5.2718885e-10 7.745729e-10 0.0 6.463237e-10 8.4293794e-10
1.4101315e-09 0.0 9.745005e-11 3.4676595e-10 8.6723995e-10 0.0 5.881406e-10 8.07523e-10
3.712655e-08 4.0283794e-07 1.702695e-11 8.441499e-08 1.4196624e-08 0.0 6.2167116e-09 6.1073044e-09
1.4405093e-07 0.0 2.7238123e-08 5.7908686e-08 1.473326e-07 0.0 2.717934e-08 5.7358854e-08
1.3087384e-07 0.0 3.417458e-08 6.043994e-08 1.4536737e-07 0.0 3.014059e-08 5.6036107e-08
1.4863258e-07 0.0 2.6014018e-08 5.283892e-08 1.4425292e-07 0.0 2.5240302e-08 5.5404485e-08
1.533601e-07 0.0 2.010076e-08 5.2399738e-08 1.531935e-07 0.0 1.9052406e-08 4.648817e-08
1.4615834e-07 0.0 2.712129e-08 5.3081816e-08 4.2286024e-06 4.588209e-05 1.9393191e-09 1.3387339e-05
2.8824704e-06 0.0 3.9006093e-07 4.2680878e-07 6.8762535e-10 0.0 2.0657459e-10 3.517067e-10
7.21403e-10 0.0 1.5665591e-10 3.552012e-10 7.463379e-10 0.0 1.331707e-10 2.656836e-10
7.0614353e-10 0.0 1.4942571e-10 3.1102376e-10 8.00285e-10 0.0 1.02156936e-10 2.3291172e-10
7.330081e-10 0.0 1.5569004e-10 3.1566227e-10 7.463369e-10 0.0 1.03249284e-10 2.452447e-10
7.4271717e-10 0.0 1.2035159e-10 2.6358135e-10 7.4055784e-10 0.0 1.3841626e-10 2.6157512e-10
2.2043093e-08 2.3917644e-07 1.0109381e-11 7.213886e-08 1.5607348e-08 0.0 2.016404e-09 2.258164e-09
1.3338168e-09 0.0 3.8340492e-10 8.6668756e-10 1.2555904e-09 0.0 3.9084824e-10 7.9122e-10
1.6898483e-09 0.0 2.6226707e-10 7.0209555e-10 1.581401e-09 0.0 2.7712221e-10 6.334613e-10
1.5980256e-09 0.0 1.7840517e-10 5.388025e-10 1.6208077e-09 0.0 2.699512e-10 5.81628e-10
1.6280617e-09 0.0 2.0656736e-10 5.222034e-10 1.5703852e-09 0.0 2.2493339e-10 4.872831e-10
1.4326992e-09 0.0 3.2493477e-10 5.063319e-10 4.4264855e-08 4.802915e-07 2.030072e-11 1.6588085e-07
6.270418e-08 0.0 5.0958104e-09 7.786421e-09 1.10776526e-07 0.0 1.7256973e-08 3.74563e-08
1.1928259e-07 0.0 1.5685412e-08 3.7862243e-08 1.0833646e-07 0.0 1.8876303e-08 3.576268e-08
1.1657963e-07 0.0 1.702206e-08 3.5987735e-08 1.1932678e-07 0.0 1.4793662e-08 3.1526604e-08
1.1239874e-07 0.0 1.637367e-08 3.7266002e-08 1.17506524e-07 0.0 1.112446e-08 3.270523e-08
1.18204284e-07 0.0 1.4372231e-08 3.4916113e-08 1.1378487e-07 0.0 1.4941435e-08 3.5169215e-08
00000000: 7621 3630 0000 0000 b803 172f 2e54 9b2f
00000010: 8d44 3530 0000 0000 0a61 1a2f bd21 9f2f
00000020: 12e9 3c30 0000 0000 30e6 352f 633f 9a2f
00000030: 1d43 3d30 0000 0000 479e 082f 10c6 932f
00000040: 2a02 4c30 0000 0000 951b 1b2f 999b 9f2f
00000050: 1961 3530 0000 0000 0249 1f2f bf14 ac2f
00000060: 0eac 4f30 0000 0000 bb06 b52e fb91 972f
00000070: f20e 2b30 0000 0000 518e 502f 6386 b42f
00000080: 86eb 4030 0000 0000 5464 442f 3083 a22f
00000090: cbd8 a332 c039 5e34 bde4 192d 704e 8a33
000000a0: 27a1 a632 0000 0000 f5d9 0e31 7eea 9c31
000000b0: 1dce 8e30 0000 0000 7a09 0530 c04f 3a30
000000c0: 6981 6230 0000 0000 0b82 1f30 b3bc 6630
000000d0: 28b2 b730 0000 0000 61cb 672f fec6 fc2f
000000e0: b676 8730 0000 0000 aca5 1330 8c80 5330
000000f0: bcd2 9230 0000 0000 389c de2f b8cc 2a30
00000100: 7347 b130 0000 0000 178f a02f 9ee9 1030
00000110: b9e9 5430 0000 0000 fda8 3130 7cb4 6730
00000120: 97ce c130 0000 0000 804b d62e f8a2 be2f
00000130: 9662 6e30 0000 0000 b7aa 2130 61f8 5d30
00000140: 1375 1f33 a045 d834 48c5 952d a247 b533
00000150: 6ae5 7332 0000 0000 c69a d531 6bd8 d131
00000160: 6bac 1a34 0000 0000 44f9 e932 46b7 7833
00000170: 7a32 1e34 0000 0000 0078 e932 ba5a 7633
00000180: 5486 0c34 0000 0000 59c7 1233 35cb 8133
00000190: 4716 1c34 0000 0000 ee73 0133 5aac 7033
000001a0: d097 1f34 0000 0000 6e75 df32 02f1 6233
000001b0: f1e3 1a34 0000 0000 03d0 d832 e0f5 6d33
000001c0: 4eab 2434 0000 0000 0aaa ac32 1f0e 6133
000001d0: 827d 2434 0000 0000 afa8 a332 49aa 4733
000001e0: b3ef 1c34 0000 0000 59f8 e832 13fc 6333
000001f0: 6be3 8d36 8571 4038 dd44 0531 2f9a 6037
00000200: 7770 4136 0000 0000 9169 d134 2724 e534
00000210: 5503 3d30 0000 0000 9421 632f 515a c12f
00000220: 394c 4630 0000 0000 b83e 2c2f 2046 c32f
00000230: dc26 4d30 0000 0000 386c 122f a40f 922f
00000240: 6f1a 4230 0000 0000 994b 242f b4fc aa2f
00000250: 0dfb 5b30 0000 0000 3ea5 e02e 690b 802f
00000260: dc7c 4930 0000 0000 da2e 2b2f 8489 ad2f
00000270: ca26 4d30 0000 0000 2e0c e32e 20d3 862f
00000280: 1328 4c30 0000 0000 f653 042f c7e7 902f
00000290: 2090 4b30 0000 0000 b730 182f 6dcd 8f2f
000002a0: 4659 bd32 2968 8034 9bd8 312d c2ea 9a33
000002b0: ec10 8632 0000 0000 f490 0a31 0b2e 1b31
000002c0: 8251 b730 0000 0000 72c7 d22f b73b 6e30
000002d0: 2991 ac30 0000 0000 00df d62f 287d 5930
000002e0: 4040 e830 0000 0000 cf2e 902f 95fd 4030
000002f0: 9a58 d930 0000 0000 7c59 982f e01f 2e30
00000300: 87a1 db30 0000 0000 9728 442f db1a 1430
00000310: 1ac3 de30 0000 0000 4168 942f 6fe0 1f30
00000320: 54c2 df30 0000 0000 8b1f 632f cc8a 0f30
00000330: 04d5 d730 0000 0000 1f51 772f 80f1 0530
00000340: 9fe8 c430 0000 0000 81a2 b22f f12d 0b30
00000350: b91d 3e33 61ed 0035 2891 b22d fb1c 3234
00000360: fda7 8633 0000 0000 3917 af31 0bc5 0532
00000370: 0ae4 ed33 0000 0000 7c3c 9432 a3df 2033
00000380: 2614 0034 0000 0000 96bc 8632 fa9d 2233
00000390: 99a6 e833 0000 0000 6e25 a232 7c99 1933
000003a0: 545a fa33 0000 0000 e837 9232 ef90 1a33
000003b0: 4c20 0034 0000 0000 3727 7e32 de67 0733
000003c0: dc5f f133 0000 0000 15a6 8c32 670e 2033
000003d0: e557 fc33 0000 0000 e41d 3f32 c877 0c33
000003e0: 7ed7 fd33 0000 0000 bee9 7632 acf6 1533
000003f0: e559 f433 0000 0000 9058 8032 f60c 1733

exp_avg f4 [128]
1.648393e-06 1.3271792e-06 -4.058937e-05 -3.002368e-06 -2.5183217e-05 0.00011480285 0.00011043862 -4.970961e-05
3.08979e-06 3.4636644e-06 -8.375713e-05 2.3349908e-06 1.4709278e-06 6.3336256e-06 6.3275056e-06 -9.830838e-06
-4.8159086e-06 -0.00016093801 7.4510506e-05 6.991984e-05 2.9492821e-06 -3.7909995e-05 3.6275418e-05 2.4566084e-06
-1.1936903e-05 -4.087651e-05 8.567084e-06 8.271006e-06 -3.7708458e-05 2.2781984e-05 1.662859e-05 -0.00014637235
8.882632e-05 0.00019660231 8.2491584e-05 4.095549e-06 3.4178272e-05 -2.1609862e-06 -0.00010103732 1.9102465e-05
5.1391424e-05 -9.972525e-06 -5.7230798e-05 -2.1022428e-05 6.023788e-05 -2.4717376e-05 -1.489178e-06 -7.9546e-06
0.00012848421 4.0354626e-06 6.2291736e-05 2.8578846e-05 4.05361e-06 -6.842716e-06 -4.8978936e-06 4.6473338e-07
-7.859272e-07 -0.0001204714 4.878836e-06 -1.6540887e-05 9.444349e-06 -8.24696e-05 -2.6880049e-05 0.00010266942
0.00022677722 2.4046894e-06 -3.0968346e-05 1.3661146e-05 -9.754885e-05 6.4258443e-06 4.8253705e-06 -3.795484e-05
1.1119113e-05 1.1125227e-06 9.559642e-06 -0.0001413117 9.4961484e-05 -2.8429844e-05 7.5182447e-06 8.534927e-05
5.363784e-05 6.615762e-07 -5.3389545e-06 2.62401e-05 -2.1825963e-06 2.5080915e-06 -2.6685285e-09 -2.7729438e-05
1.915363e-05 -2.2238914e-05 3.8034461e-06 -2.5149357e-06 -3.873441e-06 2.8195203e-07 -1.7183043e-05 3.3578326e-06
3.478478e-06 3.5696658e-06 3.3004442e-05 1.0296887e-05 5.3583666e-05 8.6659864e-05 -4.8844096e-05 -0.00013687421
1.5246542e-06 8.162391e-06 -5.372299e-07 3.7191516e-05 7.4968284e-06 3.188185e-06 -3.4058928e-07 -5.8640446e-05
-2.2522858e-05 3.752718e-05 -5.7653746e-05 2.6570935e-06 -3.4732022e-06 -7.901417e-05 2.0954765e-05 -1.2628304e-06
0.0001621019 0.000113335365 -6.173458e-06 -1.3165933e-05 -2.6341434e-06 -9.950505e-06 6.5318563e-06 -0.00013923849
00000000: 5a3e dd35 8821 b235 813e 2ab8 4a7c 49b6
00000010: 8c40 d3b7 50c2 f038 489b e738 4a7f 50b8
00000020: 305a 4f36 4d71 6836 c4a6 afb8 d6b2 1c36
00000030: b26c c535 6e85 d436 dc50 d436 21ef 24b7
00000040: 5798 a1b6 78c1 28b9 8642 9c38 eea1 9238
00000050: 48ec 4536 8c01 1fb8 6f26 1838 36dc 2436
00000060: 9c44 48b7 d272 2bb8 58bb 0f37 b3c3 0a37
00000070: 2629 1eb8 f01b bf37 a07d 8b37 877b 19b9
00000080: 4448 ba38 0827 4e39 55ff ac38 7f6c 8936
00000090: a45a 0f38 7605 11b6 00e4 d3b8 3b3e a037
000000a0: 1f8d 5738 ab4f 27b7 1a0b 70b8 5259 b0b7
000000b0: eea7 7c38 2958 cfb7 c4df c7b5 bf74 05b7
000000c0: b8b9 0639 5c68 8736 9fa2 8238 9bbc ef37
000000d0: 3f04 8836 7c9a e5b6 9658 a4b6 7880 f934
000000e0: 82f8 52b5 97a5 fcb8 e2b4 a336 49c1 8ab7
000000f0: 2c73 1e37 88f3 acb8 777c e1b7 3a50 d738
00000100: 0ccb 6d39 4060 2136 02e4 01b8 2d32 6537
00000110: 2493 ccb8 959d d736 9ee9 a136 b331 1fb8
00000120: 3a8c 3a37 fd51 9535 5a62 2037 122d 14b9
00000130: 0f26 c738 a07c eeb7 3b45 fc36 8afd b238
00000140: 31f9 6038 2c97 3135 4525 b3b6 301e dc37
00000150: b878 12b6 af50 2836 4061 37b1 849c e8b7
00000160: 1bac a037 b48d bab7 b53e 7f36 44c6 28b6
00000170: 9bf8 81b6 315f 9734 4e24 90b7 2057 6136
00000180: cc6f 6936 648e 6f36 406e 0a38 cbc0 2c37
00000190: 06bf 6038 29bd b538 f3dd 4cb8 e485 0fb9
000001a0: b8a2 cc35 34f1 0837 2836 10b5 16fe 1b38
000001b0: 448d fb36 9af4 5536 3cda b6b4 b3f4 75b8
000001c0: 78ef bcb7 8166 1d38 3dd1 71b8 8550 3236
000001d0: 2915 69b6 69b4 a5b8 04c8 af37 867e a9b5
000001e0: e6f9 2939 76ae ed38 9a25 cfb6 40e3 5cb7
000001f0: 3dc6 30b6 18f1 26b7 382c db36 8c00 12b9

exp_avg_sq f4 [128]
8.176243e-10 1.5914402e-09 1.8126049e-07 9.448838e-10 1.8974262e-09 1.4351643e-07 2.8526853e-07 5.1579967e-08
5.621776e-09 3.2324954e-10 1.6919894e-07 1.0132815e-10 3.035026e-10 7.093784e-10 1.5400356e-10 3.773279e-09
1.1145108e-09 1.6664261e-07 3.662062e-08 2.7889723e-08 1.0780582e-08 5.649804e-08 6.8016464e-09 2.377127e-10
2.0265463e-09 4.5535927e-08 3.1387133e-09 1.1660388e-09 3.6339678e-08 3.5607002e-08 2.6623965e-07 2.1011613e-07
7.523271e-08 2.0911295e-07 1.996436e-07 3.1548195e-09 9.393323e-09 2.9698783e-09 7.288351e-08 5.1298277e-09
7.350178e-08 3.784887e-09 6.128437e-08 3.4903218e-07 1.15909465e-07 5.555085e-09 6.2192695e-11 5.717964e-10
2.9248244e-07 1.05416044e-10 2.471637e-08 1.7650049e-08 6.2690597e-10 1.1822145e-09 5.3250844e-08 6.032554e-11
6.9609596e-12 1.15749415e-07 3.800322e-10 7.096541e-08 4.960356e-10 6.382526e-08 1.3677499e-08 6.264275e-08
3.6351872e-07 2.4377195e-10 2.2326839e-08 1.5396536e-09 1.5712425e-07 4.795963e-09 4.002893e-10 3.6887563e-08
2.2979801e-08 7.3056188e-09 1.9179616e-10 2.3321512e-07 8.174551e-08 3.9234145e-08 1.26378294e-08 2.8476338e-08
3.9273818e-08 7.908092e-10 2.0271558e-10 6.620466e-08 7.4452604e-11 1.2921582e-10 1.5016213e-12 1.4692582e-08
7.1216606e-09 5.8434813e-09 1.4595189e-10 7.4836555e-09 7.724371e-10 1.4819482e-11 6.605518e-10 1.2754712e-07
3.267981e-10 1.1829247e-08 5.373703e-09 3.3970217e-08 1.4824512e-07 9.2665445e-08 3.402426e-08 3.3638995e-07
2.0940926e-11 2.5451298e-08 7.9135015e-12 6.305036e-08 1.7206183e-08 3.883689e-10 4.318697e-12 7.161514e-08
9.438688e-08 2.8248076e-08 2.738609e-08 7.4979675e-11 6.5198885e-10 2.7502718e-08 2.0427842e-09 5.740048e-10
1.9427925e-07 7.574493e-08 4.5573575e-08 3.9813424e-09 8.035788e-10 2.7910117e-08 6.312475e-08 2.6652395e-07
00000000: 32bf 6030 d3b9 da30 81a0 4234 25dd 8130
00000010: e063 0231 7f19 1a34 0227 9934 c688 5d33
00000020: aa29 c131 54b5 b12f 0dad 3534 add2 de2e
00000030: 32da a62f 11fe 4230 2654 292f 1da6 8131
00000040: 5d2d 9930 5fee 3234 cc48 1d33 2692 ef32
00000050: 8035 3932 40a8 7233 eab3 e931 17af 822f
00000060: 6143 0b31 4893 4333 d4b0 5731 5842 a030
00000070: e613 1c33 50ee 1833 b3ef 8e34 489c 6134
00000080: 9f8f a133 8888 6034 9d5d 5634 2ccc 5831
00000090: 4560 2132 a716 4c31 2284 9c33 7142 b031
000000a0: 08d8 9d33 380c 8231 709b 8333 9e62 bb34
000000b0: e7e9 f833 0bdf be31 60c3 882e 982c 1d30
000000c0: 7b06 9d34 f5cf e72e df4f d432 de9c 9732
000000d0: 9652 2c30 7a7b a230 ecb5 6433 43a8 842e
000000e0: c0ea f42c ea91 f833 c7ec d02f a665 9833
000000f0: 6759 0830 4f10 8933 47fa 6a32 3786 8633
00000100: a229 c334 da03 862f 3dc9 bf32 bf9b d330
00000110: fcb5 2834 bdc9 a431 b60f dc2f 4e6e 1e33
00000120: 1e65 c532 e704 fb31 d2e1 522f af69 7a34
00000130: 128c af33 6682 2833 c31d 5932 219c f432
00000140: 05ae 2833 4060 5930 5de3 5e2f 662c 8e33
00000150: 17b9 a32e 0513 0e2f 9c55 d32b a96a 7c32
00000160: cab2 f431 cec7 c831 ce79 202f 7791 0032
00000170: 6e53 5430 825a 822d 3392 3530 e3f3 0834
00000180: bea8 b32f 9439 4b32 97a3 b831 a6e6 1133
00000190: 4f2d 1f34 5eff c633 1222 1233 1599 b434
000001a0: c632 b82d ff9f da32 3e37 0b2d 4d66 8733
000001b0: cccc 9332 1082 d52f 5df3 972c d7ca 9933
000001c0: bcb1 ca33 2da6 f232 a63e eb32 cee1 a42e
000001d0: a337 3330 1e3f ec32 0a61 0c31 ffc7 1d30
000001e0: 139b 5034 37a9 a233 adbc 4333 42cc 8831
000001f0: d5e2 5c30 ffbe ef32 338f 8733 c616 8f34
