GameAI3/Config/results/dwarf_2/Dwarf/Dwarf-5440.onnx (onnx, 91956 bytes, 7 tensors)

network_body._body_endoder.seq_layers.0.weight f4 [128, 44]
000000 b7 33 60 be c7 32 0c 3e 22 67 be bd 90 9f b1 3e
       -0.21894728 0.13691245 -0.09297015 0.3469205
000010 8a c3 19 3e 85 48 6f 3e ff aa 9d 3d 84 e8 41 3e
       0.15015998 0.23367508 0.076986305 0.18936354
000020 c8 3e 3c 3e 99 72 18 be 1b 46 22 3d 95 0c 2f 3e
       0.18383324 -0.14887466 0.03961764 0.17094643
000030 18 bd b0 3d a8 de 83 3e 78 9b 0b 3e 8a e3 73 3e
       0.08629817 0.2575581 0.13633525 0.23817268
000040 9b e0 87 3e cd dc c6 3d ae 19 58 be b2 0c 52 bd
       0.26538548 0.09710083 -0.21103546 -0.05128164
000050 f8 56 b7 3e e0 e7 34 3e f4 92 89 3c b9 be 84 3e
       0.3580854 0.17666578 0.016793706 0.2592676
000060 25 5f 51 be ce 16 58 be 77 c6 67 3d bc fb 31 3d
       -0.20446451 -0.2110245 0.056585755 0.043452963
000070 51 da a8 bc 15 88 01 3e 1f 4f 46 3c 9d 66 94 bb
       -0.020611914 0.12649567 0.012103825 -0.004528834
000080 e6 ac cb 3d 34 aa 77 be 91 b6 86 3e 81 10 83 3e
       0.09945087 -0.24186021 0.26311162 0.2559853
000090 76 f0 58 3e 16 cb 33 3e 78 e1 68 be ed c0 3b 3e
       0.21185479 0.1755794 -0.2274226 0.18335314
0000a0 71 38 24 3f 25 48 fa bd f9 f7 6f 3d 34 2b af 3c
       0.6414862 -0.12220792 0.058586095 0.021382906
0000b0 1b de c7 3d e0 35 9c bd c8 ba 38 bb 83 9d 23 be
       0.0975916 -0.07627463 -0.0028187502 -0.15978055
0000c0 e6 6d 7a bd 8a e2 83 3d 40 9e ee 3b 65 0a 9b bd
       -0.061139964 0.06439693 0.0072820485 -0.07570342
0000d0 7b 28 82 bd ab cd 72 3d af 07 88 3d 5b 07 23 be
       -0.06355377 0.05927817 0.066420905 -0.15920775
0000e0 66 7b 1c 3e 0d 4c 74 bc 75 8c 5f be 72 c1 fc 3d
       0.15281448 -0.01491071 -0.21830924 0.12341584
0000f0 7b 7a 41 be 10 db 85 bc f8 78 1c bd 63 62 4b 3d
       -0.18894379 -0.016339809 -0.038201302 0.049654376
000100 70 4a d4 3d 39 56 8b be 68 64 a8 3d 20 08 45 3e
       0.1036576 -0.2721422 0.08222276 0.1924138
000110 6f 8c 21 bd c2 7f 0c be 2d 60 52 3e 7f e5 01 3e
       -0.03944057 -0.1372061 0.205445 0.12685202
000120 45 10 01 3e 94 e0 48 bd ae 3e 6d 3e e1 46 85 3c
       0.12603863 -0.0490423 0.23168442 0.01626915
000130 65 b0 1e 3e 4c 17 36 bc 05 41 da bd 21 5b eb bd
       0.15496977 -0.011113953 -0.10656933 -0.11491991
000140 4f 0d e6 bc 7e 40 cb 3e bb aa 8e 3c 70 30 13 be
       -0.028082518 0.3969764 0.017415395 -0.14373946
000150 73 4d 69 3d 67 83 93 3b 54 3d 94 bd 1c 3e 3b 3d
       0.056958627 0.0045017484 -0.0723826 0.04571353
000160 e5 c8 b7 3d f0 12 00 3e 64 52 3a be bb db 3a 3e
       0.089738645 0.12507224 -0.18195492 0.18247883
000170 13 15 a3 be 81 5b 40 be a8 d9 3c 3e c0 9c a4 bc
       -0.31852016 -0.18784906 0.18442404 -0.020094275
000180 21 a1 4e be b8 62 52 3e ed 68 30 3e e4 d7 2b 3e
       -0.20178653 0.2054547 0.17227526 0.16781574
000190 cd 93 66 3d 81 f0 60 3c 52 1b ab 3d 41 98 0a be
       0.056293298 0.013729216 0.0835482 -0.13534643
0001a0 51 83 01 be c0 d2 98 3e b8 6a da bd 27 f4 15 be
       -0.1264775 0.2984829 -0.10664886 -0.14643918
0001b0 05 9a fd 3d a4 34 26 be c3 42 95 bb af bb 01 3d
       0.123828925 -0.16231018 -0.0045550778 0.03167313
0001c0 4e 68 a9 3e 1c 72 b3 be 60 60 6b be f1 0c 20 be
       0.3308739 -0.35047996 -0.22985983 -0.15629937
0001d0 7d 3c de bd 13 d5 d3 3d 8a 28 0e 3e 03 15 7b be
       -0.10851381 0.10343375 0.13882652 -0.24519734
0001e0 f1 43 62 3d 44 5d 28 bd 64 eb 28 3d f6 3c 6d 3d
       0.055240575 -0.04110457 0.04124011 0.057919465
0001f0 f2 1e 80 bd e8 ae 34 be f2 9d 69 be b3 4f c6 bd
       -0.06255902 -0.17644846 -0.22814158 -0.0968317
000200 f4 33 19 3d b2 f0 c8 bd 68 e3 dc bd 90 01 14 3e
       0.037403062 -0.09811534 -0.10785562 0.14453721
000210 bd d0 6a be 1c 6e 8e 3e 3b b4 b2 bc 44 86 ec 3d
       -0.2293119 0.27818382 -0.021814456 0.11549047
000220 93 69 18 3e 2a 1c e7 3d 81 43 75 bc 79 eb b0 3d
       0.14884023 0.11284669 -0.0149697075 0.08638663
000230 08 25 9f bd b2 8a dd bd 4b 2a 69 be b6 4c 9e bd
       -0.07770735 -0.1081747 -0.2277004 -0.07729475
000240 08 85 71 3d b6 98 7c bd 85 cd 1c 3e 6c a1 a1 3d
       0.05896476 -0.061669074 0.15312774 0.07892117
000250 9e cd 50 3e a5 19 16 bd f8 e6 3d 3d 78 51 d3 bc
       0.20390937 -0.03664555 0.046362847 -0.025795683
000260 4b 01 7c 3d c5 e9 03 3c da e2 19 be b6 64 b7 3c
       0.06152467 0.0080513405 -0.15027943 0.02238689
000270 f3 a4 b0 bd 99 e8 26 bc e5 1f 03 3e 70 00 28 be
       -0.086252116 -0.010187292 0.12805136 -0.16406417
000280 cf 3b 78 bb 0b 63 89 be 56 d4 03 be 6f 88 c1 3d
       -0.0037877446 -0.26833376 -0.12873968 0.09449851
000290 8a 8d b7 bd 54 40 6d bc e3 d6 de 3d 92 20 33 3e
       -0.08962543 -0.014480669 0.1088083 0.17492893
0002a0 3c 53 1b bd 96 ac 68 3e 15 24 bc bd c6 23 e5 3d
       -0.037921175 0.22722086 -0.091865696 0.11188464
0002b0 d4 ed 43 be 66 28 81 3c d6 85 de 3c 21 79 3a be
       -0.19133693 0.015766334 0.027163427 -0.1821027
0002c0 41 a4 42 bd 8e c5 c9 3d a0 5b 40 ba 6c c8 da bd
       -0.047519926 0.09852134 -0.0007337872 -0.10682759
0002d0 23 0d 06 be a3 ae 41 3e f5 ea 52 3e e5 fc 41 bd
       -0.13090949 0.18914275 0.20597441 -0.04736032
0002e0 f4 b9 17 3d d7 74 91 3d eb b6 02 be 03 99 63 3e
       0.037042573 0.071023636 -0.1276509 0.22226338
0002f0 43 53 85 3d ce c6 10 3e 7b 24 f4 bd cd ac 3c be
       0.065100215 0.14138338 -0.119210206 -0.18425293
000300 d1 23 af 3c 5f 34 32 bd 04 11 8a be a0 e9 b8 3d
       0.021379383 -0.043506976 -0.26966107 0.090289354
000310 37 ad de bd ed a5 4d bd 50 ee 71 3c 32 dc 36 3d
       -0.10872882 -0.050207067 0.014766291 0.04464359
000320 7d 17 5d be 89 5f c3 bd 48 60 3c 3e d1 07 93 be
       -0.21590991 -0.09539706 0.18396103 -0.287169
000330 49 40 8e 3d 04 d3 58 3e c8 fa 0f be 34 3d cc 3d
       0.06945855 0.21174246 -0.14060509 0.09972611
000340 95 b0 20 be a6 a7 50 bd fe 0a 30 3e c0 bb 33 be
       -0.1569236 -0.050941132 0.17191693 -0.1755209
000350 bb 9c 9b be be e9 37 be 32 54 4b be ce 67 14 be
       -0.30393013 -0.1796026 -0.19856337 -0.14492723
000360 7a 78 53 3e 40 c7 24 3e 53 5b a1 bb 63 29 18 be
       0.20651427 0.16091633 -0.004924217 -0.14859538
000370 9c 16 71 3c df 4d 1c 3e 49 a3 c4 3a 95 4d ef 3c
       0.014714863 0.1526408 0.0015002276 0.029211799
000380 33 fd 55 bd 58 0a 3f 3e e8 3c 88 3e 16 a3 e7 3d
       -0.052243423 0.1865629 0.26608968 0.11310403
000390 59 a2 af 3d 03 49 70 3e af 75 85 bd 60 78 f9 3d
       0.08575887 0.23465352 -0.06516587 0.12181163
0003a0 51 cd a9 be 35 03 d8 3d 7c e7 6b 3d 71 a7 5d bd
       -0.33164456 0.10547487 0.057593808 -0.054114763
0003b0 0e 46 7b 3c 52 91 07 be 8d 8a 2b 3e a6 a0 1f 3e
       0.015336527 -0.13239029 0.16752072 0.15588626
0003c0 bf 3f 92 be 37 cc 07 be 40 08 dd bd 1b 1e 41 3d
       -0.2856426 -0.13261496 -0.10792589 0.04714785
0003d0 46 63 0c be 9a ce 3d 3d 22 c8 1d 3e 8c 93 38 3c
       -0.13709745 0.04633961 0.15408376 0.011265647
0003e0 e7 00 87 be 27 9b c2 bd f3 4c df bc 5d d8 fe 3d
       -0.26367876 -0.09502249 -0.027258372 0.12443612
0003f0 f4 d3 fa 3c 52 50 5b bc fd a9 a9 bd 86 c8 40 bc
       0.030618645 -0.013385849 -0.08284376 -0.0117665585

network_body._body_endoder.seq_layers.0.bias f4 [128]
000000 69 71 34 ba 87 20 ee bb 8d 5d 32 bc a0 99 08 ba
       -0.00068833545 -0.007267061 -0.010886562 -0.000521088
000010 09 63 4d bb fd d7 f9 3b cf f7 91 ba 1a 5a 71 3b
       -0.0031339547 0.0076246248 -0.0011136475 0.0036827386
000020 4f ad 74 bb 51 fa 87 3c a7 06 d6 bb 99 d9 36 bc
       -0.0037334745 0.016598852 -0.0065315547 -0.011160278
000030 20 39 ef bb d0 36 6b b6 a2 8e 52 bc 25 18 03 3c
       -0.007300511 -3.5049634e-06 -0.012851389 0.008001362
000040 14 9e bf bb c5 37 f1 bb 88 b9 13 bb c8 1e 63 3a
       -0.005847702 -0.0073613846 -0.0022541005 0.00086639496
000050 4b 5f 0c 3c 60 df ad bc 19 63 89 bb c0 b0 ca bc
       0.0085676415 -0.021224678 -0.0041927216 -0.024742484
000060 3e 72 b4 bb f1 40 90 bb 0b a5 95 3c 07 c6 4a 39
       -0.005506783 -0.004402273 0.018267175 0.00019337992
000070 db fc 1c 3c 5e 8e ac 3b bc 8c 03 bc 3b 59 8f bc
       0.00958177 0.005265995 -0.008029159 -0.017498603
000080 45 aa de bb 45 a7 c6 bb eb d5 54 3a 0e f6 8d 3c
       -0.0067952 -0.0060624206 0.00081190345 0.017329242
000090 ac bf 59 38 6c 82 9a bb ba bb c7 bb 91 1d 5c bc
       5.191534e-05 -0.0047152545 -0.006095377 -0.013434784
0000a0 74 a6 29 bc df d6 0d bc 4c 00 f1 3b 6d 52 e7 3c
       -0.010354627 -0.008657186 0.0073547717 0.028237546
0000b0 a9 18 1e 3c cb a2 50 3a ff 63 00 bc ad 7e aa 3a
       0.009649434 0.00079588284 -0.007836341 0.0013007723
0000c0 a2 9b 00 bc 7b cc ec ba 45 f7 46 bc 66 83 46 bc
       -0.007849606 -0.0018066311 -0.012143915 -0.012116289
0000d0 66 2d b7 3b e2 a4 0b bc af 25 a6 b8 f6 5b 6f 3c
       0.0055901287 -0.008523198 -7.922516e-05 0.014609328
0000e0 f9 c4 e2 ba cb 8d e2 3a 9b 02 1b bb b3 47 a2 3c
       -0.0017301134 0.0017284689 -0.0023652676 0.01980958
0000f0 a3 78 07 3c bc 5c db 3a 1b 23 fd 39 57 f6 65 bb
       0.008268508 0.0016736011 0.00048282076 -0.0035089457
000100 98 c0 9f 3b f9 3b 1f 3b 0f 3d 59 3c 28 f9 4f bc
       0.004875254 0.002429722 0.013259186 -0.012693681
000110 07 ec 46 bc e2 d8 eb ba 71 00 8f bb d3 d4 41 3c
       -0.012141234 -0.0017993713 -0.0043640663 0.011830526
000120 d7 a0 53 bc f7 06 52 bb 51 44 3e bb ac 5a 76 bc
       -0.012916765 -0.0032047608 -0.002903242 -0.015036266
000130 30 ae 3d 3b 4f f3 98 3b cf c5 28 bb b5 94 11 3b
       0.0028942935 0.0046676765 -0.0025752669 0.002221388
000140 42 33 b2 bc 79 fe 53 3b 46 01 3d bc 31 f2 1f bb
       -0.021752957 0.0032347722 -0.011535948 -0.0024405832
000150 b2 ce 94 3a c8 e2 ee bb 51 51 d2 bb bb 46 89 ba
       0.0011353104 -0.007290218 -0.006418385 -0.001047335
000160 6a a9 db bb 88 bd 1d 3c 00 48 42 ba cf ea 88 3a
       -0.0067035453 0.009627707 -0.00074112415 0.0010445955
000170 8c 0d 00 ba f7 ae c7 3b 27 58 0a bc b8 9d 4e 3c
       -0.0004884831 0.0060938555 -0.008443869 0.012610845
000180 3c e2 f3 bb 97 53 4d 3b a3 11 74 bc 9a dd 5d bc
       -0.0074427407 0.003133034 -0.014896783 -0.013541603
000190 87 34 ee 3b d2 3b 12 3c 61 3a 12 bc b5 0a 1c bc
       0.0072694453 0.008925395 -0.008925051 -0.009524037
0001a0 f5 f8 b9 ba 9b d6 75 3a ac fd 67 bc 1c 0a 00 ba
       -0.0014188575 0.0009377987 -0.014159601 -0.0004884319
0001b0 ba 58 45 bc 93 d7 53 bb 43 1f ea bb 8b 45 e7 bb
       -0.01204508 -0.0032324537 -0.00714484 -0.0070578507
0001c0 f1 ba 62 bb 2c 72 43 3c 6c fe 0a bb 7c 03 0e bc
       -0.003459629 0.011929076 -0.0021208776 -0.008667823
0001d0 db ba 97 bb 30 46 34 bc ac 60 13 bc 68 a4 d4 bb
       -0.004630429 -0.011003062 -0.008995216 -0.0064893253
0001e0 5c 40 39 3b 1c fe 92 bb f3 f9 ef 3a a2 fb 07 bb
       0.002826712 -0.0044858586 0.0018308744 -0.002074935
0001f0 0f 8f a9 bb be bc 8d 3c 56 f9 d0 3b bb 8b 77 bb
       -0.0051745246 0.017301913 0.0063773794 -0.0037772495

network_body._body_endoder.seq_layers.2.weight f4 [128, 128]
000000 03 72 a8 3c a9 27 0c 3d 43 7b 3d bc 67 0f 96 bd
       0.020562178 0.03421751 -0.011565032 -0.073271565
000010 1d be 1a 3e bd 7f cf 3d b4 eb 48 3e cc 49 c1 3d
       0.15111585 0.10131786 0.19621164 0.09437904
000020 89 6c ec bd 95 5a 7f 3c 5f c7 75 bd e5 e3 13 3e
       -0.11544139 0.015585561 -0.06000459 0.14442404
000030 ea 15 2b 3d b5 4f 48 3d 70 25 1d 3c 52 e3 bb bd
       0.041768946 0.04890414 0.009591445 -0.09174217
000040 87 61 8f 3d 1b 9a b6 3c 8d d6 20 3d 52 61 0c 3d
       0.07001024 0.02229028 0.03926711 0.0342725
000050 e8 68 a8 3c 52 0a be bc bc 81 7b 3e 0b e6 5b bd
       0.020557836 -0.02319828 0.24561208 -0.053686183
000060 1e f9 e6 bd 9e f9 01 3e 0c 8a 31 bb 48 b8 8c 3d
       -0.11277984 0.12692878 -0.002709034 0.06871086
000070 58 50 48 bc 02 45 5d 3b 1d 7d a3 3d 6e 80 25 bd
       -0.012226187 0.0033763056 0.07982848 -0.040405683
000080 98 a9 bd 3d e3 3b 54 bd 32 d0 b9 3b ac 22 02 be
       0.09260863 -0.051814925 0.005670571 -0.12708539
000090 2e c7 3a bd 3d 68 1a 3e 0b ac 06 3d 9f d1 7a 3d
       -0.04560011 0.15078826 0.032878917 0.061235067
0000a0 32 8f e5 bc 08 9f ec 3a 20 99 a3 bd 85 c4 9b bc
       -0.028022382 0.0018052766 -0.07988191 -0.019014606
0000b0 35 8c 3c bd 84 e1 18 3e 52 4a 95 3c 16 9a a9 bc
       -0.04603215 0.14929777 0.018223915 -0.020703357
0000c0 3d b0 c8 3b a6 ed 59 bd e9 87 db bd e9 a3 1d bc
       0.006124525 -0.053205155 -0.10719282 -0.009621599
0000d0 29 5a fb bc b8 58 c3 3c e8 8b ae bd 2c 4c 61 bc
       -0.03068264 0.023846015 -0.08522779 -0.013751071
0000e0 23 c0 81 bd 2e bd 1b be 9d 79 83 bd 09 f0 26 bd
       -0.06335475 -0.15208885 -0.0641968 -0.04075626
0000f0 a1 9c 6c 3d 4d 26 f2 3d 06 c5 e8 3b 88 eb ac 3d
       0.05776656 0.118237115 0.007103565 0.084433615
000100 57 ed d5 3d a6 65 cb 3d 4f 9f 9b bd 06 19 4c bd
       0.104456596 0.09931497 -0.07598745 -0.04982855
000110 ef 95 e2 bd 0f 10 76 3d 9a 87 a5 bb 2f 7c 1a 3e
       -0.11063754 0.06007391 -0.0050515654 0.15086435
000120 03 c5 3b be 58 81 c9 3d c6 cf 03 be 9c 91 e7 3d
       -0.18336873 0.098391235 -0.12872228 0.1130707
000130 55 67 b8 bc d4 f3 42 3d 65 d6 f3 3d b5 16 0b bc
       -0.02251021 0.047595814 0.11906127 -0.0084893005
000140 39 82 e1 3c f5 b9 b6 3d 79 74 53 3e 60 34 77 3d
       0.027527915 0.08922187 0.206499 0.060352683
000150 b3 a6 32 3d fc c2 fe bc 5f a3 a9 3d 99 91 2a 3e
       0.043616008 -0.031098835 0.08283114 0.16657104
000160 d8 c4 1a 3d 36 d6 ea bd 21 31 3a bd ec a9 2e 3e
       0.03778538 -0.11466639 -0.04545701 0.17057008
000170 23 2a ac 3c f5 d9 54 bd 80 23 10 3c 14 4c fc 3d
       0.021016186 -0.051965673 0.008797526 0.12319198
000180 c1 a9 62 bd 62 67 85 bc a0 59 c6 3b 5a 05 ab 3d
       -0.05533767 -0.016284648 0.0060531646 0.0835063
000190 4a 5d fe bd 50 1c 77 3d b7 03 03 3d 4b 69 4b 3e
       -0.12420137 0.060329735 0.031985965 0.19864385
0001a0 63 63 92 bd f7 06 94 3d af 35 aa 3d 06 63 84 3c
       -0.07147863 0.07227891 0.083110206 0.0161605
0001b0 0c 0f 0f be 34 29 14 3e 57 34 e3 bc 14 28 ba 3d
       -0.13970584 0.14468843 -0.027734919 0.090896755
0001c0 c8 7f 1e 3e d3 fe aa bd fb ac e8 bc 0d 3f 54 3d
       0.15478432 -0.08349385 -0.028402796 0.051817942
0001d0 54 b9 21 bd 2b fc 97 bd 68 b1 57 3d b5 cc cc 3a
       -0.039483383 -0.07421144 0.052659422 0.0015624972
0001e0 b0 fc 8d bc 19 7d 57 3d c0 43 20 bc 4d e4 04 3e
       -0.017332405 0.052609537 -0.009781778 0.12977715
0001f0 9c 3e f3 bd 87 21 72 bd aa 21 10 bd 31 a1 5b 3d
       -0.11877176 -0.059114005 -0.035188355 0.05362052
000200 55 99 81 bd 0e 91 b1 bd cb 82 b7 3d 4f 3a d5 bc
       -0.06328074 -0.08670245 0.08960494 -0.02602878
000210 07 8f 9e 3d fe 0e 28 bc 7b 4f fc 3d f7 d0 35 3c
       0.07742124 -0.010257481 0.12319847 0.011097184
000220 d3 04 9e 3d fa 6c 06 3e d1 14 3e 3e c2 c2 82 bd
       0.07715764 0.13127509 0.18562628 -0.06384803
000230 be e2 10 be 09 c6 6d 3d 20 de 3e 3e c1 4d 51 be
       -0.14148995 0.05805019 0.18639421 -0.20439817
000240 9a df c7 3d 22 0a 4a be 1d ec 80 3c 8f 71 7f 3b
       0.097594455 -0.19730428 0.015737588 0.0038977598
000250 f4 75 2f 3c 99 93 63 3c c4 45 77 bd 02 bc 7f bc
       0.010709275 0.0138901705 -0.060369268 -0.015608789
000260 82 4e 94 3a c1 14 48 3e ea 87 bb bc ef 36 12 3e
       0.0011314901 0.19539167 -0.022891957 0.14278768
000270 98 17 39 be c4 38 28 be bc fc 7d 3d 52 ef ec bc
       -0.18075407 -0.16427904 0.062008604 -0.02892271
000280 64 b4 a8 bd 8c 69 e3 3c b8 a0 23 be 52 6f 94 3d
       -0.08237532 0.02776029 -0.15979278 0.07247795
000290 88 cd 1b bd 57 4a 0d bd 86 bb 20 3d d2 37 bd bd
       -0.038037807 -0.034494724 0.039241336 -0.092391625
0002a0 8a 09 13 3d 64 bb 8e bd c6 31 26 be fb 33 85 bd
       0.03589777 -0.06969336 -0.16229925 -0.06504055
0002b0 46 ac 37 3d 6b 31 6b bd 82 5e a1 bd 04 30 8e 3d
       0.044842027 -0.057420176 -0.07879354 0.06942752
0002c0 f3 4d c3 3d 20 49 3a be 33 dc da bb 4c a4 6b 3d
       0.09536352 -0.18191957 -0.006679082 0.057529733
0002d0 cc 80 b2 3b 14 bf fb bc f2 7e 9d bd 4c 97 e8 bb
       0.0054474827 -0.030730762 -0.076902285 -0.007098114
0002e0 14 c6 77 bd a5 fa 66 bd 5b 88 57 3e 3c 78 3e bd
       -0.060491636 -0.056391377 0.21048109 -0.046501383
0002f0 6c 5a fe bd 4e de 88 bc 9b 18 ee 3c f0 0e 8d bd
       -0.1241959 -0.016707566 0.029064467 -0.06887615
000300 5b c3 1e bd cb 2b 00 3e dd 81 61 bd 22 a6 90 3d
       -0.038760524 0.12516706 -0.055055488 0.07062937
000310 0b cb 2f 3e b1 ae c7 3c d9 81 ae 3d 1b 83 58 bb
       0.17167298 0.024375292 0.0852086 -0.003303713
000320 34 34 06 be e2 48 a3 3d e3 d4 8e bc b9 39 08 bd
       -0.13105851 0.07972886 -0.017435497 -0.033258174
000330 2f 59 46 3e 9b 90 25 3d 8d bb c6 3d fb 6d f2 3d
       0.19369958 0.04042111 0.09703741 0.11837383
000340 37 19 97 bd 82 02 2c be b3 c5 8f 3d ab d2 7d bd
       -0.07377856 -0.16797832 0.0702013 -0.061968487
000350 3a 92 c0 3a 8a bb f4 3c 39 6c 43 bd 04 b3 67 bd
       0.0014692016 0.029874582 -0.04771063 -0.056567207
000360 01 59 3a 3d 08 88 56 3e 4e 53 0b bb 53 e1 46 3d
       0.045495037 0.2095033 -0.002125937 0.04855473
000370 43 30 0f be 5f 66 66 bd 33 54 b1 bd c8 f6 1d bd
       -0.13983254 -0.056249972 -0.08658638 -0.038565427
000380 fa c4 a2 3d 0c 0b b2 3c 87 46 a8 bd 21 32 c1 3c
       0.079477265 0.021733783 -0.08216577 0.023583474
000390 35 7e bd 3d 8b f0 25 be 1f e2 47 3d 61 cf a1 3d
       0.09252588 -0.16205041 0.04879963 0.079008825
0003a0 8d 16 c8 bc 17 85 1d be 98 35 87 bd bd 0b 26 3d
       -0.024424816 -0.15382801 -0.06602019 0.04053854
0003b0 e6 64 a5 3d af d9 44 3d cc 56 85 bd 94 63 ed 3d
       0.080758855 0.04805916 -0.06510696 0.11591259
0003c0 70 87 db 3b 3f e2 35 bd 1c b4 eb 3d 63 e7 79 bd
       0.006699495 -0.04440522 0.115089625 -0.061011683
0003d0 4b 03 2e be 02 1a 5d bd 1d c7 85 bd 5c 2c 9b bd
       -0.16993444 -0.05397988 -0.065321185 -0.0757682
0003e0 b9 71 68 bd 00 b9 01 be 0b 34 51 be 70 df aa bc
       -0.05674908 -0.12668228 -0.20430009 -0.020858496
0003f0 3a 25 e6 bc 7f 55 b1 3c 3d 4c 67 3d e4 55 87 bd
       -0.028093923 0.021647213 0.05646919 -0.06608179

network_body._body_endoder.seq_layers.2.bias f4 [128]
000000 78 c8 13 bb 69 34 16 bc a1 2d 9e ba 9c f7 9e 3b
       -0.0022549909 -0.009167769 -0.0012068042 0.0048512947
000010 8c e4 7f bb 26 70 10 bc 6e 26 4c bc 96 06 27 bb
       -0.0039046137 -0.008815801 -0.012460334 -0.0025486103
000020 55 c6 60 bc 7b 1e c5 bb 69 ce 84 ba 90 cc c1 bc
       -0.013719161 -0.0060155964 -0.0010132316 -0.023657113
000030 0b b0 27 bc f4 8c c9 ba 90 66 03 bb 2c 3e d5 bb
       -0.010234843 -0.001537709 -0.0020050146 -0.0065076556
000040 da ca 29 bb 7a 39 10 bc 2b 8d f6 bb 24 26 50 bc
       -0.0025908262 -0.008802766 -0.0075241528 -0.012704406
000050 bc b7 e5 bb 19 c3 db bb 37 68 80 ba d2 ce 35 ba
       -0.0070104282 -0.006706607 -0.0009796683 -0.00069354207
000060 27 8c 4c bb a0 d8 4a bb 5c c4 b8 bb 1b 0e ce bb
       -0.0031211467 -0.0030951872 -0.0056386422 -0.0062883026
000070 58 30 07 3c e9 fd 3f bb c3 60 7e bb 5a 32 b2 bb
       0.008251272 -0.002929563 -0.0038814999 -0.0054381313
000080 59 ff 01 bc 57 17 0e bc 05 a7 77 ba c1 cd cd b9
       -0.007934415 -0.008672557 -0.000944719 -0.00039253946
000090 ea 2e 46 39 73 a0 57 bb fd b9 e9 bb df d4 f5 bb
       0.00018900228 -0.0032902032 -0.0071327672 -0.007502183
0000a0 b5 2b 09 bc a3 4d c4 bb 9c 7b e6 bb b6 75 c5 bb
       -0.008372237 -0.0059907003 -0.0070337784 -0.006025995
0000b0 b8 b4 08 b8 18 0f 09 bb a6 6b 20 bc 4a ee 01 bc
       -3.2593234e-05 -0.0020913538 -0.00979129 -0.007930348
0000c0 5d 04 68 bc 4c 6b 57 3a 49 99 a9 b9 40 e0 ad bb
       -0.014161197 0.00082175876 -0.00032348398 -0.0053062737
0000d0 84 be 03 bc ff 17 89 bb 14 f2 07 3b 8e 1f 25 bb
       -0.008041028 -0.0041837688 0.0020743655 -0.002519581
0000e0 41 c0 4b bb d4 a6 da bb de e5 25 bc c8 37 5c bc
       -0.0031089934 -0.0066727195 -0.010125605 -0.013441034
0000f0 e6 5d 62 bc e7 bf 8d 3b e7 df 3f bc 31 8f aa bb
       -0.013816332 0.004325855 -0.011711097 -0.005205058
000100 35 5f 92 bb e3 16 fe bb 40 c3 05 bc 92 86 1a bc
       -0.004466916 -0.007754193 -0.008164227 -0.009431498
000110 61 70 b9 bb 2f 51 2e 3b 30 98 16 3c 79 4e b0 bb
       -0.0056591486 0.0026598682 0.009191558 -0.0053804484
000120 7d d6 97 3b ad a8 5c 3c 38 f4 61 bb b6 9c 10 bc
       0.0046337233 0.01346795 -0.003447784 -0.008826425
000130 e7 5d 88 bc 8b c3 1c bc b3 d6 ec bb 2e 54 9d 3a
       -0.016646339 -0.009568105 -0.0072277426 0.0012003237
000140 e7 50 df 3a 58 0d a6 bb 87 d6 58 bc 0f 6c 00 bc
       0.001703766 -0.0050675087 -0.013234741 -0.007838263
000150 1e 9a a6 bb 9b 2d 6a bc 6c ac 73 bb 5a cf 0f bc
       -0.00508429 -0.0142931 -0.003718163 -0.008777464
000160 54 0e 31 bc bf b5 44 bc b2 1d ff bb 66 e3 14 3b
       -0.010806639 -0.012006222 -0.0077855224 0.0022718548
000170 6e 7e 07 3b 81 c2 49 bb 06 56 8a bb 1d 60 8c bb
       0.0020674723 -0.00307861 -0.0042216806 -0.0042839185
000180 f0 88 5d 3c ed e2 11 3b d0 3b a3 bc 8f 43 36 bc
       0.013521418 0.0022260502 -0.019925982 -0.011124506
000190 1c c5 00 bc 48 9c 99 bb 42 92 2b bc f2 a8 9c bb
       -0.007859495 -0.0046878196 -0.010471882 -0.004780882
0001a0 2c d8 19 3b 92 a7 f5 bb 72 41 88 bc 11 25 b0 bc
       0.0023474796 -0.0074967826 -0.01663277 -0.02150205
0001b0 2c 3a 89 3b 61 88 c7 bb f2 86 f0 3b 0a c4 e7 bb
       0.004187843 -0.0060892557 0.0073403055 -0.00707293
0001c0 2d 91 e3 bb 82 1f a4 ba ff 84 65 bc 58 52 96 3a
       -0.0069447965 -0.0012521597 -0.0140087595 0.0011468632
0001d0 2f 65 35 bc 78 c2 49 37 12 06 06 bc 9b 0c 83 bb
       -0.011071487 1.2025812e-05 -0.008180158 -0.0039993054
0001e0 ac 30 39 bc 75 3b b3 3b 95 71 5b bc 9b a5 17 bc
       -0.011303108 0.0054697343 -0.013393779 -0.009255792
0001f0 f6 94 35 bc cd 5b 92 3a 88 06 36 bb f8 5e d8 bb
       -0.011082878 0.0011166275 -0.002777489 -0.006603118

action_model._continuous_distribution.log_sigma f4 [1, 2]
000000 8b da 6c bc b8 3a 89 bb
       -0.014456402 -0.004187908

action_model._continuous_distribution.mu.weight f4 [2, 128]
000000 b7 62 cf bc f8 bd ec 3b a2 0d bc ba 01 0a 84 bc
       -0.025315626 0.0072247945 -0.0014347325 -0.016118051
000010 eb 8e 83 3c e3 d7 a1 3c b9 ca 27 bc e5 6c cf 3c
       0.01605936 0.019756263 -0.010241204 0.02532048
000020 41 10 20 3c a7 36 9f bc 14 0a 82 bc bf 90 b1 b9
       0.0097695 -0.01943524 -0.015873946 -0.00033867915
000030 2f 50 ac 3a bc 46 af bb d2 9f 90 bc b5 4e 2c 3b
       0.0013146455 -0.0053490084 -0.017654333 0.002629203
000040 1e 12 a3 bc 6b 83 74 3c c0 9b 89 3b 15 c5 1a 3c
       -0.0199061 0.014923911 0.004199475 0.009446402
000050 44 9e dc 3b 37 55 a2 3c 7d 39 13 bb 97 96 30 bc
       0.006732734 0.019816024 -0.0022464686 -0.010778091
000060 ef 9d 65 bc 11 a2 42 3c 39 6a ef 3c 8f a5 1d 3c
       -0.014014705 0.01187946 0.029225456 0.009621992
000070 b3 a2 27 bc c8 9b 4b 3c b3 bc 0f 3c 6e d4 11 bd
       -0.010231662 0.012427278 0.008773017 -0.03560298
000080 47 40 4f bb ac fc c7 3c 47 79 29 ba e9 c8 b4 3c
       -0.0031624006 0.024412476 -0.000646491 0.022068458
000090 0a 8e e2 3c 8b 1f 9f bc ed 7c 0f 3c 1b 40 05 bc
       0.02765562 -0.01942422 0.008757812 -0.00813296
0000a0 79 0d ce bb a9 d9 b7 3c 11 b2 15 3b 47 96 05 3c
       -0.006288227 0.022442656 0.0022841732 0.008153505
0000b0 4d b7 8b 3c e2 52 6c bb ac 3d 00 bc 20 ee a6 3b
       0.017055178 -0.0036060144 -0.007827204 0.0050943047
0000c0 ca 14 64 bc 87 d5 98 bb a6 3d 31 bc fa 7b 71 3c
       -0.013920972 -0.0046641263 -0.010817921 0.014739031
0000d0 17 b5 96 bc 25 f1 ae 3c e7 b4 f3 3c 9e 7f ab 3c
       -0.018396897 0.021355221 0.029749347 0.020934876
0000e0 c9 c5 2c 3c 4a 44 0c 3b 6f 20 ea 3a b2 83 a8 ba
       0.0105452025 0.0021403008 0.0017862449 -0.0012856631
0000f0 3e e7 6c bc 41 bc 18 3b 35 6d 69 bc 04 f9 4d 3c
       -0.014459429 0.0023305567 -0.014247228 0.012571577
000100 9f 4a 6d bc dc c7 2f 3a 74 95 c4 3b 7f f4 de b9
       -0.014483123 0.00067055016 0.0059992615 -0.00042525303
000110 a4 80 cc 3b 50 97 2d bd 1f 5d 06 bd 3b c8 34 bb
       0.006240921 -0.04238063 -0.03280365 -0.0027585167
000120 cb 25 11 3c 0d 33 3e 3c ae 63 71 bb 78 58 86 bc
       0.008859108 0.011608851 -0.0036833095 -0.016399607
000130 24 ec f0 bb 70 7a 39 bc aa 38 0b 3c 55 64 97 bb
       -0.007352369 -0.011320695 0.0084973965 -0.004620115
000140 67 12 1e 3d 52 23 89 3b 7a e1 02 3b 27 ae c7 3c
       0.03859177 0.0041851187 0.001997082 0.024375034
000150 03 c3 c0 bb 7e 2e d9 39 75 4b a8 bc b1 50 3e bb
       -0.005882622 0.00041424105 -0.020543793 -0.0029039795
000160 8e 46 a7 ba 96 61 0c bb aa bf 0e b7 27 b5 39 bb
       -0.0012762116 -0.002142047 -8.508485e-06 -0.0028336735
000170 30 57 81 3b d3 c7 34 bc 41 c2 b2 bc c7 17 2e 3c
       0.003947161 -0.01103397 -0.021821143 0.010625786
000180 f8 c0 26 bc 9e ec 05 bd 9f 64 48 3b f2 cc 80 39
       -0.010177843 -0.03269636 0.0030577553 0.0002456676
000190 77 43 97 3c d8 7b 95 3c ca d3 eb 3b a9 21 d2 bb
       0.018464787 0.01824753 0.007196878 -0.006412704
0001a0 28 ba 85 bc 2e 84 bf 3a 13 7f 71 3b 50 d2 80 3b
       -0.016324118 0.0014611536 0.0036849424 0.003931321
0001b0 47 5f f7 bc be 60 8f 3a c2 20 b4 bc 3e 8b b7 bb
       -0.030196799 0.0010938866 -0.021988276 -0.0056013158
0001c0 17 da d0 bc aa 59 2d 3c a9 4b a8 3a 70 2d 22 b9
       -0.025494618 0.01058046 0.0012839931 -0.0001546645
0001d0 51 6a 01 3b 70 ee 28 3c c1 26 c5 3a 06 b0 b5 3c
       0.0019747207 0.010310754 0.0015041457 0.022178661
0001e0 ad fc 3f bc ac 81 97 3c ba f7 9b bc fb 1d 00 bc
       -0.011717957 0.01849445 -0.019039024 -0.007819648
0001f0 c9 23 ce bc ba 04 75 bc 2f 0c 68 3c 7a 6a 90 bc
       -0.025163548 -0.01495474 0.014163061 -0.017628897
000200 87 dc 2f bc 41 e9 2c 3c 27 e8 6b bc 7e 67 24 3c
       -0.01073373 0.010553659 -0.014398611 0.01003444
000210 e6 8d 91 3a 82 46 dd 3c 3a e3 43 bb fb 7c dd bc
       0.0011104911 0.02701116 -0.0029890076 -0.027037134
000220 c5 74 64 bc d8 15 3c bb c3 d7 97 3b 4f d5 c3 3a
       -0.013943856 -0.0028699543 0.004633875 0.001494089
000230 64 75 8c 3a 9e 1c 25 bc 4c 9e a3 bc ab be 90 3c
       0.0010716137 -0.010077624 -0.019972943 0.017669043
000240 6e f3 42 3a d9 5e 73 39 a4 c0 25 3c cc 1a 04 bc
       0.00074367865 0.0002320962 0.01011673 -0.0080630295
000250 64 91 05 bc 55 e3 33 bc aa 0e df bc 26 f0 60 3d
       -0.00815234 -0.010979493 -0.027228672 0.054916523
000260 3a e4 78 3d 4e 8a 47 bc 04 3d b1 3c 71 21 9b bb
       0.06076453 -0.0121789705 0.02163554 -0.004734211
000270 e6 86 86 3c 60 69 8b bb fe 3a 96 3a 89 60 bf bb
       0.016421746 -0.004254505 0.0011461673 -0.0058403653
000280 c1 15 24 3c 2f ef 85 3b 95 f0 8b 3c e6 ce da bb
       0.010014952 0.004087351 0.017082492 -0.0066774962
000290 0d c6 36 bc cc 01 80 bb a7 c9 99 3a 86 99 4b 3c
       -0.011155617 -0.003906464 0.0011733071 0.01242674
0002a0 cf 65 68 bc 92 41 92 3c 02 cb d2 3c 79 8c 9f 3c
       -0.014184429 0.017853532 0.025731567 0.019476162
0002b0 f9 f9 4a ba a4 d5 b1 3b 70 f8 ed bc fb ce 20 3c
       -0.00077429373 0.0054270793 -0.029049128 0.009814973
0002c0 31 db 22 bc dd 88 54 bb c6 e9 9b 39 9e ae bc 3a
       -0.009939955 -0.003243021 0.0002973808 0.0014395302
0002d0 2e 55 e3 3b 4c b4 62 3c a5 9f b2 bc 1a de a5 bb
       0.0069376444 0.013836931 -0.02180464 -0.005061877
0002e0 ef fb b0 bb ba 0d 56 3b ea 61 36 bc 20 d5 95 3b
       -0.0054011266 0.003266199 -0.011131743 0.0045725256
0002f0 71 bb 65 bb 1e f6 2e 3c 5e e3 e6 bc 02 4e 96 3c
       -0.003505435 0.010678796 -0.028184589 0.018347744
000300 dc cd 09 bc e9 e2 53 3c 7d 25 c6 3c 84 40 31 3c
       -0.008410897 0.012932518 0.024187798 0.010818604
000310 3a 2d f0 3b 9f b9 ad bc 16 ff 33 3c 4c 65 70 3c
       0.00732961 -0.021206675 0.01098611 0.014672589
000320 9a ab eb bb 0c 4d ef bc 89 d5 68 3c 3c 7b ed 3a
       -0.0071920874 -0.029211544 0.014211067 0.0018118392
000330 b1 5f 16 bb 40 2d 15 3d 22 d4 4a 3c 0e 1d c0 3c
       -0.002294522 0.036420107 0.012379678 0.023451354
000340 a5 5e 9a bc 8d eb a2 3c f4 0f 26 bb 4b 95 db 3c
       -0.018843958 0.01988771 -0.0025339099 0.026804587
000350 28 77 05 3c bc 94 3c bc 58 97 07 bc ce b0 69 bb
       0.008146085 -0.01151007 -0.008275829 -0.0035658362
000360 df 32 c1 3b 8b bd 63 39 2c 4b 9d ba d8 63 6e 3c
       0.005895957 0.00021719017 -0.0012000552 0.014550172
000370 ab b1 ad bc c4 6e 86 ba 46 0e 25 3c 35 34 4c 3c
       -0.021202883 -0.0010256399 0.010074204 0.012463619
000380 09 6d a5 bc 6b a8 1a bb e3 3e ea ba 58 f2 90 3b
       -0.020193594 -0.002359892 -0.0017871525 0.004423421
000390 54 00 40 3c 54 f3 b6 3c 7d a7 83 3c 50 57 44 bc
       0.011718828 0.022332825 0.016071076 -0.011983708
0003a0 66 f0 a6 3b 9c a8 74 3b fa 58 13 bc e0 7b ee bc
       0.0050945757 0.0037331944 -0.008993382 -0.029111803
0003b0 5e 54 e8 bc 07 f8 45 3c 5f 4f 81 bb f8 62 a8 3c
       -0.028360542 0.01208306 -0.0039462293 0.020555004
0003c0 4a 71 5d bc 13 17 bd 3c 40 5c 17 3b 24 53 8f bc
       -0.01351578 0.023082292 0.0023095757 -0.0174957
0003d0 03 39 4a 3c 19 ce f7 3b 55 53 64 3c 39 69 0e 3c
       0.012342694 0.0075624106 0.0139358835 0.008692079
0003e0 ae 99 27 bc bd 17 4d bc c8 a2 19 3c fb cf 71 3c
       -0.010229511 -0.012517867 0.009377189 0.014759059
0003f0 20 b9 31 bb f9 85 43 3c f0 67 38 bb 0b 17 dc ba
       -0.00271184 0.011933797 -0.0028138123 -0.0016791535

action_model._continuous_distribution.mu.bias f4 [2]
000000 7e 7f a8 3a 37 eb b0 bb
       0.0012855378 -0.0053991335
