GameAI3/Config/results/dwarf_2/Dwarf/Dwarf-47142.onnx (onnx, 96564 bytes, 7 tensors)

network_body._body_endoder.seq_layers.0.weight f4 [128, 53]
0	0x3e241475	0.16023429
1	0xbd87f0c0	-0.06637716
2	0x3d135cac	0.03597705
3	0xbc17f4d5	-0.009274681
4	0x3d1cb418	0.03825769
5	0x3d1782ed	0.036990095
6	0xbd2e101a	-0.042495824
7	0xbbe8da13	-0.0071060746
8	0x3e0701bc	0.13184255
9	0x3e6b6f95	0.22991784
10	0x3e81f6fa	0.2538374
11	0xbdca7c27	-0.098869614
12	0x3e2ec525	0.17067392
13	0x3c9e730e	0.019341972
14	0x3e018879	0.12649716
15	0xbb9f7022	-0.004865662
16	0x3e0e7a09	0.1391374
17	0x3e1565bf	0.14589594
18	0x3dc0ea2b	0.09419664
19	0xbc50bcd0	-0.012740329
20	0x3d12a2d2	0.03579981
21	0xbe9719cb	-0.29511866
22	0xbd8b9a1a	-0.06816502
23	0x3e600ea7	0.2188059
24	0x3d670168	0.056397825
25	0x3e538614	0.20656615
26	0xbe93c5e9	-0.2886193
27	0xbe44f525	-0.1923414
28	0xbe077376	-0.13227639
29	0xbdf056c7	-0.117353015
30	0xbb2e41e7	-0.0026589574
31	0x3b9b8ebf	0.0047472413
32	0xbe639151	-0.22223403
33	0xbc6949cb	-0.014238785
34	0x3d137a5d	0.036005367
35	0xbd1d2f05	-0.03837492
36	0xbdf0f3ce	-0.11765252
37	0xbd4439b3	-0.04790659
38	0x3d7372d0	0.059435666
39	0xbd948e70	-0.0725373
40	0x3d950802	0.07276918
41	0x3da183bf	0.07886457
42	0x3af6fd2d	0.0018843763
43	0xba12b548	-0.0005596471
44	0xbe97fe85	-0.2968637
45	0xbcfd9d98	-0.030958936
46	0x3c675059	0.0141182775
47	0x3e07200b	0.13195817
48	0x3e42f032	0.1903694
49	0x3d964caa	0.07338841
50	0x3d4333e5	0.047656912
51	0xbd8b9936	-0.06816332
52	0x3e0103d0	0.1259911
53	0x3dcf2493	0.10114398
54	0x3d9dfbf0	0.07714069
55	0x3c823364	0.015893646
56	0xbdf88078	-0.121338785
57	0xbdebb1c1	-0.11508513
58	0xbdc08a5e	-0.094013914
59	0x3e2abc1a	0.16673318
60	0x3e0c47fd	0.13699336
61	0x3c9e5ecd	0.019332314
62	0x3e43fe8d	0.19140072
63	0xbd9b96bf	-0.07597112
64	0x3ca70684	0.02038885
65	0xbe82bf03	-0.25536355
66	0x3dba00da	0.09082194
67	0x3ce2b21d	0.027672822
68	0xbd7d6fe6	-0.061874293
69	0x3d9f32fb	0.07773396
70	0xbd688a86	-0.05677273
71	0x3d8fe578	0.070261896
72	0x3d1b00c6	0.037842534
73	0xbd8ccbac	-0.06874785
74	0xbcf0cec3	-0.029395467
75	0x3de3e8b8	0.11128372
76	0x3e1f1482	0.15535167
77	0x3cd99bc1	0.026563527
78	0xbe0c5bd5	-0.13706906
79	0xbec447c6	-0.3833601
80	0x3bd31e18	0.0064427964
81	0x3e9319c3	0.28730592
82	0xbea55035	-0.32287756
83	0xbdba4a88	-0.09096247
84	0x3e1d7b8c	0.1537916
85	0x3e0a8ce7	0.13530312
86	0xbd373a70	-0.044733465
87	0x3d117937	0.03551599
88	0x3ca6ca74	0.020360209
89	0x3d9cf8ce	0.07664643
90	0x3e5713d8	0.21003664
91	0x3dfd4a87	0.123677306
92	0x3dad64f3	0.0846652
93	0x3da1dbc2	0.079032436
94	0x3dae10ab	0.08499273
95	0x3d4e389b	0.050346952
96	0x3dc968ab	0.09834417
97	0xbdcdba14	-0.10045257
98	0x3e2f671f	0.17129181
99	0x3d066da0	0.03281939
100	0x3dc9df51	0.09857047
101	0xbe2c6688	-0.16835988
102	0xbda584cb	-0.08081969
103	0x3dfafb9b	0.12255021
104	0xbe811b1f	-0.25216004
105	0xbb7af289	-0.0038291535
106	0xbdc06e61	-0.09396053
107	0xbdcad347	-0.09903579
108	0x3e79dfa8	0.24401724
109	0xbd163de2	-0.03668011
110	0xbc8fae7e	-0.017539259
111	0x3e94e5c8	0.2908156
112	0x3e210639	0.1572503
113	0x3e173c73	0.14769153
114	0xbd08a0dd	-0.033356536
115	0xbe0340bd	-0.12817664
116	0xbcf2d339	-0.029641734
117	0x3b1a9755	0.0023588736
118	0x3d385ba0	0.045009255
119	0xbdd488da	-0.10377665
120	0xbe0edb0e	-0.1395075
121	0x3e092d3c	0.13396162
122	0xbdf99d66	-0.121882245
123	0xbc857c68	-0.016294673
124	0x3ceeb994	0.029141225
125	0xbe1c04c3	-0.15236191
126	0xbdcd2369	-0.100165196
127	0x3e9374b7	0.28799984
128	0x3c0e7da5	0.008696948
129	0x3d623c1b	0.055233102
130	0x3d7341eb	0.059389036
131	0xbd81fb46	-0.06346755
132	0xbdf5c172	-0.119997874
133	0xbd8bc892	-0.06825365
134	0x3c8d1e59	0.017226385
135	0x3d1bbc7b	0.038021546
136	0xbdc21e8c	-0.094784826
137	0x3d2d0ceb	0.042248648
138	0xbc20e5db	-0.009820427
139	0xbd0e54e4	-0.034748927
140	0xbdcd6a48	-0.10030037
141	0xbdd2624a	-0.102726534
142	0x3e395fa4	0.1810289
143	0x3e429169	0.19000782
144	0xbb376981	-0.002798647
145	0x3c8e306f	0.01735708
146	0xbdd1bc26	-0.102409646
147	0xbd5de5fb	-0.054174405
148	0x3d2c9698	0.042135805
149	0xbd4d14fb	-0.050068837
150	0x3ce6563d	0.028117293
151	0xbe2a4d9c	-0.16631168
152	0x3dbfc2db	0.093633376
153	0xbbe3f85a	-0.006957096
154	0x3c21c5f0	0.009873852
155	0x3e6c48ca	0.23074642
156	0xbd86159a	-0.06547089
157	0xbc92269f	-0.017840682
158	0x3e1b7a89	0.15183462
159	0x3e7144c2	0.23561385
160	0x3e304b96	0.17216334
161	0x3d97a036	0.07403605
162	0xbe6f775c	-0.23385376
163	0x3ca9d1c1	0.020729901
164	0xbd6b5063	-0.05744971
165	0x3dcfaa8c	0.10139951
166	0xbd2cb3c7	-0.042163637
167	0x3de022a4	0.10944107
168	0xbe4cdf7d	-0.20007129
169	0x3d310f2f	0.04322737
170	0x3e1aec2b	0.15129153
171	0xbdc4510a	-0.095857695
172	0xbdda4bbb	-0.10658976
173	0x3e45392c	0.1926009
174	0x3dc47f01	0.095945366
175	0x3dab7b7e	0.08373164
176	0x3dc37236	0.095432684
177	0xbe1a6b05	-0.15079887
178	0xbe0771dc	-0.13227028
179	0xbd4d8817	-0.050178614
180	0x3d0edd8e	0.03487926
181	0xbde6d3df	-0.1127088
182	0x3d7da8fb	0.06192873
183	0xbd92cc7a	-0.07167907
184	0x3e877ef0	0.26464033
185	0x3dfa157e	0.122111306
186	0x3dc8dbfc	0.09807584
187	0xbcba882d	-0.022770012
188	0xbd3cee6d	-0.046125818
189	0x3e5dc83a	0.21658412
190	0x3ed3b38a	0.41347915
191	0xbde49d5c	-0.111628264
192	0x3c9ce073	0.019149994
193	0x3e0ec129	0.13940872
194	0x3d63a5da	0.05557809
195	0x3ddd63a4	0.108100206
196	0x3deffbcc	0.11717948
197	0xbd08f9d3	-0.033441376
198	0x3e21cd25	0.15800913
199	0x3d67577a	0.05647991
200	0xbd22dd25	-0.03976168
201	0x3d7fcb1d	0.062449563
202	0xbc89a3d0	-0.016801745
203	0xbe3b0aae	-0.18265793
204	0x3be52f26	0.006994146
205	0xbe205996	-0.15659174
206	0xbdc07785	-0.093977965
207	0xbe322281	-0.17395975
208	0x3cab83de	0.020936903
209	0x3ca6eaa5	0.02037556
210	0x3ded9490	0.11600602
211	0x3e16bd2f	0.14720605
212	0xbd903a7f	-0.07042407
213	0xbde30198	-0.11084288
214	0x3df7cd48	0.12099701
215	0xbe83f71e	-0.25774473
216	0xbe925592	-0.2858091
217	0x3c0bb060	0.008525938
218	0xbba355f3	-0.004984611
219	0x3d85bc1c	0.0653002
220	0xbdb0b558	-0.086283386
221	0xbb9fb13c	-0.004873423
222	0xbd56344a	-0.05229596
223	0x3d47ff75	0.048827607
224	0xbe47a4a4	-0.19496399
225	0xbdd5f6ff	-0.104475014
226	0xbdcda631	-0.10041464
227	0x3d8cb96e	0.068713054
228	0x3e256fb9	0.161559
229	0x3d67d5fd	0.05660056
230	0xbb9ba2e2	-0.0047496418
231	0xbea8d585	-0.32975402
232	0xbc9578fa	-0.018246163
233	0xbd866fe7	-0.065643124
234	0x3e86115d	0.26185122
235	0xbbd84f0f	-0.0066012214
236	0xbeabb8a6	-0.33539313
237	0x3dd4c394	0.10388866
238	0x3e0ea6cb	0.13930814
239	0xbda5ee4c	-0.08102092
240	0xbe2c1a4f	-0.16806911
241	0x3d8fdbe4	0.07024363
242	0xbd29cbb5	-0.041454036
243	0x3e105f5d	0.14098878
244	0xbdf5d160	-0.12002826
245	0x3e4100f7	0.18848024
246	0xbdab0325	-0.08350209
247	0xbe28a4d5	-0.16469128
248	0x3c1530a6	0.009105837
249	0xbc20bbef	-0.009810432
250	0x3e85569f	0.2604265
251	0xb73ced50	-1.1260927e-05
252	0xbe336a1a	-0.17520943
253	0xbcffcc31	-0.031225296
254	0x3bd36f9b	0.0064525134
255	0xbe797bcf	-0.24363635

network_body._body_endoder.seq_layers.0.bias f4 [128]
0	0x3a2bcfef	0.0006554117
1	0x3ab7335b	0.0013977097
2	0xbbc15884	-0.0059004445
3	0x39bc09cb	0.0003586545
4	0xba4a69f7	-0.00077214785
5	0xba6e4580	-0.0009089336
6	0xbc073794	-0.008252997
7	0xba9a00a1	-0.0011749455
8	0x3bd4078a	0.0064706253
9	0x3981da1c	0.00024767302
10	0xbb90eb73	-0.004422599
11	0xb919428e	-0.0001461601
12	0x3966feda	0.00022029449
13	0xba88b83a	-0.001043088
14	0xbb1eac10	-0.0024211444
15	0xba874140	-0.0010319129
16	0x3b00a5bc	0.0019630035
17	0xbb4e0a8d	-0.0031439394
18	0xbbd8c52a	-0.0066153007
19	0xbb94d9d7	-0.00454257
20	0xb9c94244	-0.0003838708
21	0xba02c00a	-0.00049877225
22	0x3c1d0d9d	0.009585765
23	0xbb00e8b6	-0.0019669957
24	0xba8e97b5	-0.0010878952
25	0xba05c280	-0.000510253
26	0x37f80f98	2.9571165e-05
27	0xba643aba	-0.00087062607
28	0x3afc215f	0.001923602
29	0xbb1b4343	-0.0023691214
30	0x3aa0fe7e	0.0012282876
31	0x3a52eb5b	0.0008045935
32	0xbb40b3a0	-0.002940394
33	0x3b406a2a	0.0029360154
34	0x3b347837	0.0027537474
35	0xbad2ec69	-0.0016092184
36	0xbb5efc0b	-0.003402474
37	0xbb4ebaea	-0.0031544515
38	0x3b1854a4	0.002324381
39	0x3aee130d	0.0018163637
40	0xb8f3c873	-0.000116244795
41	0xbb19ec5b	-0.0023486826
42	0xba1b5bad	-0.00059264415
43	0x3a16bc78	0.000575013
44	0xbaff75d8	-0.0019490076
45	0xbb43ad78	-0.0029858034
46	0xbb859474	-0.004076535
47	0x3bf6ad4d	0.0075279833
48	0xbb022a0f	-0.0019861495
49	0xbbbe9d67	-0.0058171037
50	0xba16fde7	-0.00057598803
51	0xbb70303e	-0.0036649848
52	0xbadc4b05	-0.0016807026
53	0x3b44b47c	0.0030014804
54	0xbbc8d8c7	-0.0061293575
55	0x3b0b67f5	0.002127168
56	0xbaee56ee	-0.0018183866
57	0xbbf45f6a	-0.0074576633
58	0x39e3a9bf	0.00043423285
59	0xbac3017d	-0.0014877763
60	0x3bc66047	0.0060539576
61	0xb8e593d9	-0.0001094711
62	0xbb440a87	-0.0029913501
63	0x3c1cca4c	0.009569716
64	0xbb955de3	-0.0045583113
65	0x3b5e3ad2	0.0033909571
66	0xbafc3eeb	-0.0019244825
67	0xbadc83ae	-0.0016823912
68	0xbab9697b	-0.0014145816
69	0xba634879	-0.0008670162
70	0xbaf57f24	-0.0018729907
71	0xbb12c2ca	-0.0022393935
72	0x3ba2d1d6	0.004968862
73	0x3afadf4c	0.0019140034
74	0xb9ace7da	-0.0003297914
75	0xbb95635a	-0.004558963
76	0xba740870	-0.00093091186
77	0xb980eb0a	-0.0002458918
78	0xba885d83	-0.0010403845
79	0x3bc31934	0.005953932
80	0xbc058922	-0.008150371
81	0xbb2cd681	-0.0026372971
82	0xbbb7c42c	-0.0056081023
83	0x3ad32304	0.0016108458
84	0x3b8d1600	0.004305601
85	0x3bd7df8f	0.0065879296
86	0x3c0bc7d6	0.008531531
87	0xbaa58d76	-0.001263066
88	0xbacd23aa	-0.0015650888
89	0xbac6a8f2	-0.0015156551
90	0xbab2c678	-0.001363947
91	0xbb5dc31e	-0.0033838223
92	0xbbefdc89	-0.007319991
93	0xbb3d76d8	-0.0028909948
94	0xbc02d5f0	-0.007985577
95	0x3c98c5b6	0.018648963
96	0xbbdc3ca3	-0.0067210956
97	0x3a3a24d2	0.00071008236
98	0x3b07e948	0.0020738412
99	0x3ac31f2e	0.0014886612
100	0x3c38f843	0.011289659
101	0xbbd5390e	-0.0065070456
102	0x39cbc859	0.00038868448
103	0xbb24ab84	-0.0025126645
104	0x3bc9454d	0.0061422945
105	0x3bb405b6	0.005493845
106	0x3bbc94c4	0.005755039
107	0xbb39663e	-0.00282897
108	0xbba3f3f6	-0.0050034476
109	0xbad68538	-0.0016366607
110	0xbbbb3d9c	-0.0057141315
111	0x3ac18db6	0.0014766965
112	0xbb04968d	-0.0020231337
113	0xbab8b459	-0.0014091834
114	0xba0328a6	-0.00050033105
115	0x3b11248e	0.0022147032
116	0xbaf530a0	-0.0018706508
117	0x3bbaba48	0.005698476
118	0x3aca5732	0.0015437363
119	0x3c19d3f0	0.009388909
120	0xbb411f9a	-0.00294683
121	0x3c58c443	0.013230386
122	0xbb265e6a	-0.0025385865
123	0xbc040cf7	-0.008059732
124	0xbb6eeaa5	-0.0036455777
125	0xbb1d34cd	-0.002398777
126	0xbac8202e	-0.0015268379
127	0xbaebbfd7	-0.001798625

network_body._body_endoder.seq_layers.2.weight f4 [128, 128]
0	0x3d665432	0.05623264
1	0xbcb1d16c	-0.021706305
2	0x3d2890fc	0.041153893
3	0xbd966415	-0.07343308
4	0xbccd7a64	-0.025082774
5	0xbe084dd9	-0.13310947
6	0xbde19da2	-0.11016394
7	0x3d1d422b	0.03839318
8	0x3d52896d	0.05140059
9	0x3d39947c	0.04530762
10	0xbe1b1a9f	-0.15146874
11	0x3d0f049f	0.034916516
12	0xbd908c92	-0.07058062
13	0x3d5ea742	0.05435873
14	0x3e16f45f	0.14741658
15	0x3dafa481	0.085762985
16	0x3db3e196	0.087832615
17	0xbd3c53f2	-0.045978494
18	0xbba9f83b	-0.005187062
19	0xbd0b6c75	-0.03403898
20	0x3c9b3a94	0.01894883
21	0x3ca7cedd	0.020484382
22	0xbd6b2ecb	-0.057417672
23	0xbd91256f	-0.07087218
24	0xbc140baf	-0.009035989
25	0xbc3be0fd	-0.011467216
26	0xbd90d190	-0.07071221
27	0x3e03833f	0.12843035
28	0x3cd6214e	0.026138928
29	0x3daae9d8	0.083453834
30	0xbcbf9698	-0.023387238
31	0x3d82383f	0.06358384
32	0xbde142dd	-0.10999081
33	0x3d722487	0.059116866
34	0x3d2bc236	0.04193326
35	0x3df71135	0.12063829
36	0x3d11b5d2	0.035573788
37	0x3da2c79e	0.0794823
38	0xbd0af1b0	-0.033921897
39	0x3d9f264a	0.07770975
40	0xbd3ad53e	-0.04561352
41	0x3b5cfffe	0.003372192
42	0xbe083cff	-0.13304518
43	0x3db40cc3	0.087914966
44	0xbcfe0f8d	-0.031013275
45	0xbe4bbf87	-0.1989728
46	0x3c2d7c7a	0.01058876
47	0xbe43bf1c	-0.19115871
48	0xbda32520	-0.079660654
49	0x3da2ebcd	0.07955132
50	0xbd65d465	-0.05611076
51	0xbda3320e	-0.079685315
52	0xbd837762	-0.06419255
53	0x3a235cb2	0.0006231769
54	0xbcf27828	-0.02959831
55	0x3ce8967e	0.028392073
56	0x3d2c3bd5	0.042049248
57	0x3c04de8c	0.0081097
58	0xbc8a5f1b	-0.016891053
59	0xbdcfb85c	-0.10142586
60	0x3d0c7cab	0.03429858
61	0xbe0e1b37	-0.13877569
62	0xbc8227ca	-0.015888114
63	0xbe4f8472	-0.20265368
64	0xbbff8010	-0.0077972487
65	0xbc3f0607	-0.011659152
66	0xbd8dae9c	-0.0691807
67	0x3de546d8	0.11195153
68	0x3da97d92	0.08275904
69	0x3d293c54	0.0413173
70	0xbcc34554	-0.02383677
71	0x3cc24a3a	0.023717035
72	0x3d28951d	0.04115783
73	0x3d40d815	0.047081072
74	0xbd8a56b6	-0.0675482
75	0x3de19098	0.11013907
76	0x3dc1f9c3	0.094714664
77	0xbe1c60b1	-0.1527126
78	0x3c5ae01f	0.013359099
79	0x3db1f8fc	0.08690068
80	0xbd4d92c1	-0.050188784
81	0xbe802303	-0.25026712
82	0xbe07f20b	-0.13275926
83	0x3da0de67	0.0785492
84	0x3c3c5ab9	0.011496239
85	0x3c5ec12e	0.013595862
86	0x3def95ea	0.11698516
87	0x3c5bc22b	0.0134129925
88	0x3d77e0a2	0.06051696
89	0xbcb51f8f	-0.022109775
90	0x3d187e5f	0.037229892
91	0x3d204c7a	0.039135434
92	0x3dd68adf	0.10475706
93	0xbd7f543b	-0.062336188
94	0x3d8e67fe	0.06953429
95	0xbe05b34f	-0.13056682
96	0xbe0e8a6d	-0.13919993
97	0xbe0768dd	-0.13223596
98	0x3c2e70b7	0.0106469905
99	0xbd133a25	-0.035944123
100	0xbcce275d	-0.025165254
101	0x3cadc2c6	0.02121104
102	0x3d3b460d	0.045721103
103	0x3e005d09	0.1253549
104	0x3de85cbe	0.11345814
105	0x3dd39f58	0.10333127
106	0xbd3ef8a9	-0.04662386
107	0x3c2cd200	0.010548115
108	0xbd6499e3	-0.05581082
109	0xbcc95aa1	-0.024579348
110	0xbd401582	-0.04689551
111	0x3ca40b92	0.020025048
112	0x3ca04f7c	0.019569151
113	0x3d7f98a6	0.062401436
114	0x3deb5272	0.114903346
115	0xbd945387	-0.07242494
116	0x3daad6df	0.08341765
117	0xbbc3ab24	-0.0059713293
118	0xbdcc07fb	-0.0996246
119	0x3bf95392	0.0076088393
120	0x3d0a97dd	0.033836234
121	0x3e2a7093	0.16644506
122	0x3bdc8ceb	0.006730666
123	0xbc6ad1ae	-0.014332218
124	0x3d8944c9	0.06702573
125	0x3d588be9	0.052867804
126	0xbca0d468	-0.019632533
127	0x3de178de	0.11009382
128	0xbc940779	-0.01806997
129	0xbe35fcae	-0.17772171
130	0x3d80527f	0.06265735
131	0x3dd2682d	0.10273776
132	0x3e4bb3d1	0.19892813
133	0xbd183795	-0.037162382
134	0x3bc2e7e9	0.005948056
135	0x3d7e4d76	0.06208559
136	0xbc90ca78	-0.01767467
137	0x3e08d333	0.13361816
138	0xbcada92a	-0.021198828
139	0x3d39c0ce	0.04534989
140	0x3dc80bbf	0.097678654
141	0x3c60ab9f	0.013712793
142	0x3d476f7f	0.048690315
143	0xbddfb6ac	-0.10923514
144	0x3d81b144	0.06332639
145	0xbc861d19	-0.016371297
146	0x3d1d6a46	0.03843143
147	0xbb051390	-0.002030585
148	0x3d88da75	0.06682292
149	0x3df3a655	0.1189696
150	0xbdfd9fb3	-0.12383976
151	0xbd80801d	-0.06274436
152	0x3dbdd388	0.09268862
153	0xbdcf21c3	-0.101138614
154	0xbd8b9b72	-0.06816758
155	0xbd988397	-0.07446974
156	0x3c124a84	0.008928899
157	0xbda66900	-0.08125496
158	0x3d24c9f1	0.04023165
159	0x3d2e736e	0.04259055
160	0x3d84610d	0.064638235
161	0xbbfdd47a	-0.0077462764
162	0xbcd3530a	-0.025796432
163	0xbd62e212	-0.05539138
164	0xbd95b25e	-0.073094115
165	0x3d904173	0.070437334
166	0x3d48deb3	0.049040508
167	0xbd2658a6	-0.040611885
168	0xbd848f39	-0.0647263
169	0x3c6dd3dc	0.014515843
170	0x3d3b50f2	0.045731492
171	0x3dc89ea7	0.097958855
172	0xbdf16760	-0.11787295
173	0x3d29254d	0.04129534
174	0xbdd5ce02	-0.104396835
175	0x3d8f2873	0.06990137
176	0xbe159e4a	-0.14611164
177	0xbde238b4	-0.110459715
178	0xbda3765f	-0.07981562
179	0xbc22c9a4	-0.00993577
180	0x3ce6fad4	0.028195776
181	0xbe3687b3	-0.17825203
182	0x3e229cc8	0.1588012
183	0x3d7bb28e	0.06144958
184	0xbd87cff7	-0.06631463
185	0xbdf05c5b	-0.117363654
186	0xbe1c2513	-0.15248518
187	0xbd61a398	-0.055087656
188	0xbd5dda09	-0.054163013
189	0xbe140288	-0.1445409
190	0xbcb7f627	-0.022456242
191	0xbd2ff5c2	-0.042958982
192	0xbd07e93d	-0.033181418
193	0xbcfd48c1	-0.03091848
194	0xbcba84f8	-0.022768483
195	0x3cd048d5	0.025425354
196	0xbe7a7e14	-0.24462157
197	0xbb01cd1b	-0.001980609
198	0x3d671865	0.05641975
199	0x3dca853d	0.098886944
200	0xbdf2117e	-0.118197426
201	0x3dc3fc56	0.09569614
202	0x3d0e1fcb	0.03469829
203	0x3dda498a	0.10658558
204	0x3c583b99	0.013197803
205	0xbe262c6e	-0.16227886
206	0x3e13d061	0.14434959
207	0xbe67e4ec	-0.2264592
208	0xbdad9e8d	-0.08477507
209	0xbddd1da9	-0.10796673
210	0x3d5b91bb	0.053605776
211	0xbd6bf1f5	-0.057603795
212	0x3c98feb0	0.018676132
213	0x3e2f16ad	0.17098494
214	0xbda8c499	-0.08240623
215	0x3d241145	0.040055532
216	0xbd041bda	-0.032253124
217	0x3d89d033	0.06729164
218	0xbdbc2a3f	-0.09187745
219	0x3df6cca8	0.12050754
220	0xbd0bc6b3	-0.03412504
221	0x3d96fc78	0.07372373
222	0xbd130b20	-0.03589928
223	0x3df55037	0.119781904
224	0xbdf2da58	-0.11858052
225	0xbdfa0bf7	-0.12209313
226	0xbe2a5b18	-0.16636312
227	0xbbfbd4cb	-0.007685279
228	0x3d7cff01	0.06176663
229	0xbcd5744a	-0.026056428
230	0x3daed321	0.085363634
231	0xbde1f228	-0.11032516
232	0xbda4d4bd	-0.08048389
233	0x3d9ca0e7	0.07647877
234	0x3cb83dfb	0.022490492
235	0x3e31067c	0.1728763
236	0xbd49cee8	-0.049269587
237	0xbdb2b16f	-0.08725249
238	0xbd53b116	-0.051682554
239	0x3e1e9c27	0.15489255
240	0xbd9db583	-0.07700636
241	0xbd8798ec	-0.066209644
242	0xbd553511	-0.05205256
243	0xbc971d9d	-0.018446738
244	0xbdd7a40f	-0.105293386
245	0x3e456b55	0.19279225
246	0x3c3e29d7	0.011606655
247	0x3d018233	0.03161831
248	0xbd413fa2	-0.047179826
249	0xbd85bda5	-0.065303124
250	0x3d777b50	0.060420334
251	0x3d0a42c1	0.033755068
252	0x3dc638bb	0.09678789
253	0x3c4e555d	0.012593594
254	0xbd433a22	-0.04766286
255	0xbda77374	-0.08176318

network_body._body_endoder.seq_layers.2.bias f4 [128]
0	0xb982b2b3	-0.00024928674
1	0x3994bd7a	0.0002836993
2	0xbb633f5e	-0.003467522
3	0xbb1197ce	-0.0022215727
4	0x3b39bc0f	0.0028340851
5	0xbb4fa7c1	-0.0031685682
6	0xbb62e9b5	-0.0034624164
7	0x3a415bd8	0.00073760515
8	0xbb233753	-0.0024904802
9	0xb95b4a4d	-0.00020913147
10	0xbb70f824	-0.0036768997
11	0x3904e7a0	0.00012674788
12	0xbb6d6a20	-0.0036226586
13	0x3ae34ad4	0.0017341026
14	0xbb117174	-0.0022192867
15	0xbb618798	-0.0034413096
16	0xbb7b4280	-0.0038339198
17	0xba7e5724	-0.0009702316
18	0xbb2b4bd1	-0.002613772
19	0xbab1bef9	-0.0013560943
20	0x3a581ee0	0.0008244347
21	0xbbc70abd	-0.006074278
22	0xbb7efca5	-0.0038907912
23	0x3b11fefc	0.0022277227
24	0xbb2d66b1	-0.0026458914
25	0xbadade04	-0.0016698246
26	0x3b01aa35	0.001978529
27	0x3ac6d7f2	0.0015170558
28	0xbbf20d0b	-0.0073868087
29	0x3bf332e1	0.0074218367
30	0xbbbb5448	-0.005716834
31	0xbb65ea46	-0.0035082265
32	0x3a8bc854	0.0010664561
33	0xbb770d1b	-0.003769702
34	0xbb4179a3	-0.0029521964
35	0xb9731dfd	-0.00023185457
36	0xba919230	-0.0011106189
37	0x3aba301b	0.001420501
38	0xbb0a1022	-0.0021066745
39	0xbb8660b9	-0.0041008857
40	0xbaa14e29	-0.0012306619
41	0xbb247406	-0.002509357
42	0xbba2f8d9	-0.0049735126
43	0x3b36083d	0.0027775906
44	0xbab6f16d	-0.0013957449
45	0xba3314f6	-0.00068314315
46	0xba4d36e0	-0.00078283064
47	0x3bda6c5c	0.0066657495
48	0xbb9e643f	-0.0048337276
49	0xbb1df7b0	-0.0024103932
50	0x3b44d243	0.0030032552
51	0xbae7be44	-0.0017680605
52	0xba9a0344	-0.0011750241
53	0x391e835f	0.00015116994
54	0xba52d770	-0.0008042967
55	0xbbdc41f2	-0.0067217285
56	0x3a10d6c9	0.00055251695
57	0xbaf0fed2	-0.0018386489
58	0xbad870a1	-0.0016513058
59	0x3a22488c	0.000619062
60	0xb6d9a9f0	-6.4868873e-06
61	0x39fa7cf6	0.0004777682
62	0x3a9aedd1	0.0011820142
63	0xbb6dbd4b	-0.0036276157
64	0xba06ab94	-0.00051372615
65	0xbb0e6136	-0.0021725423
66	0xbab58ce0	-0.0013851188
67	0xba83b275	-0.0010047691
68	0xbb0221e1	-0.001985662
69	0xbb2687db	-0.0025410566
70	0xba8f93ba	-0.001095406
71	0xbab383b3	-0.0013695866
72	0xba5a24dc	-0.00083215325
73	0xba494f43	-0.00076793524
74	0x3bdb7817	0.0066976654
75	0xbb1876d8	-0.0023264196
76	0xba4a670c	-0.00077210437
77	0xbb05b4ee	-0.0020402032
78	0xbb2b37c2	-0.0026125764
79	0xbb18c956	-0.0023313365
80	0x3a8fa1cd	0.0010958255
81	0xb9813139	-0.0002464147
82	0xbbfcb011	-0.0077114184
83	0xbbb22530	-0.005436562
84	0xbb115c4f	-0.0022180264
85	0xbaa8fbf4	-0.0012892471
86	0xbaef233c	-0.0018244754
87	0xba9d86c4	-0.0012018313
88	0xba45b1a4	-0.0007541424
89	0xbb6ec2c6	-0.0036432012
90	0x3a0a900d	0.00052857475
91	0xbaeffbc4	-0.0018309285
92	0xbba1b957	-0.0049354243
93	0xba93f9e1	-0.001128968
94	0xba21bc13	-0.0006169688
95	0x3941c002	0.00018477443
96	0xbb7633b8	-0.0037567448
97	0xbb4ded4e	-0.0031421962
98	0xbad7342b	-0.0016418746
99	0xbb2cf9a1	-0.0026393908
100	0xbb3cf2c5	-0.0028831225
101	0x3ab35290	0.0013681222
102	0xbb48df97	-0.0030650848
103	0xb9632016	-0.0002166036
104	0x3aa29403	0.001240373
105	0xba487d15	-0.0007648033
106	0x3ba83caa	0.005134185
107	0xbaf813d4	-0.0018926808
108	0xbaa7ed5a	-0.0012811825
109	0x3a530eb3	0.00080512016
110	0xbbc4c9ab	-0.006005486
111	0xbb1dcf19	-0.0024079739
112	0xbb1f2f1d	-0.0024289556
113	0x3a10bdd0	0.00055214483
114	0x3a0285b1	0.0004979028
115	0x3b2ecbeb	0.0026671838
116	0xbbcc99a7	-0.0062439027
117	0x3bcb401a	0.00620271
118	0xbb42d215	-0.002972727
119	0xbbd51ccf	-0.0065036784
120	0xbb99a333	-0.0046886443
121	0xba263b25	-0.00063412107
122	0xbc00872b	-0.007844727
123	0xba47c69b	-0.0007620842
124	0xbb407aae	-0.0029369998
125	0xba1f612b	-0.0006079848
126	0xbb2d73eb	-0.0026466798
127	0xba9b4cd9	-0.0011848464

action_model._continuous_distribution.log_sigma f4 [1, 2]
0	0xbcb1e71d	-0.021716649
1	0xbd32f21f	-0.043687936

action_model._continuous_distribution.mu.weight f4 [2, 128]
0	0x3cc1a5c7	0.02363862
1	0x3be2b965	0.0069190734
2	0xbc97fe4a	-0.018553872
3	0xbb8f341c	-0.0043702256
4	0xbc113d8a	-0.00886477
5	0xbc4ecf3f	-0.0126226535
6	0x3ba79ac8	0.005114887
7	0xbd1f9b9d	-0.038966764
8	0xbc5bc9b8	-0.013414793
9	0xbbd63736	-0.0065373434
10	0x38043fe6	3.1530762e-05
11	0x3c6f685e	0.014612285
12	0xbcf88cef	-0.03034064
13	0x3b4fa2fc	0.003168284
14	0x3ae3a3b3	0.0017367512
15	0xbbf5274f	-0.0074814926
16	0x3c557f86	0.013030892
17	0x3d15c715	0.036566813
18	0x3a2d6e20	0.0006615836
19	0x3b011502	0.001969636
20	0xbc53adb7	-0.012919835
21	0x3c62a52f	0.013833328
22	0x3bb00132	0.0053712362
23	0xbbfd6747	-0.007733259
24	0xbb15766d	-0.0022806183
25	0x3b93865f	0.0045021023
26	0x3b58ae38	0.0033062827
27	0xbcd15914	-0.025555171
28	0xbb76e5b8	-0.0037673544
29	0xbcd02c0b	-0.025411626
30	0x3d05dc3b	0.03268073
31	0xbc517da4	-0.012786303
32	0xbc39dac9	-0.011343666
33	0xbc96202f	-0.018325893
34	0xbc2aaae6	-0.010416722
35	0x3b44f5ce	0.0030053738
36	0xbcf4d12d	-0.029884899
37	0xbc9ce980	-0.01915431
38	0x3b8bd71b	0.004267586
39	0xbb299e58	-0.0025881734
40	0xbc006c40	-0.007838309
41	0x3d07cd61	0.03315485
42	0x3bb75452	0.0055947686
43	0x3bbc5f16	0.00574864
44	0xb9051972	-0.00012693348
45	0xbcc3ada7	-0.023886515
46	0xbd1606eb	-0.03662769
47	0xbce53c75	-0.02798293
48	0x3ba75c38	0.005107429
49	0xbb9499d3	-0.004534939
50	0xbcfde298	-0.030991837
51	0x3b672240	0.0035268217
52	0x3c859354	0.016305603
53	0x3c1def3c	0.009639557
54	0x3bf1fc4a	0.0073848115
55	0x3cbbc5dd	0.022921497
56	0xbc25649c	-0.010094788
57	0xbd080608	-0.033208877
58	0x3c164071	0.0091706375
59	0x3cbbc0dd	0.022919113
60	0x3a209058	0.00061250245
61	0xbc0500f6	-0.008117905
62	0x3b4fb322	0.0031692465
63	0x3a817650	0.0009877179
64	0x3cf90668	0.030398563
65	0xbc844cd2	-0.016149912
66	0xbc6b31a9	-0.014355102
67	0xbb6cf4be	-0.003615662
68	0xbbcdff6a	-0.0062865512
69	0x3cc5c269	0.024140554
70	0x3c77c139	0.015121751
71	0xbc2193b9	-0.00986188
72	0xbaa6b9bd	-0.0012720149
73	0x3bf3131e	0.0074180504
74	0x3c31c7c3	0.01085085
75	0xbc828a36	-0.015935045
76	0xbc91ffa5	-0.017822096
77	0xbc25f4cd	-0.010129166
78	0x3d29b00e	0.041427664
79	0xbd0944e9	-0.033512983
80	0xbc7b40f3	-0.015335309
81	0xbb44b13c	-0.0030012866
82	0x3b623aca	0.0034519904
83	0xbbe98c00	-0.007127285
84	0xbbfdf168	-0.007749725
85	0x3a186d9a	0.0005814672
86	0xbb87aaae	-0.0041402197
87	0x3c2c87b0	0.010530397
88	0x3aa29813	0.0012404941
89	0x3bb1ebf4	0.005429739
90	0x3c60203b	0.013679559
91	0x3bb4b330	0.005514525
92	0xbb2a3ac0	-0.002597496
93	0xbb0ae963	-0.0021196238
94	0xbc6d33c3	-0.014477673
95	0x3cc5d0c1	0.024147393
96	0xbc021097	-0.007938526
97	0xbb9ffae8	-0.0048822053
98	0xbc654a5c	-0.013994779
99	0xbc521ab8	-0.012823753
100	0xba372331	-0.000698614
101	0x3cbfadf1	0.023398371
102	0x3c438307	0.011933095
103	0x3c8b89e3	0.017033523
104	0x3d05c0ba	0.0326545
105	0x3ae2165c	0.0017249095
106	0xbb4cccb5	-0.0031249945
107	0xbaffe221	-0.0019522348
108	0x3c0bd6f8	0.008535139
109	0xbd087707	-0.03331664
110	0xbc359481	-0.011082769
111	0x3c8de4c1	0.017320992
112	0x3c093974	0.008375514
113	0x3d239a8a	0.0399423
114	0x3c908053	0.017639315
115	0x3c36a173	0.011146891
116	0xbcbdf186	-0.023186456
117	0x3a105d94	0.0005507108
118	0x3ba8ea8f	0.0051549147
119	0xba2efe8d	-0.0006675504
120	0x3a641320	0.00087003596
121	0xbcdfc6b0	-0.027316421
122	0x3b176a4f	0.0023104136
123	0xbc30a303	-0.0107810525
124	0xbc20c7db	-0.009813274
125	0x3c749fd1	0.014930681
126	0xbbc5b8dd	-0.0060340003
127	0xbc8927a0	-0.016742527
128	0x3c0303b4	0.007996488
129	0xbc0e1b07	-0.008673436
130	0xbbb89590	-0.0056330636
131	0x3c21ab60	0.009867519
132	0x3c2a536a	0.010395864
133	0x3cd1b9b9	0.025601255
134	0xba7054a5	-0.00091678865
135	0xbc06e52d	-0.008233351
136	0x3c868bea	0.016424138
137	0x3ca15fb9	0.019698964
138	0xbaa90950	-0.0012896452
139	0xbc4e8b83	-0.012606504
140	0x3b402d85	0.0029324007
141	0xbc470678	-0.012147538
142	0x3c353593	0.011060136
143	0xbcb2a3b1	-0.02180657
144	0xbc615cb3	-0.013755011
145	0x3cd690fd	0.026192183
146	0x39133bd5	0.00014041302
147	0xbbfe3b4a	-0.0077585327
148	0xbb91c528	-0.0044485517
149	0x3b91aedf	0.004445895
150	0xbc17f38a	-0.009274373
151	0xbbdbf2ad	-0.006712279
152	0x3cd5dbef	0.02610585
153	0x3c9f87ab	0.019473871
154	0xbb9d5ca4	-0.0048023034
155	0x3ce5bb9d	0.028043563
156	0xbc679e90	-0.014136925
157	0x3cd5b158	0.02608554
158	0x3c015e5d	0.007896033
159	0xbc6061dc	-0.0136952065
160	0x3c6027d7	0.013681374
161	0x3b1ce5cc	0.002394068
162	0x3c854a08	0.016270652
163	0xbc9f9a58	-0.019482777
164	0xbca2dc75	-0.019880513
165	0xbc655c90	-0.013999119
166	0xbcac2670	-0.021014422
167	0x3c86ad6e	0.01644012
168	0x3be86788	0.00709242
169	0x3bdc5c35	0.006724859
170	0xbc1d8534	-0.009614278
171	0xbb2653d8	-0.0025379565
172	0x3d0b7edd	0.034056533
173	0x3c354319	0.011063361
174	0xbc148f88	-0.009067424
175	0x3af7babf	0.0018900259
176	0xbb509566	-0.003182733
177	0x3d0b9297	0.034075346
178	0x3b867383	0.0041031255
179	0xbbbd2688	-0.0057724155
180	0x3bb2b2a1	0.005453423
181	0xbcf3d9b0	-0.029766887
182	0xbbfc1f46	-0.007694158
183	0x3b2b0cb9	0.0026100113
184	0x3c7e6127	0.015526093
185	0x3abf7689	0.001460747
186	0x3c0cf125	0.008602415
187	0xbca5e10d	-0.020248914
188	0x3bfbb061	0.007680938
189	0xbbfd8b6d	-0.007737568
190	0xbc51cad5	-0.012804707
191	0xbc24d6c1	-0.010060967
192	0x3cda01e3	0.026612228
193	0x3cd91967	0.02650137
194	0xbcb8c3e3	-0.022554344
195	0xbcd978f8	-0.02654694
196	0xbc0be57f	-0.008538603
197	0x3a0360f6	0.0005011702
198	0x3c74f6b9	0.014951401
199	0xbb6c98d5	-0.0036101837
200	0xbc867818	-0.016414687
201	0x3bcacb0b	0.0061887554
202	0xbb99271f	-0.004673853
203	0xba51d0e1	-0.00080038427
204	0x3c3bb403	0.011456492
205	0xbb4203ef	-0.0029604395
206	0xbb38f9ff	-0.002822518
207	0xbc824dce	-0.01590624
208	0xbc2f3da0	-0.010695845
209	0xbd306159	-0.043061588
210	0x3c703760	0.01466164
211	0xb9600acc	-0.00021366327
212	0x3c99406c	0.018707477
213	0x3c4fffbd	0.01269525
214	0xbcd9f364	-0.026605316
215	0x3bdfeb47	0.006833467
216	0x3cc57306	0.024102699
217	0xbc0bd3db	-0.008534397
218	0x3d01e9d4	0.031717137
219	0xbbbf5c9b	-0.005839897
220	0x3bf7d609	0.007563357
221	0x3c5aaa4b	0.013346265
222	0x3c5d80ca	0.013519475
223	0x3bde6cf2	0.0067878896
224	0x3bbdaa20	0.0057881027
225	0xbc5b2368	-0.013375141
226	0xbcc1914a	-0.02362885
227	0x3c457477	0.012051693
228	0x3c298933	0.010347652
229	0x3c327a5a	0.010893429
230	0x3cb14d0d	0.021643186
231	0xbbce1e43	-0.0062902286
232	0xba7e5d36	-0.00097032206
233	0x3d2f8404	0.04285051
234	0xbc649122	-0.013950618
235	0xbc2aa57c	-0.010415431
236	0x3d0d9d77	0.034574
237	0x3ca2a8d8	0.019855902
238	0x3ba2bbee	0.0049662506
239	0x3cde4ee5	0.02713723
240	0x3c654344	0.013993088
241	0x3ce7ef1f	0.028312264
242	0x3c3409db	0.010988678
243	0x3d2909bb	0.041269045
244	0xbc73ba11	-0.014875905
245	0x3c1e9d8f	0.00968112
246	0xbb7891b8	-0.0037928652
247	0x3c82293e	0.015888806
248	0xbbef49b7	-0.0073024887
249	0x3bb4e644	0.005520614
250	0xbbddeb35	-0.0067724236
251	0xbcf01f25	-0.029311726
252	0x3a7c7cad	0.0009631615
253	0x3c352860	0.011056989
254	0xbbdb6df2	-0.006696456
255	0x3a5f1a20	0.0008510668

action_model._continuous_distribution.mu.bias f4 [2]
0	0x3a8df81b	0.0010831387
1	0xba42ca23	-0.00074306334
