GameAI3/Config/results/dwarf_2/Dwarf/Dwarf-499972.onnx (onnx, 96564 bytes, 7 tensors)

network_body._body_endoder.seq_layers.0.weight f4 [128, 53]
000000 1a 33 90 bd 69 19 dc 3d 3f ea 1d bd 79 72 2c 3a
       -0.07040997 0.10747034 -0.038553473 0.0006578337
000010 52 35 4c 3d 80 8b c3 3d d2 0c 96 bb e0 7f a1 3d
       0.049855538 0.09548092 -0.004579165 0.07885718
000020 2e 16 bc 3d 41 e4 d9 bd 54 e8 f4 3d 7b 75 2d 3e
       0.09183918 -0.10639239 0.119583756 0.16939346
000030 52 0f 2f be e7 d3 f8 3d f5 c9 17 bd f6 22 9d 3d
       -0.17095688 0.12149792 -0.037057836 0.07672684
000040 f6 82 06 bd ab fa a4 3b 63 43 4d 3e 68 b7 1b bd
       -0.032839738 0.0050347648 0.20045237 -0.038016707
000050 0f a7 a6 3d e9 7a f2 3d c7 3b c6 3d ad 0b 99 3e
       0.08137333 0.118398495 0.096793704 0.2989172
000060 72 e2 b2 3e 9a 87 77 3d 8b e4 6f 3e 99 65 23 be
       0.3493839 0.060432054 0.23427026 -0.15956725
000070 e6 78 83 3e af 23 81 3e cd 7c dc 3d 65 7c 84 3d
       0.25678176 0.25222537 0.10765991 0.06469039
000080 f9 71 95 bc 77 ba 28 bd 15 59 84 3d f8 51 49 3d
       -0.018242823 -0.04119345 0.064623035 0.049150437
000090 c2 7c a0 be cc e1 b6 3d e3 38 b9 bd 09 71 80 3e
       -0.31345183 0.08929786 -0.090440534 0.2508624
0000a0 78 76 97 bd 24 d7 a6 3c 81 48 ec 3d f6 96 9c 3d
       -0.07395643 0.020366259 0.115372665 0.07645981
0000b0 55 44 c4 bc d2 bd 4e be 23 4c 26 be 1d db 37 be
       -0.023958365 -0.20189598 -0.16239981 -0.17954679
0000c0 0b 52 3a 3d b6 10 d2 3d 2a 21 56 3e 40 40 4a be
       0.0454884 0.102570936 0.20911089 -0.19751072
0000d0 50 02 ab bd 9e dc 16 3e c3 ee 64 3c ca e5 b1 bc
       -0.083500504 0.14732596 0.013972941 -0.021716017
0000e0 74 ee 77 be 72 5b 2f 3e cb f1 11 be c6 3b 56 be
       -0.24212056 0.17124727 -0.14252393 -0.2092124
0000f0 c6 f7 f0 be e2 b4 01 3d e3 44 04 bc 24 3b 5f 3b
       -0.47064036 0.031666644 -0.0080730645 0.003406235
000100 1d b3 a4 bd 52 8d 4b be 55 e0 19 be 21 8f e4 bd
       -0.08041976 -0.19878128 -0.15026982 -0.11160112
000110 b8 17 e9 bd 0f 9e 14 bd e2 42 da bd ce b3 62 be
       -0.11381477 -0.03628355 -0.10657288 -0.22138903
000120 c6 2c 8b 3c 6f 5c c2 3c 59 78 c1 3c 78 b9 8b 3d
       0.016989123 0.023725716 0.023616957 0.06822485
000130 f7 46 38 be 42 f6 2d 3e 18 dc d1 bd 99 78 57 3d
       -0.17995821 0.16988471 -0.10247058 0.052605245
000140 98 05 1b bd f9 dc 08 3e 76 78 e1 bd 7f 27 60 3e
       -0.03784713 0.13365544 -0.11009304 0.21890067
000150 b2 84 b6 3d 94 0b 9f bb c3 bf 61 bd 55 3d 96 3c
       0.08912028 -0.004853675 -0.05511452 0.018339792
000160 30 8c a9 bd d5 8e d5 3d b8 f1 41 bd e0 5d 0f 3e
       -0.08278692 0.10427634 -0.04734966 0.14000654
000170 f8 4e 03 3e 1f 2e 3b 3e ab 59 fe 3d e9 b2 1e 3e
       0.12823093 0.18279313 0.124194466 0.15497936
000180 4d 7e c6 3b 2e 29 b5 3c fc 43 da 3d b1 8b e6 bd
       0.0060575367 0.022114363 0.10657498 -0.11257113
000190 92 6f 14 3d 91 0d ce 3d 2f 26 3c 3e f7 93 52 be
       0.036239214 0.10061181 0.18373941 -0.20564257
0001a0 de c3 9c 3d a2 a0 45 3e 8f ab 37 3d 35 a7 24 bd
       0.07654546 0.19299558 0.044841345 -0.040198524
0001b0 e0 77 1f be be d6 67 bd 12 10 0a bd 47 39 ac bd
       -0.15573072 -0.05660128 -0.033706732 -0.08409362
0001c0 27 f6 4a 3e d1 e1 83 bd 13 90 dd 3c 57 69 5f bd
       0.19820462 -0.064395554 0.027046239 -0.05454382
0001d0 5b 73 3e be 34 ea 1d 3e e9 14 c1 bb aa 65 b6 3d
       -0.18598692 0.15421373 -0.0058923853 0.0890611
0001e0 eb 9b 41 3b fc f1 84 3c db 32 57 3c 40 bf a1 3e
       0.0029542397 0.016228668 0.0131346835 0.31591225
0001f0 b0 90 87 3e fa ab a1 3e 8e d9 b7 bd 78 16 0a be
       0.26477575 0.3157652 -0.08977042 -0.13485134
000200 c0 9d ee 3c 83 f1 4a 3e 4f 31 b4 bd 82 06 97 3e
       0.029127955 0.19818692 -0.08798467 0.29497153
000210 94 4d 11 3d bc e6 f4 3d 9a a4 d1 3d 0d 67 a2 bd
       0.035474375 0.119580716 0.102364734 -0.079298116
000220 0e d1 c5 3d d8 a1 1a bd 55 10 42 bd 46 ce d7 bd
       0.09659015 -0.037752002 -0.047378857 -0.105373904
000230 8d cf d7 bd 13 51 2c be ef e2 88 bd d6 95 0e be
       -0.10537634 -0.16827802 -0.06683909 -0.13924345
000240 c0 77 93 bd b3 f3 bc 3c fe 3e 7e be 75 8d 84 be
       -0.07200575 0.023065424 -0.24828717 -0.25889173
000250 81 96 fc 3d c3 a8 9c 3d 9f 35 2b 3e 3d ca 96 3d
       0.12333394 0.07649376 0.16719674 0.07362793
000260 3b 65 86 3b b3 93 f2 bd 10 de 9c 3d 7b 29 dc 3d
       0.004101423 -0.11844578 0.076595426 0.10750099
000270 38 e7 1b 3e 60 04 86 3d 1c 7a 3e 3d c4 9d d2 bd
       0.15224922 0.06543803 0.04650317 -0.10283998
000280 b7 3c 14 3a f9 83 ac bd 43 a2 2c bd a9 c6 fc 3d
       0.0005654799 -0.08423609 -0.042146932 0.12342579
000290 03 e8 aa 3e 8e 18 7b bc 3f d3 70 bc 6f 85 7c bd
       0.33380136 -0.0153256785 -0.0146988025 -0.06165069
0002a0 07 52 24 be 50 6a 5d bd f4 11 af 3d 07 be d0 be
       -0.16046916 -0.054056466 0.08548346 -0.4076998
0002b0 c1 e5 ff bd c7 dc 46 3d 5f 2b 71 bd 35 ec 02 be
       -0.12494994 0.048550393 -0.058879253 -0.12785418
0002c0 d2 08 4c be be a9 93 3e a8 74 5e 3e 2c b2 7d 3e
       -0.1992524 0.2884044 0.21724188 0.24774998
0002d0 3d 9f 35 3e a4 12 45 3d ae 87 6e be de 1c cc 3d
       0.17736526 0.04811348 -0.23293945 0.099664435
0002e0 a3 dc 4e 3d ad 77 e6 3d ad b0 db 3d 96 eb 07 be
       0.050503384 0.11253295 0.107270576 -0.13273463
0002f0 c0 80 e8 bc d4 6a 53 3e 9e 39 02 3e 47 69 03 bd
       -0.028381705 0.2064622 0.12717292 -0.032082822
000300 f8 48 ee bd c7 c5 ca bb 33 60 1f be e7 b5 c6 bd
       -0.116350114 -0.0061881277 -0.15564041 -0.09702664
000310 73 65 11 be d8 6d d7 3d 88 7a a4 bd 17 21 9f 3e
       -0.14198856 0.10518998 -0.080311835 0.31079933
000320 91 e8 33 3c d0 7c 84 3d ab 79 11 be 31 bf 5f bc
       0.010980741 0.064691186 -0.14206569 -0.013656423
000330 bc 49 8c 3d da ef b3 bb 99 ae 4c bd f7 d8 db 3c
       0.06850001 -0.005491239 -0.049971197 0.026836855
000340 ed 9d 78 bd 5b 42 2e 3e cd 50 1d bd 36 a2 a7 bd
       -0.060697485 0.170175 -0.038407136 -0.08185236
000350 b2 42 8c 3c 7b 01 12 be af c0 d7 bd 00 81 a7 3d
       0.017121647 -0.14258377 -0.10534798 0.08178902
000360 ef cc f1 bd ab 56 11 be 16 b4 a4 3d 89 29 d3 bc
       -0.11806666 -0.14193217 0.08042161 -0.025776641
000370 ea ee 00 be 8b d1 f6 3d 40 c3 86 3e 15 f8 b9 bd
       -0.12591138 0.12051686 0.2632084 -0.09080521
000380 46 2c 18 be 1a ec 26 3e 72 5a 34 be 2c 2d 05 be
       -0.14860639 0.16301003 -0.17612627 -0.13005513
000390 08 34 c4 3d 5d 4a c6 3d 6a 07 a7 3e 41 2b 3b be
       0.09580237 0.096821524 0.32622844 -0.18278219
0003a0 b4 41 48 3e ed 0b 4e bd 7d a7 0b 3e 72 25 ef 3c
       0.19556314 -0.050304342 0.1363811 0.02919266
0003b0 1e 23 fb 3d 7e 7a cd bc 72 50 8b 3e ae f3 14 3e
       0.122625574 -0.025082823 0.27209812 0.14546081
0003c0 75 d7 6b bc 6a d1 1a 3d 9d b1 75 be 21 c2 10 3d
       -0.014394631 0.03779737 -0.23993535 0.035341386
0003d0 03 e2 e1 3b ae 65 dc 3c dc be 09 be 14 b3 d3 bd
       0.006893398 0.026903953 -0.13451713 -0.10336891
0003e0 23 8e fe 3d 30 a7 d7 3d 43 e4 a9 3d 2c 1b 44 be
       0.12429454 0.10529935 0.082954906 -0.1915099
0003f0 27 da ab bd f4 20 49 3d 7b c3 ac 3e 36 5b 03 be
       -0.08391219 0.049103692 0.3374289 -0.12827763

network_body._body_endoder.seq_layers.0.bias f4 [128]
000000 98 96 62 3b de f7 2b 3c 28 68 20 3c 50 83 86 3c
       0.0034574624 0.010496108 0.009790458 0.016420037
000010 06 75 8c bb 29 d4 2c bc c9 08 39 bc af f1 38 bc
       -0.004286411 -0.01054863 -0.011293598 -0.011288091
000020 f5 a5 f7 bc 95 74 e9 bb 57 f5 69 bc 71 1d 46 ba
       -0.030230502 -0.0071244934 -0.014279685 -0.00075574877
000030 7b 48 e0 3b 6a c1 bf bb b7 da 40 3c e2 04 e9 bb
       0.006844578 -0.005851914 0.011770896 -0.007111178
000040 f7 f0 c3 ba 5e 16 15 bc 63 f0 99 ba d7 e0 87 39
       -0.0014949132 -0.009099571 -0.0011744614 0.00025916725
000050 8c 34 0a bd 20 35 7a bc 81 6d af 3b 9a 14 8b bc
       -0.03374152 -0.015271455 0.00535363 -0.016977597
000060 4a f9 1c 3a 2d e7 00 bb d0 72 a8 bb d3 76 02 3a
       0.00059880747 -0.0019669042 -0.00514064 0.00049768126
000070 60 61 b5 bb a4 c0 06 bc cc fc d7 bb 0b 91 5b 3c
       -0.0055352896 -0.00822464 -0.006591415 0.01340128
000080 78 53 c3 bc 4a 5b 79 bc 1d 95 7c bc 7f 5c fa bb
       -0.023843512 -0.015219519 -0.015416411 -0.007640421
000090 74 65 67 bc 11 b3 14 3c e0 50 a9 bc cc d5 a7 ba
       -0.014123309 0.009075896 -0.020668447 -0.0012804805
0000a0 d1 71 5b 3b 68 02 af bc 8c 1c 4d bb 3a fe 78 bc
       0.0033484588 -0.021363452 -0.0031297533 -0.015197331
0000b0 4c dc 8d bc 6e cc 55 bc 82 ce e2 bb ee 1a d4 bc
       -0.01731696 -0.013049228 -0.0069215903 -0.025891747
0000c0 61 88 b1 bb 9e a1 98 bc 93 dc 24 3c 6e c3 82 bb
       -0.005417869 -0.018631753 0.010062355 -0.003990582
0000d0 28 97 e3 ba b8 01 9e 37 2a 27 79 bc 97 d6 15 bb
       -0.0017363774 1.8835868e-05 -0.015207091 -0.0022863501
0000e0 28 01 4b bc 2d 19 b3 bb 5d bd e8 bb c9 88 b0 bc
       -0.012390412 -0.0054656477 -0.007102652 -0.0215496
0000f0 83 dc 07 bd 08 26 85 bb 24 58 75 bc c4 2b 64 bc
       -0.03316928 -0.0040633716 -0.014974628 -0.01392645
000100 e9 8f 61 bc dc 04 18 3c 7a 90 9c bb f8 ea 29 bc
       -0.013767221 0.009278502 -0.004777965 -0.010370962
000110 a1 85 b5 3b 6c 8a af bb bc b6 d8 bb 4c 54 a8 bb
       0.0055396114 -0.0053570773 -0.0066135805 -0.005137002
000120 1a 1c c8 bb bf f5 7c 3c 81 b1 0c bb 19 28 ad 3c
       -0.0061068656 0.01543945 -0.0021468105 0.021137284
000130 72 85 97 bc 8b 23 c2 bc 0e 0c be 3b 05 c2 1d 3d
       -0.018496249 -0.023698589 0.005799777 0.03851511
000140 f7 73 ca ba 65 2b d8 bc 36 b8 bf 3c df 6a 17 bc
       -0.0015445937 -0.02638788 0.023403268 -0.009241789
000150 8e 42 db bc 90 b8 2c bc d8 f1 23 3b b1 09 fd bb
       -0.026765134 -0.01054205 0.0025015976 -0.0077221026
000160 72 8e f0 bb 87 4c 81 3b 5b 2b 32 bb 5e d4 ba ba
       -0.0073411996 0.0039458903 -0.0027186486 -0.0014253964
000170 5e d8 a2 3b e8 87 fd bb 33 d7 a3 bc f8 af 9e ba
       0.0049696406 -0.0077371486 -0.020000076 -0.0012106886
000180 97 70 cf 3a 6f 4d 5e 3a aa 97 b8 bc 41 7a 77 bc
       0.0015826401 0.00084801664 -0.022533257 -0.015104831
000190 b4 21 1d 3c fa fa 0e bc c7 93 ff bb a9 e2 9f bc
       0.009590555 -0.00872683 -0.007799599 -0.01951726
0001a0 e1 f1 81 bc b8 9c e1 3b 5a 5e 22 bc ec 40 85 ba
       -0.015862407 0.0068851374 -0.0099101905 -0.0010166443
0001b0 1a ea b8 3a 42 97 91 bb 48 99 eb bb d1 de 79 bb
       0.0014107854 -0.00444308 -0.0071899034 -0.0038127194
0001c0 a2 b4 38 ba 6e 2e e9 bb 05 47 15 bc 2b c8 5b 3b
       -0.00070459594 -0.0071161306 -0.009111171 0.0033536057
0001d0 d7 44 ca bc 5f d5 af bc b8 8d 08 3c 2c 09 b3 3b
       -0.024691029 -0.021464048 0.00833457 0.00546374
0001e0 23 ac 4e 3c 2c c9 d7 bb 30 c7 60 3c ff fb 37 3c
       0.012614283 -0.006585261 0.013719365 0.011229514
0001f0 a3 79 48 bc 52 0a c3 3c bb 0e 0f bc d1 63 a5 3c
       -0.012236032 0.023808632 -0.008731539 0.020189198

network_body._body_endoder.seq_layers.2.weight f4 [128, 128]
000000 a5 0c 96 bd e7 06 7a bc c5 6e 47 3e 8f d8 fb bb
       -0.073266305 -0.015260435 0.19475849 -0.007685728
000010 55 80 01 be fd 5f 26 3c dd 1a 7c 3d 3d c4 40 bd
       -0.12646611 0.010154721 0.061549056 -0.047062147
000020 42 eb 97 bd 33 73 26 3c c5 da 52 3b 0d 4b 9a bc
       -0.07417919 0.010159302 0.0032173854 -0.018834615
000030 d4 d8 40 3d 13 c6 c5 bd 05 f6 6b bd 8c 34 9c 3d
       0.047081783 -0.0965692 -0.05760767 0.0762721
000040 11 7a 6e bd 8b f4 73 bd 03 04 2c 3c 1b 69 75 3d
       -0.05822188 -0.059559386 0.010499003 0.05991469
000050 8a 0f 72 bd 15 54 3d bd 91 74 0b bc 74 33 61 3d
       -0.05909685 -0.046222765 -0.008511678 0.05498071
000060 e5 54 23 be c5 e6 13 bb 61 dd 21 be c0 03 39 3d
       -0.15950353 -0.002256797 -0.15807106 0.045169592
000070 14 a5 2e 3e b5 7f 47 bd 2e ac 5e bd af 45 83 ba
       0.1705516 -0.048705775 -0.054363422 -0.0010015274
000080 09 d1 b4 bd eb 47 8c bc 5c 80 33 3d 5e 06 23 be
       -0.08828933 -0.017124137 0.043823585 -0.15920398
000090 ee 89 8f bd 64 5d a5 bd 58 aa 4b 3c 02 31 5d bc
       -0.0700873 -0.080744535 0.01243075 -0.013500454
0000a0 64 91 a4 3d a3 65 0d 3d bd c7 c8 3d a6 27 48 be
       0.080355436 0.034520756 0.09803722 -0.19546375
0000b0 7c 59 96 3c ff 13 a6 bd fc 0c e3 3b 67 bc 59 3e
       0.018353216 -0.08109283 0.006929038 0.21263276
0000c0 c8 4b 28 3d 60 9d 95 bd 12 51 1b ba 5f 8e a2 bd
       0.041087896 -0.073054075 -0.0005924861 -0.079373114
0000d0 be 28 e7 3d 82 19 c8 38 a2 31 a0 3d 38 9a 95 3c
       0.11287068 9.5414944e-05 0.07821967 0.018262014
0000e0 2f 7f 06 3e ea 33 df bb 26 45 95 3d 1e eb 34 3d
       0.13134454 -0.0068116086 0.0728858 0.044169538
0000f0 53 65 8c bd 46 15 5c bd 49 51 84 be f2 43 fa 3b
       -0.068552636 -0.053731225 -0.25843266 0.0076374942
000100 e1 80 0b 3d 23 89 2e bd e6 93 a9 bc 65 bf c6 3c
       0.034058455 -0.042611253 -0.020700406 0.024261186
000110 d2 62 cf bc 15 08 69 bc 1f 04 8f bd 87 e3 c4 ba
       -0.025315676 -0.014223118 -0.06983208 -0.0015021422
000120 e9 70 40 3e 47 47 2a 3c 63 2d 47 3d 35 30 32 3d
       0.18793072 0.01039297 0.04862727 0.043503005
000130 64 a9 e6 3d f8 2d 32 bc 93 2e aa 3c b7 d4 8f 3d
       0.112627774 -0.010875218 0.020774161 0.07022994
000140 3b 9d 98 3d 8d 7d 9e bd f9 24 0a be bc 3e ff 3d
       0.07451864 -0.07738791 -0.13490666 0.124631375
000150 dd fa 32 bb 4f be de 3b 2d 03 90 bd 57 63 fd 3d
       -0.002731017 0.006797589 -0.07031856 0.12372463
000160 3c b5 cb 3d ad df 4b 3d 54 84 72 3b 39 c1 aa bd
       0.09946677 0.04977386 0.0037005143 -0.083376355
000170 14 38 3c bd 51 44 a4 3b 29 0f 07 be ba 29 01 bd
       -0.045951918 0.0050130268 -0.13189377 -0.031533934
000180 47 fc 3f 3e e4 4a 8b bd 82 aa 14 3c b4 58 48 3d
       0.1874858 -0.06801394 0.009073855 0.04891272
000190 b0 ab 0e bd 69 b4 e4 bd e1 68 85 3b 55 b1 49 bd
       -0.034831703 -0.11167223 0.0040713404 -0.049241383
0001a0 4e 17 86 bd 6a a8 ef 3d cc 87 84 bd eb 49 d8 3d
       -0.06547414 0.11702044 -0.06471214 0.10560974
0001b0 bf ae a1 3d ee be 56 3e b6 13 44 3b c2 38 27 bc
       0.07894658 0.20971271 0.0029918975 -0.010206403
0001c0 25 c2 7c 3d 1b 6a e1 bd 17 04 62 3e a2 7b 84 bd
       0.06170859 -0.11006566 0.22071873 -0.064688936
0001d0 ce ba 8c 3c a4 bf 3e 3d 4c 4b c8 bd ae 60 7e bb
       0.01717892 0.04656948 -0.09779987 -0.003881495
0001e0 d7 39 c3 bc fc 9a c5 3c 75 42 04 3d c8 7f cb bc
       -0.023831291 0.024121754 0.03228994 -0.024841204
0001f0 70 4a 91 bd da d2 74 bd 8c d9 d3 bb 57 63 42 3d
       -0.07094276 -0.059771396 -0.0064651426 0.04745802
000200 99 c2 e9 3b 58 f5 16 bd 70 64 98 3d f4 1b 95 bc
       0.0071337936 -0.03685507 0.07441032 -0.018201806
000210 b8 ea d8 3c d5 f8 6b 3d b5 9e 93 3d 94 cb 8c 3e
       0.02647911 0.05761035 0.07208005 0.27499068
000220 70 b3 76 bd be 2c 22 3e 33 21 85 bd a5 dd 4d bd
       -0.06022972 0.1583738 -0.06500473 -0.050260205
000230 f6 70 94 bd 19 42 d2 3d b7 cf 51 3d 82 0f 99 3c
       -0.07248108 0.102665134 0.051223483 0.018684153
000240 ac c8 d1 bd 99 ce 59 bd d7 3d c9 bd f3 fa af bd
       -0.10243353 -0.053175543 -0.09826248 -0.08592787
000250 8d e4 0f 3e 22 16 f8 bd b4 8a 3d 3c 3c d5 f1 3d
       0.14052029 -0.121135965 0.011568714 0.11808249
000260 f3 27 65 bd da 38 57 bc 92 5f 9d bd 6a b2 88 3d
       -0.0559463 -0.013136113 -0.07684244 0.06674655
000270 de dc 57 3d bd ae 35 be 0c 87 39 bd 4c 37 2c 3e
       0.05270087 -0.17742439 -0.045294806 0.16817969
000280 ec 1c 33 be 1f 41 85 bd 4c 1e 4d bc c6 a7 09 be
       -0.17491502 -0.065065615 -0.01251943 -0.13442907
000290 f1 f0 01 3e 28 9b 9d bd 65 2a 56 bd 37 75 d1 3d
       0.12689568 -0.07695609 -0.052286524 0.10227435
0002a0 eb 45 fe 3d a9 e2 1f bd a4 cc 80 3d 54 d6 cb 3d
       0.124156795 -0.03903452 0.06289032 0.09952989
0002b0 7f 19 ce bc 2c 1e 54 3e a6 b8 0e bd 8f 49 3f 3d
       -0.025158642 0.20714635 -0.034844063 0.04670101
0002c0 7d 4e 09 be 7d 6d ce bc e4 0d 8f 3e 8e f3 37 bd
       -0.13408847 -0.025198692 0.27940285 -0.044910006
0002d0 91 87 37 3d 07 37 eb bd a9 28 aa 3d 7f 90 c7 bd
       0.04480702 -0.11485105 0.083085366 -0.09744357
0002e0 61 96 8c b9 46 5d d9 3d 5e 4d 64 bd 47 dd 10 be
       -0.00026814922 0.106134936 -0.055737846 -0.1414691
0002f0 5b a8 46 3e 4a e6 a1 bd 96 49 2b 3d 53 a9 87 3d
       0.1940016 -0.07905252 0.041818224 0.06624093
000300 a9 88 12 bd 5d 51 ed bc d0 fd 23 be e9 18 31 3e
       -0.03577486 -0.028969461 -0.1601479 0.17294659
000310 c0 82 c1 3d 3a 00 de bd 97 43 1f 3d 22 c7 c3 3d
       0.09448767 -0.10839887 0.038882818 0.09559466
000320 c5 1e ce bd 69 fb 95 bb ed 31 cd 3d 89 ef 17 bd
       -0.100644626 -0.0045770896 0.10019288 -0.037093673
000330 69 21 c2 bd 75 c9 02 bb 09 20 1a bd a9 bb 0a 3d
       -0.09479029 -0.0019956504 -0.037628207 0.033870373
000340 d3 59 17 3e 91 b6 87 bd 44 e9 0e 3c 37 27 f9 bb
       0.14780359 -0.06626619 0.008722607 -0.0076035517
000350 a0 15 59 3d 53 a4 e4 bd 21 60 cd 3d f9 43 14 bd
       0.05299914 -0.11164155 0.10028101 -0.036197636
000360 07 b0 e9 3c 95 17 57 bd 5d fd b6 bc 85 38 96 3d
       0.02852632 -0.052512724 -0.02233761 0.07334999
000370 95 26 21 3d 51 cf 01 bd 6c 5a b0 bd 1c ee 9f bd
       0.039343435 -0.031691853 -0.086109966 -0.07809088
000380 9a c9 91 3c 56 12 e9 bd 21 b1 40 be 04 d8 32 bd
       0.017796326 -0.113804504 -0.1881757 -0.04366304
000390 07 c3 6d 3d 4f 24 9d 3d 2d c0 f8 bc fc 4d b1 bd
       0.05804732 0.07672941 -0.030365074 -0.086574525
0003a0 02 43 c3 bc 05 77 23 3d bd 2b cd 3d 67 95 ce bc
       -0.023835663 0.039908428 0.10018108 -0.025217725
0003b0 92 7d a9 3d 90 38 20 3e 7b 34 fc 3c ab 93 d9 bc
       0.08275904 0.15646577 0.030786743 -0.026559671
0003c0 b1 16 b8 3b a3 0a 00 be 6e 24 e0 3d 09 f8 c9 3d
       0.0056179394 -0.12504058 0.109444484 0.09861762
0003d0 53 ae 1b bd c2 eb 35 bc d5 b6 dd 3c 02 4b 8b 3d
       -0.038008045 -0.011103572 0.02706472 0.06801416
0003e0 3f 03 2c bd 4b 88 79 bd 7b 68 91 bd cd 55 0c bd
       -0.041995283 -0.060920995 -0.07100006 -0.034261514
0003f0 49 95 51 be 20 7c 12 3d f9 c7 c0 3d 21 36 52 be
       -0.20467104 0.035762906 0.09413142 -0.20528461

network_body._body_endoder.seq_layers.2.bias f4 [128]
000000 de d2 24 3b d6 99 57 bc be 23 f4 bb 7d c3 86 3c
       0.00251501 -0.013159236 -0.00745055 0.016450638
000010 b5 0e a5 bb fb 56 fc bb 87 7b c3 bb 8f b8 82 39
       -0.0050371536 -0.0077007986 -0.0059656533 0.0002493304
000020 a7 3a 2a bc c8 f6 65 3b d8 61 a4 3b fe 5a e6 bb
       -0.01038996 0.003508972 0.0050165467 -0.00702989
000030 f4 b7 98 3b c1 79 55 bc 47 7f 68 b8 ba 39 bb bb
       0.004660601 -0.013029517 -5.5431647e-05 -0.0057136687
000040 aa 07 39 3a ab df 3e 3b b8 e8 e3 bb 97 3e d3 bc
       0.0007058332 0.0029125016 -0.0069552325 -0.025786681
000050 ff 09 23 bc b5 33 4a bc 87 cd 19 bb 3e a2 02 bb
       -0.009951114 -0.0123414295 -0.002346845 -0.001993313
000060 58 5b 4c 3c 2b 2c 12 bc e8 49 4e bb 4c c8 58 3b
       0.01247295 -0.008921663 -0.0031477157 0.003307837
000070 d5 47 b8 bb bd e8 90 bb 13 53 3a bc 72 ea 31 bc
       -0.0056237974 -0.004422276 -0.0113723455 -0.010859119
000080 97 b3 9e bb e4 84 07 bc 2f 42 97 3c 91 bd 40 bb
       -0.004843186 -0.00827143 0.018464176 -0.0029409865
000090 e6 e7 49 bb 39 6e 84 bb be 79 11 3c d3 b8 4b 3b
       -0.0030808388 -0.00404146 0.008879123 0.0031085506
0000a0 8c 42 10 3b d7 b7 03 bc 57 72 d4 b9 09 d3 c1 bb
       0.0022012321 -0.008039436 -0.0004052098 -0.00591505
0000b0 b2 42 20 bc dc ce 73 bb 6c 0d b1 bb 50 e5 b3 ba
       -0.009781526 -0.0037202155 -0.0054032113 -0.0013724957
0000c0 7a e5 9b bb 89 86 b4 ba 34 a6 49 bb 0e ad 5a bc
       -0.0047575803 -0.0013773005 -0.003076923 -0.0133469235
0000d0 e7 c0 12 3b 0a 68 2b bc cc 07 83 bc 98 0e ab bb
       0.002239281 -0.010461817 -0.015994929 -0.0052202456
0000e0 9c 90 4a 3b 9e db d0 3b d0 e5 be 3a c6 77 f1 bb
       0.0030908948 0.0063738367 0.0014564339 -0.0073690144
0000f0 3a b5 15 3c 0c 60 29 bb af bd aa bb 35 30 4b bc
       0.009137446 -0.0025844602 -0.0052106003 -0.01240163
000100 61 8c 9d 3b fc b3 38 bb 62 30 c7 bc a1 6b 34 bc
       0.0048079942 -0.002818345 -0.024315063 -0.011011989
000110 ef dc d3 3b ad 2c 99 bc 7b e4 ec bb 29 49 5d bc
       0.0064655463 -0.01869806 -0.0072293854 -0.013506212
000120 e8 8e ba bb 16 ba 23 bb 5c 98 3a 3c 41 53 04 bc
       -0.0056933053 -0.0024982742 0.011388864 -0.00807649
000130 e8 a3 3d 3b 86 e7 0b bc f4 e1 2e bc 1d b3 0d bc
       0.0028936807 -0.008539086 -0.010673989 -0.008648661
000140 2b d5 54 3b 57 9e 1e bc 7f 59 9e bb 8c 53 c0 bc
       0.003247569 -0.009681306 -0.004832446 -0.023477338
000150 6f 6d b9 3c 4c 72 fe 3b d8 58 07 3c 7d cc 5f 3b
       0.02263519 0.00776509 0.008260928 0.0034148984
000160 87 9b c8 ba 54 76 e4 bc ee ee c0 bb 96 db 50 3c
       -0.001530514 -0.027888454 -0.0058878576 0.012747666
000170 78 a6 26 bc d3 29 81 3b 7f c2 20 bc 0b 60 7d bc
       -0.010171525 0.0039417534 -0.0098119965 -0.015464793
000180 0f 44 02 bc 3a 17 fa 3b 08 2c 4f bb 11 16 68 3b
       -0.007950797 0.0076321634 -0.0031611938 0.0035413543
000190 22 85 c9 3b 23 b7 bc bb 05 d7 01 bb 3b 67 1e bc
       0.006149904 -0.0057591363 -0.0019812 -0.009668167
0001a0 76 5c 22 bc cb 18 b6 bb aa b9 0c bc 7a 4c 1b bb
       -0.00990974 -0.005557155 -0.008589188 -0.0023696707
0001b0 c3 47 e6 bb f3 01 62 bb 0f 73 22 bc 16 fc 4f bc
       -0.0070275976 -0.0034486025 -0.009915127 -0.012694379
0001c0 d2 ff f7 bb 4b 4e 0a 3c eb 1a cc 3a 95 81 04 bb
       -0.007568338 0.008441518 0.0015571987 -0.0020218838
0001d0 5d 38 2b bc f4 e1 11 bc b5 7d fc 3b 89 0d 7a bb
       -0.01045045 -0.008903969 0.007705415 -0.003815504
0001e0 da 78 1b bc c1 24 81 bb 9a c9 35 3c fc 18 ed 3b
       -0.0094892625 -0.003941149 0.011095429 0.0072356444
0001f0 fb f1 7f 3b 4e 6f 67 3a 57 de a1 3b 1a 25 92 bb
       0.0039054144 0.00088285364 0.004939835 -0.0044599893

action_model._continuous_distribution.log_sigma f4 [1, 2]
000000 5f cb 93 3d d1 65 06 3e
       0.07216524 0.13124777

action_model._continuous_distribution.mu.weight f4 [2, 128]
000000 69 31 7d bb 73 62 b0 39 4e 3b db bb f7 a8 19 bd
       -0.0038634187 0.00033642686 -0.0066904193 -0.037514653
000010 c8 ab a4 3c 48 ea 90 3b fa 35 63 3c f1 ba ad bc
       0.020101443 0.0044224598 0.0138678495 -0.021207305
000020 87 88 53 3c a2 86 9c bb 71 70 00 bd a1 15 e2 3b
       0.012910969 -0.0047767917 -0.031357232 0.006899551
000030 91 34 88 bc ac 91 2f 3c c7 59 7b bc 14 1f 43 bb
       -0.016626628 0.010715883 -0.015341229 -0.0029773163
000040 89 60 e6 3a 65 1a a1 3c e4 83 1a 3c 97 71 47 3b
       0.0017576377 0.019665906 0.009430859 0.0030432695
000050 c4 5c a3 3b 23 90 03 bc 72 70 91 bb 0e 19 6a bc
       0.0049854238 -0.00802997 -0.0044384534 -0.0142882
000060 df 4b 3a 3c 3a aa 5e 3c 6d 49 50 bc 4d 04 b2 bc
       0.011370628 0.01359039 -0.012712819 -0.021730566
000070 96 62 01 bd 4b fd c9 39 4f 76 0d bb 80 b2 ec bb
       -0.03158816 0.00038526425 -0.002158541 -0.0072234273
000080 5f 7d 74 3c f0 bd 2f 3c cd 7e b7 3b 2f 7d f4 3a
       0.014922469 0.010726437 0.0055998326 0.001865303
000090 95 b3 80 ba 09 bd 67 ba e8 8c e6 bc 41 84 ce bc
       -0.0009819145 -0.0008840119 -0.028143361 -0.025209548
0000a0 a2 2c 96 bc 03 47 ba 3c ab 3c c0 bc da c1 50 3b
       -0.01833183 0.02273894 -0.023466429 0.0031853826
0000b0 c0 10 21 b9 06 21 9e 3b 4d cb 9c 3b 18 09 80 3c
       -0.00015360396 0.004825714 0.0047849775 0.015629336
0000c0 0d a5 10 bc 78 75 0e 3d 50 c9 b1 3b 3e 54 e3 3a
       -0.008828414 0.034779996 0.0054256096 0.0017343832
0000d0 b7 64 93 bc ad 86 70 3b 58 7b 4a 3b 6d 3b 24 3c
       -0.01799236 0.0036701367 0.0030896273 0.010023934
0000e0 62 37 f6 bc d7 09 a3 3b 7b 02 da bc af bf 1c bc
       -0.030055705 0.0049755382 -0.02661251 -0.009567185
0000f0 18 08 b2 bb 9b 9c da 3b 1a 38 ec bb 8f 1f 6b bb
       -0.0054330938 0.006671501 -0.0072088363 -0.0035876965
000100 50 ba 44 bc f3 fd 1a bd f7 12 de 3b 95 51 f0 bb
       -0.012007311 -0.03783984 0.006777163 -0.007333944
000110 6b 2d 80 3c 09 09 c9 3a 7d 58 1b 3d c3 2a 14 bc
       0.015646657 0.0015337776 0.037926186 -0.009043398
000120 0e 7d c2 3c 14 78 93 bc e8 e4 c9 bb 29 9b 66 3c
       0.023741271 -0.018001594 -0.006161321 0.014075079
000130 d5 aa 15 3d 6b 0c b9 3c db f1 0e 3b 83 17 2e 3c
       0.03653987 0.02258893 0.0021811638 0.010625723
000140 31 1b fc 3c c2 3b 66 3c 11 54 6f bc bb 0e 97 3b
       0.030774685 0.014052333 -0.014607445 0.0046099103
000150 fe 7f 88 bc 98 6b 30 bd 50 78 f5 bc fd fc 87 bc
       -0.016662594 -0.04307136 -0.029964596 -0.016600126
000160 06 03 4d bc f9 93 b0 3b c9 86 93 3c 5d 7e a2 3c
       -0.012512928 0.0053887335 0.018008607 0.019835645
000170 c0 54 96 b9 ec 35 b1 bb 28 19 d8 3b 8b 8d 42 bb
       -0.00028673373 -0.0054080393 0.0065947957 -0.0029686417
000180 9d c3 17 3b 27 a3 5d bc 2c 72 87 3c 83 db 16 bc
       0.0023157366 -0.013527668 0.016533934 -0.009207609
000190 34 77 da bb ae 1a 19 bc 3b fa 53 3a f9 84 01 bc
       -0.006667042 -0.00934474 0.00080862985 -0.007905238
0001a0 b8 ca dc 39 5d 70 ed bb a4 2e 74 3b 17 d1 ab bc
       0.00042112707 -0.0072460608 0.0037259245 -0.020973725
0001b0 0b 70 15 3c 02 fa 65 bc f8 6c a3 3c be 68 b4 3b
       0.009120951 -0.014036657 0.019949421 0.0055056503
0001c0 2e 43 2d 3d 2e 67 b1 3b 1b d3 f5 3b e8 38 f0 bc
       0.042300396 0.0054139113 0.0075019724 -0.02932401
0001d0 67 ad e4 bb 76 b3 32 3c 53 90 c4 bc a0 56 d6 bb
       -0.006978679 0.010907045 -0.0239946 -0.006541088
0001e0 78 8c f9 3a 72 75 c8 3c 3b 6b c7 bc 3d 4d 6f 3c
       0.0019039055 0.024470065 -0.024343124 0.014605817
0001f0 63 70 14 3d ad 3c 1b bd 8d 4d 51 bc c4 47 52 3b
       0.036239993 -0.03789966 -0.012774837 0.0032086233
000200 90 d1 8a 3c 92 1d 62 ba a3 69 3b 3c 88 92 23 bc
       0.01694563 -0.0008625622 0.01143876 -0.009983666
000210 6d 32 ce 3a 12 3d 9a bc bc c4 86 3c a1 12 30 3c
       0.0015731581 -0.018827949 0.016451232 0.010746629
000220 09 96 cf 3b 44 02 b3 b7 9f 58 93 3a 9a 47 21 3c
       0.0063350243 -2.1339518e-05 0.0011241621 0.009843731
000230 38 3e 73 bc 45 7b 7c bc ec 8d 5b 3c fd 34 a8 3c
       -0.014846377 -0.015410249 0.013400536 0.02053308
000240 1f 02 34 3c 3e cb cb 3b 0f 18 f6 bc d0 83 b7 ba
       0.010986834 0.0062192967 -0.030040769 -0.0014001075
000250 a3 c4 42 3c 42 5d 3a bb a4 38 e9 3c be e1 aa 3b
       0.011887702 -0.0028436934 0.028469391 0.005214899
000260 f7 91 e4 bc 53 93 a1 bb a6 4d 18 3b 52 79 c0 bc
       -0.027901633 -0.0049308925 0.0023239641 -0.02349535
000270 d6 ec 06 bd 12 d4 08 bc fc 93 5d bc f5 8e a1 bb
       -0.032940708 -0.008351343 -0.013524052 -0.004930372
000280 0b 23 17 bb d8 9d 2a 3c 42 ff 85 bc 55 9b 97 3c
       -0.0023061659 0.010413609 -0.016357068 0.018506685
000290 21 2f 90 3c 84 96 ea 3c bc 90 72 3b 2c 8e be 3c
       0.017600598 0.028636225 0.0037012538 0.023261152
0002a0 4c 0c b5 3b f1 1f eb ba ce d6 93 3c 8f c3 39 3c
       0.0055251475 -0.0017938596 0.018046763 0.011338129
0002b0 4b f8 20 bc 55 e4 9b bb a7 8d 2f bc d1 77 f3 3c
       -0.009824823 -0.004757444 -0.010714925 0.029720219
0002c0 f0 23 4a 3c ec 83 9d bb 21 43 13 3d b8 99 ae bb
       0.01233767 -0.004806986 0.03595269 -0.0053283833
0002d0 9e 36 6f bb ba 4b f4 bb 09 96 84 3b c7 c8 55 bc
       -0.003650106 -0.0074553164 0.004046206 -0.013048357
0002e0 07 35 c1 3c 4c 1f 30 bb 99 27 9d bb 82 fc 29 3c
       0.023584856 -0.0026874123 -0.00479598 0.010375144
0002f0 0a 2a 2d bd 83 4d 8b bb 95 8e 18 bd 36 3a 3c bc
       -0.04227642 -0.0042511835 -0.03724535 -0.011488488
000300 e4 19 fc 3c 73 8d 24 bc 07 a6 81 3b ab cf 86 3b
       0.030774064 -0.01004349 0.0039565596 0.0041141114
000310 b5 11 5a bc 51 51 b6 b9 ee fe 98 bc 12 56 77 3c
       -0.013309886 -0.0003477433 -0.018676247 0.015096204
000320 20 d7 76 bc d4 66 7d bc 20 ed 9e bc d8 9e e2 bb
       -0.015065938 -0.015466411 -0.01940018 -0.0069159083
000330 30 d5 0b bc 1a d9 a3 bb 95 ce 86 3b ef 1a fd 3b
       -0.008534715 -0.0050002458 0.004113982 0.007724158
000340 a4 4c a9 bc 1a eb 70 bb 36 b5 0e b9 2c 6a 34 3b
       -0.020666428 -0.0036761225 -0.00013609682 0.0027529104
000350 57 92 58 bd ca 07 12 3c 07 9a f6 bb d0 cc 6f bc
       -0.052873936 0.00891299 -0.0075256857 -0.014636233
000360 c4 00 04 3d 01 b8 68 3b 35 d6 90 bc 9a b0 da 3b
       0.032227293 0.0035510065 -0.017680267 0.0066738846
000370 f3 91 20 bb 1d f1 a9 3b 77 27 fa 3b cb 4f 05 3b
       -0.0024501055 0.0051862136 0.007634099 0.002034175
000380 91 35 77 ba 12 23 ab ba 6f c7 d2 bb 0c be e7 3c
       -0.0009430284 -0.0013056716 -0.0064324657 0.028288864
000390 1d 9a 81 3c 70 2f 20 bc c0 65 eb 3c 53 19 02 3c
       0.015820557 -0.009776935 0.028735042 0.007940608
0003a0 94 a8 c1 bc 4b 9c 3b 3c f3 ab a9 bc 8f 80 53 ba
       -0.023639955 0.011450837 -0.020711875 -0.0008068168
0003b0 af 91 b8 bc b2 d9 d9 bc ab c0 15 3b 65 3d 6e 3b
       -0.022530405 -0.026593063 0.0022850435 0.0036352512
0003c0 70 26 64 bc 6c 91 86 bc d5 f4 96 b9 c5 6d c2 ba
       -0.01392518 -0.016426764 -0.00028792644 -0.0014833739
0003d0 4d 72 c5 3b a6 e2 eb 3a 52 4a 80 bc e1 1f d7 bc
       0.0060255886 0.0017996624 -0.015660439 -0.026260318
0003e0 4f d0 4a 3c ca 9e fc 3b 56 48 af bb 61 47 bd bb
       0.012378766 0.007709359 -0.0053491993 -0.0057763313
0003f0 c2 e5 16 bc 44 9b 51 bb 0c 34 1f bc ad 59 06 bd
       -0.009210052 -0.0031983415 -0.009716999 -0.032800365

action_model._continuous_distribution.mu.bias f4 [2]
000000 78 c5 90 bb bb 1b a4 3a
       -0.0044180714 0.0012520471
