GameAI3/Config/results/dwarf_2/Dwarf/Dwarf-65024.onnx (onnx, 91956 bytes, 7 tensors)

network_body._body_endoder.seq_layers.0.weight f4 [128, 44]
000000 aa 43 2a 3e e9 2f 21 3d 29 1d 8c be 6f 41 93 3e
       0.16627374 0.03935233 -0.27365997 0.2876086
000010 e4 c3 be bd 06 4c bf be 77 a5 03 be fc 68 ae 3d
       -0.09314707 -0.3736269 -0.12856089 0.08516118
000020 42 63 17 be c3 4f 24 be 7c ee f1 3d 75 d0 1f bd
       -0.14783958 -0.16046052 0.118130654 -0.03901716
000030 14 90 86 3e 49 db 17 be 36 a3 c8 bc c8 10 de 3c
       0.26281798 -0.14829744 -0.024491888 0.027107611
000040 4e a7 8f be af c0 0f 3b 76 09 e9 3d 9f 03 6b be
       -0.2805733 0.0021934917 0.11378758 -0.229506
000050 42 b9 de 3d 0d ed 52 bd 29 78 72 3e 56 3e ad bc
       0.10875179 -0.0514956 0.2367865 -0.021147888
000060 d0 3b 71 3d d4 68 1d be 8c 4a 15 bc 9f ea a3 bd
       0.058894932 -0.1537202 -0.009112012 -0.08003735
000070 8f 0f f8 3d f6 88 3a 3b c8 a6 8d be 5c 56 ae 3c
       0.121123426 0.0028462983 -0.27666306 0.021281414
000080 87 9b 3b be ec 2a 73 3c 7f 7b 54 3d 33 85 39 3e
       -0.18321048 0.014841776 0.051875588 0.18117218
000090 10 7c 21 3e b7 92 9f 3d d4 a7 9e 3d c7 40 13 3e
       0.15769982 0.077916555 0.077468544 0.1438018
0000a0 f6 60 ce bd 8f 89 10 3e 0f f0 c5 3d f1 78 b9 3d
       -0.100770876 0.14114974 0.09664928 0.09056271
0000b0 86 2f ee 3e 9f 3f 71 3d 64 80 9a bd f8 59 5d 3d
       0.46520633 0.058898564 -0.0754402 0.05404088
0000c0 e7 f9 be 3d 7f a0 31 bd 78 87 a5 3d f7 48 4b 3e
       0.09325009 -0.04336595 0.08082479 0.19852053
0000d0 94 64 e6 bc b9 0d 3e 3e bd 6a 0d 3e 92 2f 5f bd
       -0.028124131 0.18559922 0.13810249 -0.054488726
0000e0 70 ac 78 3e 98 cb aa bd d9 f7 ce bd cd 91 fb 3d
       0.2428453 -0.08339614 -0.10105867 0.12283669
0000f0 f9 8c 62 3d e8 24 6a be 65 b1 3b 3e 42 0e 53 3e
       0.055310223 -0.22865641 0.1832939 0.20610908
000100 e0 9f 54 3e c8 19 51 3e fc 9f e9 3d fc a8 24 3d
       0.20764112 0.20419991 0.11407468 0.04020022
000110 b6 b7 48 bd d6 fc 4b bd 0f 1c b0 3d 91 e2 ff 3d
       -0.049003325 -0.04980167 0.08599102 0.12494386
000120 bc 93 0b be 3f 07 ec bd 05 51 12 3e c3 9e 76 bc
       -0.13630575 -0.115248196 0.14288719 -0.0150525
000130 fc 47 18 be 94 d2 a0 3c ba 62 ef 3c 37 f9 ec bd
       -0.1487121 0.019631661 0.029221881 -0.115709715
000140 2f d2 72 3e 42 2b c3 3d 55 f0 8f bc 75 3f c2 bd
       0.23712991 0.09529735 -0.017570654 -0.0948476
000150 c1 77 df bd de 92 d4 bd ad f1 c1 3c c9 9c 63 be
       -0.10911513 -0.10379575 0.02367481 -0.22227778
000160 cf 88 08 be 3d a9 7b 3d 85 ad 0c be e2 c2 c6 3d
       -0.13333438 0.061440695 -0.13738067 0.0970514
000170 9f 6c 69 be b9 b4 ce 3d 33 df cf 3d 60 b1 e5 bd
       -0.22795342 0.10093064 0.10149994 -0.11215472
000180 ed 4e 38 be 4c 6a b9 bd 32 38 9e 3b 15 c4 41 bd
       -0.17998858 -0.09053478 0.0048284763 -0.04730614
000190 c6 4b 3b be b7 67 58 3d 6f d5 01 3d 69 d5 ca 3d
       -0.18290624 0.052833285 0.031697687 0.09903986
0001a0 84 45 23 3c 15 0a 8a 3d 29 f7 11 3e 91 ea f2 bb
       0.009965304 0.06740204 0.1425444 -0.0074132164
0001b0 72 f5 d9 3c 60 9a 36 be 5f e3 27 3b f0 7a c2 bd
       0.026606295 -0.17832327 0.0025617701 -0.09496105
0001c0 27 1f 84 bd d8 18 eb 3c 94 18 f7 3d c0 9c 4e 3e
       -0.06451254 0.02869837 0.12065235 0.20176983
0001d0 a1 0d 10 be a2 56 45 3e 72 fd 35 3e f9 4a 86 bc
       -0.14067699 0.19271329 0.17772463 -0.016393172
0001e0 09 db ff bc 86 04 1e 3d fb f6 5e be 7d b0 55 3d
       -0.031232374 0.038578533 -0.21773903 0.052170265
0001f0 1a 66 64 be 19 0d a0 bd d1 7d 5d be aa 13 66 be
       -0.22304574 -0.07814998 -0.21630026 -0.22468439
000200 11 0e 77 3d 6b 54 5d 3d 80 5c 79 bd 0d 0e 04 3e
       0.06031615 0.054035585 -0.06087923 0.12895985
000210 59 2b 90 3e 5d 24 c4 bd ff 85 81 3d fe 59 0b be
       0.28158072 -0.09577248 0.06324386 -0.13608548
000220 72 81 3c be 91 5b cc 3d 19 2f b9 3c 96 bd 88 bc
       -0.18408754 0.099784024 0.022605466 -0.016691964
000230 07 40 4b be bd 74 c2 bc b1 88 1d be 6b 0c 0f be
       -0.19848643 -0.023737306 -0.15384175 -0.13969581
000240 2c ec 4c bd ef 26 2b 3d 5b 87 ec bd 2c a7 47 be
       -0.05002992 0.041785177 -0.115492545 -0.19497365
000250 f7 bb 3b 3e 20 c1 5e 3e f6 5c 88 3d eb cb 3f be
       0.18333422 0.21753359 0.06658356 -0.18730132
000260 0d 7e 03 be 53 75 8b 3d d3 7c c1 bd 4f 15 67 3c
       -0.12841053 0.06809487 -0.094476365 0.014104201
000270 98 f1 03 3d 4e 29 39 3c f5 71 60 3d 6c 37 11 be
       0.032212824 0.011301352 0.054796178 -0.14181298
000280 c2 10 0a be 6f 21 58 3e f0 61 9e 3c 93 08 47 3d
       -0.13482955 0.21106504 0.01933381 0.04859216
000290 3a 00 b8 3c bc a7 a0 3e df 96 89 3c bd 51 9c bc
       0.022461046 0.3137797 0.016795574 -0.019081945
0002a0 04 85 95 3d 77 a6 79 be df 5d d3 3d 49 09 6e bd
       0.07300761 -0.24379908 0.10320639 -0.058114324
0002b0 db 68 25 be bd 30 74 bd ea d2 9c 3d 6b 13 9f 3d
       -0.1615328 -0.059616793 0.07657416 0.077673756
0002c0 c0 ca 11 3e 04 21 0c be 5d 7e a2 be 0b 3a 7b 3d
       0.14237499 -0.1368447 -0.31737033 0.06133465
0002d0 f0 ee 39 bd 66 ea 45 3e be 96 da bd 0b 02 42 bd
       -0.045393884 0.19327697 -0.10673283 -0.04736523
0002e0 02 26 2b bd 20 57 0b 3e f7 e7 8a bd 33 55 5e 3d
       -0.041784294 0.13607454 -0.06782525 0.05428047
0002f0 f5 fe 1b 3e a9 ef 42 be c0 82 54 bd ee 69 02 3e
       0.15233977 -0.19036736 -0.051882505 0.12735721
000300 bd 04 81 bc 66 92 af 3d f1 af 0a be 77 01 0b 3e
       -0.01574933 0.08572845 -0.13543679 0.13574778
000310 64 ac 7b 3e b2 0d 54 be 55 80 8b bc 3c 33 69 be
       0.2457748 -0.2070835 -0.017028967 -0.2277345
000320 cb e9 3e 3e 59 bb 1e be 4e 38 8b 3e 27 66 99 bd
       0.18643872 -0.15501155 0.27191395 -0.07490187
000330 1f c1 0b 3e f5 f8 3e 3e 42 61 92 bd e6 60 39 be
       0.13647889 0.18649657 -0.07147457 -0.1810337
000340 91 c3 4f 3e bb 4c 9b bd ed d9 8d bd 0b 10 f5 bd
       0.20289446 -0.075829946 -0.06926332 -0.119659506
000350 9b 09 b1 bc 7f a1 40 3e 79 b8 0a bd 9e 0a 8c be
       -0.021611026 0.18811606 -0.033867333 -0.2735185
000360 4e 47 19 3d 43 2a 86 3e f6 12 9d 3e 04 1c 28 bc
       0.037421517 0.26204118 0.3067853 -0.010260586
000370 87 c2 c6 bd e7 4f 18 bc ca f8 8e be 15 9e 57 bd
       -0.09705072 -0.009296394 -0.27924186 -0.052640993
000380 9a a9 ac 3d 73 c0 dc be ee 08 bf bd 74 a4 71 be
       0.084307864 -0.43115577 -0.09327875 -0.2359789
000390 7f f8 62 be 83 71 6f 3d 96 1c 75 be 6e b8 15 3e
       -0.22165106 0.058457863 -0.23936686 0.14621136
0003a0 15 17 3c bd 4b a4 ea 3c fb 91 18 be 9d 59 bd bd
       -0.04592045 0.028642794 -0.14899437 -0.09245608
0003b0 a1 2a 2e bd 19 ab 0f be 16 7c 0b 3d 0a d1 09 be
       -0.042521123 -0.14030112 0.034053884 -0.13458648
0003c0 fb e3 4e 3e 04 42 9c be 28 9d e9 bd ba c4 95 3d
       0.20204155 -0.30519116 -0.11406928 0.07312913
0003d0 5a 74 a8 3d 92 9c 78 3e 56 06 b0 be 55 d3 0e bb
       0.08225317 0.24278477 -0.34379834 -0.0021793444
0003e0 c9 86 9b bd 23 5b 13 3d 9b d2 51 3d 09 a9 8b 3e
       -0.075940676 0.035975587 0.05122624 0.272774
0003f0 6d d5 2a bd 43 57 a4 be 42 ff 58 3e 0e d5 bb 3c
       -0.041707445 -0.32097825 0.21191123 0.02292874

network_body._body_endoder.seq_layers.0.bias f4 [128]
000000 11 61 22 3b a2 44 c5 bb 86 25 4a 3b 46 05 6f bb
       0.0024777094 -0.0060201446 0.003084512 -0.003647165
000010 c5 a0 9e bb 14 1c 88 bb 24 c8 a2 ba 9d d0 90 ba
       -0.0048409426 -0.004153738 -0.0012419266 -0.00110485
000020 bf 31 f7 3b 6f 4d 16 bc 39 2d 5c ba 1e 44 b2 ba
       0.007543772 -0.009173735 -0.00083990727 -0.0013600623
000030 00 2f 5a ba 2e dc 2a bb 50 13 8a bb 88 49 de bb
       -0.00083230436 -0.0026071179 -0.004213728 -0.006783668
000040 f7 87 57 39 88 a0 9f ba ef f4 33 3b 44 90 8c bb
       0.00020554649 -0.0012178579 0.0027459224 -0.0042896587
000050 e2 52 df b8 e7 e9 71 bc 39 82 87 bb 48 13 91 bb
       -0.00010648907 -0.014765239 -0.004135397 -0.0044273473
000060 70 1e 60 bc 2d be cf 3b 2b 7c 90 bb 8a cf d1 39
       -0.013679132 0.0063398094 -0.004409333 0.00040018215
000070 40 33 70 bb 26 e4 88 ba d2 83 0b bc 9a 09 84 3a
       -0.003665164 -0.001044397 -0.008515315 0.0010073662
000080 26 0a 64 bb 8e 26 bc 3a da 04 9e 3a cd 1f c0 bb
       -0.0034796088 0.0014354752 0.0012055889 -0.005863166
000090 7b fa 3c bc fd f7 de bb 4f 39 76 3b 38 1a 3d b9
       -0.011534329 -0.006804465 0.003757078 -0.00018034212
0000a0 5c 35 85 bb 8d 19 91 bb 03 26 da bb b5 95 52 bb
       -0.004065199 -0.0044280947 -0.0066573634 -0.003213269
0000b0 dd 51 ba ba d0 e6 eb ba cb 03 34 bb 67 6d a9 ba
       -0.0014215071 -0.0017997865 -0.002746808 -0.0012926281
0000c0 a7 fb f3 bb 24 f6 50 bb 4a b9 8f 39 58 ae 10 bc
       -0.007445771 -0.0031884992 0.00027413137 -0.008830629
0000d0 53 16 c8 3b c9 a0 1a 3c 3c d4 07 ba 9b 58 14 3b
       0.006106177 0.009437748 -0.00051814667 0.002263582
0000e0 3d 54 3f 3a d1 18 e3 bb f2 67 48 bb 45 a0 cc 3a
       0.0007298624 -0.0069304486 -0.0030579534 0.0015611729
0000f0 8b 87 ac bb 10 12 a9 3b 9d 96 a3 bc a9 4f a5 bb
       -0.0052651814 0.005159624 -0.019969279 -0.0050448966
000100 67 66 8d ba 8a 9c 02 bc f1 a4 38 3b 4e 39 aa bb
       -0.0010787965 -0.007971892 0.0028174485 -0.0051948195
000110 cd 1a 16 bb ce bb 3d bc 7e f0 07 bb 75 4a 9e 3b
       -0.0022904158 -0.011580421 -0.002074271 0.0048306533
000120 dd d3 45 bb 92 82 12 bc cd 06 0c bc f0 e8 2b bb
       -0.0030186095 -0.008942263 -0.008546543 -0.002623137
000130 98 06 b2 bb f4 8b 90 ba a6 34 24 3b 44 dd 8e bb
       -0.005432915 -0.0011028037 0.0025055795 -0.004359873
000140 5b f6 7b 3b 63 f4 7c bb 5a ae c8 bb 41 10 7c bb
       0.00384464 -0.0038597814 -0.0061243 -0.0038461837
000150 8e 4d ee bb eb 6a 3c bc 8b 86 35 3b 98 38 99 b9
       -0.007272429 -0.011500101 0.0027698602 -0.000292246
000160 15 4c 25 bc 5a da d1 bb d9 c0 32 bb 2f 72 3b bb
       -0.01008894 -0.0064042034 -0.002727559 -0.0028601994
000170 2b 09 9f ba 54 20 58 3b ca 2b c3 bb b9 6e 81 bb
       -0.001213347 0.0032978253 -0.005956148 -0.0039499667
000180 f6 fd 45 bb 29 b1 18 bc 7f 15 c8 ba 84 e5 84 ba
       -0.0030211187 -0.009319582 -0.0015265195 -0.0010139202
000190 cd 26 08 bc 86 fa 84 3b c8 29 77 bb de 51 f1 3b
       -0.008310032 0.004058185 -0.0037714113 0.0073644957
0001a0 16 82 2a 3b 1d 1c 12 3a 6f 1a b0 bb 17 ad b3 bb
       0.0026017479 0.0005573647 -0.005374245 -0.0054832804
0001b0 e9 cf da ba 0a 27 8f bb 5b 99 f1 bb 0c fa df ba
       -0.0016694042 -0.0043686675 -0.0073730177 -0.001708807
0001c0 63 c0 c2 39 92 eb a3 3b d1 2c bf ba 90 fe 23 bc
       0.00037145903 0.0050024474 -0.00145855 -0.010009423
0001d0 95 cd 26 39 0f 97 df ba e7 02 10 3b 0e d7 4b bb
       0.00015907579 -0.0017058569 0.0021974386 -0.0031103524
0001e0 e5 95 1b ba 9b 06 5e 39 e1 4a 6f bb 31 ba 19 ba
       -0.0005935117 0.0002117403 -0.0036513137 -0.00058642315
0001f0 c1 56 90 bb c6 a2 48 bb b0 62 bb 3a f3 35 d7 3a
       -0.004404873 -0.0030614599 0.0014296379 0.0016419276

network_body._body_endoder.seq_layers.2.weight f4 [128, 128]
000000 33 4a e3 bd 29 4c 96 3d be 67 96 3d c5 b4 8d bd
       -0.11098137 0.07338745 0.07344006 -0.06919245
000010 15 f7 a0 3c a9 75 28 bd 58 33 3e 3d 1a 05 a7 3b
       0.019649068 -0.041127834 0.046435684 0.0050970437
000020 f2 16 a6 3d 5b f8 69 3d 9e d3 22 3e 31 7f 3d 3c
       0.08109845 0.057121616 0.15901038 0.011565969
000030 5b 7d 21 3c 20 e0 3d be 5e 6c 9a 3d 5b d7 22 bd
       0.009856547 -0.18542528 0.07540201 -0.03975616
000040 d6 70 ed 3c 3b 7c 45 3a f1 05 ac 3c 69 f6 26 bd
       0.028984468 0.00075334654 0.020998927 -0.04076234
000050 40 e5 a6 3d f0 79 a6 bd 4e e8 01 be 0f d4 35 be
       0.08149195 -0.081287265 -0.12686273 -0.17756675
000060 a2 33 80 3d 5f 81 93 3d 66 49 c4 bc b5 90 a0 3d
       0.06259848 0.0720241 -0.02396078 0.07840101
000070 50 7f 83 bd 98 a2 b2 bd 70 4e c7 bd 68 dd 0e bd
       -0.06420767 -0.087224185 -0.09731758 -0.03487912
000080 c5 42 a4 3d d5 24 6f be 49 d8 27 3e 50 76 24 be
       0.08020548 -0.23353894 0.163911 -0.16060758
000090 bc a5 91 ba 6d dc 60 bd aa f3 1a be 6c 6c a3 bd
       -0.0011112015 -0.054897714 -0.15132013 -0.07979664
0000a0 68 34 18 3e 18 94 04 3d 77 42 44 bd 1b bc dc bd
       0.14863741 0.032367796 -0.04791495 -0.10778066
0000b0 5a 16 13 3d c8 b1 26 3d fb c7 62 3d ca 38 b6 3d
       0.035909988 0.04069689 0.055366497 0.088975504
0000c0 91 ac c5 3d 0a a8 2d 3d 01 89 ac bb 4a cf 0f bd
       0.09652055 0.042396583 -0.0052653556 -0.035109796
0000d0 7a 71 e4 3d 8b 32 fd 3c 40 56 1a 3e 9c ad 90 ba
       0.111544564 0.03090789 0.15071964 -0.0011038068
0000e0 92 31 46 3e df b5 0b be 22 ce 94 bc 2b e2 8a bd
       0.19354847 -0.13643597 -0.018164698 -0.06781419
0000f0 2c 14 14 bd a3 4d 25 3e 4c ce 3f 3d b5 b8 0e 3e
       -0.03615205 0.16142897 0.0468276 0.13937648
000100 21 e6 31 3e d9 6b 6b bd ef 65 7e bd fa 77 5c 3e
       0.17372943 -0.0574759 -0.06210893 0.21530142
000110 9d eb 2a be d7 c1 05 be 63 2f 3f 3c 9d 00 16 3d
       -0.16691442 -0.13062225 0.011669013 0.03662168
000120 64 19 51 3d df 81 4f be d3 e4 3f bd d6 bb 81 bd
       0.051049605 -0.20264386 -0.046849083 -0.06334655
000130 e4 4c 34 3d 49 3a 1f 3d f5 d9 95 3c a7 50 d6 bd
       0.04401864 0.038873944 0.018292407 -0.10464602
000140 9f 6e d5 3d 1f b3 bd 3d a7 c5 1e bd e3 ae ed bd
       0.1042149 0.0926268 -0.038762715 -0.116056226
000150 b3 23 de bd 04 37 11 be a6 e3 55 3d 99 4e 66 bc
       -0.10846653 -0.14181143 0.052219056 -0.014056825
000160 86 10 eb 3c 88 91 cd ba b3 f8 8a 3d d6 c9 b2 bc
       0.028694402 -0.001568363 0.06785717 -0.021824758
000170 1e 24 15 3e 5b 1a 48 3d f0 7e bd 3d 20 cd 3d be
       0.14564559 0.04885326 0.09252727 -0.1853528
000180 33 09 01 be fe 8a 6b 3c 6c 39 ff 3c 0c 8d 53 3c
       -0.12601165 0.0143764 0.03115531 0.012912046
000190 2c 4d 12 3c 83 ff 8a 3d 73 6c 8d 3d 1b c1 06 bc
       0.008929532 0.06787016 0.06905451 -0.008224751
0001a0 ee e8 fa bd dc b2 6a 3c 70 12 72 39 a4 78 9b bd
       -0.12251459 0.01432487 0.00023085787 -0.0759137
0001b0 0f 9e 1b 3d ab c7 4f bd 46 bb d1 3d c1 e2 60 be
       0.037992533 -0.050727528 0.10240798 -0.219615
0001c0 a2 26 48 3c 8d c7 da bc e0 5c 51 be c3 9b d6 3d
       0.012216242 -0.026706481 -0.20445585 0.10478928
0001d0 09 ea ef 3d 6a 7f ac 3d 32 69 59 3d 5c 1e 95 bd
       0.117145605 0.0842274 0.053078838 -0.07281181
0001e0 e9 a1 bc bc 8d 54 45 be ca bc 6b 3c c3 c1 05 bd
       -0.023026424 -0.19270535 0.014388273 -0.03265549
0001f0 27 cb 63 3d ed 3b d9 bd c6 82 0d be d1 03 eb bd
       0.055613663 -0.10607133 -0.13819417 -0.11475337
000200 7b 01 17 3e 13 47 dc 3c fb 11 0f 3d 0c b1 53 3d
       0.14746659 0.02688936 0.034929257 0.051682517
000210 08 d7 da bd 7e 96 39 bd c5 c2 ee 3d 47 2a a5 bc
       -0.10685545 -0.045309536 0.11658243 -0.020161761
000220 24 31 86 3c 66 52 e8 3a 05 da bc 3d 95 5a bb 3c
       0.016380854 0.0017724752 0.092212714 0.022870341
000230 56 0e bb bd 1a 4c 8b bc 9a fc f6 3d 4f f1 d1 bb
       -0.09133594 -0.017004061 0.12059899 -0.00640694
000240 24 51 8c 3d f3 bf 6e b8 b9 27 ff 3c ae 0e 5b 3c
       0.06851414 -5.692239e-05 0.03114687 0.013370199
000250 63 03 55 be bd 53 fb bb 52 9f 81 3c 3e 89 41 3d
       -0.20802073 -0.0076698945 0.01582304 0.047250025
000260 d6 fe 83 bd bb af 8d be a7 36 e6 bd c6 4e 1e be
       -0.064450905 -0.27673134 -0.11240893 -0.15459737
000270 24 bd 14 be 08 69 ef bd ef f2 a3 3d 40 6a bb bb
       -0.14525276 -0.11689955 0.0800532 -0.005719453
000280 b8 c5 37 be d7 5b 91 3d b4 34 65 3d 99 e8 f7 3d
       -0.17946517 0.07097595 0.055958465 0.12104911
000290 b0 4a bc 3d be ce 5c be de fe 05 bb af fd 9b 3d
       0.09193933 -0.21563241 -0.0020446102 0.07616746
0002a0 e5 0b 8b bd 35 98 53 bd c4 63 4d 3d d0 bd 05 be
       -0.06789378 -0.051658828 0.050143972 -0.13060689
0002b0 c1 60 33 be 7d 1d e8 bd de c7 c7 3d c3 de 99 3d
       -0.17517377 -0.113337494 0.097549185 0.075131916
0002c0 4d 52 06 3e 95 33 b1 3d 04 0b 47 3d 4b fa 62 3d
       0.13117333 0.086524166 0.04859449 0.05541448
0002d0 08 d3 a8 bb 64 de 46 bd 77 65 10 3a 2b fb 4e 3c
       -0.00515211 -0.048551932 0.00055082835 0.012633125
0002e0 18 b6 43 3e 04 a3 6e be 72 02 85 3d 63 93 a1 bd
       0.19112432 -0.23304373 0.06494607 -0.0788944
0002f0 29 01 73 3d 2b 72 87 3d 9d 76 7e bd 0d d3 41 bc
       0.05932728 0.06613573 -0.062124837 -0.011830104
000300 ae 11 48 3b 63 70 6d 3d 31 38 e8 3c e5 eb 86 be
       0.0030528116 0.05796851 0.028347107 -0.26351848
000310 35 74 6b bb 05 d9 2c 3d 6a 42 08 3c 0d bc 05 3e
       -0.003592742 0.042199153 0.008316616 0.13060017
000320 f0 de 2b 3e 94 72 da 3c 62 ff e9 ba 28 39 46 be
       0.16784263 0.026665963 -0.0017852599 -0.19357741
000330 db 22 05 bc 62 5a 53 3e e5 c4 6a bd 17 20 34 3d
       -0.008125986 0.20639947 -0.05731668 0.043975916
000340 83 68 c9 bd 45 86 b2 bd 80 c8 d1 3d 2f 59 6c 3d
       -0.09834387 -0.08717016 0.102433205 0.05770224
000350 7b ad 40 be c5 ae 43 be dc 4c 5a 3d 7e 18 99 3d
       -0.18816178 -0.19109638 0.053295955 0.07475375
000360 73 c0 34 3d 30 39 c0 3d fc 2a e4 3c e9 d0 8a bd
       0.044128846 0.09385908 0.027852528 -0.06778128
000370 ef 9e 2b be c6 fb a6 3d be b6 b5 bd a2 59 9e bd
       -0.16759847 0.08153491 -0.08872746 -0.0773194
000380 25 31 85 bc 24 2e 57 bd 9d 02 b0 3b 1a 31 b0 bd
       -0.016258786 -0.052534238 0.0053714053 -0.086031154
000390 04 3c 0e be 3c b2 31 3d 70 eb 52 3d 02 ac 64 3d
       -0.13890082 0.04338287 0.051494062 0.055828102
0003a0 36 5c 9e bc ce a1 93 bd 3c de 68 bc 71 27 06 be
       -0.019331079 -0.07208596 -0.014213141 -0.13100983
0003b0 5f 2c 64 3d 29 0e 10 bd 29 e2 17 bd 61 21 89 3b
       0.055706378 -0.035169754 -0.037080918 0.0041848873
0003c0 94 9d 9e 3d 94 d3 4d 3d 61 1c 15 3c 63 15 67 bc
       0.077448994 0.050250605 0.009101004 -0.01410422
0003d0 e6 dd 32 be 36 c1 55 bd 9d fe 8d 3d 83 e1 7b 3d
       -0.1746746 -0.052186213 0.06933329 0.06149436
0003e0 e3 22 4b 3d 9d 1b 98 bd 16 1d ac 3d 67 e6 bb bd
       0.049593817 -0.07427142 0.08403985 -0.09174805
0003f0 a0 52 b0 bd c9 38 f5 bc 4b 79 0c 3e 6e 1f 1a be
       -0.086095095 -0.029934304 0.13718145 -0.15051052

network_body._body_endoder.seq_layers.2.bias f4 [128]
000000 c7 da e5 3a 02 fb 57 3a ac 98 71 bb 2b 4c d0 bb
       0.0017536514 0.0008239002 -0.0036864681 -0.006356736
000010 13 42 9a 3a a9 2a 76 3b ab ff 04 ba 57 ca 83 bb
       0.0011768959 0.0037562049 -0.0005073498 -0.0040219235
000020 e1 18 a4 bb c8 bc ea ba 8e 26 86 3a 6e 0f 8c bb
       -0.0050078486 -0.0017909044 0.0010234879 -0.0042743003
000030 1a 48 72 bb a4 0e dc b9 98 4d 1d 3a f5 28 c5 ba
       -0.0036969245 -0.00041972578 0.0006000637 -0.0015042113
000040 bf 9c fb ba 4b 6d 96 3a 2b f0 0c b8 09 ee 93 bb
       -0.0019196494 0.0011476664 -3.3602275e-05 -0.00451446
000050 9a 49 fb ba 79 e6 64 ba 5a 4f 1b bb da 80 fd 38
       -0.0019171715 -0.0008731853 -0.002369842 0.000120879806
000060 aa 0a 8e ba d7 4c 8e 3a 96 75 d7 ba 91 e0 4e bb
       -0.0010836918 0.001085664 -0.0016438242 -0.0031566957
000070 4a 56 de 39 91 80 82 ba 7c 02 bf bb 8f 91 b4 bb
       0.0004240743 -0.0009956529 -0.0058291536 -0.005510516
000080 12 f6 61 bb 5f 7e f6 ba 04 50 5e bb 8f 3a 0a 3b
       -0.0034478945 -0.0018805972 -0.0033922205 0.0021092033
000090 d4 88 76 39 1d 4e dd 39 9d f0 a4 bb 95 c8 33 bb
       0.0002351136 0.00042210604 -0.005033566 -0.0027432789
0000a0 6c 0c 3b bb d8 d8 69 3a 44 71 88 39 39 3d 89 bb
       -0.002854134 0.0008920557 0.0002602433 -0.0041882065
0000b0 8c fc 12 bb 64 82 03 bc ea 3c 71 ba 65 e7 62 bb
       -0.0022428362 -0.008026693 -0.00092024973 -0.0034622785
0000c0 ab f2 4a bb 79 bc 5e 3b 21 f4 c2 ba c8 b1 19 bb
       -0.0030967395 0.003398685 -0.0014873781 -0.0023451913
0000d0 3e 5c df ba 84 e6 da ba 82 07 be bb a3 06 5f bc
       -0.001704104 -0.0016700779 -0.005799235 -0.013612422
0000e0 cb c6 58 3a 46 ff 11 bb 0d de d5 38 5e 0f 3b bb
       0.00082693686 -0.00222774 0.00010197992 -0.0028543095
0000f0 42 e4 f0 39 84 24 5b ba 8a cd 9b 37 02 6d f4 bb
       0.00045946433 -0.0008359628 1.8573151e-05 -0.007459284
000100 31 2d 52 bb 7d 8b 92 bb fa 4b 58 b9 41 55 d3 3a
       -0.0032070393 -0.0044721947 -0.00020627669 0.001612343
000110 4e bd 16 bb 22 87 2d ba 20 a2 8d bb 0c 8d c4 3a
       -0.0023001018 -0.00066195626 -0.0043223053 0.0014995649
000120 94 8d 78 bb 64 ae 4f 3a 3c f1 00 3a 5f f0 25 bb
       -0.0037926184 0.00079224096 0.0004918759 -0.0025320274
000130 ae 91 3a bb 9b 2f 12 3b 0a 73 0c bb b3 4d e9 b9
       -0.002846818 0.0022306207 -0.0021430873 -0.00044499114
000140 84 7a 47 ba a6 8d e7 ba 6d 37 25 ba ce 8f 3b bb
       -0.0007609504 -0.0017666116 -0.00063025096 -0.002861965
000150 8a 11 19 bb 52 57 bc ba 44 bb 2d bb 33 8f 99 ba
       -0.0023356401 -0.0014369285 -0.0026509324 -0.001171565
000160 cd ea ec ba 5b 8c a8 bb 8e ae 9e ba 73 f7 06 bc
       -0.0018075347 -0.005143685 -0.0012106465 -0.008237707
000170 16 46 2c ba 2f f7 a0 bb 67 24 10 bc ad 88 0c bb
       -0.0006571723 -0.004912279 -0.0087977415 -0.002144377
000180 fc 57 23 bb 37 47 42 3a ad e3 e6 ba 9b f4 21 3b
       -0.002492427 0.00074111245 -0.001761546 0.0024712447
000190 4b 0a e1 bb 96 96 11 bb 8f 9e 34 bb ed f8 30 ba
       -0.006867682 -0.0022215 -0.0027560329 -0.000675096
0001a0 76 29 a3 3a cc a0 63 bb e1 df 23 bb a4 2a 0e bb
       0.0012448269 -0.0034733294 -0.0025005268 -0.0021692896
0001b0 f7 b8 6e bb b1 ea df ba 72 30 19 bb d8 83 bb 3b
       -0.0036426166 -0.0017083493 -0.0023374823 0.005722504
0001c0 74 ce 1c ba a6 98 0e bb a6 89 78 3a 93 57 f7 b9
       -0.00059816916 -0.0021758466 0.00094809604 -0.0004717676
0001d0 5c c4 82 bb e3 66 77 bc 7e b0 5b bb 9a 7f 87 b7
       -0.003990693 -0.015100214 -0.0033521946 -1.6152673e-05
0001e0 e6 b5 4e bb 99 41 1e ba 45 dc 20 ba b5 27 81 bb
       -0.0031541525 -0.00060369965 -0.00061363383 -0.003941501
0001f0 c6 20 d3 bb 9c 6c 82 3b 43 cb 7c bb fc be 3a ba
       -0.006443116 0.0039802324 -0.0038573302 -0.0007123796

action_model._continuous_distribution.log_sigma f4 [1, 2]
000000 db f0 6b bc e3 c7 9d bc
       -0.014400686 -0.019260352

action_model._continuous_distribution.mu.weight f4 [2, 128]
000000 6d aa 73 bc d2 bb 5e 3b 98 40 bc 3b 65 15 4f 3b
       -0.014872176 0.0033986461 0.005745005 0.0031598445
000010 fe 4e 88 bb 3d 5d b8 3c 05 8d e0 bb d4 86 e0 bb
       -0.004159807 0.022505397 -0.0068527483 -0.0068520103
000020 46 d8 de 3b 49 e2 88 3c a5 75 da 3c 7d 86 0b 3c
       0.006800684 0.016709464 0.026667425 0.008515951
000030 cd 05 31 3c ce 5b 88 bc 43 f5 ae bb 84 b7 4f bb
       0.010804606 -0.016645338 -0.005339296 -0.0031695077
000040 eb 8b 92 bc 4c df 97 3c f5 72 e9 3c b3 9a 4f 3b
       -0.017888984 0.018539093 0.028497199 0.0031677901
000050 4b 72 87 3b 2b d1 c3 3c d2 e6 24 bc cc b5 2a 3d
       0.004133498 0.02390345 -0.0100647975 0.04167728
000060 17 24 b4 3b 1f d0 e1 bc d9 00 ee bb e1 05 95 3b
       0.0054974663 -0.02756506 -0.0072632846 0.00454782
000070 6f d0 92 3c 8f db e9 3a 63 07 9a bb c5 04 ba bb
       0.017921655 0.0017841923 -0.0047005876 -0.005676838
000080 7c 4c cd 3c 4b a3 71 bb bf f5 62 3c 88 c2 2f bc
       0.025060885 -0.0036871012 0.013852536 -0.010727532
000090 cd dd a0 3c bd 96 85 3c 6a 67 b1 b9 9a c6 6d bb
       0.019637013 0.01630723 -0.0003383712 -0.0036281706
0000a0 00 1e fa 3c 33 98 a1 bc b9 32 39 3d 17 12 a8 bb
       0.030531883 -0.019725895 0.04521439 -0.0051291096
0000b0 1d 72 12 bc bb e3 2f 3b 44 f4 1d bc b9 82 b7 b9
       -0.00893834 0.0026838619 -0.009640757 -0.00035001876
0000c0 3e 43 84 3b f0 c5 31 3a 5c 0b 65 bc 0c fe 22 3c
       0.004036336 0.0006781509 -0.013979759 0.009948265
0000d0 aa b3 7a 3c b2 f1 19 3d 54 fb 6a 39 c1 40 c9 ba
       0.015301624 0.037584014 0.00022409606 -0.0015354381
0000e0 73 74 dd bb a5 c5 f8 bb 63 f6 86 3c 6e 5b a3 ba
       -0.0067582666 -0.0075919204 0.016474908 -0.0012463161
0000f0 7d dd 29 bc 84 d3 29 bc 63 ff d4 3c d7 d9 7e 3b
       -0.010367748 -0.010365371 0.026000684 0.0038887167
000100 02 45 28 3c 84 70 52 3b 0e b4 ea bc 45 1c 63 bc
       0.010270359 0.0032110522 -0.02865031 -0.01386172
000110 e4 cd 2e 3c df 73 99 bb fd 63 91 3c c8 69 9d bb
       0.010669205 -0.0046830024 0.017747873 -0.00480387
000120 5d 60 cf bb d9 23 b9 3c f5 f2 b5 3b ee 29 3e 3b
       -0.006328626 0.022600101 0.0055526444 0.0029016691
000130 5a b1 d2 3c 78 ad 85 3c f1 bd 10 3d 30 44 40 3c
       0.025719333 0.016318068 0.035337392 0.011735007
000140 69 14 05 bc 6c 9e 23 bc 66 56 1a 3a 93 4c 8e bc
       -0.008122542 -0.009986501 0.0005887508 -0.017370498
000150 99 53 0d bc d3 6e 7e 3b 6d 7e 9b bc 24 d2 85 3c
       -0.008625888 0.003882338 -0.018981183 0.016335554
000160 9d 65 ee 3c b4 af a2 bb ef 2a 7b 3c 57 d5 4b bb
       0.029101187 -0.004964793 0.01533006 -0.0031102502
000170 f5 18 6e 3c 93 da d6 3c ce cf 2b bb 77 a7 10 bc
       0.014532317 0.026227271 -0.002621639 -0.008828989
000180 f8 7d 5b 3b 6e 89 cd bc 67 cd c6 3b b9 c5 ab bb
       0.0033491831 -0.025089946 0.0060669663 -0.0052420762
000190 3b 34 b7 bb 06 4a 94 3c 71 cd 24 3c c5 20 17 bc
       -0.005590943 0.018101703 0.010058747 -0.009224121
0001a0 33 66 11 bc 87 2c ee bc 41 43 f1 3b 00 01 7c bc
       -0.008874464 -0.029073967 0.0073627536 -0.015381098
0001b0 dc d1 88 3c 4a 27 ca bc f4 88 04 bc d2 4f 9c ba
       0.016701631 -0.024676938 -0.008089293 -0.0011925644
0001c0 4b 56 09 ba 6e 0e 26 3d f0 02 a4 bc 5a d9 64 bc
       -0.0005238994 0.040541105 -0.020020932 -0.013967836
0001d0 a1 f8 58 bc ec 69 d7 ba 17 ff 6a 3b 2b 15 49 bc
       -0.0132428715 -0.0016434765 0.0035857612 -0.012273113
0001e0 b1 b4 bf bb a4 eb a1 bb 18 87 10 bc 86 38 8a bb
       -0.0058503975 -0.0049414206 -0.008821271 -0.004218164
0001f0 18 ed 3f b9 e9 4e 1c bc d5 2a f0 3b 5c 71 00 bd
       -0.00018303504 -0.009540298 0.0073293247 -0.031358108
000200 b4 30 c8 b9 11 21 52 3c 8a 98 2a 3c bd bd c7 3a
       -0.0003818326 0.012825266 0.010412345 0.0015239042
000210 ea 50 41 3b ab 8c 0d 3d 15 e4 a1 bc f8 89 85 bc
       0.0029497691 0.03455798 -0.019762078 -0.01630114
000220 66 b5 bf 39 bc 02 df bb 3e 19 36 bd 36 d3 12 3c
       0.0003656551 -0.006805746 -0.044457667 0.008961489
000230 5a 65 03 3b da 97 49 bb 28 e0 d3 ba 14 96 c7 3b
       0.0020049424 -0.0030760677 -0.0016164826 0.0060908888
000240 8b 18 80 bb 61 ac f1 bc fb 72 a0 bc cc 45 33 3c
       -0.0039091757 -0.029501142 -0.019586077 0.010941934
000250 1d 34 ae 3c 08 58 05 bd 39 95 29 bc a9 24 ba 3b
       0.021265084 -0.032554656 -0.010350519 0.0056806398
000260 8f 80 2e bc 7b 67 a7 bc cc 71 e0 3b c5 f7 73 bb
       -0.010650768 -0.020435086 0.006849503 -0.003722654
000270 9b 5f d3 bc db a1 93 3c c8 3b 46 3b 9f 33 ec ba
       -0.025802424 0.018021515 0.0030248035 -0.0018020755
000280 f2 c7 87 3c b0 80 32 bc b9 28 da bb 0f 44 87 bc
       0.016574834 -0.010894939 -0.0066576866 -0.016511945
000290 83 e5 cd bc 16 b2 a3 3c 1b 57 cc b8 64 83 66 3c
       -0.025133854 0.019982379 -9.743703e-05 0.014069412
0002a0 a1 1f 04 bc 64 a4 79 bc 51 eb 4c 3b 55 a2 77 3c
       -0.008064182 -0.015236948 0.003126819 0.015114387
0002b0 a9 f1 a5 bb 37 a7 73 3b 52 34 2c 3b 2f dd ea bb
       -0.0050642085 0.0037178525 0.0026276303 -0.0071674804
0002c0 04 bb 6f 3c d1 a4 c1 b9 2f bc 26 bc a0 97 bf bb
       0.01463199 -0.00036934626 -0.010176702 -0.0058469325
0002d0 68 6d 92 bc 67 b3 0e 3c 5a 5f fe ba 0e 4e ce 39
       -0.017874435 0.008709765 -0.0019407079 0.00039349537
0002e0 72 8e 22 3b 45 48 db 3c e6 e1 36 3c 41 82 64 bc
       0.0024804142 0.02676786 0.011162257 -0.013947071
0002f0 3c dc 0e bc 5d 3c be bc e0 23 93 bc c1 80 52 b9
       -0.0087195 -0.023222143 -0.017961442 -0.00020075125
000300 b7 90 d8 ba 33 3d 39 3c b8 47 f6 bc d7 44 de bc
       -0.001652262 0.011306095 -0.030063495 -0.027132435
000310 8a 3a 12 bb eb c7 ba bc d4 53 33 3d 01 7a f7 ba
       -0.0022312724 -0.022800406 0.043781117 -0.0018880964
000320 aa 54 1a 3d 6b cd 43 3c ef d6 18 bc 85 53 de 3c
       0.0376784 0.011950831 -0.009328588 0.027139435
000330 38 9b 1a ba 1d d3 76 3c 03 cd 36 3c 62 7e 9e 3c
       -0.0005897763 0.015064982 0.011157277 0.019347373
000340 ec b1 0f bd 8c e7 ee ba 62 e0 da 3c ca 38 0a 3c
       -0.03508179 -0.0018226965 0.026718322 0.008436391
000350 2c e8 80 bb 53 87 3d bc 15 fa 56 3c 94 ef ea bb
       -0.003933927 -0.011567908 0.013121148 -0.007169673
000360 00 ea 01 bc 86 91 84 3c a7 e6 a2 3c c2 09 42 bb
       -0.007929325 0.016182672 0.019885374 -0.0029607867
000370 84 fc 07 bd c4 31 9e 3c a8 0c 19 bb 6c 68 ad ba
       -0.033199802 0.01931084 -0.002335349 -0.0013229973
000380 1e 1a bd bb d3 67 67 bc bc 67 3f bc d9 68 5a bc
       -0.0057709357 -0.014123875 -0.011682447 -0.013330662
000390 70 40 38 3c a8 29 cc 3c df e7 32 bb 9e 94 1e 3c
       0.011245832 0.024922207 -0.002729885 0.009678988
0003a0 e6 16 b2 3b eb 25 b1 ba cf 79 d9 bb 52 96 a6 bb
       0.0054348586 -0.0013515329 -0.006636835 -0.0050838375
0003b0 d2 77 e8 bc a6 e7 9e ba be 26 25 bc bf d0 b0 bb
       -0.028377447 -0.001212348 -0.010080038 -0.005395978
0003c0 3c f8 87 bc f9 1e f8 3c da 3e 13 bd cc 7d a5 bb
       -0.01659786 0.030288206 -0.03594861 -0.0050503965
0003d0 89 8a 83 3c 94 80 83 b8 50 d4 e6 3c 16 42 06 bd
       0.01605727 -6.270516e-05 0.02817741 -0.03277787
0003e0 46 72 e4 3c d4 93 30 bc 15 b9 ca bc f1 2f b5 bb
       0.027886521 -0.0107774325 -0.024746457 -0.0055293967
0003f0 28 55 a9 3a d5 55 54 bc 03 67 91 3b 69 88 0f bc
       0.0012919055 -0.012959917 0.004437329 -0.00876055

action_model._continuous_distribution.mu.bias f4 [2]
000000 2c 77 aa b7 d7 82 e9 ba
       -2.0321073e-05 -0.0017815483
