GameAI3/Config/results/dwarf_2/Dwarf/Dwarf-47142.pt (torch, 583135 bytes, 36 tensors)

network_body._body_endoder.seq_layers.0.weight f4 [128, 53]
0.16023429 -0.06637716 0.03597705 -0.009274681 0.03825769 0.036990095 -0.042495824 -0.0071060746
0.13184255 0.22991784 0.2538374 -0.098869614 0.17067392 0.019341972 0.12649716 -0.004865662
0.1391374 0.14589594 0.09419664 -0.012740329 0.03579981 -0.29511866 -0.06816502 0.2188059
0.056397825 0.20656615 -0.2886193 -0.1923414 -0.13227639 -0.117353015 -0.0026589574 0.0047472413
-0.22223403 -0.014238785 0.036005367 -0.03837492 -0.11765252 -0.04790659 0.059435666 -0.0725373
0.07276918 0.07886457 0.0018843763 -0.0005596471 -0.2968637 -0.030958936 0.0141182775 0.13195817
0.1903694 0.07338841 0.047656912 -0.06816332 0.1259911 0.10114398 0.07714069 0.015893646
-0.121338785 -0.11508513 -0.094013914 0.16673318 0.13699336 0.019332314 0.19140072 -0.07597112
0.02038885 -0.25536355 0.09082194 0.027672822 -0.061874293 0.07773396 -0.05677273 0.070261896
0.037842534 -0.06874785 -0.029395467 0.11128372 0.15535167 0.026563527 -0.13706906 -0.3833601
0.0064427964 0.28730592 -0.32287756 -0.09096247 0.1537916 0.13530312 -0.044733465 0.03551599
0.020360209 0.07664643 0.21003664 0.123677306 0.0846652 0.079032436 0.08499273 0.050346952
0.09834417 -0.10045257 0.17129181 0.03281939 0.09857047 -0.16835988 -0.08081969 0.12255021
-0.25216004 -0.0038291535 -0.09396053 -0.09903579 0.24401724 -0.03668011 -0.017539259 0.2908156
0.1572503 0.14769153 -0.033356536 -0.12817664 -0.029641734 0.0023588736 0.045009255 -0.10377665
-0.1395075 0.13396162 -0.121882245 -0.016294673 0.029141225 -0.15236191 -0.100165196 0.28799984
0.008696948 0.055233102 0.059389036 -0.06346755 -0.119997874 -0.06825365 0.017226385 0.038021546
-0.094784826 0.042248648 -0.009820427 -0.034748927 -0.10030037 -0.102726534 0.1810289 0.19000782
-0.002798647 0.01735708 -0.102409646 -0.054174405 0.042135805 -0.050068837 0.028117293 -0.16631168
0.093633376 -0.006957096 0.009873852 0.23074642 -0.06547089 -0.017840682 0.15183462 0.23561385
0.17216334 0.07403605 -0.23385376 0.020729901 -0.05744971 0.10139951 -0.042163637 0.10944107
-0.20007129 0.04322737 0.15129153 -0.095857695 -0.10658976 0.1926009 0.095945366 0.08373164
0.095432684 -0.15079887 -0.13227028 -0.050178614 0.03487926 -0.1127088 0.06192873 -0.07167907
0.26464033 0.122111306 0.09807584 -0.022770012 -0.046125818 0.21658412 0.41347915 -0.111628264
0.019149994 0.13940872 0.05557809 0.108100206 0.11717948 -0.033441376 0.15800913 0.05647991
-0.03976168 0.062449563 -0.016801745 -0.18265793 0.006994146 -0.15659174 -0.093977965 -0.17395975
0.020936903 0.02037556 0.11600602 0.14720605 -0.07042407 -0.11084288 0.12099701 -0.25774473
-0.2858091 0.008525938 -0.004984611 0.0653002 -0.086283386 -0.004873423 -0.05229596 0.048827607
-0.19496399 -0.104475014 -0.10041464 0.068713054 0.161559 0.05660056 -0.0047496418 -0.32975402
-0.018246163 -0.065643124 0.26185122 -0.0066012214 -0.33539313 0.10388866 0.13930814 -0.08102092
-0.16806911 0.07024363 -0.041454036 0.14098878 -0.12002826 0.18848024 -0.08350209 -0.16469128
0.009105837 -0.009810432 0.2604265 -1.1260927e-05 -0.17520943 -0.031225296 0.0064525134 -0.24363635
00000000: 7514 243e c0f0 87bd ac5c 133d d5f4 17bc
00000010: 18b4 1c3d ed82 173d 1a10 2ebd 13da e8bb
00000020: bc01 073e 956f 6b3e faf6 813e 277c cabd
00000030: 25c5 2e3e 0e73 9e3c 7988 013e 2270 9fbb
00000040: 097a 0e3e bf65 153e 2bea c03d d0bc 50bc
00000050: d2a2 123d cb19 97be 1a9a 8bbd a70e 603e
00000060: 6801 673d 1486 533e e9c5 93be 25f5 44be
00000070: 7673 07be c756 f0bd e741 2ebb bf8e 9b3b
00000080: 5191 63be cb49 69bc 5d7a 133d 052f 1dbd
00000090: cef3 f0bd b339 44bd d072 733d 708e 94bd
000000a0: 0208 953d bf83 a13d 2dfd f63a 48b5 12ba
000000b0: 85fe 97be 989d fdbc 5950 673c 0b20 073e
000000c0: 32f0 423e aa4c 963d e533 433d 3699 8bbd
000000d0: d003 013e 9324 cf3d f0fb 9d3d 6433 823c
000000e0: 7880 f8bd c1b1 ebbd 5e8a c0bd 1abc 2a3e
000000f0: fd47 0c3e cd5e 9e3c 8dfe 433e bf96 9bbd
00000100: 8406 a73c 03bf 82be da00 ba3d 1db2 e23c
00000110: e66f 7dbd fb32 9f3d 868a 68bd 78e5 8f3d
00000120: c600 1b3d accb 8cbd c3ce f0bc b8e8 e33d
00000130: 8214 1f3e c19b d93c d55b 0cbe c647 c4be
00000140: 181e d33b c319 933e 3550 a5be 884a babd
00000150: 8c7b 1d3e e78c 0a3e 703a 37bd 3779 113d
00000160: 74ca a63c cef8 9c3d d813 573e 874a fd3d
00000170: f364 ad3d c2db a13d ab10 ae3d 9b38 4e3d
00000180: ab68 c93d 14ba cdbd 1f67 2f3e a06d 063d
00000190: 51df c93d 8866 2cbe cb84 a5bd 9bfb fa3d
000001a0: 1f1b 81be 89f2 7abb 616e c0bd 47d3 cabd
000001b0: a8df 793e e23d 16bd 7eae 8fbc c8e5 943e
000001c0: 3906 213e 733c 173e dda0 08bd bd40 03be
000001d0: 39d3 f2bc 5597 1a3b a05b 383d da88 d4bd
000001e0: 0edb 0ebe 3c2d 093e 669d f9bd 687c 85bc
000001f0: 94b9 ee3c c304 1cbe 6923 cdbd b774 933e
00000200: a57d 0e3c 1b3c 623d eb41 733d 46fb 81bd
00000210: 72c1 f5bd 92c8 8bbd 591e 8d3c 7bbc 1b3d
00000220: 8c1e c2bd eb0c 2d3d dbe5 20bc e454 0ebd
00000230: 486a cdbd 4a62 d2bd a45f 393e 6991 423e
00000240: 8169 37bb 6f30 8e3c 26bc d1bd fbe5 5dbd
00000250: 9896 2c3d fb14 4dbd 3d56 e63c 9c4d 2abe
00000260: dbc2 bf3d 5af8 e3bb f0c5 213c ca48 6c3e
00000270: 9a15 86bd 9f26 92bc 897a 1b3e c244 713e
00000280: 964b 303e 36a0 973d 5c77 6fbe c1d1 a93c
00000290: 6350 6bbd 8caa cf3d c7b3 2cbd a422 e03d
000002a0: 7ddf 4cbe 2f0f 313d 2bec 1a3e 0a51 c4bd
000002b0: bb4b dabd 2c39 453e 017f c43d 7e7b ab3d
000002c0: 3672 c33d 056b 1abe dc71 07be 1788 4dbd
000002d0: 8edd 0e3d dfd3 e6bd fba8 7d3d 7acc 92bd
000002e0: f07e 873e 7e15 fa3d fcdb c83d 2d88 babc
000002f0: 6dee 3cbd 3ac8 5d3e 8ab3 d33e 5c9d e4bd
00000300: 73e0 9c3c 29c1 0e3e daa5 633d a463 dd3d
00000310: ccfb ef3d d3f9 08bd 25cd 213e 7a57 673d
00000320: 25dd 22bd 1dcb 7f3d d0a3 89bc ae0a 3bbe
00000330: 262f e53b 9659 20be 8577 c0bd 8122 32be
00000340: de83 ab3c a5ea a63c 9094 ed3d 2fbd 163e
00000350: 7f3a 90bd 9801 e3bd 48cd f73d 1ef7 83be
00000360: 9255 92be 60b0 0b3c f355 a3bb 1cbc 853d
00000370: 58b5 b0bd 3cb1 9fbb 4a34 56bd 75ff 473d
00000380: a4a4 47be fff6 d5bd 31a6 cdbd 6eb9 8c3d
00000390: b96f 253e fdd5 673d e2a2 9bbb 85d5 a8be
000003a0: fa78 95bc e76f 86bd 5d11 863e 0f4f d8bb
000003b0: a6b8 abbe 94c3 d43d cba6 0e3e 4cee a5bd
000003c0: 4f1a 2cbe e4db 8f3d b5cb 29bd 5d5f 103e
000003d0: 60d1 f5bd f700 413e 2503 abbd d5a4 28be
000003e0: a630 153c efbb 20bc 9f56 853e 50ed 3cb7
000003f0: 1a6a 33be 31cc ffbc 9b6f d33b cf7b 79be

network_body._body_endoder.seq_layers.0.bias f4 [128]
0.0006554117 0.0013977097 -0.0059004445 0.0003586545 -0.00077214785 -0.0009089336 -0.008252997 -0.0011749455
0.0064706253 0.00024767302 -0.004422599 -0.0001461601 0.00022029449 -0.001043088 -0.0024211444 -0.0010319129
0.0019630035 -0.0031439394 -0.0066153007 -0.00454257 -0.0003838708 -0.00049877225 0.009585765 -0.0019669957
-0.0010878952 -0.000510253 2.9571165e-05 -0.00087062607 0.001923602 -0.0023691214 0.0012282876 0.0008045935
-0.002940394 0.0029360154 0.0027537474 -0.0016092184 -0.003402474 -0.0031544515 0.002324381 0.0018163637
-0.000116244795 -0.0023486826 -0.00059264415 0.000575013 -0.0019490076 -0.0029858034 -0.004076535 0.0075279833
-0.0019861495 -0.0058171037 -0.00057598803 -0.0036649848 -0.0016807026 0.0030014804 -0.0061293575 0.002127168
-0.0018183866 -0.0074576633 0.00043423285 -0.0014877763 0.0060539576 -0.0001094711 -0.0029913501 0.009569716
-0.0045583113 0.0033909571 -0.0019244825 -0.0016823912 -0.0014145816 -0.0008670162 -0.0018729907 -0.0022393935
0.004968862 0.0019140034 -0.0003297914 -0.004558963 -0.00093091186 -0.0002458918 -0.0010403845 0.005953932
-0.008150371 -0.0026372971 -0.0056081023 0.0016108458 0.004305601 0.0065879296 0.008531531 -0.001263066
-0.0015650888 -0.0015156551 -0.001363947 -0.0033838223 -0.007319991 -0.0028909948 -0.007985577 0.018648963
-0.0067210956 0.00071008236 0.0020738412 0.0014886612 0.011289659 -0.0065070456 0.00038868448 -0.0025126645
0.0061422945 0.005493845 0.005755039 -0.00282897 -0.0050034476 -0.0016366607 -0.0057141315 0.0014766965
-0.0020231337 -0.0014091834 -0.00050033105 0.0022147032 -0.0018706508 0.005698476 0.0015437363 0.009388909
-0.00294683 0.013230386 -0.0025385865 -0.008059732 -0.0036455777 -0.002398777 -0.0015268379 -0.001798625
00000000: efcf 2b3a 5b33 b73a 8458 c1bb cb09 bc39
00000010: f769 4aba 8045 6eba 9437 07bc a100 9aba
00000020: 8a07 d43b 1cda 8139 73eb 90bb 8e42 19b9
00000030: dafe 6639 3ab8 88ba 10ac 1ebb 4041 87ba
00000040: bca5 003b 8d0a 4ebb 2ac5 d8bb d7d9 94bb
00000050: 4442 c9b9 0ac0 02ba 9d0d 1d3c b6e8 00bb
00000060: b597 8eba 80c2 05ba 980f f837 ba3a 64ba
00000070: 5f21 fc3a 4343 1bbb 7efe a03a 5beb 523a
00000080: a0b3 40bb 2a6a 403b 3778 343b 69ec d2ba
00000090: 0bfc 5ebb eaba 4ebb a454 183b 0d13 ee3a
000000a0: 73c8 f3b8 5bec 19bb ad5b 1bba 78bc 163a
000000b0: d875 ffba 78ad 43bb 7494 85bb 4dad f63b
000000c0: 0f2a 02bb 679d bebb e7fd 16ba 3e30 70bb
000000d0: 054b dcba 7cb4 443b c7d8 c8bb f567 0b3b
000000e0: ee56 eeba 6a5f f4bb bfa9 e339 7d01 c3ba
000000f0: 4760 c63b d993 e5b8 870a 44bb 4cca 1c3c
00000100: e35d 95bb d23a 5e3b eb3e fcba ae83 dcba
00000110: 7b69 b9ba 7948 63ba 247f f5ba cac2 12bb
00000120: d6d1 a23b 4cdf fa3a dae7 acb9 5a63 95bb
00000130: 7008 74ba 0aeb 80b9 835d 88ba 3419 c33b
00000140: 2289 05bc 81d6 2cbb 2cc4 b7bb 0423 d33a
00000150: 0016 8d3b 8fdf d73b d6c7 0b3c 768d a5ba
00000160: aa23 cdba f2a8 c6ba 78c6 b2ba 1ec3 5dbb
00000170: 89dc efbb d876 3dbb f0d5 02bc b6c5 983c
00000180: a33c dcbb d224 3a3a 48e9 073b 2e1f c33a
00000190: 43f8 383c 0e39 d5bb 59c8 cb39 84ab 24bb
000001a0: 4d45 c93b b605 b43b c494 bc3b 3e66 39bb
000001b0: f6f3 a3bb 3885 d6ba 9c3d bbbb b68d c13a
000001c0: 8d96 04bb 59b4 b8ba a628 03ba 8e24 113b
000001d0: a030 f5ba 48ba ba3b 3257 ca3a f0d3 193c
000001e0: 9a1f 41bb 43c4 583c 6a5e 26bb f70c 04bc
000001f0: a5ea 6ebb cd34 1dbb 2e20 c8ba d7bf ebba

network_body._body_endoder.seq_layers.2.weight f4 [128, 128]
0.05623264 -0.021706305 0.041153893 -0.07343308 -0.025082774 -0.13310947 -0.11016394 0.03839318
0.05140059 0.04530762 -0.15146874 0.034916516 -0.07058062 0.05435873 0.14741658 0.085762985
0.087832615 -0.045978494 -0.005187062 -0.03403898 0.01894883 0.020484382 -0.057417672 -0.07087218
-0.009035989 -0.011467216 -0.07071221 0.12843035 0.026138928 0.083453834 -0.023387238 0.06358384
-0.10999081 0.059116866 0.04193326 0.12063829 0.035573788 0.0794823 -0.033921897 0.07770975
-0.04561352 0.003372192 -0.13304518 0.087914966 -0.031013275 -0.1989728 0.01058876 -0.19115871
-0.079660654 0.07955132 -0.05611076 -0.079685315 -0.06419255 0.0006231769 -0.02959831 0.028392073
0.042049248 0.0081097 -0.016891053 -0.10142586 0.03429858 -0.13877569 -0.015888114 -0.20265368
-0.0077972487 -0.011659152 -0.0691807 0.11195153 0.08275904 0.0413173 -0.02383677 0.023717035
0.04115783 0.047081072 -0.0675482 0.11013907 0.094714664 -0.1527126 0.013359099 0.08690068
-0.050188784 -0.25026712 -0.13275926 0.0785492 0.011496239 0.013595862 0.11698516 0.0134129925
0.06051696 -0.022109775 0.037229892 0.039135434 0.10475706 -0.062336188 0.06953429 -0.13056682
-0.13919993 -0.13223596 0.0106469905 -0.035944123 -0.025165254 0.02121104 0.045721103 0.1253549
0.11345814 0.10333127 -0.04662386 0.010548115 -0.05581082 -0.024579348 -0.04689551 0.020025048
0.019569151 0.062401436 0.114903346 -0.07242494 0.08341765 -0.0059713293 -0.0996246 0.0076088393
0.033836234 0.16644506 0.006730666 -0.014332218 0.06702573 0.052867804 -0.019632533 0.11009382
-0.01806997 -0.17772171 0.06265735 0.10273776 0.19892813 -0.037162382 0.005948056 0.06208559
-0.01767467 0.13361816 -0.021198828 0.04534989 0.097678654 0.013712793 0.048690315 -0.10923514
0.06332639 -0.016371297 0.03843143 -0.002030585 0.06682292 0.1189696 -0.12383976 -0.06274436
0.09268862 -0.101138614 -0.06816758 -0.07446974 0.008928899 -0.08125496 0.04023165 0.04259055
0.064638235 -0.0077462764 -0.025796432 -0.05539138 -0.073094115 0.070437334 0.049040508 -0.040611885
-0.0647263 0.014515843 0.045731492 0.097958855 -0.11787295 0.04129534 -0.104396835 0.06990137
-0.14611164 -0.110459715 -0.07981562 -0.00993577 0.028195776 -0.17825203 0.1588012 0.06144958
-0.06631463 -0.117363654 -0.15248518 -0.055087656 -0.054163013 -0.1445409 -0.022456242 -0.042958982
-0.033181418 -0.03091848 -0.022768483 0.025425354 -0.24462157 -0.001980609 0.05641975 0.098886944
-0.118197426 0.09569614 0.03469829 0.10658558 0.013197803 -0.16227886 0.14434959 -0.2264592
-0.08477507 -0.10796673 0.053605776 -0.057603795 0.018676132 0.17098494 -0.08240623 0.040055532
-0.032253124 0.06729164 -0.09187745 0.12050754 -0.03412504 0.07372373 -0.03589928 0.119781904
-0.11858052 -0.12209313 -0.16636312 -0.007685279 0.06176663 -0.026056428 0.085363634 -0.11032516
-0.08048389 0.07647877 0.022490492 0.1728763 -0.049269587 -0.08725249 -0.051682554 0.15489255
-0.07700636 -0.066209644 -0.05205256 -0.018446738 -0.105293386 0.19279225 0.011606655 0.03161831
-0.047179826 -0.065303124 0.060420334 0.033755068 0.09678789 0.012593594 -0.04766286 -0.08176318
00000000: 3254 663d 6cd1 b1bc fc90 283d 1564 96bd
00000010: 647a cdbc d94d 08be a29d e1bd 2b42 1d3d
00000020: 6d89 523d 7c94 393d 9f1a 1bbe 9f04 0f3d
00000030: 928c 90bd 42a7 5e3d 5ff4 163e 81a4 af3d
00000040: 96e1 b33d f253 3cbd 3bf8 a9bb 756c 0bbd
00000050: 943a 9b3c ddce a73c cb2e 6bbd 6f25 91bd
00000060: af0b 14bc fde0 3bbc 90d1 90bd 3f83 033e
00000070: 4e21 d63c d8e9 aa3d 9896 bfbc 3f38 823d
00000080: dd42 e1bd 8724 723d 36c2 2b3d 3511 f73d
00000090: d2b5 113d 9ec7 a23d b0f1 0abd 4a26 9f3d
000000a0: 3ed5 3abd feff 5c3b ff3c 08be c30c b43d
000000b0: 8d0f febc 87bf 4bbe 7a7c 2d3c 1cbf 43be
000000c0: 2025 a3bd cdeb a23d 65d4 65bd 0e32 a3bd
000000d0: 6277 83bd b25c 233a 2878 f2bc 7e96 e83c
000000e0: d53b 2c3d 8cde 043c 1b5f 8abc 5cb8 cfbd
000000f0: ab7c 0c3d 371b 0ebe ca27 82bc 7284 4fbe
00000100: 1080 ffbb 0706 3fbc 9cae 8dbd d846 e53d
00000110: 927d a93d 543c 293d 5445 c3bc 3a4a c23c
00000120: 1d95 283d 15d8 403d b656 8abd 9890 e13d
00000130: c3f9 c13d b160 1cbe 1fe0 5a3c fcf8 b13d
00000140: c192 4dbd 0323 80be 0bf2 07be 67de a03d
00000150: b95a 3c3c 2ec1 5e3c ea95 ef3d 2bc2 5b3c
00000160: a2e0 773d 8f1f b5bc 5f7e 183d 7a4c 203d
00000170: df8a d63d 3b54 7fbd fe67 8e3d 4fb3 05be
00000180: 6d8a 0ebe dd68 07be b770 2e3c 253a 13bd
00000190: 5d27 cebc c6c2 ad3c 0d46 3b3d 095d 003e
000001a0: be5c e83d 589f d33d a9f8 3ebd 00d2 2c3c
000001b0: e399 64bd a15a c9bc 8215 40bd 920b a43c
000001c0: 7c4f a03c a698 7f3d 7252 eb3d 8753 94bd
000001d0: dfd6 aa3d 24ab c3bb fb07 ccbd 9253 f93b
000001e0: dd97 0a3d 9370 2a3e eb8c dc3b aed1 6abc
000001f0: c944 893d e98b 583d 68d4 a0bc de78 e13d
00000200: 7907 94bc aefc 35be 7f52 803d 2d68 d23d
00000210: d1b3 4b3e 9537 18bd e9e7 c23b 764d 7e3d
00000220: 78ca 90bc 33d3 083e 2aa9 adbc cec0 393d
00000230: bf0b c83d 9fab 603c 7f6f 473d acb6 dfbd
00000240: 44b1 813d 191d 86bc 466a 1d3d 9013 05bb
00000250: 75da 883d 55a6 f33d b39f fdbd 1d80 80bd
00000260: 88d3 bd3d c321 cfbd 729b 8bbd 9783 98bd
00000270: 844a 123c 0069 a6bd f1c9 243d 6e73 2e3d
00000280: 0d61 843d 7ad4 fdbb 0a53 d3bc 12e2 62bd
00000290: 5eb2 95bd 7341 903d b3de 483d a658 26bd
000002a0: 398f 84bd dcd3 6d3c f250 3b3d a79e c83d
000002b0: 6067 f1bd 4d25 293d 02ce d5bd 7328 8f3d
000002c0: 4a9e 15be b438 e2bd 5f76 a3bd a4c9 22bc
000002d0: d4fa e63c b387 36be c89c 223e 8eb2 7b3d
000002e0: f7cf 87bd 5b5c f0bd 1325 1cbe 98a3 61bd
000002f0: 09da 5dbd 8802 14be 27f6 b7bc c2f5 2fbd
00000300: 3de9 07bd c148 fdbc f884 babc d548 d03c
00000310: 147e 7abe 1bcd 01bb 6518 673d 3d85 ca3d
00000320: 7e11 f2bd 56fc c33d cb1f 0e3d 8a49 da3d
00000330: 993b 583c 6e2c 26be 61d0 133e ece4 67be
00000340: 8d9e adbd a91d ddbd bb91 5b3d f5f1 6bbd
00000350: b0fe 983c ad16 2f3e 99c4 a8bd 4511 243d
00000360: da1b 04bd 33d0 893d 3f2a bcbd a8cc f63d
00000370: b3c6 0bbd 78fc 963d 200b 13bd 3750 f53d
00000380: 58da f2bd f70b fabd 185b 2abe cbd4 fbbb
00000390: 01ff 7c3d 4a74 d5bc 21d3 ae3d 28f2 e1bd
000003a0: bdd4 a4bd e7a0 9c3d fb3d b83c 7c06 313e
000003b0: e8ce 49bd 6fb1 b2bd 16b1 53bd 279c 1e3e
000003c0: 83b5 9dbd ec98 87bd 1135 55bd 9d1d 97bc
000003d0: 0fa4 d7bd 556b 453e d729 3e3c 3382 013d
000003e0: a23f 41bd a5bd 85bd 507b 773d c142 0a3d
000003f0: bb38 c63d 5d55 4e3c 223a 43bd 7473 a7bd

network_body._body_endoder.seq_layers.2.bias f4 [128]
-0.00024928674 0.0002836993 -0.003467522 -0.0022215727 0.0028340851 -0.0031685682 -0.0034624164 0.00073760515
-0.0024904802 -0.00020913147 -0.0036768997 0.00012674788 -0.0036226586 0.0017341026 -0.0022192867 -0.0034413096
-0.0038339198 -0.0009702316 -0.002613772 -0.0013560943 0.0008244347 -0.006074278 -0.0038907912 0.0022277227
-0.0026458914 -0.0016698246 0.001978529 0.0015170558 -0.0073868087 0.0074218367 -0.005716834 -0.0035082265
0.0010664561 -0.003769702 -0.0029521964 -0.00023185457 -0.0011106189 0.001420501 -0.0021066745 -0.0041008857
-0.0012306619 -0.002509357 -0.0049735126 0.0027775906 -0.0013957449 -0.00068314315 -0.00078283064 0.0066657495
-0.0048337276 -0.0024103932 0.0030032552 -0.0017680605 -0.0011750241 0.00015116994 -0.0008042967 -0.0067217285
0.00055251695 -0.0018386489 -0.0016513058 0.000619062 -6.4868873e-06 0.0004777682 0.0011820142 -0.0036276157
-0.00051372615 -0.0021725423 -0.0013851188 -0.0010047691 -0.001985662 -0.0025410566 -0.001095406 -0.0013695866
-0.00083215325 -0.00076793524 0.0066976654 -0.0023264196 -0.00077210437 -0.0020402032 -0.0026125764 -0.0023313365
0.0010958255 -0.0002464147 -0.0077114184 -0.005436562 -0.0022180264 -0.0012892471 -0.0018244754 -0.0012018313
-0.0007541424 -0.0036432012 0.00052857475 -0.0018309285 -0.0049354243 -0.001128968 -0.0006169688 0.00018477443
-0.0037567448 -0.0031421962 -0.0016418746 -0.0026393908 -0.0028831225 0.0013681222 -0.0030650848 -0.0002166036
0.001240373 -0.0007648033 0.005134185 -0.0018926808 -0.0012811825 0.00080512016 -0.006005486 -0.0024079739
-0.0024289556 0.00055214483 0.0004979028 0.0026671838 -0.0062439027 0.00620271 -0.002972727 -0.0065036784
-0.0046886443 -0.00063412107 -0.007844727 -0.0007620842 -0.0029369998 -0.0006079848 -0.0026466798 -0.0011848464
00000000: b3b2 82b9 7abd 9439 5e3f 63bb ce97 11bb
00000010: 0fbc 393b c1a7 4fbb b5e9 62bb d85b 413a
00000020: 5337 23bb 4d4a 5bb9 24f8 70bb a0e7 0439
00000030: 206a 6dbb d44a e33a 7471 11bb 9887 61bb
00000040: 8042 7bbb 2457 7eba d14b 2bbb f9be b1ba
00000050: e01e 583a bd0a c7bb a5fc 7ebb fcfe 113b
00000060: b166 2dbb 04de daba 35aa 013b f2d7 c63a
00000070: 0b0d f2bb e132 f33b 4854 bbbb 46ea 65bb
00000080: 54c8 8b3a 1b0d 77bb a379 41bb fd1d 73b9
00000090: 3092 91ba 1b30 ba3a 2210 0abb b960 86bb
000000a0: 294e a1ba 0674 24bb d9f8 a2bb 3d08 363b
000000b0: 6df1 b6ba f614 33ba e036 4dba 5c6c da3b
000000c0: 3f64 9ebb b0f7 1dbb 43d2 443b 44be e7ba
000000d0: 4403 9aba 5f83 1e39 70d7 52ba f241 dcbb
000000e0: c9d6 103a d2fe f0ba a170 d8ba 8c48 223a
000000f0: f0a9 d9b6 f67c fa39 d1ed 9a3a 4bbd 6dbb
00000100: 94ab 06ba 3661 0ebb e08c b5ba 75b2 83ba
00000110: e121 02bb db87 26bb ba93 8fba b383 b3ba
00000120: dc24 5aba 434f 49ba 1778 db3b d876 18bb
00000130: 0c67 4aba eeb4 05bb c237 2bbb 56c9 18bb
00000140: cda1 8f3a 3931 81b9 11b0 fcbb 3025 b2bb
00000150: 4f5c 11bb f4fb a8ba 3c23 efba c486 9dba
00000160: a4b1 45ba c6c2 6ebb 0d90 0a3a c4fb efba
00000170: 57b9 a1bb e1f9 93ba 13bc 21ba 02c0 4139
00000180: b833 76bb 4eed 4dbb 2b34 d7ba a1f9 2cbb
00000190: c5f2 3cbb 9052 b33a 97df 48bb 1620 63b9
000001a0: 0394 a23a 157d 48ba aa3c a83b d413 f8ba
000001b0: 5aed a7ba b30e 533a abc9 c4bb 19cf 1dbb
000001c0: 1d2f 1fbb d0bd 103a b185 023a ebcb 2e3b
000001d0: a799 ccbb 1a40 cb3b 15d2 42bb cf1c d5bb
000001e0: 33a3 99bb 253b 26ba 2b87 00bc 9bc6 47ba
000001f0: ae7a 40bb 2b61 1fba eb73 2dbb d94c 9bba

action_model._continuous_distribution.log_sigma f4 [1, 2]
-0.021716649 -0.043687936
00000000: 1de7 b1bc 1ff2 32bd

action_model._continuous_distribution.mu.weight f4 [2, 128]
0.02363862 0.0069190734 -0.018553872 -0.0043702256 -0.00886477 -0.0126226535 0.005114887 -0.038966764
-0.013414793 -0.0065373434 3.1530762e-05 0.014612285 -0.03034064 0.003168284 0.0017367512 -0.0074814926
0.013030892 0.036566813 0.0006615836 0.001969636 -0.012919835 0.013833328 0.0053712362 -0.007733259
-0.0022806183 0.0045021023 0.0033062827 -0.025555171 -0.0037673544 -0.025411626 0.03268073 -0.012786303
-0.011343666 -0.018325893 -0.010416722 0.0030053738 -0.029884899 -0.01915431 0.004267586 -0.0025881734
-0.007838309 0.03315485 0.0055947686 0.00574864 -0.00012693348 -0.023886515 -0.03662769 -0.02798293
0.005107429 -0.004534939 -0.030991837 0.0035268217 0.016305603 0.009639557 0.0073848115 0.022921497
-0.010094788 -0.033208877 0.0091706375 0.022919113 0.00061250245 -0.008117905 0.0031692465 0.0009877179
0.030398563 -0.016149912 -0.014355102 -0.003615662 -0.0062865512 0.024140554 0.015121751 -0.00986188
-0.0012720149 0.0074180504 0.01085085 -0.015935045 -0.017822096 -0.010129166 0.041427664 -0.033512983
-0.015335309 -0.0030012866 0.0034519904 -0.007127285 -0.007749725 0.0005814672 -0.0041402197 0.010530397
0.0012404941 0.005429739 0.013679559 0.005514525 -0.002597496 -0.0021196238 -0.014477673 0.024147393
-0.007938526 -0.0048822053 -0.013994779 -0.012823753 -0.000698614 0.023398371 0.011933095 0.017033523
0.0326545 0.0017249095 -0.0031249945 -0.0019522348 0.008535139 -0.03331664 -0.011082769 0.017320992
0.008375514 0.0399423 0.017639315 0.011146891 -0.023186456 0.0005507108 0.0051549147 -0.0006675504
0.00087003596 -0.027316421 0.0023104136 -0.0107810525 -0.009813274 0.014930681 -0.0060340003 -0.016742527
0.007996488 -0.008673436 -0.0056330636 0.009867519 0.010395864 0.025601255 -0.00091678865 -0.008233351
0.016424138 0.019698964 -0.0012896452 -0.012606504 0.0029324007 -0.012147538 0.011060136 -0.02180657
-0.013755011 0.026192183 0.00014041302 -0.0077585327 -0.0044485517 0.004445895 -0.009274373 -0.006712279
0.02610585 0.019473871 -0.0048023034 0.028043563 -0.014136925 0.02608554 0.007896033 -0.0136952065
0.013681374 0.002394068 0.016270652 -0.019482777 -0.019880513 -0.013999119 -0.021014422 0.01644012
0.00709242 0.006724859 -0.009614278 -0.0025379565 0.034056533 0.011063361 -0.009067424 0.0018900259
-0.003182733 0.034075346 0.0041031255 -0.0057724155 0.005453423 -0.029766887 -0.007694158 0.0026100113
0.015526093 0.001460747 0.008602415 -0.020248914 0.007680938 -0.007737568 -0.012804707 -0.010060967
0.026612228 0.02650137 -0.022554344 -0.02654694 -0.008538603 0.0005011702 0.014951401 -0.0036101837
-0.016414687 0.0061887554 -0.004673853 -0.00080038427 0.011456492 -0.0029604395 -0.002822518 -0.01590624
-0.010695845 -0.043061588 0.01466164 -0.00021366327 0.018707477 0.01269525 -0.026605316 0.006833467
0.024102699 -0.008534397 0.031717137 -0.005839897 0.007563357 0.013346265 0.013519475 0.0067878896
0.0057881027 -0.013375141 -0.02362885 0.012051693 0.010347652 0.010893429 0.021643186 -0.0062902286
-0.00097032206 0.04285051 -0.013950618 -0.010415431 0.034574 0.019855902 0.0049662506 0.02713723
0.013993088 0.028312264 0.010988678 0.041269045 -0.014875905 0.00968112 -0.0037928652 0.015888806
-0.0073024887 0.005520614 -0.0067724236 -0.029311726 0.0009631615 0.011056989 -0.006696456 0.0008510668
00000000: c7a5 c13c 65b9 e23b 4afe 97bc 1c34 8fbb
00000010: 8a3d 11bc 3fcf 4ebc c89a a73b 9d9b 1fbd
00000020: b8c9 5bbc 3637 d6bb e63f 0438 5e68 6f3c
00000030: ef8c f8bc fca2 4f3b b3a3 e33a 4f27 f5bb
00000040: 867f 553c 15c7 153d 206e 2d3a 0215 013b
00000050: b7ad 53bc 2fa5 623c 3201 b03b 4767 fdbb
00000060: 6d76 15bb 5f86 933b 38ae 583b 1459 d1bc
00000070: b8e5 76bb 0b2c d0bc 3bdc 053d a47d 51bc
00000080: c9da 39bc 2f20 96bc e6aa 2abc cef5 443b
00000090: 2dd1 f4bc 80e9 9cbc 1bd7 8b3b 589e 29bb
000000a0: 406c 00bc 61cd 073d 5254 b73b 165f bc3b
000000b0: 7219 05b9 a7ad c3bc eb06 16bd 753c e5bc
000000c0: 385c a73b d399 94bb 98e2 fdbc 4022 673b
000000d0: 5493 853c 3cef 1d3c 4afc f13b ddc5 bb3c
000000e0: 9c64 25bc 0806 08bd 7140 163c ddc0 bb3c
000000f0: 5890 203a f600 05bc 22b3 4f3b 5076 813a
00000100: 6806 f93c d24c 84bc a931 6bbc bef4 6cbb
00000110: 6aff cdbb 69c2 c53c 39c1 773c b993 21bc
00000120: bdb9 a6ba 1e13 f33b c3c7 313c 368a 82bc
00000130: a5ff 91bc cdf4 25bc 0eb0 293d e944 09bd
00000140: f340 7bbc 3cb1 44bb ca3a 623b 008c e9bb
00000150: 68f1 fdbb 9a6d 183a aeaa 87bb b087 2c3c
00000160: 1398 a23a f4eb b13b 3b20 603c 30b3 b43b
00000170: c03a 2abb 63e9 0abb c333 6dbc c1d0 c53c
00000180: 9710 02bc e8fa 9fbb 5c4a 65bc b81a 52bc
00000190: 3123 37ba f1ad bf3c 0783 433c e389 8b3c
000001a0: bac0 053d 5c16 e23a b5cc 4cbb 21e2 ffba
000001b0: f8d6 0b3c 0777 08bd 8194 35bc c1e4 8d3c
000001c0: 7439 093c 8a9a 233d 5380 903c 73a1 363c
000001d0: 86f1 bdbc 945d 103a 8fea a83b 8dfe 2eba
000001e0: 2013 643a b0c6 dfbc 4f6a 173b 03a3 30bc
000001f0: dbc7 20bc d19f 743c ddb8 c5bb a027 89bc
00000200: b403 033c 071b 0ebc 9095 b8bb 60ab 213c
00000210: 6a53 2a3c b9b9 d13c a554 70ba 2de5 06bc
00000220: ea8b 863c b95f a13c 5009 a9ba 838b 4ebc
00000230: 852d 403b 7806 47bc 9335 353c b1a3 b2bc
00000240: b35c 61bc fd90 d63c d53b 1339 4a3b febb
00000250: 28c5 91bb dfae 913b 8af3 17bc adf2 dbbb
00000260: efdb d53c ab87 9f3c a45c 9dbb 9dbb e53c
00000270: 909e 67bc 58b1 d53c 5d5e 013c dc61 60bc
00000280: d727 603c cce5 1c3b 084a 853c 589a 9fbc
00000290: 75dc a2bc 905c 65bc 7026 acbc 6ead 863c
000002a0: 8867 e83b 355c dc3b 3485 1dbc d853 26bb
000002b0: dd7e 0b3d 1943 353c 888f 14bc bfba f73a
000002c0: 6695 50bb 9792 0b3d 8373 863b 8826 bdbb
000002d0: a1b2 b23b b0d9 f3bc 461f fcbb b90c 2b3b
000002e0: 2761 7e3c 8976 bf3a 25f1 0c3c 0de1 a5bc
000002f0: 61b0 fb3b 6d8b fdbb d5ca 51bc c1d6 24bc
00000300: e301 da3c 6719 d93c e3c3 b8bc f878 d9bc
00000310: 7fe5 0bbc f660 033a b9f6 743c d598 6cbb
00000320: 1878 86bc 0bcb ca3b 1f27 99bb e1d0 51ba
00000330: 03b4 3b3c ef03 42bb fff9 38bb ce4d 82bc
00000340: a03d 2fbc 5961 30bd 6037 703c cc0a 60b9
00000350: 6c40 993c bdff 4f3c 64f3 d9bc 47eb df3b
00000360: 0673 c53c dbd3 0bbc d4e9 013d 9b5c bfbb
00000370: 09d6 f73b 4baa 5a3c ca80 5d3c f26c de3b
00000380: 20aa bd3b 6823 5bbc 4a91 c1bc 7774 453c
00000390: 3389 293c 5a7a 323c 0d4d b13c 431e cebb
000003a0: 365d 7eba 0484 2f3d 2291 64bc 7ca5 2abc
000003b0: 779d 0d3d d8a8 a23c eebb a23b e54e de3c
000003c0: 4443 653c 1fef e73c db09 343c bb09 293d
000003d0: 11ba 73bc 8f9d 1e3c b891 78bb 3e29 823c
000003e0: b749 efbb 44e6 b43b 35eb ddbb 251f f0bc
000003f0: ad7c 7c3a 6028 353c f26d dbbb 201a 5f3a

action_model._continuous_distribution.mu.bias f4 [2]
0.0010831387 -0.00074306334
00000000: 1bf8 8d3a 23ca 42ba

exp_avg f4 [128, 53]
-7.67199e-05 -7.445605e-25 0.0 -2.8029117e-05 -6.323737e-05 -0.00011501623 -1.3996183e-23 0.0
1.0267222e-05 -6.195096e-05 2.7402133e-05 -4.7540712e-23 0.0 -0.00013215117 -0.00013320468 -0.000119242206
-7.6125595e-23 0.0 1.4493226e-05 -2.343395e-05 -3.6348898e-05 2.040542e-23 0.0 -6.8400084e-05
-8.155495e-05 -0.00011661393 -2.2709455e-22 0.0 1.1864908e-05 1.5241332e-05 -0.00012229511 3.0293922e-22
0.0 1.7546074e-05 -9.817102e-05 -9.804504e-05 -1.8032551e-22 0.0 -6.7040037e-06 1.8271412e-05
1.5850823e-05 3.6953976e-22 0.0 -0.00012059986 -0.000107184176 0.00050700543 -0.0016665573 -1.0393143e-05
0.00028056203 2.581175e-05 0.0 4.458022e-05 -0.00011274144 2.065288e-05 -2.99274e-23 0.0
4.0220246e-05 3.8925245e-05 8.273256e-05 -7.422745e-23 0.0 -2.1859445e-05 1.9739648e-05 2.6000354e-05
7.359962e-24 0.0 3.487276e-05 4.4993936e-05 8.2527426e-05 -6.484551e-23 0.0 -2.1654316e-05
1.7118444e-05 5.6956196e-05 6.325244e-24 0.0 3.916933e-06 2.0003055e-05 5.930079e-05 -2.6975275e-23
0.0 1.5723276e-06 4.023265e-05 3.0268282e-05 2.957541e-23 0.0 3.0604842e-05 3.9974842e-05
-1.2588325e-06 1.884376e-23 0.0 6.213195e-05 6.336531e-05 8.558534e-07 -6.74034e-24 0.0
6.0017268e-05 6.448657e-05 -0.00030118413 0.0009684914 3.3312099e-06 -0.00044340812 -0.00014604969 0.0
-3.793396e-05 -0.00021759969 3.1193867e-05 2.3163306e-22 0.0 5.6198245e-05 4.982505e-05 7.8413956e-05
3.866394e-22 0.0 8.978152e-06 2.1049695e-05 6.748174e-06 2.413078e-23 0.0 8.064395e-05
6.7640605e-05 0.00010976133 3.1934236e-22 0.0 -2.236924e-05 2.7852716e-06 -4.0027317e-06 -6.8251205e-25
0.0 9.139485e-05 8.700864e-05 0.00013538584 2.484988e-22 0.0 -4.7993715e-05 -2.6942416e-05
6.327618e-05 1.3477158e-23 0.0 2.4115929e-05 4.296513e-05 0.000117329924 5.3845556e-23 0.0
-2.993778e-05 -5.7930047e-06 0.00015241552 1.1261047e-22 0.0 -6.5023436e-05 3.8383905e-06 -0.00041289782
0.0013904087 1.2848538e-05 -7.9558384e-05 0.0010755225 0.0 -8.7280096e-05 0.00030580076 5.2728315e-06
8.442669e-23 0.0 -3.3594058e-06 1.226163e-06 5.025552e-06 7.3135907e-23 0.0 -3.112128e-06
9.597318e-07 5.8781455e-07 2.9537448e-23 0.0 1.3256099e-06 3.5400783e-06 -4.2675583e-06 1.8787393e-23
0.0 6.1809833e-06 2.5902268e-06 -3.616996e-06 2.5759918e-23 0.0 5.5304213e-06 4.5630673e-06
1.7603168e-06 -2.0320131e-23 0.0 1.531082e-07 -7.057232e-07 1.3845847e-06 2.0262135e-23 0.0
5.288393e-07 1.9697586e-06 7.819476e-06 -4.9412537e-23 0.0 -5.9060512e-06 -2.0094917e-06 1.379082e-06
6.025996e-23 0.0 5.34342e-07 1.7057596e-06 -9.929926e-06 3.0442623e-05 -8.6771934e-08 5.0703147e-06
3.284419e-06 0.0 -5.6379777e-06 5.847104e-06 -7.955525e-06 -1.4788556e-23 0.0 -1.3898732e-06
-2.8535342e-06 -1.0646246e-05 -3.8849055e-23 0.0 1.3008471e-06 -2.3074776e-06 -6.9438042e-06 9.810491e-24
0.0 -2.4015926e-06 -3.81345e-06 -7.6019464e-06 -2.92903e-23 0.0 -1.7434527e-06 -3.7949999e-06
-9.664658e-06 -5.0234375e-24 0.0 3.192594e-07 -2.3083176e-06 -9.676264e-06 -5.994085e-24 0.0
3.3086516e-07 -3.2466794e-06 -6.8239733e-06 -5.3490197e-23 0.0 -2.5214263e-06 -3.993551e-06 -4.4398816e-06
3.0632665e-23 0.0 -4.905517e-06 -5.9816693e-06 -6.199137e-06 -7.916589e-23 0.0 -3.146262e-06
00000000: afe4 a0b8 296e 6697 0000 0000 1220 ebb7
00000010: 4e9e 84b8 de34 f1b8 df5c 8799 0000 0000
00000020: 6241 2c37 abeb 81b8 a2dd e537 8de4 659a
00000030: 0000 0000 0f92 0ab9 dcac 0bb9 ac11 fab8
00000040: 760f b89a 0000 0000 ef27 7337 0694 c4b7
00000050: 5575 18b8 5f59 c519 0000 0000 0472 8fb8
00000060: 7b08 abb8 a08e f4b8 2e45 899b 0000 0000
00000070: 640f 4737 06b5 7f37 583c 00b9 931d b71b
00000080: 0000 0000 e82f 9337 2ae1 cdb8 889d cdb8
00000090: 0b00 5a9b 0000 0000 f4f2 e0b6 8f45 9937
000000a0: 62f7 8437 825f df1b 0000 0000 8fea fcb8
000000b0: 11c8 e0b8 8fe8 043a 6270 daba 365e 2eb7
000000c0: 6618 9339 5086 d837 0000 0000 a6fb 3a38
000000d0: 9a6f ecb8 b93f ad37 54b8 109a 0000 0000
000000e0: 29b2 2838 aa43 2338 b480 ad38 9178 b39a
000000f0: 0000 0000 cd5e b7b7 9296 a537 561b da37
00000100: c45c 0e19 0000 0000 5744 1238 dfb7 3c38
00000110: 9312 ad38 6dc9 9c9a 0000 0000 4aa6 b5b7
00000120: 9499 8f37 40e4 6e38 2fb2 f418 0000 0000
00000130: 336e 8336 3ccc a737 bdb9 7838 c671 029a
00000140: 0000 0000 c408 d335 7bbf 2838 a4e8 fd37
00000150: 9604 0f1a 0000 0000 b35d 0038 a9aa 2738
00000160: 28f5 a8b5 e43e b619 0000 0000 d64c 8238
00000170: fee2 8438 ccbd 6535 8c60 0299 0000 0000
00000180: 0dbb 7b38 f73c 8738 40e8 9db9 5ce2 7d3a
00000190: c08d 5f36 3b79 e8b9 ea24 19b9 0000 0000
000001a0: 481b 1fb8 792b 64b9 29d6 0238 7b03 8c1b
000001b0: 0000 0000 68b6 6b38 3dfb 5038 2c72 a438
000001c0: 8db5 e91b 0000 0000 dfa0 1637 e093 b037
000001d0: 606e e236 eb60 e919 0000 0000 641f a938
000001e0: 46da 8d38 aa2f e638 d607 c11b 0000 0000
000001f0: 94a5 bbb7 9aea 3a36 344f 86b6 2d3a 5397
00000200: 0000 0000 3dab bf38 6878 b638 5cf6 0d39
00000210: 5435 961b 0000 0000 dc4c 49b8 6602 e2b7
00000220: 24b3 8438 d457 8219 0000 0000 904c ca37
00000230: 7535 3438 060f f638 c930 821a 0000 0000
00000240: e522 fbb7 8861 c2b6 bbd1 1f39 4123 081b
00000250: 0000 0000 315d 88b8 86cb 8036 357a d8b9
00000260: 603e b63a 0d90 5737 95d8 a6b8 8cf8 8c3a
00000270: 0000 0000 250a b7b8 e253 a039 47ed b036
00000280: 9721 cc1a 0000 0000 2772 61b6 a492 a435
00000290: 2aa1 a836 efd4 b01a 0000 0000 f4d9 50b6
000002a0: 22d0 8035 4fca 1d35 97d5 0e1a 0000 0000
000002b0: 9ceb b135 1592 6d36 0c32 8fb6 55b3 b519
000002c0: 0000 0000 3e66 cf36 c2d3 2d36 85bb 72b6
000002d0: 7822 f919 0000 0000 f591 b936 731c 9936
000002e0: 0644 ec35 3586 c499 0000 0000 1066 2434
000002f0: ee70 3db5 f8d5 b935 9ef6 c319 0000 0000
00000300: 8ff5 0d35 3230 0436 6530 0337 c2f1 6e9a
00000310: 0000 0000 982c c6b6 ceda 06b6 e618 b935
00000320: 1cb3 911a 0000 0000 b46f 0f35 74f1 e435
00000330: b598 26b7 095f ff37 6057 bab3 ac21 aa36
00000340: e469 5c36 0000 0000 dc2d bdb6 3e32 c436
00000350: b878 05b7 b106 8f99 0000 0000 ae8b bab5
00000360: 587f 3fb6 479d 32b7 cddc 3b9a 0000 0000
00000370: c498 ae35 2ada 1ab6 d3fe e8b6 33c3 3d19
00000380: 0000 0000 0c2b 21b6 92ea 7fb6 3914 ffb6
00000390: a3a3 0d9a 0000 0000 9400 eab5 9aad 7eb6
000003a0: 6425 22b7 b755 c298 0000 0000 ae66 ab34
000003b0: 98e8 1ab6 3d57 22b7 8be2 e798 0000 0000
000003c0: c3a1 b134 87e1 59b6 7cf9 e4b6 d454 819a
000003d0: 0000 0000 c635 29b6 5800 86b6 4bfa 94b6
000003e0: 6721 141a 0000 0000 129a a4b6 26b6 c8b6
000003f0: 2e02 d0b6 5069 bf9a 0000 0000 5f24 53b6

exp_avg_sq f4 [128, 53]
1.3698438e-07 2.6382027e-11 0.0 2.562822e-08 4.6015007e-08 1.3336702e-07 6.7348294e-11 0.0
2.9105637e-08 4.935195e-08 1.3357787e-07 3.006759e-11 0.0 2.598648e-08 4.9553563e-08 1.362262e-07
6.5581554e-11 0.0 2.9611304e-08 4.7910305e-08 1.275114e-07 3.8815492e-11 0.0 3.9197342e-08
5.929794e-08 1.4023858e-07 1.2895593e-10 0.0 2.209021e-08 4.402528e-08 1.3370335e-07 6.780096e-11
0.0 3.1986364e-08 6.077453e-08 1.29579e-07 1.9261617e-10 0.0 3.174792e-08 5.6206346e-08
1.328256e-07 1.9708128e-10 0.0 3.485569e-08 6.197111e-08 3.9931815e-06 4.225696e-05 1.3488477e-09
1.240976e-06 1.4172971e-05 0.0 2.5702565e-07 3.1594905e-07 1.751837e-08 4.9224253e-13 0.0
5.1347278e-09 1.1141386e-08 1.5575777e-08 4.2010254e-12 0.0 7.0802644e-09 1.21017445e-08 1.526497e-08
6.467552e-13 0.0 6.939998e-09 1.2335288e-08 1.56941e-08 2.8380499e-12 0.0 7.546096e-09
1.1875892e-08 1.4127832e-08 6.961868e-13 0.0 8.829933e-09 1.4034564e-08 1.333689e-08 6.5327333e-13
0.0 7.753135e-09 1.22385275e-08 1.43719845e-08 3.874444e-13 0.0 7.342007e-09 1.3471106e-08
1.458036e-08 5.75982e-12 0.0 7.728382e-09 1.2494288e-08 1.5151086e-08 1.5686392e-12 0.0
8.612646e-09 1.3402476e-08 5.4884646e-07 5.779557e-06 1.7431358e-10 9.306683e-07 1.9917479e-07 0.0
6.4334266e-08 5.0119578e-08 7.8544154e-08 6.342121e-11 0.0 1.9495902e-08 3.69431e-08 7.648788e-08
7.539162e-11 0.0 2.313622e-08 3.988553e-08 8.071139e-08 8.548204e-11 0.0 1.8341954e-08
3.679944e-08 7.516261e-08 7.023828e-11 0.0 2.5340956e-08 4.3596835e-08 8.32012e-08 1.186167e-10
0.0 2.1869031e-08 3.797033e-08 7.115689e-08 9.148531e-11 0.0 2.3032275e-08 4.2864578e-08
7.1378054e-08 7.293014e-11 0.0 2.4994645e-08 4.3647994e-08 6.928429e-08 1.10448393e-10 0.0
2.5031216e-08 4.72898e-08 7.176561e-08 1.2903138e-10 0.0 2.7970986e-08 4.483291e-08 2.499397e-06
2.6494736e-05 8.4610874e-10 1.9400081e-06 4.4178187e-06 0.0 1.9993863e-07 1.8718407e-07 7.3900497e-10
7.796981e-12 0.0 7.602513e-11 2.5297536e-10 5.809404e-10 5.221041e-12 0.0 1.9954295e-10
3.0348543e-10 6.9224654e-10 8.053645e-12 0.0 1.2336854e-10 2.9533603e-10 6.931199e-10 1.5982347e-12
0.0 1.1734592e-10 2.6872823e-10 6.6765693e-10 7.2689094e-12 0.0 1.7495083e-10 2.7737307e-10
7.357836e-10 2.218612e-12 0.0 8.57114e-11 2.5655147e-10 6.847657e-10 3.8031644e-12 0.0
9.231297e-11 2.4907315e-10 5.6297794e-10 2.2724424e-12 0.0 2.0899128e-10 3.8651682e-10 7.02536e-10
3.0089204e-12 0.0 9.16368e-11 2.537629e-10 1.9764006e-08 2.0808692e-07 6.250983e-12 4.807963e-08
6.389263e-08 0.0 2.0138526e-09 3.4078038e-09 3.2446812e-10 2.6475304e-12 0.0 2.4468077e-11
6.276815e-11 2.9488204e-10 3.260389e-12 0.0 4.727706e-11 8.1289295e-11 3.3040953e-10 2.060343e-12
0.0 3.41114e-11 7.339826e-11 3.1502956e-10 2.685264e-12 0.0 3.6584832e-11 7.068372e-11
3.2501418e-10 1.9286675e-12 0.0 2.6966443e-11 6.773588e-11 3.1202754e-10 4.2840198e-12 0.0
3.9237825e-11 8.1980346e-11 3.2296793e-10 3.5282838e-12 0.0 3.4973482e-11 8.420936e-11 2.3413602e-10
2.8280967e-12 0.0 9.37015e-11 1.3947689e-10 2.8922242e-10 4.6340445e-12 0.0 4.504237e-11
00000000: fb15 1334 0b0f e82d 0000 0000 0d25 dc32
00000010: 09a2 4533 a633 0f34 b819 942e 0000 0000
00000020: f903 fa32 0bf7 5333 9b6d 0f34 193d 042e
00000030: 0000 0000 e038 df32 b8d4 5433 9345 1234
00000040: 2237 902e 0000 0000 f25b fe32 f0c5 4d33
00000050: 11ea 0834 5cb6 2a2e 0000 0000 ef59 2833
00000060: c6ae 7e33 7d94 1634 dec9 0d2f 0000 0000
00000070: e3c0 bd32 4f16 3d33 1990 0f34 8c18 952e
00000080: 0000 0000 6161 0933 2783 8233 6822 0b34
00000090: a2c8 532f 0000 0000 355b 0833 8867 7133
000000a0: d39e 0e34 73b1 582f 0000 0000 3db4 1533
000000b0: fa14 8533 2bfd 8536 113d 3138 5c62 b930
000000c0: 9c8f a635 72c8 6d37 0000 0000 56fd 8934
000000d0: b59f a934 4e7b 9632 d08d 0a2b 0000 0000
000000e0: 8b6d b031 5568 3f32 7fcb 8532 79cf 932c
000000f0: 0000 0000 aa46 f331 09e8 4f32 0620 8332
00000100: a00b 362b 0000 0000 de74 ee31 2ceb 5332
00000110: b1cf 8632 c3b5 472c 0000 0000 15a4 0132
00000120: ba06 4c32 ddb6 7232 8cf5 432b 0000 0000
00000130: 75b2 1732 aa1c 7132 4320 6532 4ee1 372b
00000140: 0000 0000 a632 0532 9d41 5232 a8e8 7632
00000150: 9f1c da2a 0000 0000 fa44 fc31 8d6e 6732
00000160: 1a7d 7a32 d9a7 ca2c 0000 0000 c9c5 0432
00000170: 76a6 5632 9725 8232 2fc4 dc2b 0000 0000
00000180: d1f6 1332 b640 6632 7154 1335 04ee c136
00000190: e9a8 3f2f 0ad3 7935 c0dc 5534 0000 0000
000001a0: 2328 8a33 0f43 5733 1bac a833 f876 8b2e
000001b0: 0000 0000 f177 a732 5eab 1e33 a841 a433
000001c0: b5c9 a52e 0000 0000 16bd c632 9b4e 2b33
000001d0: 8e53 ad33 1cfa bb2e 0000 0000 628e 9d32
000001e0: 6a0d 1e33 1569 a133 a374 9a2e 0000 0000
000001f0: 5aad d932 3a3f 3b33 58ac b233 a26b 022f
00000200: 0000 0000 82da bb32 d214 2333 eace 9833
00000210: a72d c92e 0000 0000 82d8 c532 1a1a 3833
00000220: 8048 9933 0560 a02e 0000 0000 ceb3 d632
00000230: 7a77 3b33 71c9 9433 ebe0 f22e 0000 0000
00000240: 3a04 d732 af1b 4b33 901d 9a33 1bdf 0d2f
00000250: 0000 0000 d944 f032 4e8e 4033 50bb 2736
00000260: 0341 de37 9c93 6830 1631 0236 c63c 9436
00000270: 0000 0000 b6ae 5634 c4fc 4834 da22 4b30
00000280: 7b2a 092d 0000 0000 582e a72e 1e13 8b2f
00000290: 0cb0 1f30 f5b2 b72c 0000 0000 5966 5b2f
000002a0: c7d7 a62f 8548 3e30 65ae 0d2d 0000 0000
000002b0: 28a5 072f da5c a22f fa85 3e30 79ee e02b
000002c0: 0000 0000 f105 012f 23bc 932f 2e86 3730
000002d0: 84c0 ff2c 0000 0000 485c 402f ca7c 982f
000002e0: 2b40 4a30 f61e 1c2c 0000 0000 3b7b bc2e
000002f0: 690a 8d2f 1a3a 3c30 dccf 852c 0000 0000
00000300: 95ff ca2e eeed 882f 0dc0 1a30 afe8 1f2c
00000310: 0000 0000 d1c9 652f 687d d42f 931c 4130
00000320: e4bb 532c 0000 0000 ef82 c92e f481 8b2f
00000330: 82c5 a932 7f6e 5f34 d9ef db2c 1d80 4e33
00000340: 5835 8933 0000 0000 1264 0a31 b82e 6a31
00000350: d460 b22f ab4d 3a2c 0000 0000 3639 d72d
00000360: 5407 8a2e f51c a22f f26d 652c 0000 0000
00000370: 3ded 4f2e cec1 b22e 02a5 b52f d7fb 102c
00000380: 0000 0000 0606 162e 8c67 a12e 7830 ad2f
00000390: 6af5 3c2c 0000 0000 dce6 202e 666f 9b2e
000003a0: aead b22f c9b7 072c 0000 0000 0833 ed2d
000003b0: e9f3 942e f989 ab2f 05bb 962c 0000 0000
000003c0: dd91 2c2e d546 b42e b28d b12f e947 782c
000003d0: 0000 0000 a4d0 192e a82d b92e b7b7 802f
000003e0: 7602 472c 0000 0000 410d ce2e 415b 192f
000003f0: 7000 9f2f c30b a32c 0000 0000 3319 462e

exp_avg f4 [128]
-0.00010474901 6.0873135e-05 8.739211e-05 1.913425e-06 -9.345398e-06 -8.141951e-06 -2.2595174e-05 1.4677472e-05
-1.3199089e-05 -7.8406796e-05 -2.295975e-05 -2.8805512e-06 -2.759701e-05 -0.0003205773 6.259442e-06 5.2504758e-05
5.6727426e-06 -6.169638e-05 4.0607258e-05 -0.00018612796 9.278431e-05 -0.00010317909 -2.6825277e-05 0.0001750056
4.932053e-05 1.5109179e-06 2.2571565e-05 -0.00010330399 -2.1741787e-05 0.00010461638 -0.00010399007 1.1021179e-05
-5.7996367e-06 -0.00021927881 -7.19668e-05 -4.454084e-05 -0.00015454213 -7.5437965e-05 0.00015352682 -0.00018800827
3.878922e-05 -1.5402482e-05 3.110071e-05 0.00018064928 -1.5979387e-05 1.3057693e-06 -4.065092e-05 6.745605e-06
0.00019415925 -6.398369e-06 -6.18653e-05 -1.8675339e-06 0.00014039823 1.5727508e-06 2.2024478e-05 -2.0403051e-05
2.976385e-05 -2.6933205e-05 -8.271488e-05 3.740837e-05 5.0012654e-06 -2.7085985e-05 -9.726519e-05 -1.8154087e-05
-1.1344218e-05 0.00010013343 3.0483518e-05 6.9839356e-05 1.5253157e-05 -5.9160725e-06 -7.9193465e-05 4.5233514e-06
-8.988635e-05 2.3315275e-05 7.374199e-05 -4.4558554e-05 -7.882403e-05 -8.44866e-05 1.1153986e-05 -8.20067e-06
2.376851e-05 -8.101035e-05 5.5726123e-06 -0.000103892926 -9.7680795e-06 2.5885975e-05 5.9227445e-05 1.2828891e-05
0.00010880511 6.3901905e-05 -3.1783275e-05 -1.8627037e-05 -1.0677987e-05 0.00020942377 2.8641298e-05 2.199227e-05
5.6716286e-05 3.603322e-06 -6.111699e-05 -1.6670454e-05 -5.9836195e-05 -9.4399866e-07 -8.417378e-05 -1.04334995e-05
-9.910717e-05 -2.3389506e-05 -0.00017212288 1.760921e-05 -0.00012230368 -4.452995e-06 -3.0410752e-06 -7.707955e-06
-5.3101467e-05 -8.516718e-05 -9.098677e-06 -5.8009166e-05 -0.00012875951 1.4670779e-05 1.2944462e-05 -5.6255296e-05
1.471074e-06 -5.1979157e-05 0.000112120964 -4.7412686e-05 0.00011077389 -8.9100664e-05 8.931401e-05 -2.6912423e-05
00000000: b2ac dbb8 0852 7f38 4846 b738 6468 0036
00000010: 2eca 1cb7 6a99 08b7 c48a bdb7 433f 7637
00000020: a871 5db7 546e a4b8 b099 c0b7 7e4f 41b6
00000030: 2180 e7b7 2813 a8b9 3308 d236 8e38 5c38
00000040: 7d58 be36 fe62 81b8 b651 2a38 582b 43b9
00000050: 3295 c238 da61 d8b8 d806 e1b7 b581 3739
00000060: 84dd 4e38 beca ca35 1158 bd37 e8a4 d8b8
00000070: 2262 b6b7 7e65 db38 3e15 dab8 9ae7 3837
00000080: 809a c2b6 35ee 65b9 e2ec 96b8 5dd1 3ab8
00000090: 960c 22b9 7334 9eb8 0bfc 2039 1624 45b9
000000a0: 9cb1 2238 9434 81b7 2272 0238 ac6c 3d39
000000b0: 790b 86b7 e441 af35 9880 2ab8 4e58 e236
000000c0: 3a97 4b39 92b1 d6b6 aebd 81b8 faa7 fab5
000000d0: dd37 1339 4e17 d335 35c1 b837 3827 abb7
000000e0: 62ad f937 9eee e1b7 3777 adb8 eee6 1c38
000000f0: 8bd0 a736 b636 e3b7 dafa cbb8 9b49 98b7
00000100: 0c53 3eb7 bafe d138 dbb6 ff37 b876 9238
00000110: cfe7 7f37 ad82 c6b6 ab14 a6b8 4bc7 9736
00000120: 5e81 bcb8 2c95 c337 eea5 9a38 62e4 3ab8
00000130: 544e a5b8 662e b1b8 0122 3b37 9c95 09b7
00000140: 7d62 c737 1ae4 a9b8 60fc ba36 17e1 d9b8
00000150: 95e1 23b7 b525 d937 fc6a 7838 ab3b 5737
00000160: 4c2e e438 1303 8638 084f 05b8 4241 9cb7
00000170: 9b25 33b7 c498 5b39 b842 f037 0a7c b837
00000180: a6e2 6d38 9ad0 7136 ef2b 80b8 87d7 8bb7
00000190: a0f8 7ab8 1867 7db5 7486 b0b8 8a0b 2fb7
000001a0: c2d7 cfb8 9534 c4b7 e27b 34b9 7eb7 9337
000001b0: a53e 00b9 f06a 95b6 4615 4cb6 6a51 01b7
000001c0: 44b9 5eb8 c89b b2b8 85a6 18b7 de4e 73b8
000001d0: 9e03 07b9 8422 7637 0a2c 5937 aaf3 6bb8
000001e0: b871 c535 3204 5ab8 7c22 eb38 fcdc 46b8
000001f0: 484f e838 8edb bab8 184e bb38 fdc1 e1b7

exp_avg_sq f4 [128]
1.6693895e-07 2.2832518e-08 1.0466924e-07 8.220609e-10 3.5439587e-10 2.7692507e-10 1.2091708e-08 7.2403084e-10
1.3718547e-10 6.008621e-08 1.5461413e-08 6.1967627e-09 4.5547576e-08 4.8658217e-07 5.475547e-10 3.486092e-08
1.6176765e-10 1.5386027e-08 2.5444196e-08 1.8383682e-07 1.1952312e-07 4.4799773e-08 9.534642e-09 6.7129356e-08
1.6196073e-07 9.0118425e-12 8.051978e-08 1.6974396e-07 1.3473134e-08 6.176153e-08 1.156644e-07 1.4482138e-09
2.6290188e-09 7.825727e-08 6.7503687e-09 8.67808e-08 2.6036116e-07 4.9468703e-08 1.0639243e-07 5.534677e-08
1.4475959e-08 1.1559032e-09 2.3869827e-08 3.2814904e-07 1.931796e-08 2.6667607e-10 6.279012e-08 2.7713505e-09
1.4193877e-07 9.24803e-09 4.7864086e-09 4.3568515e-10 1.079284e-07 1.4139472e-10 2.9991822e-09 1.2898531e-08
2.4503256e-08 1.0076552e-08 2.0481606e-08 9.223074e-08 7.692564e-08 2.385501e-09 1.0145806e-07 1.7622188e-09
3.411863e-08 1.01761046e-07 2.0327406e-08 1.4552072e-07 7.0312844e-09 1.2523213e-10 7.1038876e-08 1.573931e-10
1.8563057e-08 7.987347e-10 9.923213e-08 5.6218205e-08 3.8078703e-08 4.1433527e-08 3.3627687e-10 2.796046e-09
1.0335866e-08 3.821601e-07 1.4333521e-08 9.9010016e-08 3.8659248e-10 1.4884831e-09 9.139563e-09 1.7166773e-08
1.445514e-07 7.461045e-08 4.3453937e-08 2.9552252e-08 2.1681746e-08 2.173985e-07 1.7468684e-08 3.591869e-09
5.650344e-08 3.1511067e-09 1.37782505e-08 8.7777785e-09 3.3067666e-09 9.0606106e-11 5.65122e-08 2.0926247e-08
1.7647379e-08 2.6766045e-09 2.0347784e-08 1.2271351e-09 3.8722135e-08 8.466602e-10 2.2229345e-09 1.5667907e-10
1.8514753e-07 1.2594283e-07 8.640012e-10 9.402922e-08 1.11461816e-07 5.9135763e-09 6.582236e-10 3.2164014e-09
3.47385e-11 2.9856957e-09 5.123304e-08 1.1993856e-08 1.1306241e-07 5.8312814e-08 1.0400103e-07 2.4374553e-09
00000000: d43f 3334 3d21 c432 86c6 e033 65f7 6130
00000010: c9d4 c22f bd3d 982f e5bb 4f32 2405 4730
00000020: 47d6 162f be08 8133 02d0 8432 4deb d431
00000030: 17a0 4333 ac9d 0235 bd82 1630 fdb9 1533
00000040: 8cdd 312f 3b2a 8432 6190 da32 ae64 4534
00000050: 4456 0034 df69 4033 cdcd 2332 c128 9033
00000060: 6de7 2d34 bb89 1e2d 38ea ac33 dd42 3634
00000070: 7877 6732 c3a1 8433 2d63 f833 7e0a c730
00000080: 30aa 3431 640e a833 dff0 e731 405c ba33
00000090: c4c7 8b34 6a77 5433 db79 e433 6bb6 6d33
000000a0: f1b1 7832 badd 9e30 4e0a cd32 762c b034
000000b0: a5f0 a532 529b 922f 3cd7 8633 1d72 3e31
000000c0: d567 1834 44e1 1e32 b275 a431 3c85 ef2f
000000d0: 44c6 e733 1377 1b2f 2c1a 4e31 5798 5d32
000000e0: 3b7b d232 251d 2d32 87ef af32 6310 c633
000000f0: 5132 a533 2dee 2331 29e1 d933 9032 f230
00000100: d589 1233 ba87 da33 709c ae32 6e40 1c34
00000110: d597 f131 b6b1 092f 098e 9833 380e 2d2f
00000120: 9874 9f32 f58d 5b30 7119 d533 9274 7133
00000130: fa8b 2333 a5f4 3133 c3de b82f 9024 4031
00000140: 9f91 3132 af2b cd34 7e3f 7632 559f d433
00000150: 0e88 d42f 5893 cc30 3904 1d32 2276 9332
00000160: fc35 1b34 8739 a033 1ca2 3a33 17da fd32
00000170: aa3e ba32 0b6e 6934 0b0e 9632 d4d4 7631
00000180: 30ae 7233 db8a 5831 63b5 6c32 14cd 1632
00000190: 413d 6331 b43e c72e d2b7 7233 4ec1 b332
000001a0: ff96 9732 53ef 3731 40c9 ae32 faa7 a830
000001b0: 704f 2633 6aba 6830 47c2 1831 3d45 2c2f
000001c0: f7cc 4634 e73a 0734 ae7e 6d30 1ced c933
000001d0: c85c ef33 5e30 cb31 5eee 3430 8807 5d31
000001e0: 13c8 182e ea2c 4d31 530b 5c33 890d 4e32
000001f0: b8cc f233 9e73 7a33 2c57 df33 2b80 2731
