GameAI3/Config/results/dwarf_2/Dwarf/Dwarf-103139.pt (torch, 444703 bytes, 36 tensors)

network_body._body_endoder.seq_layers.0.weight f4 [128, 8]
00000000: 48af 383f 50bc 17bd 219d d53e 540a f5be
00000010: 0677 e0be c500 843e d100 b83b 7188 e83d
00000020: ff6a dabe 3fef 193e f5b8 34bf 5c9f c73e
00000030: 24c6 233e 0a50 97be f031 a83d d9f5 f43e
00000040: a080 f7bd 339c a73e e20f a8bd 034a 143f
00000050: f0d0 d6be df78 09bf e29e 5d3d 6fbe 7b3c
00000060: 4a97 013c 6331 433e 6019 8fbe 8c84 1a3d
00000070: 2b22 163e a1ef af3d 05b3 2bbf a1d5 ab3c
00000080: 298b 353f 3c9d cebd def1 bfbd 73a4 8fbe
00000090: 2815 bc3e 4f3b 2dbc e0cc 683e fac5 4bbd
000000a0: 1aaa b63e c1e6 bcbe 5383 613f b6f9 b63f
000000b0: 06cc 393e 5d37 523c 7c51 06bf 2c3a 023f
000000c0: df87 063f 9adf f2bd 2deb 03be 0375 07bf
000000d0: edea e33e c059 89bd e9c0 1abf c43e 13bf
000000e0: d803 373e 3bfd 953e d19e 923f ba64 46be
000000f0: 84d7 fe3e 657c b03d 58a5 1fbd 1de6 a43e
00000100: 6d1a 96be a180 193d 79e7 f6be 8c78 ffbd
00000110: 54a0 b4be ff65 c5be 8629 f23e 7e96 f2bd
00000120: 2715 f9bd 426d f43e 0099 ae3e 657c 23be
00000130: baec 193c 1e25 103b 07e5 0d3e 51d9 bd3e
00000140: fc12 eabe ef89 6f3e f260 02bd 0966 ee3e
00000150: 8289 b4bc 9fe9 2e3f 1e86 1fbd e7b0 a13e
00000160: 81aa 1d3e 8a8d 24be 6bc1 a7be fd50 bd3d
00000170: 2452 82be dcdc 85be b6f3 1b3f 1004 dd3e
00000180: 28f8 ff3a 7186 f63c 012e d43e 665c b93e
00000190: 64f5 3bbe 3e10 033f 143e 4e3e d4bd cabe
000001a0: 9038 3ebe 440b 283e 5d01 59be ad2b 023f
000001b0: d9d8 9a3e 1898 61be 836f 493f a581 c33e
000001c0: c550 4d3f e52a 153e ad43 22bf 80fe 0fbf
000001d0: 3123 033e 430c d53d 275a 683e a09a df3e
000001e0: 5558 483e 645a bfbe 9fb3 bf3e adce 713e
000001f0: 5b55 b9bc 3413 c7be e33a c3b9 a009 a23e
00000200: 1b00 7dbe f85f 843c 6309 763e a113 d33e
00000210: 969b 40bf 3455 e83e 2827 d23d 08bf 803e
00000220: f325 67be 7de4 373f 2e75 833e edb4 d53e
00000230: 4a78 5a3e bb45 7ebe d5e3 c2bd 44d1 523e
00000240: 74df 8b3e 854f 8abe 8f06 30be bbc0 9cbe
00000250: fe1b 003f 941f ba3d c6a5 67be a945 4fbe
00000260: 9a62 b0be b887 b63e 4919 e6be d06a f4be
00000270: 4fff 1ebe 9927 c3be b5aa 583d fc07 133e
00000280: 6216 79be 55c9 903d 785c fb3e bec9 563e
00000290: 7dc0 96be 6c96 4c3e b01b 75bd 7dfc 4f3d
000002a0: 1117 a6be 0133 d63a 0697 283e 6e10 dfbd
000002b0: b9d1 dbbe e046 d93e 8d17 d4be dbcd e83d
000002c0: 0269 9f3e d9a4 28be 7f7d dfbe 0ed8 bd3e
000002d0: 7ac4 033f ec6c 1a3e 9beb e6bc 1cfe 18be
000002e0: 17d6 29bb 78d4 403e 660c a33e b0d6 4abe
000002f0: d5e2 12bd 81b6 babe 3b21 52be f728 4a3f
00000300: 724c 183e f801 2dbf bd4c 06be 88cf 023d
00000310: 11b3 e3bd b72d f0be bee8 b33d e6e2 cabd
00000320: 0596 fe3e c409 733e 1b2d 07bf 02c0 233f
00000330: 8244 803d d696 95be 2ea5 45be dc8c 8c3d
00000340: a88b 41be 7118 003d e1a1 f23d 5c60 2fbe
00000350: 9873 02bf d9c7 2d3f b960 b03d 3d23 6f3d
00000360: acdc 463f aeed a43e 2c96 82be ee1c a6be
00000370: a666 89be 5414 8a3e d4a4 433e 67bb 08bf
00000380: a47f 18bf 530c 6cbf 6064 713e f9d7 c13e
00000390: e832 88bb 6120 34be 7209 243f fbb0 233e
000003a0: 7f60 f43e 5855 973e 0b1b 713f cb37 debe
000003b0: 2fc2 2e3e a215 18bf 4ab2 6f3e f8a1 953e
000003c0: c176 2f3e abb6 5ebe c89b a13e 3ec2 1f3f
000003d0: d781 f1bd 7f00 98be 0106 c8bd ca9a a73e
000003e0: f6de 4f3f 2773 22bf bb91 073c b148 8ebd
000003f0: aef8 2a3f 2183 b83e 5cb1 c0bd 4ad7 83be
0.7214246 -0.037044823 0.41721442 -0.47859442 -0.43840808 0.25781837 0.0056153317 0.11354149
-0.42659757 0.15032671 -0.7059472 0.3898877 0.15993553 -0.29553252 0.0821265 0.47843817
-0.1208508 0.32736358 -0.082061544 0.5792543 -0.41956282 -0.5370006 0.0541066 0.015365227
0.007909605 0.19061808 -0.27949047 0.037724063 0.14661472 0.085906275 -0.6707004 0.02097589
0.70915467 -0.10088584 -0.093723044 -0.28055152 0.3673489 -0.010573222 0.22734404 -0.049749352
0.35676652 -0.368948 0.8809101 1.4294956 0.18144235 0.012830582 -0.52468085 0.50870013
0.5255107 -0.11859055 -0.12882681 -0.5291292 0.44515172 -0.067065716 -0.6045061 -0.5751765
0.1787256 0.29294762 1.1454717 -0.19374362 0.497738 0.086174764 -0.038976043 0.32206813
-0.29317036 0.037476186 -0.48223475 -0.12474164 -0.3527857 -0.3855438 0.47297305 -0.1184511
-0.121622376 0.47739607 0.34101105 -0.15965421 0.009394819 0.002199478 0.13856898 0.37079862
-0.4571761 0.23392461 -0.031830736 0.46562222 -0.022038225 0.6832523 -0.038946263 0.31580278
0.15397073 -0.16069618 -0.32764754 0.09243963 -0.25453293 -0.26145065 0.6091875 0.43167162
0.0019528912 0.030093404 0.41441348 0.36203307 -0.18355328 0.5119666 0.20140868 -0.39597952
-0.18576264 0.16410547 -0.21191926 0.50847894 0.30243567 -0.22030675 0.7868578 0.38184848
0.8020137 0.14567144 -0.63384515 -0.5624771 0.12806393 0.10402729 0.2269064 0.43672657
0.19564946 -0.3737365 0.37441728 0.23613997 -0.022623708 -0.38881838 -0.00037237172 0.31647968
-0.24707071 0.016159043 0.24027018 0.41225913 -0.75237405 0.45377505 0.10261375 0.25145745
-0.2257307 0.7183302 0.25675339 0.41739598 0.21334949 -0.24831288 -0.09516112 0.20587641
0.2731892 -0.27013794 -0.17190002 -0.30615792 0.5004271 0.09088054 -0.22621831 -0.20241417
-0.34450227 0.3565042 -0.44941166 -0.4773774 -0.1552708 -0.38116148 0.052897174 0.14358515
-0.24324945 0.07069651 0.49093986 0.20975396 -0.29443732 0.19979256 -0.059840858 0.0507779
-0.32439473 0.0016342105 0.16463861 -0.108918056 -0.42933443 0.42436886 -0.41424218 0.11367389
0.31134802 -0.16469134 -0.43650433 0.370789 0.51471674 0.15080613 -0.028188517 -0.14940685
-0.002591496 0.1883105 0.31845397 -0.1980846 -0.035860855 -0.36467364 -0.20520489 0.7896876
0.14872912 -0.6758113 -0.13115211 0.0319362 -0.111181386 -0.46909878 0.087846264 -0.09906559
0.4972383 0.23734194 -0.528032 0.63964856 0.06263067 -0.2921664 -0.19301292 0.06862804
-0.18900931 0.03127331 0.11847282 -0.17126602 -0.5095763 0.6788307 0.086121984 0.058383215
0.7768047 0.32212585 -0.25505197 -0.32443947 -0.26836127 0.26968634 0.19105846 -0.53410953
-0.59569764 -0.92206305 0.23573446 0.37860087 -0.004156459 -0.17590477 0.6407691 0.15985481
0.4772987 0.295573 0.9418189 -0.43401942 0.17066263 -0.5940801 0.23407856 0.29225135
0.17135145 -0.2174937 0.31564164 0.62405765 -0.11792343 -0.29687878 -0.0976677 0.32735282
0.81199586 -0.6345696 0.008274491 -0.069474585 0.66785705 0.36037543 -0.094088286 -0.2575019

network_body._body_endoder.seq_layers.0.bias f4 [128]
00000000: ee79 613c aa64 17bd ec2d a5bc dd88 c0bd
00000010: c56e 30bb d888 82bc f3af 29bd d2b2 c7bc
00000020: 76f5 3dbd f36c f7bc 8812 4dbd 173e 0b3c
00000030: 9c91 bc3c e84f 083d dd74 aebc 6c86 00be
00000040: 487d 3f3d 1bc4 7ebc f440 86bd 43a3 6c3a
00000050: 51f5 1dbb 3821 0bbd f54e 63bc 065d 7a3d
00000060: c9be 2fbc 0678 25bd 3e67 85bd 5ba9 893c
00000070: 8857 c7bb 638e 1dbd 018f b4bd 05ac ecbc
00000080: 7d6c d8bb 329b 3f3d b095 013c 0166 e0bd
00000090: a738 70bd 9cb7 f5bc 9ba7 efbc f552 373c
000000a0: f4c2 6e3c 106a 03bd af81 103d 42ce ec3b
000000b0: d562 6ebc 13e1 2ebc 856f f8bc 9ea6 33bd
000000c0: 0bcd f63c 49ff 60bd 71b2 edbc 447f 62bc
000000d0: 8fd0 a0bc 9d75 52bd cc84 26bd 9183 29bd
000000e0: a5f2 72bc ca3d 67bc 8ad5 103c d30c 2ebd
000000f0: 96e6 503c 41d4 0b3d 3aa7 98bd 449a c6bb
00000100: 77b4 60bd bd6f babd 2eac dc3b 7ebe 193d
00000110: 686e 7bbd bcaa b2bc f79d 58bd 2144 d9bc
00000120: ef40 4a3d 0294 72bc 417c 00bc ed64 10bd
00000130: 85c1 b33b 2a14 313d 0c7a 0b3d bb7c b3bc
00000140: 4a7b b7bb c213 92bd 7f70 aabd 7381 cdbc
00000150: 6deb 9e3a 3f0c 43bd 71c7 31bd 382a 7a3b
00000160: 4269 a33d 210e 263d c30b 3a3b d5a7 cc3b
00000170: 7b73 7b3d 93c9 4c3d 3406 7abc 97ed e6bd
00000180: 8cae 943c a36d 9dbb 01f6 c93c 4fa7 00bd
00000190: 22f7 85bc f47a e3bc f920 003d 2c04 7fbc
000001a0: c16a 52bd e4e7 f5bc 4b40 d33c b39c cbbd
000001b0: 5838 8bbd 4e85 53bc 1c82 0ebd 52f3 25bc
000001c0: 223f 8fbb 892f 453d 6955 89bb 77cf 22bb
000001d0: 9e7c 753d f77d 863c 3ba2 283c 9261 00bd
000001e0: 6d9d 81bd 7e94 40bc 6e64 71bc d656 993c
000001f0: 20d0 83bc 4b16 13bd 165d 2f3d b9a0 3bbd
0.01376198 -0.036961235 -0.020163499 -0.094011046 -0.0026921493 -0.015934393 -0.041427564 -0.02437726
-0.046376668 -0.030203318 -0.0500665 0.00849869 0.02301865 0.03327933 -0.02129596 -0.12551278
0.046750337 -0.015549685 -0.065553576 0.00090270134 -0.0024102519 -0.033967227 -0.013873805 0.06112387
-0.010726639 -0.040397666 -0.065138325 0.016804388 -0.0060834326 -0.03846587 -0.08816338 -0.028890619
-0.0066047297 0.046778865 0.007909223 -0.10956956 -0.058647778 -0.029994778 -0.029254725 0.011189212
0.014572848 -0.03208357 0.035279926 0.0072267363 -0.014549931 -0.010673779 -0.030326614 -0.04386007
0.030127069 -0.05493096 -0.029015752 -0.013824288 -0.019630698 -0.051381696 -0.04065399 -0.041385237
-0.014828359 -0.014113853 0.008839974 -0.0424927 0.0127502885 0.034137968 -0.07453771 -0.0060608704
-0.054859605 -0.09103344 0.0067343926 0.037535183 -0.06138459 -0.021809928 -0.052885022 -0.026521744
0.04937833 -0.014805796 -0.007842124 -0.0352525 0.005485716 0.04323212 0.03405194 -0.021910062
-0.005599414 -0.07132675 -0.08322238 -0.02508614 0.0012124606 -0.0476191 -0.043403093 0.0038172137
0.07979061 0.040540818 0.0028388358 0.006245593 0.061389428 0.049996924 -0.015260268 -0.112757854
0.018149637 -0.0048043295 0.024653437 -0.031409558 -0.016353194 -0.02776859 0.031281445 -0.0155649595
-0.05137134 -0.0300178 0.025787493 -0.099419974 -0.06797856 -0.0129102 -0.03479205 -0.010128813
-0.0043715397 0.048141036 -0.00419109 -0.0024842897 0.059933297 0.016417487 0.010292585 -0.03134305
-0.06328855 -0.011754153 -0.014733417 0.018718164 -0.016090453 -0.035909932 0.042813383 -0.045807574

network_body._body_endoder.seq_layers.2.weight f4 [128, 128]
00000000: 84c3 883e 49f4 933d 3cf9 15be 77de a73d
00000010: a8ab 1dbd 663f 9b3d d912 073d a06a 3e3d
00000020: cdf2 c9bc c3a8 c9bd 946d d43d 6001 3a3c
00000030: 8889 783b b152 02bd 6620 42be f0b8 ec3d
00000040: 694e 06bc 6c5c 45bd a9ce 333d 91e2 9dbb
00000050: 128d 89bd b8dd 233d e356 bb3d d811 b83d
00000060: 9a20 933c 26e8 14be 8172 bf3d f1dd b2bd
00000070: 2925 463c 5ccb ab3d eaad 01bd 63d6 14be
00000080: 720c 40be b081 44be e379 07be d102 0bbe
00000090: c9f9 843c 7f0d 2c3d cd52 0ebe 7ebc 0c3d
000000a0: 2daa f6bc 8f5b 6e3d ffaf d23b 064d 6b3e
000000b0: 8162 033d 7fbf d5bc d02d cf39 b5e2 a53c
000000c0: 6af3 113e 1f54 30be 1fcb 1b3e 0831 8d3d
000000d0: 9129 2b3a c06d b83d 8b08 1c3d 15a2 b63d
000000e0: b268 1cbd d376 b8bd 78a5 c3bd eaec 7fbd
000000f0: f800 ab3c 5611 10be 874c 3d3d 896a 37be
00000100: 37f4 013e 0b1a 37bc 9d1b 48bd 6e08 f73d
00000110: 465b 00be 8714 63bc e945 113e f462 13be
00000120: 2c5a 69bd 8237 943c 5f0d 26be f58f e13d
00000130: 54b1 27be 3ba2 4ebd e9cb 4fbe 1797 ccbd
00000140: 9cd3 23be 204a 053c 1613 a93b 7495 d9bc
00000150: 7d28 ca3d f4e7 773d c025 463e ab19 283e
00000160: fe34 223e 7a07 7fbb 8ea3 76bd 8c1b ddbd
00000170: c120 0b3e 5d98 6d3d 8451 c43b 0db5 57bd
00000180: 679c 043e d2af eabd 82ee 80bd 08bd 69bd
00000190: bb50 1e3d 6774 ad3d e25b dbba 8a6d 22be
000001a0: 0577 27bd 693d f5bc cc3f 4c3c 499b 743d
000001b0: 1e5f f4bd a941 4a3c 04b4 0ebd 86e4 673d
000001c0: 4eb3 2ebd 4ec0 96bd 388e adbd fac6 e0bb
000001d0: f23b c0bd 4b94 433d 9071 89bc 18e9 0fbe
000001e0: 166c d4bd ebf7 963d 910a 0dbe bcdb 78bd
000001f0: 897b 243e e74d c43d 5c57 d33c d855 89bd
00000200: 43a8 f03d cb08 053e 5d94 9c3d ead6 223e
00000210: 5342 7b3d a1fb 2f3c ae21 1ebe 42ef a1bd
00000220: 592f d93d 234f 9abc c822 c5bc 518d fa3b
00000230: b4c9 87be 2803 133e 2175 16bd d59b 2bbe
00000240: 4e40 433e ab1d 89be ddac 86bd b0f5 583c
00000250: 96b5 9d3c 0308 b2bd 056b 13be c98d cdbd
00000260: fff5 c33c 4c2b 883c bcf1 33bc 696c 393e
00000270: 666e 17be a19e ee3d ec2b 84bd d23b 41bb
00000280: 770f 433e fac2 44be a0aa 6b3e aa12 ffbd
00000290: 89a2 143e 8d38 e03c 926c 94bd f590 4c3d
000002a0: cc0c 45bc a457 1abe 7a0a 2dbe 52b4 acbd
000002b0: 289e 9f3d b0c3 8ebe 2b0c 583c 8e32 aabd
000002c0: ade6 fdbc fb93 233d 582c 8f3d 0705 003e
000002d0: b72d 2f3d 8722 293b 1e4b ef3d 5c9b 0f3e
000002e0: 4fcf 113e 3e5e 20be 1cbb aa3d 4421 aa3c
000002f0: 1dc2 253e b760 5b3e fca4 83bb 827f 93bd
00000300: 90d8 283d 1f18 ebbb a19e 533d 8017 1cbe
00000310: b59b 573d 18e9 a93d 7e8a b5bd 12ae debd
00000320: fb52 b03d 3af3 08be ad50 72bd 60d0 973d
00000330: 9cb0 7dbd 607b 70be 7ec8 47be 1d34 683e
00000340: 3391 94be 44b3 69be f712 23bd 0edc d5bd
00000350: 9585 613d ff6e 64be a40d b23d 58f3 2c3d
00000360: 0f2c debd e7f2 c6bb 042e 1dbe a9ed 82bc
00000370: ce11 e33d c77a f9bd 31a1 debd 3250 103e
00000380: 7964 dbbd c8a5 8c3e 4d82 3abe 7046 63bd
00000390: 3feb c63d 6e4e 2cbc 4882 adbd 2ad4 0f3c
000003a0: c76d 05be 4ddc 7dbd 6102 25bc 0db7 ed3d
000003b0: d17b bbbc a1dc 05bd 2407 2b3d a5a9 b23b
000003c0: 9eed 2d3e 6432 323e 482d 58bd 7d54 df3d
000003d0: e5d0 a43d 5aed 173e 4bb1 8e3c b8f7 eebb
000003e0: 7403 83bd 711c 123e d342 e93d aed3 88bc
000003f0: ff38 343d 86d8 d93d 935b 723d d925 8b3e
0.26711667 0.07224328 -0.14645857 0.08196729 -0.038493782 0.07580452 0.03297696 0.046488404
-0.02465191 -0.09846642 0.10372463 0.011352867 0.0037923772 -0.031817142 -0.18957672 0.115587115
-0.008197405 -0.048183843 0.04389826 -0.0048182686 -0.0671636 0.04000637 0.09147432 0.089877784
0.017959882 -0.14541683 0.09348012 -0.08733738 0.012093821 0.08388397 -0.031659998 -0.14534907
-0.18754748 -0.19190097 -0.1323009 -0.13575293 0.016232388 0.04200506 -0.13898773 0.034359448
-0.030110443 0.058192786 0.006429672 0.22978601 0.032076363 -0.026092289 0.0003951625 0.020249704
0.14253011 -0.1721959 0.15214203 0.068941176 0.0006529326 0.09005308 0.038094085 0.089176334
-0.038185783 -0.09007039 -0.09553045 -0.0624818 0.020874485 -0.14069113 0.04621556 -0.17911734
0.12690817 -0.011175643 -0.04885446 0.12062155 -0.12534818 -0.013859875 0.14186825 -0.14393216
-0.05697076 0.018092874 -0.16216038 0.11013786 -0.16376239 -0.050447684 -0.2029263 -0.099897556
-0.15998691 0.008135349 0.005159746 -0.026560523 0.09871004 0.060523942 0.19350338 0.16416042
0.15840527 -0.0038914368 -0.06021457 -0.1079627 0.13586713 0.058006633 0.0059911627 -0.052662898
0.12950288 -0.11459316 -0.06295492 -0.05706504 0.03865121 0.084694676 -0.0016735757 -0.15862098
-0.04088499 -0.02993651 0.012466382 0.059718404 -0.11932205 0.012344756 -0.034839645 0.05661442
-0.042651467 -0.07360898 -0.08474392 -0.0068596574 -0.09386434 0.047748845 -0.016777784 -0.14053762
-0.10372178 0.07371505 -0.13773562 -0.06075643 0.1606275 0.09585171 0.025798492 -0.067058265
0.117508434 0.12991636 0.076454856 0.15902296 0.06134255 0.010741145 -0.15442535 -0.07906963
0.10604734 -0.018836563 -0.024064437 0.0076462408 -0.26521075 0.14356673 -0.036732797 -0.16758664
0.19067499 -0.26780447 -0.0657594 0.01324217 0.019251626 -0.08692934 -0.14396293 -0.10036809
0.023921011 0.016622208 -0.010982927 0.18107761 -0.14788207 0.1165135 -0.0645369 -0.0029485119
0.19048868 -0.19215003 0.23014307 -0.12454732 0.14515127 0.027370716 -0.07247271 0.04994293
-0.012026977 -0.15072495 -0.16898528 -0.08432831 0.07793838 -0.27883673 0.013186495 -0.08310424
-0.030993784 0.039936047 0.0699088 0.12501918 0.042768206 0.0025807933 0.11684249 0.14024109
0.14239238 -0.1566095 0.083364695 0.020767815 0.1618733 0.21423613 -0.0040174704 -0.072020546
0.041222155 -0.0071745063 0.051664952 -0.1524334 0.05263873 0.08296412 -0.08864306 -0.10873045
0.08609577 -0.13374034 -0.05915897 0.07412791 -0.061936006 -0.23484564 -0.19510075 0.2267613
-0.29017028 -0.2282229 -0.03981301 -0.10442363 0.055059034 -0.22307967 0.08694008 0.04222426
-0.10848247 -0.0060714367 -0.15349585 -0.015982466 0.1108738 -0.12181621 -0.108705886 0.14093092
-0.10712523 0.2747023 -0.18213768 -0.055487096 0.097128384 -0.010516746 -0.08472115 0.008778611
-0.13030158 -0.061977673 -0.010071368 0.1160718 -0.022886189 -0.03268111 0.041754857 0.005452352
0.16985175 0.17402035 -0.05277756 0.10904787 0.08047656 0.14836636 0.017418524 -0.007292714
-0.06397143 0.14268662 0.11389699 -0.0167025 0.04399967 0.10637002 0.059169363 0.27177313

network_body._body_endoder.seq_layers.2.bias f4 [128]
00000000: 5e42 a63c 4470 393c 1c82 80bd ad54 91bd
00000010: 59c0 53bd 2280 683a 765f 223c f397 3bbd
00000020: 467e 86bc 18f6 31bd a871 48bd 354a 02bd
00000030: e9d1 2fbd 6347 49bd 23ce 54bc d0cf 16bd
00000040: 3b14 11bd cf96 0fbd db54 37bd 2ad4 41bd
00000050: 1144 d33b 0568 c03b ede8 0f3c bf38 82bc
00000060: f30c b3bc 0bae ebbc 7c51 73bd 25b3 5dbd
00000070: fb05 7f3b 2bb3 cdbc 411c 4abd 3faf 1dbc
00000080: 0748 b6bc bf7f 9fbd 5d6b 3bbd dcaf 44bc
00000090: 8fee 73bc bf84 4bbd 677f 943b 2574 00bd
000000a0: f5bd f73c 59bc 9bbd fea9 3fbd a9dc d7bc
000000b0: 360f 6ebd 1638 c1bc e5d8 bf3b c80c 8939
000000c0: a3be 01bd d0ed f13b 1318 b9bc 202a 3cbc
000000d0: a9a2 323b 2867 0b3d f37f 34bd 5f3e 82bc
000000e0: 947b 83bc 9453 03bd 4a54 51bd 1a56 0d3d
000000f0: 18bf 893b ba54 15bd b7d9 5f3b 72b2 1abd
00000100: a05b 5abd 577c 123c c4f8 143d 0af3 8bbc
00000110: c4d4 b1bc 9f74 5d3c ec6f c03a 5081 07bd
00000120: 55d5 eabc 6a7c 7fbc 122b dab9 e021 f3bc
00000130: 62c4 21bd 20fa 3bbd e9b3 33bd cf02 0abd
00000140: f911 863b 3d62 36ba 92a9 c8bc 9f0e d6bc
00000150: 2b74 28bd 1851 d1bc 75a5 b7bb de62 51bd
00000160: e95b 46bd 97d5 cabc 4f9c 223c 19d5 2fbd
00000170: a96a 64bd d671 9e3b 9f71 01bd 227b 1b3c
00000180: f9a0 c6bc 9b05 623d 7622 77bc 147b 1cbd
00000190: aee9 88bc 43ca d3bc d5b5 6bbd 44d6 10bd
000001a0: 9197 dcbc 7caf 1cbc a50e dfbc c476 23bd
000001b0: ccf7 2fbd 32b5 6dbb e99f 2bbd fc60 c43c
000001c0: 07fc 6c3a 9d3d 59bd cf65 903c 6476 53bd
000001d0: ab09 0ebd 7ab0 8bbd e83e 4ebc 3598 f83b
000001e0: adfe 6dbd 03b8 64bd 84c3 5e3b c78f 183d
000001f0: 4144 59bd e785 863b d86f 603d 0811 50bc
0.020295318 0.01131827 -0.062748164 -0.07096229 -0.05169711 0.0008869191 0.009910455 -0.045799207
-0.016417634 -0.043447584 -0.048936516 -0.03180905 -0.042924795 -0.049140345 -0.0129886 -0.03681928
-0.035419684 -0.03505593 -0.04475866 -0.047321476 0.006447323 0.005871775 0.008783561 -0.0158962
-0.02185676 -0.028769514 -0.05940388 -0.054125924 0.0038913477 -0.025109848 -0.04934335 -0.009624301
-0.022251142 -0.077880375 -0.045756686 -0.012004819 -0.01488842 -0.049687143 0.004531789 -0.031360764
0.030241946 -0.07604284 -0.046792977 -0.026350336 -0.058119975 -0.023586314 0.0058547133 0.000261402
-0.031675946 0.007383086 -0.022594487 -0.011484653 0.0027257598 0.034033924 -0.044067334 -0.015898881
-0.016050138 -0.03206213 -0.051105775 0.03450594 0.0042036884 -0.036457755 0.0034156868 -0.037767835
-0.053310037 0.008940778 0.036370054 -0.017083663 -0.0217079 0.013516574 0.0014681793 -0.033082306
-0.028666178 -0.0155936275 -0.0004161229 -0.029679239 -0.039493926 -0.045892835 -0.043872748 -0.033694085
0.004091498 -0.00069573877 -0.02449492 -0.026130019 -0.04112641 -0.025551364 -0.005604441 -0.051119678
-0.048427496 -0.02476005 0.009924962 -0.042927835 -0.05576578 0.0048353476 -0.0316025 0.009489806
-0.02424668 0.055181127 -0.0150839 -0.038203314 -0.01671299 -0.025853282 -0.057546455 -0.03536059
-0.026927741 -0.009563323 -0.027228663 -0.039908186 -0.042960927 -0.003627133 -0.04190055 0.023972027
0.00090402405 -0.053037275 0.017626671 -0.051626578 -0.03467719 -0.068207696 -0.01258824 0.007586504
-0.058104206 -0.05583955 0.0033991048 0.03724649 -0.053043608 0.004105318 0.054794163 -0.012699373

action_model._continuous_distribution.log_sigma f4 [1, 2]
00000000: 5fca 70be efb5 05be
-0.23514698 -0.13057683

action_model._continuous_distribution.mu.weight f4 [2, 128]
00000000: 0f07 9a3d 1c98 973d ffc8 d53c 0686 b13c
00000010: 946a 753c c6cc 743d 0f9e 653d b470 173d
00000020: fe54 0d3d 8a02 213d 61b9 323c 4a23 ec3c
00000030: 0a21 c63b 427f 593d 4d27 1d3d 5cbc 2e3d
00000040: fb22 123d 2a02 03bd 6019 0a3d 690a 233c
00000050: c8ab 9738 93a0 6b3d e729 5b3c 1b3d 2c3d
00000060: ee77 9abc 54b1 043c ed4c 92bb e9f5 b33c
00000070: 2cf0 a63c 9e29 c43c 1aa5 1a3d ca37 0d3d
00000080: 15b1 113d f048 a63c 76dd 083d f6a1 76bc
00000090: 48e1 703d f074 c0bc fb14 943d ba90 693d
000000a0: 1c25 fbbc 8e00 433c d19d 573c 7047 633d
000000b0: bf5d 893c 5971 903c 51bb 933d 1977 b8bc
000000c0: 013f c8bb a718 b03d 15fd 263d 3a76 863d
000000d0: ca1e a43c 68ab a4bd e68c c43c 4578 ecbc
000000e0: fb37 4c3d 0568 1b3d 0700 fd3c 9255 a1bd
000000f0: 1455 8f3d d8cf d03c cfa4 253b f7b8 3a3d
00000100: b853 0f3c 9fbd b7bd 86c3 b0bd e2fc 283d
00000110: a4ad 003d 007d 9ebb b4fd 5d3d 312f 583d
00000120: dd94 553d 0c20 a13c 1c12 193d 5d2d 663d
00000130: 6086 bfbb 9b72 0e3d b4ff 4cbc 2298 3d3d
00000140: 9d60 373d 07d7 363d ea46 613b b972 cb3c
00000150: b31a 403d 5df5 593c dcd1 703d ebf8 f93c
00000160: c48c 333d a6dd 473d f2ab 893d 0ed6 073d
00000170: 7153 2c3d 39d8 573d 6535 243d e9cd c93a
00000180: 644d 46bc dd32 dcbc 61de a63d 425b 823d
00000190: dbd2 293d 2a71 483d 4e6f 463c 344a 403d
000001a0: c266 e63c 28e1 0dbd b40c b93c 6a05 063d
000001b0: 8f02 133d acbb 7b3d eb30 943c 999b afbd
000001c0: da5b 783d 9c43 0e3d 25e6 cabb 9d1e 89bc
000001d0: 6d9a 563d 715a f43b 7cf1 0c3d a4b1 4c3d
000001e0: 7c6f a13c 4b5e 303b a797 803d 1f6a 9ebc
000001f0: 4466 e53c 3bd1 8cbc 95ab 0ebc 3505 bfbc
00000200: 704c 37bd f28f 49ba 277c 43bc a719 03bc
00000210: 5f5a 0abd 697c 03bd 37cd 393d f334 7abc
00000220: 4d1b 99bb a233 81bd 8936 3cbd b6ec 82bd
00000230: 4755 30bd a95a 68bc dc63 1bbd 3546 57b9
00000240: b04f e5bc c8a9 3ebd 7d9f 35bc b200 4abd
00000250: c764 4dbd 43cb 85bc ff43 2cbd 1f08 28bd
00000260: dba6 07bc 6953 31bd 70cf 1fbd 998d c5bc
00000270: f286 4fbd 9fb6 36bd 63b1 b1b8 9e2c 38bd
00000280: 5dfe 31bd a0da 8ebc 28f8 adbc f729 0a3d
00000290: 0b1e 38bd 34d8 47bd 42ef febc 2929 20bd
000002a0: 06a5 473d d7dc cdbc b300 d6bc f516 59bd
000002b0: 1f5b 90bc e072 1ebd 3cf1 d13c eafc 52bc
000002c0: 83c2 05bd 6685 2b3c eccc c3bc fa98 eabc
000002d0: 9651 63bd 1e4d 183d ef32 b2bc 31cc 2fbc
000002e0: ee5c 09bd d706 bebc 9a8e a3bc 6915 d03c
000002f0: feb7 4d3d e58c e5bc baf4 16bd 6c00 183b
00000300: 3fd4 05bd 083e 2c3d 0dde 903c e257 46bd
00000310: 3cf5 183d 604e 4b3d 5fa1 7abd 04d2 ef3b
00000320: 3ec7 06bd b930 4ebd b5ee ed3c 6104 b8bb
00000330: 6cd5 aabc ac28 ffbc 74b7 b1bc 7f82 14bc
00000340: 90f5 513d 078c 27bd 30e8 a5bb e0a7 e5bc
00000350: 65cc adba 055c 6fbd 601c 34bd 322b babc
00000360: 29e4 b3bc c179 c3bc b9c7 54bd c651 bbbc
00000370: 488d a13c ea36 3bbd 5405 f3bc c78d 1ebd
00000380: 470f 01bd f3db b03d 1f2f 3dbb 3aad 783b
00000390: 88da 8fbc c089 fabc 33e0 d4bb f17d 52bc
000003a0: 16e7 41bd f004 6dbc 44ff 4fbc c669 b5bc
000003b0: 9645 89bb 4009 8e39 cb6d 0ebd 58d3 8f3c
000003c0: 5bec 3cbd 85d6 eabc 96a4 393d a8cd 34bd
000003d0: de2c cbbc 1de5 98bc eca7 1dbd 9bca 7dbd
000003e0: 9967 62bc b61b dabc d74e 6dbc e829 7a3d
000003f0: fe3c d7bc 8aa2 02bd 9ee7 b43d da7e d0bc
0.075208776 0.074020594 0.026096819 0.021670353 0.0149790235 0.0597656 0.05605894 0.036972716
0.034504883 0.039309062 0.010908456 0.02882542 0.006046419 0.053099878 0.03836756 0.042660102
0.03567789 -0.031984486 0.033715606 0.009951212 7.232238e-05 0.057526182 0.0133766895 0.042050462
-0.018856015 0.008098919 -0.0044647367 0.021967845 0.020378195 0.023945626 0.03775511 0.034477033
0.03556927 0.020298451 0.033414327 -0.015053263 0.058808595 -0.02349326 0.07230564 0.057022788
-0.030657344 0.011901988 0.013160185 0.05548805 0.016768334 0.017632173 0.07213462 -0.022517728
-0.0061110263 0.08598452 0.0407687 0.06565519 0.020034213 -0.08040506 0.023992967 -0.028865943
0.049858075 0.037940998 0.030883802 -0.07877649 0.06998649 0.025489733 0.0025275236 0.045586552
0.008747987 -0.08971714 -0.08631043 0.041256793 0.031415597 -0.0048366785 0.05419703 0.05277938
0.05214392 0.019668601 0.037370786 0.056195606 -0.005844876 0.034777265 -0.012512136 0.046287663
0.044769872 0.04463866 0.0034374543 0.024834977 0.046900462 0.013303128 0.058793887 0.030514201
0.043835416 0.048795365 0.06722249 0.033163123 0.042071763 0.05269644 0.040089983 0.0015396449
-0.012103412 -0.026879722 0.08147884 0.06365062 0.041460853 0.048936047 0.012111498 0.046945766
0.02812517 -0.034638554 0.022589065 0.032720007 0.035891112 0.061458275 0.018089732 -0.085746
0.06063447 0.034732446 -0.006191986 -0.01673823 0.052393366 0.0074570705 0.034409985 0.0499741
0.01970648 0.0026911672 0.062789254 -0.019337712 0.028002866 -0.017189613 -0.0087079005 -0.023317913
-0.04475063 -0.0007688991 -0.011931456 -0.008001721 -0.03377759 -0.03210107 0.045361724 -0.015271413
-0.004672444 -0.06308676 -0.045950446 -0.06392805 -0.043050077 -0.014181771 -0.03793703 -0.00020530152
-0.0279921 -0.046548635 -0.011085388 -0.04931707 -0.050144937 -0.016332274 -0.042057034 -0.04102337
-0.008279528 -0.043292437 -0.039016187 -0.02411537 -0.050665803 -0.044607755 -8.4730586e-05 -0.044964425
-0.04345547 -0.017438233 -0.021236494 0.033731427 -0.044950526 -0.04879017 -0.031119946 -0.039101753
0.048741363 -0.025129719 -0.02612338 -0.05300041 -0.017621575 -0.038683772 0.025627725 -0.012877682
-0.032656204 0.010468816 -0.023901425 -0.028637398 -0.05549773 0.03718292 -0.021752803 -0.010729835
-0.03353589 -0.02319662 -0.019965459 0.025400834 0.050224297 -0.028021285 -0.036854483 0.002319361
-0.032673117 0.042051345 0.017684007 -0.048423655 0.03734325 0.04963529 -0.06118905 0.007318737
-0.032904856 -0.050339434 0.029044488 -0.0056157564 -0.02085372 -0.031147324 -0.021693923 -0.009064316
0.051259577 -0.040905025 -0.0050630793 -0.02803415 -0.0013259767 -0.058437366 -0.043972373 -0.022725675
-0.021959381 -0.023861768 -0.051948283 -0.022866141 0.019720688 -0.045706667 -0.029665627 -0.03870943
-0.03150871 0.08635702 -0.0028867198 0.0037945048 -0.017560259 -0.030583262 -0.006496453 -0.01284741
-0.04733952 -0.014466509 -0.012695137 -0.022145163 -0.0041892035 0.00027091242 -0.034772675 0.017556831
-0.046123844 -0.028666744 0.045322977 -0.04414144 -0.024801668 -0.018663937 -0.03849022 -0.061960798
-0.013818645 -0.026624542 -0.014484129 0.06107512 -0.0262742 -0.03189329 0.0883324 -0.025451113

action_model._continuous_distribution.mu.bias f4 [2]
00000000: 38e0 dcbc 6007 ae3d
-0.026962385 0.084975004

exp_avg f4 [128, 8]
00000000: 363f 30b9 91bf 5739 9da9 7136 38e8 f6b8
00000010: 78ca 7a3a 0920 2138 b7fe c73a 5865 f538
00000020: 7892 b539 4044 deb9 d0f6 f8b6 fc19 8b3a
00000030: 747f 8eba 50fe a5b8 e565 193b 1aea 8d3b
00000040: 2710 61ba b2c0 893a 734c 9a37 0c4f 9cba
00000050: 893c 183a c5c0 4d39 4973 353a 8d72 a139
00000060: 9e97 18bb bfca 3a3b 6a3a 5138 d763 0cbb
00000070: 770f 7039 0180 0b3a c85a ee39 aa2f 933b
00000080: d8fa d1bb 5485 003c 36f5 0f39 609e 36bc
00000090: 8029 c63b c1f6 bf3a 9675 1c3a f25f 5d39
000000a0: ca7d 31b6 8a45 5936 6c5e 7333 75c8 52b6
000000b0: 0377 a5b5 4a43 2235 e78c 06b6 e982 2336
000000c0: 26f9 14bb a25c 363b 1544 4c38 2a4b 7ebb
000000d0: b8b3 5b3a 0431 083a 6bf3 94ba a509 e13a
000000e0: 943b 603c 953e 89bc b5ba 99b9 0ad4 ad3c
000000f0: 2a5c 34bc 6cfe 4cbb 24bd 5eba 4870 cab9
00000100: 22fc 23bc f1bc 483c 6dd9 6039 5807 78bc
00000110: 88e3 c63b 4cea 153b 0826 113b c076 bd3b
00000120: bc09 dabb f473 053c 7f7b 1539 75ee 21bc
00000130: d01a 653b a654 c73a f872 e43a e8bc b43b
00000140: fe0d d6bb ce03 033c 60c0 1239 4a22 17bc
00000150: 0180 5f3b 68b0 c33a 6370 0a3b b842 bc3b
00000160: b0c0 8339 2848 a1b9 70a7 b4b6 3825 8e39
00000170: 302d 3638 a8e5 70b8 d740 6fba 98c3 41ba
00000180: 03b0 c6ba eb37 f33a 5037 0838 a67d 0dbb
00000190: a093 293a f3a3 b539 075d 4d39 5859 333a
000001a0: 3323 84bb b8c0 a13b 752e b538 c40b cdbb
000001b0: 5645 813a c099 713a 0318 8b3a 4de7 b63b
000001c0: d033 9a3c 56c3 bcbc 9b6f d3b9 5cf0 f43c
000001d0: a11b 7fbc d8f8 8cbb 79ed 78ba 4024 84b8
000001e0: 42a2 56b8 8d5e 8338 0826 9335 1208 5fb8
000001f0: 57ec 8538 f637 4437 226d bd38 73d6 a338
00000200: 786f 40ba aa90 6b3a 04ee 8337 4617 25ba
00000210: da4a 79ba beec 2f39 75e2 b0ba 7664 a13a
00000220: 044a 22ba 7ca9 463a 3886 5e37 c0be f238
00000230: 481e 78ba 705d 1439 7eb8 053b f816 c63b
00000240: 4606 8eba 1ddb ad3a fdbc c237 8e74 10bb
00000250: 22e2 ab3a ced6 8139 52f5 dcb8 5128 c8b9
00000260: d9f2 68bb 4394 8e3b 6ab4 9f38 76a3 83bb
00000270: a651 89b9 3cf6 543a 42fa 2c3b a2fd 043c
00000280: bb78 a1bb 55a9 c53b 3767 dd38 3595 c0bb
00000290: 9b00 e93a 189e 933a 4183 183a 0399 663b
000002a0: 3b97 30bc 502b 583c 4c22 7239 ac13 6dbc
000002b0: f4d7 b93b 8370 213b 82e7 4d3b 0897 193c
000002c0: 8a53 f138 f2b4 13b9 c672 25b6 50c3 3b39
000002d0: 1e1c 84b8 f09e dcb7 58c0 98b7 19b5 65b8
000002e0: 6781 863c cba6 a4bc a86d b8b9 1eca d93c
000002f0: fa84 6abc 1eee 75bb 40b9 cc38 d6bd 173b
00000300: 7711 24b9 0dd7 4839 acf6 6036 843b 7db9
00000310: 9a5d ea38 ccfd 1538 944b b337 583a 5438
00000320: c63f 37b9 e351 6039 7e43 7b36 b0c7 7ab9
00000330: c4d1 7038 d086 2738 906f 8cb5 f81d 0039
00000340: 115c 27bc 7ede 4c3c 067a 6539 d079 70bc
00000350: 0a4d d13b 1b00 193b 4ea1 303b 1852 e33b
00000360: 4443 00bc 7802 1d3c 5cde 2f39 e3a4 63bc
00000370: b572 f33b 1684 ea3a e7e8 513a efc6 2039
00000380: 5fee 09ba 52d8 283a 2120 3d37 637b 38ba
00000390: b237 5639 9931 fc38 cd32 6b39 a748 2d3a
000003a0: b603 1c3c 37fb 3ebc afeb 55b9 8447 7e3c
000003b0: ddc1 01bc f0a0 0ebb 8856 8f39 1a18 8e3a
000003c0: e13b eab8 a85d 0f39 0496 2036 f2d7 26b9
000003d0: d4d4 0e38 1223 d637 0e4e e637 9694 ce38
000003e0: 50eb e636 4856 0db7 6050 1eb4 4030 bcb5
000003f0: 08ec 8736 401b d3b5 18bc 5ab7 c031 96b7
-0.00016808216 0.00020575362 3.6010526e-06 -0.00011773448 0.00095669134 3.8415226e-05 0.0015258406 0.00011701387
0.00034632138 -0.0004239399 -7.4197087e-06 0.0010612602 -0.0010871724 -7.9151825e-05 0.002340668 0.0043308856
-0.0008585476 0.0010509698 1.839383e-05 -0.0011925413 0.000580736 0.00019622136 0.0006921781 0.0003079366
-0.002328373 0.0028502194 4.9883885e-05 -0.0021421814 0.00022893945 0.0005321503 0.00045462535 0.004491766
-0.0064080767 0.007844288 0.00013728891 -0.011146158 0.0060474277 0.0014645682 0.00059684494 0.00021111945
-2.6448274e-06 3.2375997e-06 5.6663723e-08 -3.140912e-06 -1.2328095e-06 6.044762e-07 -2.0049572e-06 2.4365092e-06
-0.0022731512 0.002782621 4.8700796e-05 -0.0038802125 0.0008380967 0.0005195292 -0.0011364048 0.0017169012
0.0136860795 -0.016753474 -0.00029321542 0.021219272 -0.011008302 -0.0031279577 -0.0008496812 -0.00038612098
-0.010008844 0.012252078 0.00021443302 -0.01513847 0.0060696043 0.0022875248 0.0022147913 0.0057819784
-0.0066539925 0.008145321 0.00014255753 -0.009883513 0.0034958608 0.0015207722 0.0017429283 0.0055156834
-0.0065324297 0.007996513 0.0001399531 -0.009224484 0.0034103396 0.0014929892 0.0021124117 0.005745258
0.0002512983 -0.00030762074 -5.3839103e-06 0.0002711208 4.3434266e-05 -5.7434343e-05 -0.00091267884 -0.00073915115
-0.0015158657 0.0018556094 3.247644e-05 -0.0021589785 0.0006468836 0.00034645162 0.00019584979 0.00068416214
-0.0040325164 0.004936304 8.639406e-05 -0.006257506 0.0009862583 0.0009216331 0.0010612014 0.0055817724
0.018823534 -0.023042362 -0.0004032821 0.029899769 -0.015570552 -0.0043021254 -0.00094958354 -6.3010026e-05
-5.117269e-05 6.264178e-05 1.0963422e-06 -5.317486e-05 6.385956e-05 1.169554e-05 9.03255e-05 7.81239e-05
-0.0007340829 0.0008986095 1.5727252e-05 -0.00062977185 -0.000950975 0.00016777494 -0.0013495224 0.0012313265
-0.0006190839 0.0007578356 1.3263481e-05 0.00011574989 -0.00094649615 0.00014149188 0.0020404155 0.0060452186
-0.001083561 0.0013264153 2.3214607e-05 -0.0022042128 0.0013113657 0.0002476484 -0.00010536112 -0.0003817701
-0.003554514 0.0043511703 7.6153156e-05 -0.004017289 -0.0002619151 0.000812385 0.0026394282 0.008117111
-0.0049277223 0.006032149 0.000105573265 -0.005877162 0.001777667 0.0011262326 0.0005817898 0.0035186417
-0.010778244 0.01319392 0.00023091695 -0.014470022 0.0056714956 0.0024633713 0.0031418507 0.009374388
0.00011507336 -0.0001408642 -2.4653723e-06 0.0001790647 -6.299488e-05 -2.6300055e-05 -1.8209379e-05 -5.4766515e-05
0.016419126 -0.020099064 -0.00035176915 0.026585635 -0.014313931 -0.0037525962 9.7619835e-05 0.0023153923
-0.00015646765 0.00019153599 3.3522183e-06 -0.00024150132 0.00011175424 3.5760735e-05 2.1373657e-05 5.0599076e-05
-0.00017475997 0.0002139281 3.74412e-06 -0.00023916247 5.741582e-05 3.9941457e-05 -1.0463282e-06 0.00012218195
-0.010214821 0.012504218 0.00021884599 -0.01467748 0.0063873576 0.002334601 0.0026951614 0.0069372766
-0.007828537 0.009583108 0.00016772136 -0.0138942925 0.0074294456 0.0017892148 0.00080074224 0.00015332898
-0.00052616553 0.00064409256 1.12727585e-05 -0.0007037429 0.00020429378 0.00012025535 0.00022430271 0.00066102523
0.009522369 -0.011656574 -0.00020401062 0.01551998 -0.007919756 -0.0021763407 0.00027339556 0.0010840923
-0.00011169143 0.00013672432 2.3929178e-06 -0.0001591144 3.405365e-05 2.5527119e-05 2.7454484e-05 9.850522e-05
6.881928e-06 -8.424344e-06 -1.4744137e-07 -1.4021134e-06 4.050791e-06 -1.5728656e-06 -1.3037607e-05 -1.790456e-05

exp_avg_sq f4 [128, 8]
00000000: 75ef 0a39 4531 5039 cb9a 8233 0157 8939
00000010: a018 9a37 103c e836 c74f 7838 dc70 0b39
00000020: 887b 643a 3b30 ab3a 47c8 d634 b552 d93a
00000030: bab7 9b39 1cf5 3e38 3505 af39 16eb 3e3a
00000040: 9bbb 8238 90e6 c338 a8c9 f532 3a77 a038
00000050: 0d4f d537 0686 5a36 7c9a 9837 3f15 2638
00000060: cd0a 023a b6dd 423a 507d 7434 67ad 8d3a
00000070: d36a 4139 925e d937 b8c9 8438 c6e8 b939
00000080: ce93 9039 7fa5 d839 77e8 0734 93bb 653a
00000090: cdff 6839 21aa 7137 348d 2a38 3f32 4638
000000a0: 1697 9531 a828 e031 ed9e 0c2c bca8 c231
000000b0: b809 c430 930b 7a2f b91e 9131 acdc 9e31
000000c0: 155d a13a facc f13a 23b0 1735 7597 673b
000000d0: c34d 863a abdc 8638 2400 0138 6821 0738
000000e0: dfd5 2c3b d47e 813b bb78 a235 cb01 c63b
000000f0: 1a27 963a 1173 1039 7202 3c3a 534b d53a
00000100: 2ddb 663a 83f7 ac3a 8603 d934 e570 013b
00000110: 989e cf39 00f1 4038 0197 6039 b040 1d3a
00000120: 1296 353a 3a0d 883a b6b2 aa34 aa52 c33a
00000130: 6a88 b439 6ec3 1738 b346 5a39 ec4b ee39
00000140: fe99 153a c12c 603a 84a1 8c34 b2a9 8d3a
00000150: b28c 5839 1b10 fa37 47ba 4539 a66a c639
00000160: 3adf 9639 4014 e239 63d3 0d34 a20d 063a
00000170: 25a9 d238 d82f 7c37 ab4f 3639 d2a6 9e39
00000180: 5208 ad37 90a4 0138 1da8 2232 376b 3338
00000190: 1885 3537 2e9d 9035 1862 6a36 e9af 0537
000001a0: 8dcc 923a bef9 db3a 14ff 0935 d94c 093b
000001b0: 8bd7 c739 ef60 7538 bb65 c439 0ba0 8b3a
000001c0: 3b36 8b3b 589b d03b 4ddd 0236 2d8a 223c
000001d0: 6487 e63a 5ab2 6839 5c3f 973a 2a6b 313b
000001e0: c2eb 9435 d327 df35 cdfd 0b30 58e2 0136
000001f0: bcfc ac34 feec 7833 2713 3835 1cbe 9035
00000200: 87de 143a e313 5f3a 4bf1 8b34 104b 723a
00000210: 57f0 ea38 c1d6 f837 ffef e539 76a3 1b3a
00000220: 2b41 7f3a 583f bf3a 14f3 ef34 16f5 093b
00000230: 7138 f939 2755 5538 1542 8539 5991 0b3a
00000240: e899 ad39 a811 023a 0e31 2334 c2dc 7b3a
00000250: a5a1 9339 ee16 9137 542d 9936 d5db a936
00000260: 59d2 d63a 13f4 203b c2f0 4935 1778 6e3b
00000270: cd81 503a 3a8a b338 189f e839 9265 863a
00000280: 10f9 973a 83ba e33a 37dc 0e35 32b7 093b
00000290: 7358 3539 e606 7e38 b9e3 233a 6752 983a
000002a0: 6d67 b43a 7c2a 073b 3496 2935 8d63 3e3b
000002b0: 0e94 e339 69c6 9638 622a 9439 d855 8e3a
000002c0: 9ef3 8f34 97b5 d734 ff51 072f 590c f234
000002d0: eeb1 2a34 879e 7032 ed5c 2f34 417d 6e34
000002e0: bc10 7c3b 9ddb bc3b 74f3 ec35 cc02 113c
000002f0: bc14 f13a b5aa 5239 2f09 913a e93b 1c3b
00000300: e9fd 7234 330f b634 ea6b e42e 2839 0b35
00000310: 676b ec33 7415 4b32 2777 6433 7aa8 f333
00000320: c42a 1c35 7303 6a35 86cd 922f cbe1 8035
00000330: b5cd 3e34 cb84 0233 f158 9d34 c792 0b35
00000340: c431 a53a 788a f73a f149 1b35 437c 2d3b
00000350: 61d5 df39 3910 8a38 2754 aa39 2acd 683a
00000360: 3fca d839 a86d 223a 85ca 4b34 718e b13a
00000370: 84f0 ae39 8d2f b537 f6d5 6e37 4c7a 6037
00000380: fc29 0536 428b 4736 b65b 7a30 67cc 7436
00000390: f974 5b35 6596 de33 83fb 5435 b734 f835
000003a0: fa67 b93a 0cea 0a3b e449 2e35 a942 4c3b
000003b0: 4071 2b3a b0f4 9a38 5a84 f639 86c3 763a
000003c0: 87d4 0435 300b 4735 25bb 792f 8e2e 5035
000003d0: 55a7 0834 8b07 de32 d03c b134 2701 0635
000003e0: e8ca 6b34 51aa b034 70a7 dd2e 3940 1d35
000003f0: c456 4734 0e11 4532 e693 ee31 aeec d531
0.0001324991 0.0001985478 6.0817534e-08 0.000261955 1.8369698e-05 6.921131e-06 5.9202106e-05 0.00013298116
0.00087159174 0.0013060638 4.0006327e-07 0.0016580435 0.0002970079 4.5527806e-05 0.0003338248 0.00072829553
6.233827e-05 9.34127e-05 2.8613456e-08 7.651602e-05 2.542839e-05 3.2562543e-06 1.819175e-05 3.959727e-05
0.0004960716 0.000743355 2.2769859e-07 0.0010809124 0.0001844571 2.5912454e-05 6.3318235e-05 0.0003545938
0.00027575943 0.00041322035 1.2657425e-07 0.00087636075 0.00022220537 1.4404331e-05 4.0662664e-05 4.7253674e-05
4.353647e-09 6.52388e-09 1.9983418e-12 5.665326e-09 1.4263639e-09 2.274148e-10 4.223548e-09 4.6234927e-09
0.0012311066 0.0018447929 5.6508196e-07 0.0035338078 0.0010246563 6.4307205e-05 3.0756128e-05 3.221762e-05
0.0026372594 0.0039518867 1.2105078e-06 0.006042694 0.0011455745 0.00013775776 0.0007171995 0.0016273059
0.00088064634 0.0013196323 4.0421963e-07 0.0019751128 0.00039600278 4.6000816e-05 0.00021418558 0.0005998714
0.0006926964 0.0010379918 3.1794997e-07 0.0014901955 0.00034433912 3.6183214e-05 0.00020816438 0.00045451464
0.00057068455 0.0008551591 2.619455e-07 0.001080802 0.00020651778 2.9809822e-05 0.00018856778 0.00037844962
0.00028776546 0.00043121167 1.320855e-07 0.0005113726 0.00010045086 1.503151e-05 0.00017386551 0.000302604
2.0627082e-05 3.0909257e-05 9.467866e-09 4.2776777e-05 1.0819429e-05 1.0774581e-06 3.4925815e-06 7.968375e-06
0.0011199877 0.0016782803 5.1407665e-07 0.0020950346 0.0003811683 5.850283e-05 0.00037459828 0.0010652555
0.004248408 0.0063661747 1.9500324e-06 0.009920639 0.0017587957 0.00022191685 0.0011539268 0.0027071931
1.1095474e-06 1.6626385e-06 5.092858e-10 1.9354247e-06 3.2221385e-07 5.7957543e-08 6.857321e-07 1.0784165e-06
0.0005678911 0.0008509738 2.606633e-07 0.00092427526 0.00011202756 2.9663906e-05 0.00043857095 0.00059371383
0.0009737189 0.0014591021 4.4694082e-07 0.0021050624 0.00047535033 5.086246e-05 0.00025416972 0.00053240877
0.000331118 0.00049617374 1.5198404e-07 0.00096077856 0.0002815846 1.7296024e-05 4.565032e-06 5.0621843e-06
0.0016389593 0.0024559542 7.5228684e-07 0.0036387497 0.0007953912 8.561132e-05 0.00044369022 0.0010253659
0.0011594612 0.001737431 5.3219577e-07 0.0021013734 0.00017294455 6.0564744e-05 0.000625189 0.0011621237
0.0013763733 0.0020624688 6.317598e-07 0.0029051036 0.00043407123 7.189514e-05 0.00028260337 0.0010859324
2.681308e-07 4.0178995e-07 1.230731e-10 4.5084997e-07 1.5897214e-07 1.4005884e-08 1.6331951e-07 2.2211044e-07
0.0038462123 0.0057634846 1.7654224e-06 0.0088507645 0.001839302 0.00020090754 0.0011065359 0.002383942
2.2630378e-07 3.39112e-07 1.0387409e-10 5.186471e-07 1.1009143e-07 1.1821033e-08 5.3193755e-08 1.1346215e-07
5.817676e-07 8.717681e-07 2.6703278e-10 9.602458e-07 1.7769965e-07 3.0388758e-08 2.9308242e-07 5.1995124e-07
0.0012603332 0.0018885871 5.78496e-07 0.002647177 0.00042692854 6.5833745e-05 0.00032487625 0.00088806695
0.00041349416 0.00061961496 1.8979524e-07 0.0013546479 0.00033367064 2.1599024e-05 1.4235722e-05 1.3379915e-05
1.9842983e-06 2.973437e-06 9.10798e-10 3.647781e-06 8.1754075e-07 1.0365037e-07 7.934215e-07 1.8492782e-06
0.0014145367 0.0021196632 6.4927576e-07 0.0031167662 0.0006540008 7.388869e-05 0.00047019386 0.00094132905
4.94831e-07 7.4149557e-07 2.2712905e-10 7.7553784e-07 1.2726862e-07 2.5847632e-08 3.3013066e-07 4.9920567e-07
2.1959897e-07 3.2906476e-07 1.0079659e-10 5.8580514e-07 1.8564884e-07 1.1470787e-08 6.9435258e-09 6.2260233e-09

exp_avg f4 [128]
00000000: 7005 1238 086f 96b8 3677 3a39 b8d8 fc39
00000010: 1bf8 ad3a 630d 1335 88d9 f639 17c7 39bb
00000020: b5dc 073b 36a5 b43a 5d58 b13a cc50 5ab8
00000030: 089d a439 f0f3 5a3a bb83 7fbb 2bd3 3137
00000040: fb6e 1f39 1c75 0639 fc55 6b39 b1ff 403a
00000050: a6c7 853a 5f4e 123b 97f0 c7b7 69e0 5ebb
00000060: 61ee 0738 98d2 1738 7aa8 0a3b 4988 d43a
00000070: 938d e438 3542 01bb 5610 c237 4851 bfb5
00000080: 57e9 e039 0767 06b7 a0d9 2a38 2e4b 8737
00000090: 6ee3 ba38 bcce 2aba f21f 7e39 06ff 01b8
000000a0: ce09 8c38 bee9 19bb b70e 2a39 da37 1d3b
000000b0: b01e 783a ebd1 25ba 0e53 4b39 d0b0 a8b9
000000c0: 7200 773a 3487 aeb9 e86b f336 3087 e7b9
000000d0: da9b 6e3a 10b9 d138 e5d8 253b 5913 b13a
000000e0: 560f f03a 1e91 d238 0412 4eb9 7091 8b37
000000f0: 7643 fb38 6ecf 633b 4b18 0d3a 1115 c038
00000100: 4919 ec37 d336 a138 9334 2c3b 8c89 6839
00000110: c211 08bb d9b5 af37 3c1e 893a 5764 f9b6
00000120: 308c 73b9 b80f 64bb f54a ad3a 506c e93a
00000130: d215 f9b9 2d06 4637 624f b6bb 00fb e138
00000140: 792c 83bb 8001 28b7 ccdd 8835 2207 69bb
00000150: f698 adba 1edd 0abb 1bc1 0938 02e4 00b9
00000160: f72f 0738 6ce3 dfb8 da0a 8c3a 1a65 29ba
00000170: 5739 ad39 257f 2b38 dfdf cc39 af8c 163b
00000180: 0276 3b3b eebf 733a abff 053b b694 8d36
00000190: 848d 0bb8 b4c0 a037 daf4 773a 74d0 013a
000001a0: 6f46 40ba 69bd 04ba 4f30 4c39 56ce d637
000001b0: 6311 1e39 82a7 a639 f5d7 2238 d8c2 c83a
000001c0: 2a5d 8f3a ee14 143a 5f5f a7ba 41b5 ed36
000001d0: 364f 86b9 b7f7 6d3b 9eee 4539 e06e 1938
000001e0: 1f54 0c38 c6ff ebba 6974 023b ca6c 9d37
000001f0: ca2c db3a 15c1 a7ba b4de 0438 d61c 9e39
3.4814177e-05 -7.1732386e-05 0.00017782752 0.00048226654 0.0013272794 5.478125e-07 0.0004708285 -0.0028347427
0.0020730917 0.0013782147 0.0013530363 -5.20505e-05 0.00031397515 0.00083523896 -0.003898843 1.05991885e-05
0.00015204765 0.00012822862 0.00022443378 0.000736232 0.0010206595 0.0022324545 -2.3834682e-05 -0.003400827
3.2408516e-05 3.6197336e-05 0.0021157549 0.0016214933 0.000108982575 -0.00197233 2.313421e-05 -1.4254265e-06
0.0004289846 -8.01101e-06 4.0733838e-05 1.6128262e-05 8.911533e-05 -0.0006515791 0.00024235228 -3.0993506e-05
6.6775465e-05 -0.0023485268 0.00016217945 0.002398959 0.0009465022 -0.00063255307 0.00019390529 -0.00032175193
0.00094223686 -0.000332886 7.2545263e-06 -0.00044160476 0.0009102203 0.00010000367 0.0025306281 0.0013509794
0.0018315117 0.000100406105 -0.00019652402 1.6637816e-05 0.00011981178 0.003476109 0.0005382343 9.159197e-05
2.8145167e-05 7.68729e-05 0.0026276454 0.00022176484 -0.0020762538 2.0946305e-05 0.0010461281 -7.4324594e-06
-0.0002322651 -0.0034799408 0.0013221191 0.0017808769 -0.00047509238 1.1803158e-05 -0.0055636624 0.000107755885
-0.0040031043 -1.001393e-05 1.0197341e-06 -0.003555723 -0.0013244438 -0.0021188925 3.284319e-05 -0.00012291971
3.223118e-05 -0.00010675829 0.0010684386 -0.00064619037 0.00033039853 4.088799e-05 0.0003907671 0.0022972038
0.0028604274 0.0009298314 0.002044658 4.2194397e-06 -3.327198e-05 1.916322e-05 0.0009458788 0.00049520214
-0.0007334714 -0.00050636247 0.00019472952 2.560687e-05 0.00015074531 0.0003178679 3.8824935e-05 0.0015316857
0.0010937799 0.0005648871 -0.0012769512 7.084251e-06 -0.00025617488 0.003631098 0.00018876276 3.6581303e-05
3.3456945e-05 -0.0018005304 0.0019905812 1.8766517e-05 0.0016721722 -0.0012798632 3.167866e-05 0.00030157593

exp_avg_sq f4 [128]
00000000: 5ebc be36 b0d5 1c38 9479 3336 e986 b237
00000010: 297b 4637 1b5d 4d2f b586 5d38 6e46 ed38
00000020: c476 1e38 d949 f937 c960 cd37 7f1f 4f37
00000030: 878b 6d35 fc87 4938 8c1d 3f39 c271 4c33
00000040: 7f5f cc37 2336 2f38 7d53 6e37 2875 9338
00000050: 4fa2 5038 55aa 7738 679f 4532 a105 2d39
00000060: 47cb 2632 4464 d632 f0c8 6238 0fcf 9437
00000070: 02d0 b633 6c88 7e38 a95a b632 3fda 2132
00000080: fae4 a538 0a47 8c31 51e1 a637 e6f6 bb31
00000090: b05f 0a36 d107 bd37 069e ad34 da0f b735
000000a0: 7e7f bd33 a9ea 7838 fa12 9c34 c6ff b538
000000b0: c386 e636 9ca5 8e37 8e3e 4a34 67f6 8338
000000c0: f82d 1837 8c22 6b38 a4ea f634 73f7 3f38
000000d0: 848b 0438 c67e 0237 3359 dd37 194d 1438
000000e0: b2b2 6d38 d59d c533 88b1 6137 3808 6233
000000f0: 790d 6138 d1f0 c838 0cda aa36 ab34 ac33
00000100: 7468 7a32 bfce 3f34 569b 3f38 7c12 0835
00000110: 0d0a 6538 442f 8233 2b95 4537 484c 9032
00000120: a966 8938 d77a 8b39 e30a cb37 9989 9e38
00000130: 2dd7 2738 67cc 1c33 3442 9f39 5b19 c335
00000140: d05c 1939 7d8a da37 c9cc 4e30 8ceb 1339
00000150: 2195 a038 de4f 0d39 0fe0 9333 4e11 a438
00000160: e75a 9734 4690 3a38 ad3e 3338 66d2 1638
00000170: ed17 d937 2836 1938 b3cf bb37 4d64 7938
00000180: df4e c838 c8b4 fe36 ea85 8d38 03c5 1f35
00000190: 471b 1235 79bc 6b33 5a5d 0037 1c97 8338
000001a0: 9079 aa36 19e1 d336 9f5c 9835 2e53 dd32
000001b0: 9db6 7134 4841 1937 ed17 9033 0d4d 5538
000001c0: f25f fe37 a2be ca36 d1fb 7938 ef61 3533
000001d0: e456 0c38 4d62 7338 d0b1 0235 fc30 7833
000001e0: 9cb1 d035 8acb 6738 2482 5838 5010 6334
000001f0: 6c79 6238 58df 6b38 1192 9c33 0900 2337
5.68437e-06 3.739231e-05 2.6743846e-06 2.1282076e-05 1.1830395e-05 1.8677719e-10 5.281596e-05 0.00011314159
3.7780745e-05 2.9717501e-05 2.4482973e-05 1.2345495e-05 8.849242e-07 4.804878e-05 0.00018226187 4.7600913e-08
2.4363164e-05 4.177367e-05 1.4205344e-05 7.031328e-05 4.9742226e-05 5.9048023e-05 1.1503153e-08 0.00016500663
9.708692e-09 2.4958474e-08 5.4069737e-05 1.7739394e-05 8.512872e-08 6.0685372e-05 2.1228816e-08 9.421057e-09
7.910463e-05 4.0826125e-09 1.9893663e-05 5.4704854e-09 2.06193e-06 2.2534196e-05 3.2338738e-07 1.3639176e-06
8.824189e-08 5.9346352e-05 2.9071072e-07 8.678394e-05 6.8702225e-06 1.7004837e-05 1.8835473e-07 6.292463e-05
9.070609e-06 5.606054e-05 4.5991794e-07 4.5768404e-05 3.1601186e-05 7.778121e-06 2.638679e-05 3.5357752e-05
5.6671626e-05 9.202237e-08 1.345238e-05 5.26272e-08 5.3656728e-05 9.581599e-05 5.091779e-06 8.0189544e-08
1.4575665e-08 1.7863475e-07 4.5682616e-05 5.0690846e-07 5.4607215e-05 6.062194e-08 1.1776846e-05 1.6798495e-08
6.551791e-05 0.0002660367 2.4204555e-05 7.559657e-05 4.00163e-05 3.6507483e-08 0.00030376168 1.4536012e-06
0.00014625792 2.6052114e-05 7.523338e-10 0.0001410676 7.657172e-05 0.0001347656 6.885977e-08 7.823353e-05
2.8192082e-07 4.448022e-05 4.2735297e-05 3.5958736e-05 2.5879557e-05 3.652848e-05 2.2388855e-05 5.945964e-05
9.551434e-05 7.5908356e-06 6.7483474e-05 5.9518806e-07 5.442893e-07 5.4886616e-08 7.65113e-06 6.274713e-05
5.0805465e-06 6.314495e-06 1.1351839e-06 2.5765612e-08 2.2511308e-07 9.13471e-06 6.7098746e-08 5.0854916e-05
3.0323838e-05 6.0422617e-06 5.960075e-05 4.2231417e-08 3.3459524e-05 5.8027264e-05 4.8687525e-07 5.778655e-08
1.5548899e-06 5.5264252e-05 5.1619616e-05 2.1146957e-07 5.399568e-05 5.623637e-05 7.2908854e-08 9.715565e-06
