GameAI3/Config/results/dwarf_2/Dwarf/Dwarf-208159.onnx (onnx, 73485 bytes, 7 tensors)

network_body._body_endoder.seq_layers.0.weight f4 [128, 8]
0.36331683 -0.2926144 -0.13727209 0.42526913 0.27964902 0.07250509 -0.110043466 -0.13934168
-0.8958395 -0.6415159 0.3397833 0.055037316 -0.7713882 0.08840293 -0.1745744 -0.25678593
0.5004534 0.6085765 0.15283667 0.58168817 0.0014308107 0.06702185 -0.19610158 0.13684537
0.77586174 -0.033065084 -0.670151 0.1444107 -0.23753165 -0.5853104 -0.113184124 -0.4402014
-0.31195772 0.24169503 0.1775189 0.6058266 0.13278948 -0.29869652 0.09293918 -0.11067661
0.239602 -0.69471323 -0.80063987 0.16564278 0.022729933 -0.3425476 0.17490561 0.17516448
-0.46556097 -0.23071575 -0.5897569 0.57124144 0.1542145 -0.1947796 0.07094565 0.1591294
0.368254 0.10342114 0.29337764 -0.9011889 0.06823092 0.31022808 -0.20179428 0.20884152
-0.2709916 -0.02521144 0.5059228 0.69970405 0.15738809 -0.08099937 -0.09421951 -0.12716849
-0.25922173 -0.41759884 -0.27400705 -0.65106064 -0.075453915 -0.7283846 -0.94014525 -0.08381614
-0.030638697 0.33855852 -0.17721647 -0.7359982 -0.5509939 0.24944803 0.04344923 -0.35113898
-0.19046383 0.27614552 -0.6456587 0.6266009 -0.06936993 -0.05628866 -0.2774676 -0.12046232
-0.21861 -0.66802186 -0.359349 -0.16166073 -0.75373 -0.45286152 0.28828847 0.6169311
0.008682164 -0.04549961 0.46889123 -0.47505727 0.63681406 0.40510592 -0.25662604 0.42763537
0.065731086 0.21301334 -0.22049388 0.4258356 -0.29192293 -0.34374353 -0.061282523 0.4026841
-0.12118379 0.07305364 -0.4684419 -0.118998185 0.016300583 -0.33948153 -0.1663362 0.09474489
-0.22149375 0.5172266 -0.17320459 0.32518423 -0.40069497 -0.26778957 0.20404394 0.040453043
-0.08434949 0.30632865 -0.108439684 0.21164688 0.08765659 0.30215266 -0.20658492 0.34211713
0.27569413 -0.16852924 0.30180454 0.14958507 0.41869456 -0.13849932 0.4955276 0.12971163
0.19442075 -0.0684355 -0.077131145 0.042782098 0.27976727 -0.82232577 0.049557183 -0.39662394
-0.2972164 -0.46286798 -0.18797866 0.2640163 0.40390682 -0.6334468 0.022037337 0.3154131
0.16781807 -0.41935897 0.49522832 -0.2647127 0.43797618 -0.32040292 0.028713953 -0.45089725
-0.14581773 0.39882717 0.21267232 0.42158487 -0.870342 -0.29171848 0.0029362484 -0.009247717
-0.2132422 -0.609443 0.31647918 -0.39172494 -0.9285882 0.118203476 -0.4576597 0.29399788
0.4266756 -0.08642143 -0.3401933 0.4599052 0.19441707 -0.05498802 -0.3914234 -0.29359022
0.8066329 -0.05406939 -0.59887415 0.09519454 -0.46577498 -0.33869815 0.09780602 -0.35222262
-0.33697838 -0.13976987 0.091357775 -0.0752873 -0.39919114 0.12365142 0.08876202 -0.03216151
0.3204639 -0.65976447 -0.42511773 0.17645732 -0.5881297 0.28021988 0.11815167 0.15786108
0.06642464 0.0100361 -0.2515503 -0.50149506 -0.14929678 -0.1392135 -0.0507451 0.16174412
0.06483174 0.12049649 0.643174 -0.079522856 0.24481046 -0.46776107 0.44456044 -0.19810966
-0.46189687 -0.01929094 -0.14284036 -0.49872604 0.57638466 0.46690798 0.022938175 -0.35058048
0.10619863 0.07518047 0.11784073 0.89384425 0.0336858 -0.34089673 0.33536965 0.6102975
00000000: aa04 ba3e 8ed1 95be 0e91 0cbe e0bc d93e
00000010: 282e 8f3e 8c7d 943d 785e e1bd 96af 0ebe
00000020: bd55 65bf 633a 24bf 14f8 ad3e cf6e 613d
00000030: b279 45bf 980c b53d a2c3 32be 7279 83be
00000040: b71d 003f abcb 1b3f 3781 1c3e 84e9 143f
00000050: 0a8a bb3a c042 893d dace 48be 3121 0c3e
00000060: e09e 463f 416f 07bd 048f 2bbf 66e0 133e
00000070: 7f3b 73be e7d6 15bf 14cd e7bd 1462 e1be
00000080: ecb8 9fbe e77e 773e 84c7 353e 7417 1b3f
00000090: f7f9 073e c0ee 98be e656 be3d 6baa e2bd
000000a0: 3a5a 753e bad8 31bf bcf6 4cbf 439e 293e
000000b0: 2034 ba3c 6662 afbe 751a 333e 515e 333e
000000c0: 025e eebe c040 6cbe 4ffa 16bf e13c 123f
000000d0: 68ea 1d3e 4e74 47be f44b 913d d1f2 223e
000000e0: ca8b bc3e 76ce d33d 9835 963e 51b4 66bf
000000f0: a7bc 8b3d 37d6 9e3e 29a3 4ebe 8dda 553e
00000100: 69bf 8abe 3988 cebc 2884 013f ce1f 333f
00000110: 582a 213e ffe2 a5bd 29f6 c0bd 7538 02be
00000120: b6b8 84be 84cf d5be a74a 8cbe e9ab 26bf
00000130: 9587 9abd 6a77 3abf 5cad 70bf cca7 abbd
00000140: 01fe fabc 8b57 ad3e 3c78 35be 616a 3cbf
00000150: f00d 0dbf 4e6f 7f3e d2f7 313d 7dc8 b3be
00000160: f308 43be f262 8d3e e349 25bf eb68 203f
00000170: d211 8ebd f08e 66bd 3c10 8ebe f3b4 f6bd
00000180: 4ddb 5fbe 7b03 2bbf 98fc b7be 648a 25be
00000190: 73f4 40bf 77dd e7be 8c9a 933e 32ef 1d3f
000001a0: a33f 0e3c cd5d 3abd 8312 f03e b53a f3be
000001b0: 3f06 233f 0b6a cf3e 7d64 83be 06f3 da3e
000001c0: 059e 863d 2b20 5a3e 26c9 61be 2007 da3e
000001d0: ec76 95be 27ff afbe 6203 7bbd 9c2c ce3e
000001e0: 352f f8bd 269d 953d 9ed7 efbe 52b5 f3bd
000001f0: cd88 853c 86d0 adbe 0954 2abe 9c09 c23d
00000200: 42cf 62be f668 043f 8b5c 31be 8c7e a63e
00000210: e427 cdbe b71b 89be e5f0 503e 17b2 253d
00000220: 6dbf acbd 1cd7 9c3e a015 debd f6b9 583e
00000230: 4c85 b33d c1b3 9a3e ff8a 53be fa29 af3e
00000240: c827 8d3e ee92 2cbe 2086 9a3e d42c 193e
00000250: 225f d63e c4d2 0dbe cbb5 fd3e 20d3 043e
00000260: 3c16 473e e927 8cbd eff6 9dbd 483c 2f3d
00000270: a83d 8f3e f183 52bf 79fc 4a3d 4b12 cbbe
00000280: bf2c 98be 08fd ecbe 7a7d 40be 252d 873e
00000290: e0cc ce3e 9229 22bf a587 b43c d37d a13e
000002a0: 80d8 2b3e 38b6 d6be 918e fd3e 6c88 87be
000002b0: 6a3e e03e da0b a4be 8639 eb3c 01dc e6be
000002c0: 3e51 15be 1333 cc3e c6c6 593e f9d9 d73e
000002d0: bcce 5ebf 205c 95be 136e 403b bd83 17bc
000002e0: 2a5c 5abe 7504 1cbf 8f09 a23e 2c90 c8be
000002f0: f5b7 6dbf aa14 f23d 5f52 eabe e486 963e
00000300: 3975 da3e b8fd b0bd d12d aebe b278 eb3e
00000310: 4515 473e 1e3b 61bd a668 c8be 7551 96be
00000320: 7e7f 4e3f dd77 5dbd d14f 19bf 5bf5 c23d
00000330: 0f7a eebe d869 adbe 864e c83d 8656 b4be
00000340: 6e88 acbe d51f 0fbe c919 bb3d 3a30 9abd
00000350: c862 ccbe f53c fd3d ddc8 b53d cabb 03bd
00000360: d813 a43e 53e6 28bf 08a9 d9be 3ab1 343e
00000370: ab8f 16bf fb78 8f3e 81f9 f13d 56a6 213e
00000380: a409 883d 746e 243c 33cb 80be fb61 00bf
00000390: 41e1 18be fc8d 0ebe 18da 4fbd 40a0 253e
000003a0: 81c6 843d ddc6 f63d 0da7 243f e1dc a2bd
000003b0: 98af 7a3e 617e efbe 6d9d e33e 42dd 4abe
000003c0: bf7d ecbe 0908 9ebc be44 12be 0559 ffbe
000003d0: f28d 133f 900e ef3e d7e8 bb3c 497f b3be
000003e0: ab7e d93d 38f8 993d 7b56 f13d fad2 643f
000003f0: 1ffa 093d 048a aebe 92b5 ab3e 753c 1c3f

network_body._body_endoder.seq_layers.0.bias f4 [128]
-0.0522916 0.043470353 0.0010883759 -0.10261579 0.020284466 -0.041635677 -0.10244083 -0.0016611062
-0.08470661 0.08877719 0.018270476 0.004351877 -0.013541742 0.007878779 -0.05876547 -0.0358523
-0.012629971 -0.062175818 0.0025434252 0.035279505 -0.07311195 -0.054802556 -0.16724648 0.17545769
-0.0033707914 -0.07172595 -0.047572356 -0.04121648 -0.09097679 0.0049339877 -0.059197348 -0.009769979
0.07716751 0.0032441108 -0.010553765 -0.036353108 -0.08101024 -0.019107157 -0.057296876 0.03856919
0.017415993 -0.036178872 -0.057515055 -0.026351761 -0.023199707 -0.0022032708 -0.017183257 -0.11180297
-0.012475707 -0.016843433 -0.104388416 -0.039835375 -0.03289828 0.030190216 -0.05451313 -0.08506276
-0.09134198 0.067218885 -0.09832995 -0.0648664 -0.087034054 -0.074679874 0.0038077256 0.03667447
-0.037203107 -0.043862306 -0.21236187 -0.03771444 -0.036778904 -0.025842616 0.04079202 0.018906293
-0.08326762 0.08582517 0.03971033 0.02200041 -0.024921095 -0.085199475 0.13408251 -0.124218345
-0.044231832 0.033688143 -0.0362655 0.023376666 -0.0015545678 -0.10243513 0.0016098701 0.011878331
0.04740043 -0.027330188 -0.025954979 0.049519762 -0.11672428 -0.06978418 -0.022127314 -0.044437233
0.03375306 -0.034979336 0.08679673 0.103495374 -6.9450034e-06 0.0006906611 -0.03388707 0.031741977
-0.16832192 -0.046791773 -0.13030966 0.0122677805 -0.073897906 0.038556363 0.09062383 -0.04699813
0.08414561 -0.008483505 -0.09006532 0.05362001 0.0031933328 0.023772186 -0.04360732 0.030878764
0.018195108 -0.12976378 -0.013897712 -0.07005552 -0.06551445 0.021167964 -0.053103127 0.22208934
00000000: b72f 56bd f80d 323d d6a7 8e3a 3a28 d2bd
00000010: 9c2b a63c 2c8a 2abd 7fcc d1bd 7ab9 d9ba
00000020: a97a adbd d1d0 b53d f7ab 953c 319a 8e3b
00000030: 2fde 5dbc ff15 013c 10b4 70bd dcd9 12bd
00000040: f0ed 4ebc 12ac 7ebd 98af 263b 3e81 103d
00000050: b8bb 95bd a578 60bd a942 2bbe 2eab 333e
00000060: 7fe8 5cbb 0ee5 92bd 3bdb 42bd 9dd2 28bd
00000070: 0a52 babd 4aad a13b eb78 72bd 4312 20bc
00000080: 000a 9e3d 269b 543b b3e9 2cbc ffe6 14bd
00000090: b2e8 a5bd 9d86 9cbc 21b0 6abd bafa 1d3d
000000a0: fcab 8e3c 4c30 14bd e894 6bbd a6df d7bc
000000b0: 500d bebc c064 10bb e7c3 8cbc f5f8 e4bd
000000c0: e866 4cbc 3dfb 89bc 98c9 d5bd 6b2a 23bd
000000d0: 59c0 06bd 7951 f73c 2949 5fbd 6235 aebd
000000e0: 8111 bbbd 0eaa 893d 3661 c9bd add8 84bd
000000f0: e93e b2bd c3f1 98bd 098b 793b f837 163d
00000100: 4962 18bd f6a8 33bd 6475 59be 757a 1abd
00000110: 7aa5 16bd e5b3 d3bc 8815 273d 5fe1 9a3c
00000120: 3788 aabd 1bc5 af3d 4da7 223d 343a b43c
00000130: 5327 ccbc 107d aebd ed4c 093e 3066 febd
00000140: 702c 35bd 94fc 093d 228b 14bd 6c80 bf3c
00000150: a4c2 cbba 82c9 d1bd 4702 d33a 559d 423c
00000160: f426 423d 8fe3 dfbc 899f d4bc 3cd5 4a3d
00000170: 240d efbd 02eb 8ebd 5744 b5bc d103 36bd
00000180: a640 0a3d 7e46 0fbd 7cc2 b13d 62f5 d33d
00000190: 2009 e9b6 7b0d 353a 2bcd 0abd e003 023d
000001a0: 955c 2cbe bba8 3fbd e56f 05be cdfe 483c
000001b0: c957 97bd 47ed 1d3d fd98 b93d 1c81 40bd
000001c0: 8954 ac3d 66fe 0abc 2b74 b8bd a8a0 5b3d
000001d0: 3c47 513b e3bd c23c 979d 32bd 76f5 fc3c
000001e0: e80d 953c cce0 04be 3bb3 63bc 4579 8fbd
000001f0: 712c 86bd 7068 ad3c aa82 59bd 636b 633e

network_body._body_endoder.seq_layers.2.weight f4 [128, 128]
0.10233029 -0.11798763 -0.021317001 -0.042493805 0.2274384 0.15313962 0.14538868 -0.089693405
-0.04124614 0.00715127 -0.093428455 -0.1555727 -0.017080259 0.02502086 -0.019086877 -0.21724819
-0.13779078 -0.008138277 -0.09769403 0.008261195 0.08343747 0.099348515 0.08319113 -0.0042984425
0.036052037 0.03434685 0.040683914 0.016861204 0.07230109 -0.061765123 0.06383491 0.0019567388
-0.039760035 -0.09192201 0.08993761 0.21278754 -0.27541545 0.0675521 0.09938601 -0.049411256
-0.045642097 -0.045625445 -0.06724287 0.0039416566 0.107908815 0.03723386 -0.20308457 0.15927106
0.19534592 0.027449504 0.11702295 -0.07481398 0.11750865 -0.0047627906 -0.008809475 0.08286498
0.000719941 0.061313644 -0.11425956 -0.19021632 0.0055255904 0.0994121 0.021562142 0.018102342
0.05000162 0.15868944 0.1401033 -0.008234488 0.18590114 0.0037267124 0.067835525 -0.0225899
-0.11807833 -0.022088943 -0.068225875 0.03232897 -0.23338336 0.05922434 -0.010710989 0.09034622
-0.063599385 -0.10565492 -0.18967874 0.13059485 0.25141096 -0.033492982 -0.21968317 0.13075829
-0.05097553 -0.09496135 0.04790763 0.035171 -0.0050937533 -0.067754604 0.11017535 0.036299262
0.012815456 -0.17443715 -0.009345452 -0.08493254 -0.105460934 -0.17660135 -0.081826895 -0.073974274
0.043280464 -0.109253116 0.075347096 -0.1871465 -0.012041308 0.06747715 -0.3809011 0.03751917
-0.15318306 -0.0991054 0.060793225 -0.066043474 0.13308422 -0.22256172 0.16028161 -0.09754616
0.17193864 0.072976775 0.056016117 0.05887156 0.021521792 -0.16994682 0.06749793 -0.06962676
-0.081717566 -0.10767476 0.09049132 0.17287596 0.03406594 -0.060566783 0.0026373656 -0.19013126
0.19312188 -0.0028834855 0.1527281 0.07290575 -0.068494804 0.07899375 -0.081165515 -0.09129465
0.16114992 -0.005813708 -0.07720335 0.10995246 -0.043450385 -0.19139108 -0.012671552 -0.27693075
0.0032445907 -0.07837799 0.05913658 0.07285593 -0.12240299 -0.12196119 0.019467292 -0.07854351
-0.16046123 -0.04703685 -0.10959892 0.01653097 0.20808719 -0.17839633 -0.12462022 -0.24569477
-0.03767219 -0.031915423 0.056806475 -0.16656528 0.04179931 -0.17895113 -0.017526027 0.041004874
-0.019147487 0.00647004 -0.07721086 0.043077003 -0.20746763 -0.07789066 0.048671044 -0.03352068
0.044846695 -0.010354564 -0.009331595 0.20563532 0.014740383 0.064876184 -0.038480982 -0.073409244
-0.14791338 0.008534842 -0.11962622 0.008123246 -0.023964029 -0.004392068 -0.12232158 -0.24611643
-0.10519797 -0.11513358 -0.15579435 -0.104957215 0.10464284 -0.054063663 -0.10635079 -0.05838704
0.0852369 -0.043276936 -0.07592696 0.17095369 -0.058878295 0.049674448 -0.111685276 0.07730712
-0.03664672 0.02980715 0.11242823 0.09552348 -0.004836284 0.15676129 0.13046154 -0.17118697
0.10592278 0.046542525 -0.14097717 0.22987121 0.12214373 -0.21344727 -0.10977733 0.06882767
-0.07269285 -0.17377338 0.09608951 -0.16316895 0.121247485 -0.19530356 -0.1391514 -0.009447173
-0.043463007 -0.1268603 0.18007834 -0.12851633 -0.071994126 -0.03523884 0.07922617 -0.097206995
-0.10792416 0.10749135 -0.31990582 -0.08700485 0.17899597 -0.0872234 0.11243537 -0.14384112
00000000: 8b92 d13d 80a3 f1bd fea0 aebc fc0d 2ebd
00000010: 9de5 683e a2d0 1c3e c5e0 143e 2db1 b7bd
00000020: b6f1 28bd 3355 ea3b 6b57 bfbd 734e 1fbe
00000030: e6eb 8bbc 8cf8 cc3c 155c 9cbc 4f76 5ebe
00000040: 0719 0dbe 6856 05bc cf13 c8bd f759 073c
00000050: 44e1 aa3d 3c77 cb3d 1c60 aa3d f3d9 8cbb
00000060: 4dab 133d 48af 0c3d 2da4 263d 8220 8a3c
00000070: 9812 943d 6dfd 7cbd e1bb 823d a13c 003b
00000080: 6bdb 22bd 9b41 bcbd 3631 b83d fae4 593e
00000090: 4103 8dbe c158 8a3d e48a cb3d 7563 4abd
000000a0: 35f3 3abd bfe1 3abd a1b6 89bd 0329 813b
000000b0: 4cff dc3d 8882 183d 67f5 4fbe f417 233e
000000c0: c308 483e c8dd e03c baa9 ef3d 1238 99bd
000000d0: 60a8 f03d 2f11 9cbb 9e55 10bc 1db5 a93d
000000e0: 6cba 3c3a 0424 7b3d eb00 eabd 11c8 42be
000000f0: 0310 b53b 9298 cb3d 17a3 b03c 5d4b 943c
00000100: 80ce 4c3d 7c7f 223e 3d77 0f3e f2e9 06bc
00000110: de5c 3e3e dc3b 743b 5aed 8a3d 740e b9bc
00000120: 0dd3 f1bd dff3 b4bc 02ba 8bbd 626b 043d
00000130: 0cfc 6ebe 3995 723d 257d 2fbc 7007 b93d
00000140: 6540 82bd 9b61 d8bd 253b 42be a8ba 053e
00000150: f0b8 803e f02f 09bd a0f4 60be 80e5 053e
00000160: b8cb 50bd 197b c2bd cb3a 443d 770f 103d
00000170: 80e9 a6bb edc2 8abd 9da3 e13d 89ae 143d
00000180: ebf7 513c a79f 32be ab1d 19bc 1df1 adbd
00000190: e7fb d7bd fcd6 34be dc94 a7bd d37f 97bd
000001a0: db46 313d 19c0 dfbd 944f 9a3d 55a3 3fbe
000001b0: e848 45bc 7631 8a3d 7805 c3be b4ad 193d
000001c0: 05dc 1cbe c6f7 cabd 5102 793d cd41 87bd
000001d0: 3b47 083e 38e7 63be dd20 243e 48c6 c7bd
000001e0: af10 303e d974 953d 2871 653d 4e23 713d
000001f0: 784e b03c 8a06 2ebe 5b3c 8a3d 7a98 8ebd
00000200: 8a5b a7bd 9684 dcbd 8353 b93d 6506 313e
00000210: ba88 0b3d e014 78bd a7d7 2c3b c5b1 42be
00000220: bec1 453e dcf8 3cbb c164 1c3e 9c4f 953d
00000230: 0147 8cbd 7ac7 a13d 1b3a a6bd b1f8 babd
00000240: 7c04 253e eb80 bebb ca1c 9ebd c12e e13d
00000250: 08f9 31bd 06fc 43be 579c 4fbc dec9 8dbe
00000260: 33a3 543b a484 a0bd 3339 723d 7d35 953d
00000270: 6bae fabd cac6 f9bd df79 9f3c 6bdb a0bd
00000280: f34f 24be b6a9 40bd 6675 e0bd f56b 873c
00000290: cf14 553e 87ad 36be e338 ffbd 6997 7bbe
000002a0: 284e 1abd bfb9 02bd e8ad 683d 1790 2abe
000002b0: c135 2b3d f73e 37be be92 8fbc baf4 273d
000002c0: 31db 9cbc a102 d43b ba20 9ebd 8371 303d
000002d0: 6572 54be 2385 9fbd 4a5b 473d fb4c 09bd
000002e0: 2bb1 373d 30a6 29bc 8ce3 18bc 1192 523e
000002f0: a681 713c cedd 843d 3c9e 1dbd 9657 96bd
00000300: 9b76 17be b9d5 0b3c 97fe f4bd 5d17 053c
00000310: 3650 c4bc 56eb 8fbb bd83 fabd f205 7cbe
00000320: 0972 d7bd 28cb ebbd 8e88 1fbe cff3 d6bd
00000330: fc4e d63d dc71 5dbd 71ce d9bd 4027 6fbd
00000340: af90 ae3d 2843 31bd 987f 9bbd 7c0e 2f3e
00000350: 5e2a 71bd 6f77 4b3d 40bb e4bd 3253 9e3d
00000360: df1a 16bd 202e f43c c640 e63d d0a1 c33d
00000370: b179 9ebb 0886 203e b697 053e a34b 2fbe
00000380: 0bee d83d 60a3 3e3d 525c 10be 5c63 6b3e
00000390: 7e26 fa3d ec91 5abe f0d2 e0bd 85f5 8c3d
000003a0: fddf 94bd a6f1 31be 94ca c43d c315 27be
000003b0: 9a50 f83d a8fd 47be b47d 0ebe 51c8 1abc
000003c0: 4406 32bd abe7 01be 7566 383e c999 03be
000003d0: a871 93bd 9a56 10bd 5541 a23d 7614 c7bd
000003e0: 5807 ddbd 6d24 dc3d b2ca a3be 992f b2bd
000003f0: b84a 373e 2fa2 b2bd 8444 e63d 164b 13be

network_body._body_endoder.seq_layers.2.bias f4 [128]
-0.045238465 -0.030057345 -0.018376587 -0.035384104 -0.0034572496 -0.009319291 -0.02035569 -0.020786185
-0.054756965 -0.030125339 -0.04103169 -0.03516855 -0.028445883 -0.041408267 0.025745284 -0.01625173
0.0692586 -0.018646426 -0.025851766 -0.026314143 -0.02832998 -0.013665006 -0.038508795 0.06123067
-0.006626554 0.00044480624 -0.041241564 -0.030594897 -0.04737783 -0.023850722 -0.077942885 -0.03314827
-0.012855242 -0.013533168 -0.0035662507 -0.045852304 -0.028161801 0.021858176 -0.045740142 -0.035376687
-0.020348655 -0.022675177 -0.012112135 -0.035682794 -0.034360413 0.006120123 -0.05256413 -0.014123226
-0.009135925 -0.04784303 -0.048940573 0.032605536 -0.022222677 -0.058579434 -0.0051669343 -0.0003193841
-0.019003812 -0.05367938 -0.037400987 -0.024045454 -0.044962533 -0.028349182 -0.00374107 -0.050321035
0.0027131357 -0.038298205 -0.026395163 -0.01762062 0.011528734 -0.020520946 -0.0024473623 -0.051544774
-0.026498662 -0.00050552667 -0.12670189 0.0049857465 0.019024124 -0.05481392 -0.020353824 0.003287614
0.0067253495 0.00014129959 -0.012463114 0.03545616 -0.08583591 -0.040668387 -0.015161531 -0.012215665
0.0014412173 -0.046903946 -0.058502916 0.03070098 -0.010400668 0.052634876 0.059216276 -0.010291986
-0.034524016 -0.0041212193 -0.023994068 -0.012007081 -0.027488144 -0.005358696 -0.044492777 -0.02039744
-0.0408287 -0.030554593 -0.005105164 -0.009055772 -0.029045105 -0.041449953 -0.020427287 -0.03123235
0.009331992 -0.038468394 -0.033956688 -0.04516479 -0.064038284 -0.046789818 -0.031414174 -0.024492195
0.018552376 -0.04073968 -0.042301167 -0.04831347 0.02211001 -0.072372586 -0.019152094 0.025172845
00000000: f84b 39bd d23a f6bc 7f8a 96bc ecee 10bd
00000010: 0693 62bb f1af 18bc fac0 a6bc ca47 aabc
00000020: d748 60bd 6ac9 f6bc d810 28bd e60c 10bd
00000030: 5707 e9bc b79b 29bd c6e7 d23c 5922 85bc
00000040: 74d7 8d3d 64c0 98bc 15c7 d3bc c290 d7bc
00000050: 4614 e8bc 30e3 5fbc 66bb 1dbd 03cd 7a3d
00000060: 9023 d9bb e234 e939 eaec 28bd 26a2 fabc
00000070: 410f 42bd 9762 c3bc 85a0 9fbd 7bc6 07bd
00000080: cb9e 52bc 38ba 5dbc c2b7 69bb a0cf 3bbd
00000090: 94b3 e6bc eb0f b33c 045a 3bbd 25e7 10bd
000000a0: 39b2 a6bc 4bc1 b9bc fa71 46bc 1f28 12bd
000000b0: 81bd 0cbd 508b c83b 7c4d 57bd 1a65 67bc
000000c0: d9ae 15bc 0ef7 43bd e975 48bd 628d 053d
000000d0: 550c b6bc fdf0 6fbd 634f a9bb 0273 a7b9
000000e0: e2ad 9bbc e9de 5bbd c731 19bd f9fa c4bc
000000f0: a22a 38bd 8b3c e8bc bd2c 75bb 6e1d 4ebd
00000100: ddce 313b 94de 1cbd ab3a d8bc 1e59 90bc
00000110: 04e3 3c3c 8b1b a8bc ed63 20bb 9d20 53bd
00000120: b913 d9bc 5285 04ba 24be 01be 795f a33b
00000130: 7bd8 9b3c 9084 60bd 10bd a6bc 0375 573b
00000140: 5260 dc3b d229 1439 1732 4cbc 7a3a 113d
00000150: bdca afbd e593 26bd 1268 78bc 3624 48bc
00000160: 3ae7 bc3a 5a1e 40bd c1a0 6fbd 9f80 fb3c
00000170: 9067 2abc ab97 573d c48c 723d b89f 28bc
00000180: 0e69 0dbd 4b0b 87bb 358f c4bc 59b9 44bc
00000190: d12e e1bc 0098 afbb 0f3e 36bd 8818 a7bc
000001a0: ff3b 27bd a04d fabc 3849 a7bb a95e 14bc
000001b0: 00f0 edbc 6dc7 29bd 2057 a7bc fcda ffbc
000001c0: 36e5 183c 0991 1dbd 2b16 0bbd b7fe 38bd
000001d0: 8126 83bd aea6 3fbd 26ac 00bd dba3 c8bc
000001e0: 27fb 973c a7de 26bd fd43 2dbd 58e4 45bd
000001f0: 0d20 b53c 1438 94bd dae4 9cbc 4837 ce3c

action_model._continuous_distribution.log_sigma f4 [1, 2]
-0.41971466 -0.49193153
00000000: d7e4 d6be 73de fbbe

action_model._continuous_distribution.mu.weight f4 [2, 128]
0.059125002 0.076562755 0.051851273 0.04554146 0.07808133 0.07362968 0.07298016 0.07101781
0.07236267 0.07108145 0.055866916 0.04773264 0.058452368 0.04050443 0.1105769 0.12254068
-0.0162196 0.033079706 0.03108502 0.08905884 0.06900875 0.019515388 0.0190643 -0.008033376
-0.073007226 0.108637094 0.08619507 0.06665204 -0.015526407 0.02423202 0.043231513 0.07792725
0.06281173 0.10764417 0.04905207 0.09100697 0.05706462 0.10200935 0.038910583 0.051564768
0.08785003 0.11381796 0.09390073 0.0014889904 0.04389267 0.123889625 0.053628467 0.10447574
0.074807875 0.07751314 0.07988171 -0.11791042 0.10688889 0.061062023 0.06664382 0.0974879
-0.029331418 0.052682083 0.044220753 -0.0059053726 0.07043337 0.0096089505 0.07942756 0.04292566
0.114540376 0.09257012 0.006759208 0.04349523 0.017467065 0.10346479 0.11132846 0.015127561
0.11138439 0.16031222 0.0016553719 0.114142306 0.059037264 0.06036592 0.0027146912 0.05610653
0.1223411 0.12214655 0.03356594 0.009361141 -0.00062669464 0.055832937 0.095244385 0.054828282
-0.060826432 0.03482201 0.017777339 -0.099276766 0.103640705 -0.007078116 -0.033766877 0.03882427
0.1057909 0.07454184 0.06599939 0.096665785 0.04251908 0.010973072 0.06887706 0.046872523
-0.04959498 0.08287309 0.08387444 0.046676468 0.09783349 0.11357669 0.0733128 0.061162397
-0.09532427 0.06330297 0.08740661 0.09315247 0.07581669 0.055531025 0.0110027585 0.09759223
-0.08948759 0.08341816 0.05440971 0.03369207 0.12780735 0.065171435 0.04642934 -0.068320096
-0.03865384 -0.07590765 -0.13477963 -0.12986991 -0.099316716 0.02296543 -0.06346183 -0.013670858
-0.108792074 -0.09402062 -0.108154245 -0.08271342 -0.09185327 -0.10155452 0.008803482 -0.075771816
0.062451568 -0.122320324 -0.08504298 0.020107036 -0.050666645 -0.09460009 -0.04870431 0.078133814
-0.08465441 -0.07503619 -0.08771272 0.021009436 -0.055716544 -0.096368186 2.7129163e-05 -0.117348894
-0.10552712 -0.0724965 -0.112778686 0.0049874326 -0.07882848 0.059527714 -0.027355999 0.022354985
-0.08632649 0.06571822 -0.0019476843 -0.108132385 -0.053021234 0.048266873 -0.06703509 -0.059754953
-0.0847133 -0.08336281 -0.10579217 -0.006705178 -0.03945383 -0.015818136 -0.1198013 -0.10525723
-0.13851169 -0.032447867 -0.047564294 -0.030702783 -0.009301325 -0.04476386 0.054075245 -0.00040837386
-0.014575247 -0.035191923 -0.011833644 -0.12900926 -0.10046724 -0.024519982 0.024834352 -0.02773502
-0.0349556 -0.021941554 -0.0058307806 -0.054269295 -0.10529996 -0.1230542 -0.076689474 -0.09445834
-0.05693758 -0.037252683 -0.11112317 0.03068055 -0.0008892312 -0.10656711 -0.03790238 -0.110759884
-0.11678305 0.038835067 -0.017565168 0.01638066 0.0043585766 0.07802885 0.08468276 -0.14656825
-0.094926536 -0.13760157 0.025462504 -0.07364251 -0.09385668 0.057420176 -0.062626615 -0.08154383
0.002463384 -0.010117647 -0.06333951 -0.061094083 -0.024851331 -0.02973919 -0.10983731 -0.119481765
-0.03794952 -0.06509923 -0.015088382 -0.006831462 -0.019370086 -0.12126812 -0.044027094 -0.05131176
0.032251384 -0.072087094 -0.12867656 -0.00049403927 0.013642401 -0.040768005 -0.02607696 -0.1690784
00000000: 0f2d 723d efcc 9c3d 0062 543d af89 3a3d
00000010: 1be9 9f3d 28cb 963d 9f76 953d c971 913d
00000020: e132 943d 2793 913d b5d4 643d 4d83 433d
00000030: c06b 6f3d f9e7 253d 2476 e23d 9cf6 fa3d
00000040: f7de 84bc 967e 073d 03a6 fe3c 7b64 b63d
00000050: 7654 8d3d bcde 9f3c bc2c 9c3c 6c9e 03bc
00000060: d084 95bd 207d de3d 0a87 b03d dd80 883d
00000070: 7962 7ebc 3b82 c63c 8713 313d 5298 9f3d
00000080: 70a3 803d 8c74 dc3d d3ea 483d dd61 ba3d
00000090: 97bc 693d 47ea d03d b460 1f3d 9435 533d
000000a0: b7ea b33d 6419 e93d 074f c03d 3a2a c33a
000000b0: cdc8 333d d8b9 fd3d 86a9 5b3d 60f7 d53d
000000c0: df34 993d 36bf 9e3d 0699 a33d 057b f1bd
000000d0: 90e8 da3d 2c1c 7a3d 8e7c 883d bca7 c73d
000000e0: 7148 f0bc 2bc9 573d d220 353d db81 c1bb
000000f0: 5f3f 903d dc6e 1d3c ebaa a23d d1d2 2f3d
00000100: 2594 ea3d 6795 bd3d 597c dd3b 0e28 323d
00000110: 1717 8f3c 59e5 d33d 2d00 e43d 97d9 773c
00000120: 801d e43d e328 243e 10f9 d83a 71c3 e93d
00000130: 0fd1 713d 4142 773d f6e8 313b f6cf 653d
00000140: f88d fa3d f827 fa3d 707c 093d 795f 193c
00000150: c448 24ba 14b1 643d 7d0f c33d 9f93 603d
00000160: 2325 79bd 86a1 0e3d c8a1 913c 9e51 cbbd
00000170: 9441 d43d 8aef e7bb 234f 0abd 3306 1f3d
00000180: e6a8 d83d 64a9 983d b02a 873d b6f8 c53d
00000190: 7d28 2e3d 66c8 333c 6b0f 8d3d 67fd 3f3d
000001a0: 1b24 4bbd 5eb9 a93d 5dc6 ab3d d32f 3f3d
000001b0: ed5c c83d e59a e83d 0525 963d 6c85 7a3d
000001c0: 5f39 c3bd fda4 813d 3d02 b33d b9c6 be3d
000001d0: c845 9b3d 8074 633d ea44 343c 6fde c73d
000001e0: 4545 b7bd 24d7 aa3d b7dc 5e3d b200 0a3d
000001f0: eedf 023e 9a78 853d b12c 3e3d 68eb 8bbd
00000200: 7d53 1ebd 7875 9bbd ac03 0abe 9efc 04be
00000210: 9066 cbbd ff21 bc3c 47f8 81bd bcfb 5fbc
00000220: 61ce debd e28d c0bd f97f ddbd a765 a9bd
00000230: 911d bcbd d1fb cfbd 7b3c 103c 412e 9bbd
00000240: 37cd 7f3d 1483 fabd 042b aebd 83b7 a43c
00000250: d487 4fbd b1bd c1bd 2c7e 47bd 9f04 a03d
00000260: 4b5f adbd 93ac 99bd baa2 b3bd fb1b ac3c
00000270: 0837 64bd af5c c5bd 6f93 e337 9e54 f0bd
00000280: 9a1e d8bd 0c79 94bd 83f8 e6bd 9e6d a33b
00000290: d370 a1bd 55d3 733d b019 e0bc cd21 b73c
000002a0: f1cb b0bd 4697 863d 7149 ffba 8374 ddbd
000002b0: cb2c 59bd 7cb3 453d b149 89bd 9cc1 74bd
000002c0: 2b7e adbd 1fba aabd 91a9 d8bd 1cb7 dbbb
000002d0: 579a 21bd 0995 81bc 625a f5bd 1a91 d7bd
000002e0: 02d6 0dbe 0ee8 04bd c7d2 42bd 6784 fbbc
000002f0: 9664 18bc 4f5a 37bd 017e 5d3d 031b d6b9
00000300: 04cd 6ebc 6825 10bd e6e1 41bc 011b 04be
00000310: c5c1 cdbd 21de c8bc 6971 cb3c 8d34 e3bc
00000320: 9a2d 0fbd c6be b3bc 2210 bfbb 7b49 5ebd
00000330: 81a7 d7bd d703 fcbd 5f0f 9dbd 6073 c1bd
00000340: 6137 69bd 4596 18bd 8b94 e3bd c755 fb3c
00000350: 4c1b 69ba db3f dabd 873f 1bbd 14d6 e2bd
00000360: f42b efbd 8511 1f3d d4e4 8fbc bc30 863c
00000370: 64d2 8e3b 97cd 9f3d 286e ad3d fd15 16be
00000380: d868 c2bd 6de7 0cbe be96 d03c e2d1 96bd
00000390: ee37 c0bd 6b31 6b3d 6242 80bd 7400 a7bd
000003a0: ba70 213b 7dc4 25bc 25b8 81bd ca3d 7abd
000003b0: 0595 cbbc 9a9f f3bc 62f2 e0bd dbb2 f4bd
000003c0: f570 1bbd bf52 85bd 4335 77bc 75da dfbb
000003d0: 04ae 9ebc 6c5b f8bd c155 34bd 482c 52bd
000003e0: 071a 043d 66a2 93bd cac3 03be 6a82 01ba
000003f0: 6184 5f3c 5afc 26bd 599f d5bc e322 2dbe

action_model._continuous_distribution.mu.bias f4 [2]
-0.04972336 0.101742886
00000000: b9aa 4bbd 935e d03d
