GameAI3/Config/results/dwarf_2/Dwarf/Dwarf-116315.pt (torch, 444703 bytes, 36 tensors)

network_body._body_endoder.seq_layers.0.weight f4 [128, 8]
0.239568 -0.051190894 0.5371994 0.5145208 -0.46443948 -0.019309182 0.8670453 0.17544535
0.0120695345 0.0782577 -0.33556944 -0.21090697 0.33582377 0.048963174 -0.9323886 0.11452215
0.07343275 0.22508511 0.09937477 -0.155088 0.38038513 -0.34393147 -0.40894714 -0.32460278
0.10597229 0.59924155 0.1965384 -0.14809828 -0.22114094 0.5347732 0.34785908 0.32515046
0.0252573 0.11272212 -0.36185822 0.15525502 0.026337935 0.8725724 0.07076883 0.11541163
0.0025826234 -0.43258315 0.08581168 -0.38273385 0.0042829774 -0.64529324 0.0070153046 -0.9192809
-0.07203152 -0.8624508 -0.49263036 -0.0015751773 -0.32805082 -0.017705183 -0.10419033 -0.06704844
0.18484253 0.47201088 0.21663254 0.097899094 0.66738915 -0.23861834 -0.2305252 0.4058147
0.013546796 0.19779252 0.15669158 -0.02715631 -0.1514311 0.5387453 0.2501664 0.52556384
-0.13286859 0.30570537 0.2672513 -0.37760383 0.079606295 0.208426 0.28805503 -0.022096647
-0.30266213 0.24913359 0.47045538 0.014449617 0.071681164 -0.38793525 0.17525221 0.2777233
0.46565682 -0.4899925 0.33920464 -0.56635475 -0.020497367 0.23967819 -0.097034566 -0.12079008
0.44143826 -0.23151532 -0.13461183 -0.03211639 -0.2497304 -0.32790032 -0.050446596 -0.6522786
-0.34975198 0.4501873 -0.0801345 -0.08493556 -0.54185945 -0.18641542 0.28701788 -0.5722663
0.11030826 -0.03471998 0.092602596 0.17052026 0.25694576 0.47794726 -0.3189352 -0.31501237
-0.42703837 0.11890208 0.54147553 0.8404036 -0.4448647 0.17524661 0.07447748 0.623429
0.26050898 0.032745 0.15189566 0.006969501 0.50185496 -0.16919306 0.07132763 -0.35398933
-0.028965496 0.9130046 -0.38843626 -0.21686299 -0.23956512 -0.44860947 -0.888694 -0.19430049
0.43274996 -0.28158405 -0.11545875 -0.38129333 -0.63954234 0.5860989 0.7260641 -0.37926137
0.4508529 0.16852978 -0.12025631 -0.1710628 0.025955567 -0.06526574 -0.0017989677 -0.43643987
0.32433614 -0.33180663 -0.07801807 -0.07733831 0.108377025 -0.76247007 0.5703675 0.36920765
-0.37558055 0.23961976 0.14799072 0.25900558 0.3754321 0.16231014 0.14944877 0.254902
0.70844406 -0.46081206 -0.20251836 0.014536758 0.3484955 0.025430826 0.2949019 -0.32473955
0.20195995 0.21009718 -0.03383619 -0.110471174 -0.5039223 0.41830277 0.03300002 0.14064309
0.23748685 -0.027061421 0.38901892 0.1458885 0.09676899 0.17111328 -0.27253458 -0.076986134
-0.19902351 0.4666652 0.039797954 -0.27820396 -0.18157536 0.15812059 0.3018794 -0.8381128
-0.08091144 -0.20623809 0.12115036 0.002169201 -0.46416742 0.34956834 -0.07094166 -0.21423407
-0.032396294 -0.80510896 0.026032908 0.6709737 0.387854 0.12082974 0.49265522 -0.77677
-0.03832348 -0.38058746 -0.139115 0.40057322 0.3497352 0.30834633 0.25288257 0.15074342
-0.16688763 -0.25047362 0.35195822 -0.35961846 0.3711332 0.08876526 -0.08750954 0.15017688
0.50514865 0.705545 -0.36226213 -0.2824676 -0.0066998657 0.16542374 -0.008140085 -0.54588443
-0.11695077 -0.902763 -0.31647533 0.14792043 0.085992046 -0.7163377 0.21575132 -0.26208785
00000000: 5051 753e 8bad 51bd e685 093f a3b7 033f
00000010: 03cb edbe 4a2e 9ebc aef6 5d3f f2a7 333e
00000020: 4cbf 453c 9345 a03d c2cf abbe fff7 57be
00000030: 18f1 ab3e 9c8d 483d 05b1 6ebf 978a ea3d
00000040: e963 963d b67c 663e 0085 cb3d 64cf 1ebe
00000050: d7c1 c23e c917 b0be 8561 d1be 5632 a6be
00000060: 0008 d93d e567 193f 5d41 493e 13a7 17be
00000070: c572 62be e5e6 083f 961a b23e 1f7a a63e
00000080: 66e8 ce3c dbda e63d 7b45 b9be 2cfb 1e3e
00000090: a7c2 d73c e860 5f3f 40ef 903d ef5c ec3d
000000a0: 3b41 293b 8a7b ddbe 09be af3d b1f5 c3be
000000b0: 3858 8c3b f031 25bf a4e0 e53b fe55 6bbf
000000c0: 4385 93bd 93c9 5cbf 0c3a fcbe 2e76 ceba
000000d0: 47f6 a7be 760a 91bc bd61 d5bd b150 89bd
000000e0: 5c47 3d3e 69ab f13e ecd4 5d3e 527f c83d
000000f0: 04da 2a3f 5e58 74be cc0e 6cbe f2c6 cf3e
00000100: 61f3 5d3c 1f8a 4a3e c273 203e e976 debc
00000110: c110 1bbe 36eb 093f cf15 803e 5a8b 063f
00000120: b40e 08be 6a85 9c3e 2ad5 883e 4a55 c1be
00000130: a008 a33d a06d 553e f37b 933e 0704 b5bc
00000140: 88f6 9abe e01c 7f3e 87df f03e 16be 6c3c
00000150: 93cd 923d 739f c6be 5175 333e c031 8e3e
00000160: 926a ee3e 4ce0 fabe 3bac ad3e a0fc 10bf
00000170: 18ea a7bc 336e 753e 0fba c6bd ca60 f7bd
00000180: 3204 e23e 5a12 6dbe afd7 09be 7a8c 03bd
00000190: 53b9 7fbe 8de2 a7be 17a1 4ebd bbfb 26bf
000001a0: b112 b3be f37e e63e 8f1d a4bd b2f2 adbd
000001b0: 4db7 0abf afe3 3ebe 02f4 923e 0b80 12bf
000001c0: 4ce9 e13d 8a36 0ebd 6ea6 bd3d dd9c 2e3e
000001d0: 658e 833e 81b5 f43e 794b a3be 4d49 a1be
000001e0: c6a4 dabe ef82 f33d 249e 0a3f b124 573f
000001f0: 4ec5 e3be d973 333e a687 983d 0b99 1f3f
00000200: 6f61 853e 9f1f 063d 898a 1b3e 6960 e43b
00000210: 9179 003f f240 2dbe 3814 923d 173e b5be
00000220: 0c49 edbc abba 693f 1ee1 c6be 5511 5ebe
00000230: 8f50 75be 24b0 e5be 7381 63bf b5f6 46be
00000240: 6791 dd3e c92b 90be a375 ecbd e138 c3be
00000250: 0cb9 23bf 940a 163f 56df 393f 8c2e c2be
00000260: 31d6 e63e 1293 2c3e f148 f6bd 162b 2fbe
00000270: c5a0 d43c 0baa 85bd 57cb ebba 0c75 dfbe
00000280: 630f a63e 8fe2 a9be f0c7 9fbd 8c63 9ebd
00000290: c6f4 dd3d 3d31 43bf 9b03 123f c908 bd3e
000002a0: 184c c0be e25e 753e e18a 173e 619c 843e
000002b0: a338 c03e a134 263e 1909 193e 8482 823e
000002c0: 975c 353f 8fef ebbe f960 4fbe 952b 6e3c
000002d0: 016e b23e 4f54 d03c 62fd 963e 4344 a6be
000002e0: 97ce 4e3e b723 573e d197 0abd b63e e2bd
000002f0: 0d01 01bf c82b d63e 072b 073d be04 103e
00000300: c12f 733e eaaf ddbc 7d2d c73e cc63 153e
00000310: d22e c63d 5238 2f3e a789 8bbe e8aa 9dbd
00000320: d2cc 4bbe beee ee3e 2e03 233d c070 8ebe
00000330: e4ee 39be 5dea 213e f08f 9a3e 8f8e 56bf
00000340: e6b4 a5bd 1430 53be ae1d f83d 2729 0e3b
00000350: 5aa7 edbe 9ffa b23e dc49 91bd 2d60 5bbe
00000360: fab1 04bd 9f1b 4ebf f742 d53c efc4 2b3f
00000370: cd94 c63e 9575 f73d 4e3d fc3e 66da 46bf
00000380: 15f9 1cbd 5cdc c2be 2a74 0ebe ef17 cd3e
00000390: 7e10 b33e 92df 9d3e d379 813e 7c5c 1a3e
000003a0: 97e4 2abe 143e 80be de33 b43e e91f b8be
000003b0: 2c05 be3e 90ca b53d 3438 b3bd f8c7 193e
000003c0: 6c51 013f 999e 343f 6c7a b9be 989f 90be
000003d0: 8c8a dbbb d764 293e fe5d 05bc 15bf 0bbf
000003e0: e383 efbd 7a1b 67bf 0e09 a2be 7478 173e
000003f0: 991c b03d e861 37bf eaed 5c3e 6130 86be

network_body._body_endoder.seq_layers.0.bias f4 [128]
-0.035657708 -0.042674907 -0.11267622 0.014896274 -0.02801468 0.034106337 -0.018628957 -0.022322081
-0.026829429 -0.006161092 0.019169156 -0.028735772 -0.035239223 -0.0073459535 -0.032917555 -0.017157504
-0.071715355 -0.0004902566 0.007800572 -0.05972452 -0.034523383 0.007824209 0.019523937 0.03594711
-0.05348734 -0.035255417 -0.00073591626 0.0559676 0.039712545 -0.088903084 -0.033486146 -0.056071863
0.03259562 0.0070687328 0.033500463 -0.062018815 0.07769243 0.050509825 0.008140178 -0.093337305
-0.07628353 0.0011908427 -0.0015264815 0.0061474564 -0.049391523 -0.01343103 -0.104865104 -0.12677698
0.021110801 -0.017410325 -0.010361791 0.0487913 -0.06227545 -0.006473444 0.010664319 0.028279489
-0.06406033 -0.016416814 -0.02365106 0.0060488502 0.00038052423 -0.038282566 0.038638446 -0.06289261
0.027283994 -0.048946574 -0.015416286 -0.04100616 -0.018113753 0.008910853 0.039334625 -0.006683135
-0.05427694 0.023695244 -0.030493233 -0.018711869 -0.10423878 0.05832109 -0.05450974 -0.019102644
-0.058775716 -0.08388023 -0.016318211 -0.0807978 -0.027515177 0.047604445 -0.122408524 -0.025934687
0.05961312 0.028430276 -0.053621773 0.08728987 -0.06608288 0.016318463 -0.15933058 0.036360934
-0.13716938 -0.020962503 -0.013407851 -0.012313179 -0.04099779 -0.04527474 -0.028296974 0.11085777
0.11071609 0.049325377 -0.011491668 -0.00472882 0.011201113 -0.011038797 -0.009645662 0.015197446
-0.028052477 0.021408642 0.0081482995 0.022079548 0.050531857 0.02535702 -0.081114635 -0.043514356
-0.10182659 -0.060009073 -0.097956344 0.054507334 -0.011339168 0.0027974294 -0.05558809 -0.01570591
00000000: d10d 12bd e2cb 2ebd cac2 e6bd 800f 743c
00000010: 0b7f e5bc 16b3 0b3d c19b 98bc ccdc b6bc
00000020: 64c9 dbbc fce2 c9bb a208 9d3c 4867 ebbc
00000030: 0157 10bd 53b6 f0bb 8fd4 06bd e58d 8cbc
00000040: 80df 92bd 9084 00ba f19b ff3b b3a1 74bd
00000050: 6468 0dbd 1c31 003c aaf0 9f3c 473d 133d
00000060: 8b15 5bbd fc67 10bd 81ea 40ba 483e 653d
00000070: 9fa9 223d d212 b6bd c528 09bd 9cab 65bd
00000080: fc82 053d d4a0 e73b c837 093d 7107 7ebd
00000090: 351d 9f3d 64e3 4e3d 625e 053c a127 bfbd
000000a0: 8a3a 9cbd 0d16 9c3a 3814 c8ba 9a70 c93b
000000b0: c44e 4abd d30d 5cbc 84c3 d6bd d3d1 01be
000000c0: 8ff0 ac3c 19a0 8ebc 80c4 29bc 63d9 473d
000000d0: 8b14 7fbd 2f1f d4bb 65b9 2e3c 63aa e73c
000000e0: 1032 83bd 8e7c 86bc debf c1bc 6f35 c63b
000000f0: 1981 c739 2ece 1cbd 5943 1e3d d7cd 80bd
00000100: af82 df3c 347c 48bd 9794 7cbc 13f6 27bd
00000110: 4b63 94bc d4fe 113c 581d 213d 33fe dabb
00000120: 7f51 5ebd 871c c23c f2cc f9bc a249 99bc
00000130: 247b d5bd 18e2 6e3d 9b45 5fbd 267d 9cbc
00000140: cebe 70bd 66c9 abbd c5ad 85bc 5179 a5bd
00000150: 8267 e1bc e1fc 423d 52b1 fabd fb74 d4bc
00000160: e32c 743d 9ce6 e83c 81a2 5bbd 08c5 b23d
00000170: 7656 87bd 4cae 853c 8e27 23be 34ef 143d
00000180: 2176 0cbe 8eb9 abbc 9aac 5bbc 37bd 49bc
00000190: 4ced 27bd 0172 39bd 0ecf e7bc 6609 e33d
000001a0: 1ebf e23d 6809 4a3d 8d47 3cbc 38f4 9abb
000001b0: e084 373c 12dc 34bc d708 1ebc b5fe 783c
000001c0: 4fce e5bc 2d61 af3c 7280 053c 2be0 b43c
000001d0: 7efa 4e3d 86b9 cf3c 6e1f a6bd 1c3c 32bd
000001e0: 768a d0bd 13cc 75bd 569d c8bd 1543 5f3d
000001f0: ebc7 39bc 1455 373b 56b0 63bd aea9 80bc

network_body._body_endoder.seq_layers.2.weight f4 [128, 128]
0.07647403 -0.20569421 -0.11000549 0.09754686 -0.009715091 -0.11443646 0.037346154 0.026316158
-0.047470953 0.028255628 -0.0870092 0.0035330195 0.07309652 -0.1936632 0.051326938 0.19085611
0.13538183 -0.027922045 0.1498696 -0.03675133 -0.03969246 -0.17773484 0.11455227 0.018492743
-0.23403512 -0.088150956 0.041054405 -0.09402275 -0.1732756 0.00016364339 -0.019111766 -0.06612911
-0.13828014 0.28083333 0.078845344 -0.026702855 -0.07824789 -0.2111816 -0.067770734 0.06385224
0.029707143 -0.07011529 -0.05517679 -0.32440162 0.07740739 -0.005558759 0.049705654 -0.032935817
0.1660223 -0.027429193 0.11638257 0.008868872 0.08346023 -0.030722642 0.029565899 0.047780145
0.08544888 0.050544403 -0.04176171 -0.075427614 0.032968577 -0.0073392275 -0.19889812 0.047254514
-0.05116083 0.13802359 -0.059882306 -0.06657756 0.20664755 -0.15862319 -0.037306912 0.0782967
-0.02977488 -0.26389158 -0.038772613 -0.027611902 -0.063759066 0.054122657 -0.09481429 -0.09839033
-0.1354123 0.11334087 -0.097253546 -0.28553268 0.05209626 -0.024317658 0.07774821 0.033440422
-0.17754836 -0.024502719 -0.047698602 0.0114177335 -0.03726231 0.048840236 -0.03580468 0.03575268
0.11605998 0.072204255 -0.058591582 0.042902946 -0.021947974 -0.120087676 -0.14410527 0.18554981
-0.002867249 0.117105044 0.07402516 -0.0013618218 -0.17291243 -0.058021862 -0.099607654 0.0076790364
-0.15440148 0.07132731 0.07108696 0.019345744 0.095743254 0.10668045 -0.24758232 -0.031118978
0.2318534 0.13727957 -0.091551036 0.034310136 0.106723726 -0.15258038 -0.021397144 -0.04747972
-0.1303209 -0.2165515 0.109619625 -0.11752969 -0.093667015 -0.35097846 0.057931837 -0.02662011
-0.22323921 -0.021737413 -0.06134365 0.17102753 -0.014691406 -0.009804467 0.012895239 -0.14086093
0.106013276 -0.04913901 -0.12821305 0.029093696 -0.027515635 -0.12656645 -0.032345187 -0.05144071
-0.036100592 -0.066006646 -0.035544045 -0.09388907 0.09450368 -0.12127082 0.025322232 -0.030422004
0.15349534 0.061305203 -0.16695118 0.04258799 0.04070029 -0.12986086 -0.11956574 0.14767542
-0.057078797 0.09858987 -0.14653505 0.028618831 -0.1024506 -0.016290678 -0.16275091 0.117979825
0.036062155 -0.14516729 0.053996105 -0.0068234922 0.019151347 0.13860975 0.17234868 -0.1071739
0.06269684 0.21998313 -0.1185928 -0.26978603 0.0052823564 -0.1568779 0.111088134 -0.07528263
0.079610914 -0.043861263 0.15425473 -0.11990818 0.058818325 0.08570517 -0.04886518 -0.11173071
-0.056005873 0.059793275 0.12088485 0.16524181 -0.020742763 0.004163445 0.028886972 -0.10636015
0.014223479 0.071658775 -0.08502126 -0.09487878 0.098244764 0.026814716 -0.08710679 -0.039764468
0.021984957 0.014609402 0.083635285 0.15299994 0.079955846 -0.086613424 0.11187688 -0.13006212
0.08403246 -0.084259965 0.21402103 0.22429508 -0.06253199 -0.16807751 -0.028979013 0.047430243
-0.03801278 -0.009601101 0.13975263 0.012299483 0.056876972 -0.07608044 0.029811177 0.056945026
-0.1096013 0.11702947 0.0055318503 0.013819494 -0.066961356 0.10170562 0.03287046 0.12483939
-0.27043217 -0.110492215 0.016680624 0.0893893 0.065412834 -0.050366644 -0.11016512 -0.006278712
00000000: 6b9e 9c3d 81a1 52be 8f4a e1bd a6c6 c73d
00000010: 0c2c 1fbc aa5d eabd 48f8 183d fc94 d73c
00000020: e770 42bd 5978 e73c e131 b2bd 3b8a 673b
00000030: a1b3 953d a54f 46be 323c 523d c96f 433e
00000040: 89a1 0a3e c6bc e4bc 6b77 193e 9088 16bd
00000050: 9094 22bd 1f00 36be 619a ea3d 187e 973c
00000060: e7a6 6fbe 7d88 b4bd aa28 283d 008f c0bd
00000070: 296f 31be b097 2b39 4790 9cbc b36e 87bd
00000080: 4f99 0dbe 63c9 8f3e ab79 a13d f2bf dabc
00000090: 6e40 a0bd fd3f 58be 62cb 8abd f7c4 823d
000000a0: 655c f33c 9b98 8fbd 0f01 62bd f817 a6be
000000b0: c487 9e3d 4026 b6bb 2898 4b3d b5e7 06bd
000000c0: c001 2a3e 30b3 e0bc fc59 ee3d bf4e 113c
000000d0: 32ed aa3d 0dae fbbc 2f34 f23c 1db5 433d
000000e0: d3ff ae3d a607 4f3d 540e 2bbd cb79 9abd
000000f0: 0f0a 073d e77d f0bb f3ab 4bbe f38d 413d
00000100: 058e 51bd 0e56 0d3e 2647 75bd d159 88bd
00000110: 6a9b 533e 1e6e 22be 22cf 18bd 055a a03d
00000120: 73ea f3bc cc1c 87be 08d0 1ebd 5b32 e2bc
00000130: 1d94 82bd b8af 5d3d ff2d c2bd df80 c9bd
00000140: 86a9 0abe 421f e83d de2c c7bd 5731 92be
00000150: e362 553d d335 c7bc 743a 9f3d d3f8 083d
00000160: 3dcf 35be edb9 c8bc 9c5f 43bd 7211 3b3c
00000170: 5da0 18bd b30c 483d eea7 12bd 6771 123d
00000180: dbb0 ed3d d3df 933d bafd 6fbd 00bb 2f3d
00000190: 3dcc b3bc 87f0 f5bd 5590 13be c500 3e3e
000001a0: 75e8 3bbb c5d4 ef3d 819a 973d 287f b2ba
000001b0: f50f 31be 55a8 6dbd 19ff cbbd 6da0 fb3b
000001c0: 6c1b 1ebe 0d14 923d 0a96 913d f77a 9e3c
000001d0: 0a15 c43d 487b da3d 3886 7dbe 3aed febc
000001e0: fa6a 6d3e 0493 0c3e 1c7f bbbd c988 0c3d
000001f0: f891 da3d 083e 1cbe 1049 afbc 187a 42bd
00000200: d872 05be adbf 5dbe 4180 e03d 68b3 f0bd
00000210: 7ed4 bfbd 73b3 b3be ef49 6d3d 6b12 dabc
00000220: d298 64be a912 b2bc 7b43 7bbd d721 2f3e
00000230: 39b4 70bc eaa2 20bc 8d46 533c d93d 10be
00000240: 7d1d d93d fd45 49bd 484a 03be e755 ee3c
00000250: 7868 e1bc a39a 01be 637c 04bd 7eb3 52bd
00000260: 37de 13bd 7e2e 87bd a296 11bd ea48 c0bd
00000270: 258b c13d d65c f8bd 9270 cf3c 9137 f9bc
00000280: e22d 1d3e 2a1b 7b3d 40f5 2abe bf70 2e3d
00000290: 59b5 263d 3ffa 04be e2de f4bd 3a38 173e
000002a0: 75cb 69bd 7ce9 c93d 490d 16be 0a72 ea3c
000002b0: 9fd1 d1bd 0774 85bc 2da8 26be 689f f13d
000002c0: e9b5 133d bca6 14be 052b 5d3d 9a97 dfbb
000002d0: 49e3 9c3c b7ef 0d3e 2c7c 303e fd7d dbbd
000002e0: 3367 803d 4243 613e c8e0 f2bd 6521 8abe
000002f0: 9e17 ad3b 9aa4 20be 2d82 e33d c82d 9abd
00000300: 0c0b a33d dea7 33bd f4f4 1d3e 6b92 f5bd
00000310: 7ceb 703d 3186 af3d db26 48bd 12d3 e4bd
00000320: 6a66 65bd cbe9 743d 7a92 f73d 2635 293e
00000330: baec a9bc 826d 883b 5fa4 ec3c 5ad3 d9bd
00000340: 9809 693c d6c1 923d a01f aebd ce4f c2bd
00000350: 8d34 c93d 89aa db3c 0b65 b2bd 11e0 22bd
00000360: cc19 b43c 465c 6f3c fa48 ab3d 04ac 1c3e
00000370: e4bf a33d 6162 b1bd b51f e53d 012f 05be
00000380: 3619 ac3d 7d90 acbd 5428 5b3e 9cad 653e
00000390: c610 80bd 831c 2cbe 6565 edbc 3746 423d
000003a0: 4ab3 1bbd f04d 1dbc 501b 0f3e c583 493c
000003b0: d4f7 683d 10d0 9bbd 9236 f43c 303f 693d
000003c0: a576 e0bd 26ad ef3d 8644 b53b 296b 623c
000003d0: 0923 89bd 094b d03d 2da3 063d cbab ff3d
000003e0: 1676 8abe be49 e2bd cea5 883c bd11 b73d
000003f0: 2af7 853d 414d 4ebd 409e e1bd a7bd cdbb

network_body._body_endoder.seq_layers.2.bias f4 [128]
-0.03386303 -0.05209826 -0.051280335 -0.014525632 -0.010298231 -0.041252255 -0.030244648 0.030728547
-0.055094488 -0.010340431 -0.019810738 0.018576073 -0.0107275415 -0.059704926 -0.042962365 0.047892597
0.0008166504 -0.016270962 -0.06240281 -0.04946757 0.072667435 -0.002261962 0.035729934 0.0073657283
-0.09121554 -0.03528969 -0.058449633 -0.034476172 -0.05026749 -0.067281164 -0.001491363 -0.007908569
-0.032767624 -0.04057795 -0.018794658 -0.04743562 -0.01585367 0.00014311186 -0.004015476 -0.004469562
-0.05656552 0.026056802 -0.025617393 -0.02224018 -0.019210292 0.011715894 0.002000838 -0.061340258
-0.031276602 -0.02141024 0.036109228 0.0005658501 -0.053137876 -0.015556989 0.013374056 -0.022675887
-0.023955693 -0.060567148 0.03999608 -0.06408084 0.0026525422 -0.010980034 -0.00967823 0.018633343
-0.0059478343 -0.047173053 -0.018386364 -0.064107955 -0.050802976 -0.03984876 -0.012592408 -0.0146216685
-0.073802784 -0.03664106 0.03017345 -0.100552864 -0.0296922 -0.054682385 -0.047819894 -0.0038722516
-0.011212974 -0.049502272 0.0150774745 0.026036123 -0.016357256 -0.07175468 0.04747063 -0.022474293
0.023599256 -0.012222004 0.018347844 -0.01991718 -0.051798053 -0.031028453 -0.05746544 -0.03918806
-0.026215775 0.035863113 -0.0544387 -0.005816493 -0.026880441 -0.06790644 -0.06992471 -0.03804453
0.036113173 0.0043238085 0.026275963 0.0123465685 -0.028782537 -0.04566488 -0.08213119 -0.053165115
-0.018672416 0.009286561 -0.02081872 -0.03201544 -0.046909604 0.03884354 0.021311816 -0.01139581
-0.0449359 0.022374107 -0.02001026 0.036108095 -0.057089794 -0.00026152463 -0.04610025 -0.061313674
00000000: f6b3 0abd fc64 55bd 540b 52bd ebfc 6dbc
00000010: e9b9 28bc 20f8 28bd a0c3 f7bc 6fba fb3c
00000020: c2aa 61bd e96a 29bc 214a a2bc d92c 983c
00000030: 92c2 2fbc 278d 74bd 4ef9 2fbd 072b 443d
00000040: 7b14 563a ae4a 85bc 179a 7fbd 829e 4abd
00000050: aad2 943d 6d3d 14bb 8d59 123d 355c f13b
00000060: 37cf babd ec8b 10bd e268 6fbd e336 0dbd
00000070: 49e5 4dbd b5ca 89bd d779 c3ba f192 01bc
00000080: 5837 06bd 1135 26bd 41f7 99bc da4b 42bd
00000090: 8edf 81bc 4c10 1639 4194 83bb 6775 92bb
000000a0: 3fb1 67bd 1375 d53c 91db d1bc 0a31 b6bc
000000b0: e75e 9dbc 05f4 3f3c 7e20 033b ec3f 7bbd
000000c0: e51b 00bd 8764 afbc 45e7 133d 8f55 143a
000000d0: 1aa7 59bd bee2 7ebc db1e 5b3c c8c2 b9bc
000000e0: bb3e c4bc 4215 78bd eed2 233d d13c 83bd
000000f0: 46d6 2d3b 9ae5 33bc 7091 1ebc f4a4 983c
00000100: 0de6 c2bb 8838 41bd 009f 96bc 084b 83bd
00000110: c816 50bd 7438 23bd 6350 4ebc b98f 6fbc
00000120: ea25 97bd f014 16bd 502e f73c a9ee cdbd
00000130: 0e3d f3bc a3fa 5fbd cbde 43bd 9ac5 7dbb
00000140: 9fb6 37bc e5c2 4abd 8307 773c b549 d53c
00000150: a7ff 85bc 1ef4 92bd 9070 423d 021c b8bc
00000160: 3a53 c13c cd3e 48bc 384e 963c 5b29 a3bc
00000170: 322a 54bd 622f febc e260 6bbd a983 20bd
00000180: 77c2 d6bc 33e5 123d 1dfb 5ebd 4898 bebb
00000190: 5f34 dcbc 8812 8bbd b034 8fbd 95d4 1bbd
000001a0: 68eb 133d bcae 8d3b b040 d73c 4349 4a3c
000001b0: 5bc9 ebbc 190b 3bbd 6634 a8bd aac3 59bd
000001c0: e5f6 98bc a926 183c 058c aabc 9f22 03bd
000001d0: 4924 40bd 671a 1f3d 1e96 ae3c 7eb5 3abc
000001e0: b50e 38bd e749 b73c 8fec a3bc 15e6 133d
000001f0: fdd6 69bd 3e1d 89b9 9ed3 3cbd 0c24 7bbd

action_model._continuous_distribution.log_sigma f4 [1, 2]
-0.17702326 -0.13130161
00000000: 9645 35be ee73 06be

action_model._continuous_distribution.mu.weight f4 [2, 128]
-0.019369602 5.6772387e-05 -0.009643096 0.05385703 0.011446495 -0.0061261053 -0.033035938 0.051873222
-0.02136098 0.013687193 0.019038731 0.034346003 0.010305411 0.039091013 -0.0032956656 -0.05070378
0.026615748 0.03779098 -0.014805461 -0.051809594 -0.07751311 0.024917325 0.08928791 -0.039695706
-0.014794687 0.001071633 -0.009322524 0.029479029 -0.043727048 -0.016531462 -0.034653705 -0.023945529
-0.040925413 -0.031073883 -0.035240456 -0.0062510176 -0.036838647 0.027974412 -0.060545996 0.042999655
-0.009542164 0.07406977 -0.05565576 -0.035010267 0.06148995 0.0347674 0.023078563 -0.038958207
-0.025072476 0.008360084 0.07865334 -0.06129143 -0.015899125 -0.033758588 -0.04838827 0.004031405
0.020855822 0.007597514 0.06468492 0.004913546 0.029197771 -0.03431003 -0.017459335 -0.031513747
-0.03630868 -0.011122206 -0.0503712 0.032529924 -0.019725187 -0.011936107 0.026722355 0.010445672
-0.010807986 -0.0035601535 -0.031752806 -0.008450945 0.04809542 -0.008848767 -0.041846417 -0.041153323
-0.027852425 0.016177157 0.008105717 -0.04605171 -0.047817003 0.009725682 0.028828671 0.00071842043
-0.008214505 0.0064499276 0.0311123 0.004735382 -0.06696695 -0.014351988 -0.025305634 0.0018147521
-0.0020268178 0.06337121 -0.0095854895 0.020881372 -0.021532487 -0.017319182 -0.012116908 -0.026547564
0.04032325 0.0051759603 -0.04910933 -0.024719378 0.014209938 0.005213902 0.003994981 0.025491163
-0.072076574 0.04654832 0.001265051 0.039015014 -0.022950176 -0.06639257 -0.0920954 0.008972133
0.011263744 0.046181116 0.011208713 0.026730184 0.0021979106 -0.0040367614 -0.04584812 -0.037902106
-0.015800782 -0.058226176 -0.00691663 -0.038188398 -0.0768736 -0.09125594 -0.0031743287 0.007185421
-0.036378052 -0.052287586 -0.036862973 -0.07773517 -0.034422487 -0.02161294 -0.03486244 0.08969088
-0.0343632 -0.021964993 -0.057273403 -0.09345177 0.10839745 0.052990895 0.027873572 -0.041340318
0.0054515754 -0.04686285 -0.030549565 -0.0008108224 -0.10012692 -0.07211094 -0.010311897 -0.07854145
0.022949211 -0.06647534 -0.07145416 0.0070617194 -0.007531377 -0.059082724 0.054751243 0.03599237
-0.0046319314 -0.004207732 0.06724362 -0.0019939803 -0.035053384 -0.063695915 0.03131371 -0.011806092
-0.08680635 -0.05838545 0.0041759056 0.05496338 0.102334216 0.026306782 0.07030637 0.020027166
-0.027390953 -0.026287274 0.03359391 -0.041383646 0.04471989 -0.058891598 -0.032024432 0.0038731415
-0.058206115 -0.056544747 -0.00784802 0.0021430743 -0.05803441 -0.039942473 -0.05520908 -0.080944635
0.008998195 -0.007292106 0.043447677 -0.022709774 -0.051339857 -0.00076856976 -0.062581025 -0.046257805
0.052330315 0.013399892 -0.1378228 0.061643586 0.066161975 -0.00998628 0.032428756 -0.028096162
0.03357647 -0.054833703 0.067952275 -0.050944727 0.056016058 -0.11989309 -0.0044409833 -0.045834396
-0.070851415 0.005870244 0.00422624 -0.09127677 -0.06441733 0.008333962 -0.0216956 -0.090334244
-0.100412086 -0.07604531 0.051171463 -0.0011390209 -0.091402635 -0.040812954 -0.010470018 -0.033818915
0.10355276 0.02172939 -0.067342415 -0.0006658994 -0.008172196 0.010122995 0.09165823 -0.069408916
-0.09088694 -0.053112034 -0.04467526 0.069272265 0.00070378266 0.035594746 0.032346517 0.06451992
00000000: 00ad 9ebc e31e 6e38 13fe 1dbc 3099 5c3d
00000010: 148a 3b3c 7fbd c8bb b150 07bd 0479 543d
00000020: 39fd aebc 4040 603c 1df7 9b3c 65ae 0c3d
00000030: 07d8 283c e61d 203d 18fc 57bb c4ae 4fbd
00000040: 4509 da3c b7ca 1a3d 9b92 72bc 4c36 54bd
00000050: 32bf 9ebd 6b1f cc3c 94dc b63d f797 22bd
00000060: 6a65 72bc 0976 8c3a 80bd 18bc 017e f13c
00000070: 221b 33bd fd6c 87bc 0bf1 0dbd 6a29 c4bc
00000080: 68a1 27bd a88e febc 4c58 10bd 56d5 ccbb
00000090: 1fe4 16bd 982a e53c 14ff 77bd 6820 303d
000000a0: bd56 1cbc e4b1 973d 4bf7 63bd ed66 0fbd
000000b0: e3dc 7b3d 4368 0e3d 410f bd3c a492 1fbd
000000c0: cb64 cdbc bcf8 083c 0115 a13d b90c 7bbd
000000d0: e23e 82bc 7246 0abd c732 46bd e019 843b
000000e0: d4d9 aa3c 91f4 f83b 8779 843d d001 a13b
000000f0: 2a30 ef3c ad88 0cbd e106 8fbc 8f14 01bd
00000100: 69b8 14bd ea39 36bc 0852 4ebd 193e 053d
00000110: b796 a1bc a98f 43bc d7e8 da3c 5324 2b3c
00000120: fb13 31bc 7751 69bb 3b0f 02bd d575 0abc
00000130: b4ff 443d 6bfa 10bc 2667 2bbd 6390 28bd
00000140: c52a e4bc f585 843c d7cd 043c b8a0 3cbd
00000150: c3db 43bd 7858 1f3c 1b2a ec3c 6154 3c3a
00000160: 2296 06bc ea59 d33b 39df fe3c 432b 9b3b
00000170: f825 89bd 9a24 6bbc c34d cfbc fadc ed3a
00000180: 5cd4 04bb c4c8 813d 750c 1dbc 690f ab3c
00000190: e664 b0bc f5e0 8dbc ff85 46bc 477a d9bc
000001a0: fe29 253d 1a9b a93b dd26 49bd 4b80 cabc
000001b0: cdd0 683c 61d9 aa3b 54e8 823b d8d2 d03c
000001c0: e29c 93bd 74a9 3e3d 11d0 a53a 35ce 1f3d
000001d0: 0202 bcbc d4f8 87bd 839c bcbd daff 123c
000001e0: 918b 383c 6928 3d3d c0a4 373c 42f9 da3c
000001f0: d20a 103b cf46 84bb 3dcb 3bbd 3d3f 1bbd
00000200: a470 81bc 927e 6ebd e6a4 e2bb 706b 1cbd
00000210: e86f 9dbd 65e4 babd 6608 50bb ae73 eb3b
00000220: 2701 15bd 822b 56bd a1fd 16bd 9e33 9fbd
00000230: 98fe 0cbd 9f0d b1bc ebcb 0ebd daaf b73d
00000240: 6dc0 0cbd eeef b3bc 8497 6abd a463 bfbd
00000250: 7bff dd3d fb0c 593d 1e57 e43c 7754 29bd
00000260: 21a3 b23b 43f3 3fbd 1543 fabc 5f8d 54ba
00000270: 580f cdbd e7ae 93bd 3bf3 28bc 57da a0bd
00000280: fcff bb3c 3924 88bd 8f56 92bd ff65 e73b
00000290: c5c9 f6bb ba00 72bd d742 603d bc6c 133d
000002a0: 75c7 97bb 04e1 89bb 06b7 893d 70ad 02bb
000002b0: 2394 0fbd 0173 82bd ce42 003d 576e 41bc
000002c0: 87c7 b1bd 9525 6fbd 09d6 883b 4821 613d
000002d0: 9a94 d13d 5281 d73c c9fc 8f3d 0310 a43c
000002e0: fe62 e0bc 6958 d7bc c599 093d e681 29bd
000002f0: 342c 373d 5138 71bd 0d2c 03bd 88d4 7d3b
00000300: 8969 6ebd 779b 67bd fb94 00bc d272 0c3b
00000310: 7db5 6dbd b89a 23bd eb22 62bd 4dc6 a5bd
00000320: 2a6d 133c 9ef2 eebb 31f6 313d d909 babc
00000330: be49 52bd d879 49ba 7b2a 80bd d378 3dbd
00000340: 5058 563d 388b 5b3c 6c21 0dbe fc7d 7c3d
00000350: ee7f 873d 7f9d 23bc 04d4 043d ec29 e6bc
00000360: 7b87 093d 4e99 60bd 902a 8b3d 6bab 50bd
00000370: 1871 653d 828a f5bd ab85 91bb d9bc 3bbd
00000380: 8c1a 91bd 2d5b c03b 457c 8a3b 51ef babd
00000390: 3ced 83bd 2c8b 083c f9ba b1bc 2901 b9bd
000003a0: daa4 cdbd a5bd 9bbd 2b99 513d 334b 95ba
000003b0: 4e31 bbbd 7c2b 27bd 708a 2bbc b485 0abd
000003c0: 7813 d43d d501 b23c d2ea 89bd c18f 2eba
000003d0: ade4 05bc ebda 253c 4fb7 bb3d 4326 8ebd
000003e0: ef22 babd 018c 59bd 68fd 36bd 9ede 8d3d
000003f0: 0e7e 383a cccb 113d c87d 043d 0523 843d

action_model._continuous_distribution.mu.bias f4 [2]
0.023832107 0.062219687
00000000: 8d3b c33c 12da 7e3d

exp_avg f4 [128, 8]
0.0016193885 -0.0019823343 -3.469436e-05 0.0009154485 0.00055168266 -0.00037011175 -0.002170401 -0.001641724
0.005210876 -0.0063787648 -0.00011163967 0.005793926 0.0036040323 -0.0011909476 0.00029102946 0.00048150145
0.0025689453 -0.0031447103 -5.5037985e-05 0.0011050083 0.0005249459 -0.00058713334 0.004638995 -0.0017828823
-0.0013581743 0.0016625759 2.9097995e-05 0.0017139966 -0.0011444499 0.0003104111 -0.0035873223 0.00036867365
0.00407678 -0.004990489 -8.734237e-05 0.0043540588 0.00031224245 -0.0009317495 -0.0019935435 -0.008453118
0.0010004744 -0.0012247058 -2.143452e-05 0.0009302615 0.0018795842 -0.00022865874 0.0019155263 0.00045453987
-0.00014682843 0.00017973641 3.1457055e-06 -0.00016844083 -0.00018023621 3.3557684e-05 5.444295e-05 -4.779591e-05
0.0006585703 -0.0008061768 -1.4109459e-05 0.0054578884 0.00069035107 -0.0001505171 0.007513757 -0.0016764427
-0.0019480609 0.0023846705 4.1735955e-05 0.0024755113 -0.0012223906 0.00044523002 0.0023027796 0.0018731183
-0.0024502925 0.0029994643 5.249592e-05 0.003091501 -0.0007985646 0.00056001503 0.0034874547 0.0023309602
-0.00017005859 0.00020817414 3.6433812e-06 0.0058349194 -0.00032262737 3.88668e-05 0.004441101 0.0018367285
-0.00019945725 0.0002441607 4.273236e-06 -0.00032962684 0.0013755839 4.558597e-05 0.00018437523 -0.00038695743
-0.00015844042 0.0001939509 3.3944837e-06 -0.00016200254 -0.00011601222 3.6211615e-05 5.259974e-05 3.0264178e-05
-0.0024995126 0.003059717 5.355045e-05 0.0012802923 0.0019095346 0.0005712644 0.0033618524 0.004580753
0.0038512147 -0.00471437 -8.250979e-05 0.0029196865 -0.0011121514 -0.0008801965 0.0017444879 0.00016799677
0.0077624302 -0.009502187 -0.00016630508 0.007845835 0.003678612 -0.0017741063 -0.0072297463 -0.004064992
-0.00032871572 0.00040238924 7.0425253e-06 0.0004437763 7.2826355e-05 7.512808e-05 -0.00074507564 -0.0002701486
-0.004639901 0.0056798183 9.94069e-05 -0.0045163315 2.7882954e-05 0.0010604508 -0.002737758 0.0067180623
0.00027086545 -0.00033157342 -5.803119e-06 0.0018700983 -0.0001974882 -6.1906394e-05 -0.0010012488 0.0014982984
-0.00032017808 0.0003919383 6.8596046e-06 -0.0009326553 0.0013368116 7.3176896e-05 0.002613711 0.00065496314
0.0042185127 -0.005163987 -9.0378926e-05 0.0026686597 0.0011900131 -0.00096414256 -0.0065484606 -0.005685133
0.008264923 -0.010117296 -0.00017707053 0.018336033 0.0069278604 -0.0018889507 0.002441094 -0.004398851
0.00011020892 -0.00013490953 -2.3611556e-06 0.00026555336 -7.697282e-05 -2.5188292e-05 -7.810093e-05 7.083406e-05
-0.011110709 0.013600897 0.00023803978 -0.015493236 -0.004713209 0.0025393562 -0.0053962655 0.0071436837
0.0008220235 -0.0010062597 -1.761132e-05 0.0009626229 -0.0004202611 -0.00018787375 0.002255507 -0.0007208843
-0.0063767172 0.007805901 0.00013661709 0.000387562 0.005373515 0.0014574012 0.0026402709 0.013134271
-0.0024709797 0.0030247886 5.2939155e-05 -0.0022679237 -0.002175842 0.0005647433 0.0050953915 4.5731358e-05
-1.8609748e-05 2.278066e-05 3.987016e-07 3.8441187e-05 1.44604555e-05 4.253264e-06 7.217393e-07 1.2180524e-05
-0.0012660705 0.0015498276 2.7124728e-05 0.0008215939 -0.00032327021 0.0002893607 0.004202896 0.002415258
-0.0015343251 0.0018782064 3.287193e-05 -0.0007023447 -0.0021513163 0.0003506707 0.001598153 0.0024393843
0.0024194305 -0.0029616859 -5.1834755e-05 0.003629792 0.006084845 -0.0005529617 -0.008247003 0.00058442465
2.3155793e-05 -2.8345588e-05 -4.9609787e-07 5.398338e-05 3.0129577e-05 -5.2922646e-06 -2.9500821e-05 1.0841143e-05
00000000: a941 d43a 0dea 01bb c984 11b8 b5fa 6f3a
00000010: cc9e 103a 8f0b c2b9 493d 0ebb 1e2f d7ba
00000020: ffbf aa3b f504 d1bb 1720 eab8 f9da bd3b
00000030: a131 6c3b 9219 9cba 5095 9839 0872 fc39
00000040: c05b 283b 7c17 4ebb 96d8 66b8 edd5 903a
00000050: 869c 093a dae9 19ba b602 983b 9aaf e9ba
00000060: c404 b2ba caea d93a 7817 f437 2fa8 e03a
00000070: 5e01 96ba acbe a239 4819 6bbb 8a4a c139
00000080: 8296 853b 4287 a3bb 942b b7b8 7eac 8e3b
00000090: 79b4 a339 a740 74ba 1ca6 02bb f27e 0abc
000000a0: 5a22 833a 4f86 a0ba 48ce b3b7 cbdc 733a
000000b0: 615c f63a 1dc4 6fb9 6612 fb3a 4f4f ee39
000000c0: f5f5 19b9 a077 3c39 cf1a 5336 7e9f 30b9
000000d0: cafd 3cb9 4ac0 0c38 ac59 6438 7878 48b8
000000e0: e8a3 2c3a 9c55 53ba aab7 6cb7 16d8 b23b
000000f0: adf8 343a 20d4 1db9 f635 f63b 15bc dbba
00000100: 1456 ffba 2248 1c3b a40d 2f38 303c 223b
00000110: 9f38 a0ba c36d e939 3bea 163b 6c83 f53a
00000120: 1695 20bb a992 443b 112f 5c38 c89a 4a3b
00000130: c356 51ba f9cd 123a c88d 643b 06c3 183b
00000140: c151 32b9 5249 5a39 d080 7436 da32 bf3b
00000150: 5026 a9b9 e904 2338 a886 913b 62be f03a
00000160: 6625 51b9 b202 8039 d162 8f36 c4d1 acb9
00000170: f04c b43a 9033 3f38 d954 4139 8ce0 cab9
00000180: 0723 26b9 4c5f 4b39 c9cc 6336 3adf 29b9
00000190: 964b f3b8 ede1 1738 8a9e 5c38 d4df fd37
000001a0: ddce 23bb 8885 483b 5c9b 6038 7bcf a73a
000001b0: 5949 fa3a e8c0 153a 8652 5c3b 241a 963b
000001c0: a964 7c3b 007b 9abb 1b09 adb8 3658 3f3b
000001d0: 9cc5 91ba fdbc 66ba 4da7 e43a 4a28 3039
000001e0: fc5b fe3b 10af 1bbc 2e62 2eb9 d18b 003c
000001f0: de14 713b 2189 e8ba 82e7 ecbb a033 85bb
00000200: 7a57 acb9 c5f7 d239 d54e ec36 a6aa e839
00000210: 5aba 9838 158e 9d38 2e51 43ba bba2 8db9
00000220: 500a 98bb c51d ba3b ac78 d038 bcfd 93bb
00000230: 30e6 e937 d3fe 8a3a f56b 33bb 3123 dc3b
00000240: f202 8e39 08d7 adb9 6ab8 c2b6 161e f53a
00000250: d614 4fb9 bed3 81b8 563c 83ba 8d62 c43a
00000260: 93dd a7b9 117d cd39 8e2b e636 707d 74ba
00000270: f437 af3a 8c76 9938 cb4a 2b3b d5b1 2b3a
00000280: 733b 8a3b aa36 a9bb d189 bdb8 aee4 2e3b
00000290: 37fa 9b3a 83be 7cba 7894 d6bb 5a4a babb
000002a0: 9969 073c 04c3 25bc 02ac 39b9 7335 963c
000002b0: 1b03 e33b ab96 f7ba c3fa 1f3b 3d24 90bb
000002c0: f71f e738 8076 0db9 5874 1eb6 f839 8b39
000002d0: 786c a1b8 724b d3b7 1eca a3b8 bf8c 9438
000002e0: b109 36bc 4cd6 5e3c 519a 7939 57d7 7dbc
000002f0: 4371 9abb 546b 263b 28d3 b0bb 9015 ea3b
00000300: 107d 573a 79e4 83ba 06bc 93b7 8758 7c3a
00000310: 7d56 dcb9 faff 44b9 21d1 133b baf9 3cba
00000320: c8f3 d0bb a5c8 ff3b df40 0f39 b131 cb39
00000330: 5014 b03b 4506 bf3a 6508 2d3b 2031 573c
00000340: 29f0 21bb 883b 463b fc0a 5e38 72a1 14bb
00000350: 9298 0ebb 480b 143a 3ef7 a63b accf 3f38
00000360: 211c 9cb7 1819 bf37 210d d634 e93b 2138
00000370: 2f9b 7237 42b7 8e36 8cbd 4135 f45a 4c37
00000380: 47f2 a5ba 9623 cb3a e989 e337 3c60 573a
00000390: 987c a9b9 56b5 9739 72b8 893b 4e49 1e3b
000003a0: 681b c9ba 262e f63a f7df 0938 8e1d 38ba
000003b0: 19fd 0cbb 3ada b739 1e79 d13a 14de 1f3b
000003c0: 4f8f 1e3b d818 42bb 2569 59b8 cee1 6d3b
000003d0: 6163 c73b a2f4 10ba 701e 07bc 1334 193a
000003e0: b03e c237 b0c7 edb7 962b 05b5 376c 6238
000003f0: c6be fc37 3594 b1b6 8878 f7b7 5be2 3537

exp_avg_sq f4 [128, 8]
0.00026290168 0.000393954 1.2067285e-07 0.00015811539 6.819728e-05 1.3732772e-05 0.0006015763 0.00028232613
0.00033805182 0.00050656573 1.551667e-07 0.0006110945 0.00016363907 1.765824e-05 0.00023369295 0.00040627137
0.00035983566 0.000539208 1.6516553e-07 0.00049684645 0.00022765495 1.87961e-05 0.00028446584 0.0002742252
0.0018458522 0.0027659794 8.4725167e-07 0.0018833921 0.00078261615 9.641865e-05 0.0021553987 0.0017127888
0.0005481008 0.00082132104 2.5158067e-07 0.00060977123 0.00024140139 2.8630217e-05 0.0007003355 0.0005870691
8.062077e-05 0.000120808865 3.7005158e-08 0.00016917473 5.1037096e-05 4.21125e-06 6.12296e-05 6.194056e-06
8.061786e-07 1.2080445e-06 3.7003856e-10 1.065651e-06 3.3945003e-07 4.2110926e-08 8.4723763e-07 7.5841075e-07
0.002885988 0.004324598 1.3246762e-06 0.0023661104 0.0009917544 0.00015075027 0.0039937613 0.0055504227
0.00075893267 0.0011372477 3.4835205e-07 0.00066567137 0.00026761706 3.9643022e-05 0.0009960464 0.00084350066
0.0013340419 0.0019990369 6.123289e-07 0.0014859661 0.00053884264 6.968405e-05 0.0020373082 0.0012128452
0.00071934407 0.0010779221 3.3018142e-07 0.0007345457 0.00025917141 3.7575115e-05 0.0010048356 0.00091226294
0.00015362214 0.0002301999 7.0512996e-08 0.0003997872 8.5021355e-05 8.0244945e-06 0.0001386546 0.00011067417
9.414548e-07 1.4107515e-06 4.3213003e-10 1.7095115e-06 5.1847684e-07 4.9177057e-08 6.969131e-07 2.0143322e-08
0.0020389592 0.0030553483 9.3588847e-07 0.0013528665 0.000746931 0.000106505664 0.0026571036 0.0011823839
0.00025431564 0.00038108748 1.1673171e-07 0.000105848434 0.00019505117 1.3284244e-05 0.0003159458 2.1905524e-05
0.0019635488 0.0029423526 9.012782e-07 0.0010957209 0.000598193 0.00010256687 0.0026879103 0.0030603283
7.4894706e-05 0.0001122288 3.4376978e-08 9.2957096e-05 6.294599e-05 3.9121396e-06 5.9655293e-05 3.0175195e-06
0.000944788 0.0014157493 4.3365995e-07 0.000953529 0.0004653123 4.9351213e-05 0.0006533643 0.00144789
0.0002557289 0.0003832051 1.17380154e-07 0.000422483 0.00013166874 1.3358047e-05 0.00020175743 5.5919478e-05
7.8130215e-05 0.00011707667 3.5862005e-08 0.00016463193 5.158418e-05 4.081153e-06 5.86047e-05 7.1550953e-06
0.0006486262 0.0009719565 2.9772175e-07 0.00045436108 0.00015831193 3.3881126e-05 0.0017830711 0.0010176032
0.006156961 0.009226095 2.8260586e-06 0.0053209323 0.0025665802 0.00032160987 0.0064123427 0.011268681
9.586705e-07 1.4365532e-06 4.4003268e-10 1.9903798e-06 7.2862497e-07 5.0076483e-08 1.2370363e-06 1.2166959e-07
0.0030815254 0.0046176137 1.4144292e-06 0.004073028 0.0011346067 0.00016096434 0.0034760449 0.004282568
7.0368056e-05 0.00010544531 3.229915e-08 8.46971e-05 3.9475937e-05 3.6756912e-06 0.0001457436 4.4426266e-05
0.004660855 0.006984207 2.1393469e-06 0.004414303 0.0020444212 0.00024346117 0.006727768 0.0020890904
0.00030123588 0.0004513961 1.3826796e-07 0.00045750177 0.00015402275 1.5735128e-05 0.00025467176 3.2314885e-05
1.1140758e-07 1.6694221e-07 5.1136425e-11 9.59156e-08 7.070883e-08 5.8193996e-09 1.68609e-07 2.327472e-08
0.00038132063 0.0005714016 1.7502727e-07 4.7795013e-05 5.2112202e-05 1.9918389e-05 0.0011379815 0.0009305061
0.0005689729 0.0008525965 2.6116044e-07 0.00046578987 0.00021037945 2.9720408e-05 0.0006981866 0.00092058996
0.0011050081 0.0016558368 5.0720246e-07 0.0012626757 0.00054023985 5.772032e-05 0.0011169015 0.00024995714
1.8655984e-07 2.7955602e-07 8.563149e-11 1.5987996e-07 7.5787e-08 9.744982e-09 4.1705914e-07 9.1573625e-08
00000000: 11d6 8939 9c8b ce39 4d92 0134 c7cb 2539
00000010: 2305 8f38 ce65 6637 1ab3 1d3a 2c05 9439
00000020: 8c3c b139 0dcb 043a e69b 2634 dc31 203a
00000030: 8796 2b39 c820 9437 790b 7539 d200 d539
00000040: 53a8 bc39 a359 0d3a 5b58 3134 cd3e 023a
00000050: a9b6 6e39 51ac 9d37 5c24 9539 e2c5 8f39
00000060: 86f0 f13a 6f45 353b b16e 6335 27dc f63a
00000070: 7b28 4d3a 5e34 ca38 9741 0d3b a87f e03a
00000080: 6cae 0f3a ec4d 573a fc10 8734 0ed9 1f3a
00000090: b120 7d39 ec2a f037 b896 373a 8ae5 193a
000000a0: f212 a938 c45a fd38 9aef 1e33 7f64 3139
000000b0: aa10 5638 5d4e 8d36 6468 8038 89d6 cf36
000000c0: 2c68 5835 1824 a235 4c6e cb2f 7d07 8f35
000000d0: a83d b634 74dd 3433 ba6d 6335 9795 4b35
000000e0: d822 3d3b 5bb5 8d3b 87cb b135 bf10 1b3b
000000f0: c1fd 813a b812 1e39 19de 823b 52e0 b53b
00000100: 1cf3 463a b30f 953a 2405 bb34 7380 2e3a
00000110: f44e 8c39 5f46 2638 c58d 823a 5f1e 5d3a
00000120: 05db ae3a 4602 033b ec5e 2435 c0c4 c23a
00000130: 1e41 0d3a 5723 9238 5c84 053b 55f8 9e3a
00000140: 5d92 3c3a 1049 8d3a ca43 b134 878e 403a
00000150: 66e1 8739 f999 1d38 b0b4 833a ee24 6f3a
00000160: a115 2139 d161 7139 ee6c 9733 889a d139
00000170: 7e4d b238 f1a0 0637 d063 1139 be19 e838
00000180: 48b8 7c35 0d59 bd35 e590 ed2f 5e72 e535
00000190: 752d 0b35 bf36 5333 8113 3b35 a207 ad32
000001a0: 0fa0 053b 3d3c 483b c439 7b35 ab52 b13a
000001b0: b1cd 433a cb5b df38 cd22 2e3b 38fa 9a3a
000001c0: ab55 8539 b2cc c739 f0ad fa33 f2fa dd38
000001d0: a686 4c39 65df 5e37 87a5 a539 c1c1 b737
000001e0: e2ae 003b 7cd4 403b 5eef 7135 4b9e 8f3a
000001f0: 0dd0 1c3a 2b19 d738 a727 303b ca8f 483b
00000200: ca10 9d38 615c eb38 e3a5 1333 f6f1 c238
00000210: df01 8438 0645 8336 6236 7a38 9780 4a36
00000220: a6ab 773a aa90 b93a c5d1 e834 3ff6 793a
00000230: 29f5 f339 76fe 4e38 8946 2b3a 20c7 bd3a
00000240: 5a13 8639 ebe8 c839 6c12 fc33 b580 dd39
00000250: 8f10 0a39 601c 6037 d98e 5339 158b 6a38
00000260: d7d9 a338 0f87 f538 b106 1a33 0ca1 2c39
00000270: 175c 5838 d6f0 8836 51ce 7538 cd15 f036
00000280: 9108 2a3a e6ca 7e3a 91d6 9f34 5037 ee39
00000290: 8900 2639 951b 0e38 f0b5 e93a 1961 853a
000002a0: 55c0 c93b 0c29 173c 51a7 3d36 375b ae3b
000002b0: 1234 283b bf9d a839 a11e d23b 46a0 383c
000002c0: abab 8035 98cf c035 18e9 f12f 7792 0536
000002d0: ba96 4335 ad13 5733 3e08 a635 48a4 0234
000002e0: 6bf3 493b 5a4f 973b 6bd7 bd35 0977 853b
000002f0: 15b7 943a 89c8 2839 5bce 633b c954 8c3b
00000300: 9092 9338 8522 dd38 4ab9 0a33 699f b138
00000310: f792 2538 e5ab 7636 c0d2 1839 5756 3a38
00000320: 16ba 983b c6db e43b b391 0f36 dca5 903b
00000330: b2fb 053b 9c49 7f39 9c74 dc3b 1fe9 083b
00000340: 32ef 9d39 5ca9 ec39 cf76 1434 d9dc ef39
00000350: 2b81 2139 eefe 8337 7785 8539 d889 0738
00000360: f73e ef33 ba40 3334 7fe6 602e 29fa cd33
00000370: 97d8 9733 fbf3 c731 e40a 3534 a7ed c732
00000380: fdeb c739 1dca 153a 21ef 3b34 8177 4838
00000390: 0d93 5a38 6a16 a737 5328 953a 35ed 733a
000003a0: 2027 153a c880 5f3a 9e35 8c34 4235 f439
000003b0: 4e99 5c39 1750 f937 8206 373a bf53 713a
000003c0: ebd5 903a aa08 d93a b026 0835 5e80 a53a
000003d0: e29e 0d3a b918 7238 ff64 923a ae0c 8339
000003e0: 2e51 4834 e315 9634 3e4e bc2e 78ab 2b34
000003f0: 58c0 a233 e26a 2732 2ce8 df34 22a7 c433

exp_avg f4 [128]
-0.0003354174 -0.0010793079 -0.0005320952 0.0002813132 -0.00084440695 -0.00020722422 3.0411993e-05 -0.00013640735
0.000403494 0.0005075192 3.522358e-05 4.1312764e-05 3.281713e-05 0.0005177141 -0.00079768663 -0.0016078012
6.808557e-05 0.000961044 -5.6103294e-05 6.631721e-05 -0.00087376375 -0.0017118796 -2.2827135e-05 0.002301316
-0.00017026241 0.0013207841 0.00051180413 3.8545586e-06 0.00026223608 0.00031779864 -0.00050112687 -4.7961657e-06
-0.00066928915 -3.593304e-05 -0.0011814993 -0.0009765672 -6.882352e-05 -0.00042769927 -0.001508683 -5.3442272e-05
0.00042687758 0.00019378035 2.8352188e-06 0.0007093761 -0.00016229779 0.00020726364 0.0006571514 0.0002946895
-0.000114342256 -4.8621525e-05 0.00020832269 0.0008491817 -0.00041183454 -0.0003782691 -0.00033694657 -0.00028393895
-0.00075774424 -1.7114631e-05 -0.00054218783 0.00029517122 -0.00017404009 0.00068008684 -0.0015240773 -1.0606755e-06
-0.00035071262 -0.0012001039 0.0007604778 3.2312386e-05 -0.0011489146 -0.0012138262 0.0009965821 4.8053684e-05
0.00016030337 0.0007033575 -9.3135895e-05 -1.342231e-05 -0.0009542805 -0.00072048604 0.001109664 0.0008044789
2.1236407e-05 1.450916e-05 -0.0007485485 -0.00017609037 -2.1050662e-05 -0.0024372074 0.0017333798 0.0015288533
0.0014254802 -0.00048710874 1.8792942e-05 -0.0008844599 -1.8901366e-06 -0.0007755259 0.00047098938 5.886869e-06
-5.846974e-05 -0.00077347783 0.00045770218 3.132441e-05 0.0010649161 0.001438248 -4.7587822e-05 -0.00029309734
0.00067973265 -0.0010158134 -0.00028295774 0.00011780687 0.0010500432 0.0010834384 -0.00048821743 -0.0012609707
-0.0013567266 0.00027320022 -0.0005069103 0.0019134571 -1.6835684e-05 5.646312e-05 -0.00056470645 0.00030288496
0.00044880388 0.0004629586 -0.00024607533 1.1976481e-05 -0.0004038142 -0.0004996938 0.00028608984 0.000315064
00000000: f6da afb9 9077 8dba 4e7c 0bba 387d 9339
00000010: 315b 5dba 544a 59b9 421d ff37 9208 0fb9
00000020: 0c8c d339 090b 053a 08bd 1338 3e47 2d38
00000030: 20a5 0938 35b7 073a d81b 51ba dbbc d2ba
00000040: 29c9 8e38 92ee 7b3a 7450 6bb8 c813 8b38
00000050: 4b0d 65ba 2661 e0ba e67c bfb7 add1 163b
00000060: 7888 32b9 291e ad3a 982a 063a 6856 8136
00000070: bb7c 8939 369e a639 0e5e 03ba c0ee a0b6
00000080: 3c73 2fba cfb6 16b8 8adc 9aba 2800 80ba
00000090: 5955 90b8 d33c e0b9 00bf c5ba 3427 60b8
000000a0: 8ace df39 8431 4b39 b044 3e36 6df5 393a
000000b0: 7b2e 2ab9 e954 5939 af44 2c3a 8e80 9a39
000000c0: 08cb efb8 f7ee 4bb8 3271 5a39 9f9b 5e3a
000000d0: 7feb d7b9 6b52 c6b9 34a8 b0b9 a4dd 94b9
000000e0: 5ba3 46ba 6491 8fb7 9c21 0eba 36c1 9a39
000000f0: 887e 36b9 db47 323a 8cc3 c7ba 885c 8eb5
00000100: dadf b7b9 ce4c 9dba cd5a 473a 2987 0738
00000110: 2d97 96ba 4019 9fba bf9f 823a 408d 4938
00000120: 1c17 2839 8661 383a f451 c3b8 6230 61b7
00000130: ae28 7aba 00df 3cba 2572 913a aae3 523a
00000140: d624 b237 5e6c 7337 3d3a 44ba e6a4 38b9
00000150: f495 b0b7 8eb9 1fbb 9332 e33a ce63 c83a
00000160: 2ed7 ba3a a162 ffb9 89a5 9d37 19db 67ba
00000170: 99b0 fdb5 aa4c 4bba 20ef f639 d287 c536
00000180: 683d 75b8 38c3 4aba bff7 ef39 5462 0338
00000190: a894 8b3a 9883 bc3a 0999 47b8 dcaa 99b9
000001a0: 1630 323a 0b25 85ba f259 94b9 150f f738
000001b0: 9aa1 893a 2902 8e3a 6ff7 ffb9 2847 a5ba
000001c0: 31d4 b1ba 503c 8f39 2de2 04ba f7cc fa3a
000001d0: 5b3a 8db7 d0d2 6c38 cf08 14ba 88cc 9e39
000001e0: 704d eb39 40b9 f239 ac03 81b9 98ee 4837
000001f0: 06b7 d3b9 e2fd 02ba 54fe 9539 2d2f a539

exp_avg_sq f4 [128]
1.1278806e-05 1.4502819e-05 1.5437368e-05 7.918925e-05 2.3514182e-05 3.4587254e-06 3.458597e-08 0.00012381228
3.255908e-05 5.72319e-05 3.0860712e-05 6.59056e-06 4.038944e-08 8.747383e-05 1.0910443e-05 8.423874e-05
3.2130752e-06 4.0532515e-05 1.0971055e-05 3.3518777e-06 2.7826789e-05 0.00026414057 4.1128125e-08 0.00013220092
3.0188717e-06 0.00019995637 1.2923385e-05 4.7795155e-09 1.635909e-05 2.4409615e-05 4.7406065e-05 8.003633e-09
1.984993e-05 3.1927934e-06 0.00011790418 2.7564629e-05 7.930157e-08 2.5654075e-05 0.000117170675 6.75513e-07
4.119742e-05 2.9958002e-05 8.492331e-06 3.9027087e-05 2.6159743e-05 2.3177045e-05 7.4293166e-06 2.1595442e-05
6.770039e-07 8.513531e-05 5.659328e-05 9.8442135e-05 2.3861261e-05 2.3362087e-05 1.9324036e-05 3.6219067e-06
7.6083256e-06 1.4039103e-06 6.123838e-06 6.0574643e-05 5.563243e-07 0.00013339169 5.724527e-05 4.520937e-07
2.0250649e-05 1.371359e-05 4.0216397e-05 5.3596273e-06 0.00013801415 1.997655e-05 7.9299134e-05 7.067255e-07
4.035445e-06 0.00013906158 2.4436974e-07 1.1000231e-08 1.4674113e-05 0.00012841061 4.0920688e-05 6.017406e-05
1.9184222e-06 4.172466e-08 2.955854e-05 1.1119706e-05 6.5490567e-06 4.8500573e-05 5.7278092e-05 0.00013660992
4.7889807e-05 7.1769544e-05 2.0301201e-07 8.364221e-05 1.4284525e-10 0.00015247449 8.360538e-06 5.850566e-07
3.6637104e-07 3.7637972e-05 3.7119516e-06 1.739917e-07 6.1540166e-05 4.161583e-05 1.0577761e-06 2.906128e-05
0.00024467875 0.00015183655 1.1114432e-05 8.832238e-07 4.63479e-05 2.2123868e-05 4.423562e-05 9.479197e-05
3.475953e-05 1.4542811e-05 1.910712e-05 8.8543435e-05 7.416772e-08 4.741844e-05 3.2866617e-05 5.3558942e-05
1.7425195e-05 2.125307e-05 1.5126186e-06 1.3143826e-06 7.9917714e-05 5.7893907e-05 3.3816214e-05 1.6244155e-06
00000000: 1a3a 3d37 2251 7337 7f7f 8137 6812 a638
00000010: 5240 c537 731c 6836 ad8b 1433 9bd3 0139
00000020: 0c90 0838 490c 7038 7070 0138 7b24 dd36
00000030: a978 2d33 2872 b738 ff0b 3737 54a9 b038
00000040: 36a0 5736 7501 2a38 5310 3837 d2f0 6036
00000050: 936d e937 597c 8a39 daa4 3033 6a9f 0a39
00000060: d297 4a36 61ab 5139 84d1 5837 1039 a431
00000070: e13a 8937 40c3 cc37 e0d5 4638 5a80 0932
00000080: 6683 a637 c643 5636 5343 f738 973a e737
00000090: 804c aa33 b533 d737 87b9 f538 e654 3535
000000a0: 65cb 2c38 524e fb37 497a 0e37 04b1 2338
000000b0: 9f71 db37 536c c237 5849 f936 dc27 b537
000000c0: 5bbb 3535 ac8a b238 925e 6d38 b872 ce38
000000d0: ab29 c837 b3f9 c337 0d1a a237 e20f 7336
000000e0: 054b ff36 fe6d bc35 5e7b cd36 8711 7e38
000000f0: 5156 1535 0fdf 0b39 a41a 7038 49b7 f234
00000100: f0df a937 6c13 6637 07ae 2838 d9d6 b336
00000110: e4b7 1039 5193 a737 664d a638 ceb5 3d35
00000120: 3568 8736 0fd1 1139 ec31 8334 87fb 3c32
00000130: d630 7637 f6a5 0639 41a2 2b38 6863 7c38
00000140: 3ebe 0036 c034 3333 7bf4 f737 c68e 3a37
00000150: f8bf db36 186d 4b38 e23d 7038 f23e 0f39
00000160: 4add 4838 fb82 9638 84fb 5934 1269 af38
00000170: 5d0f 1d2f 8fe1 1f39 3d44 0c37 c90c 1d35
00000180: a7b1 c434 77dd 1d38 d81a 7936 79d2 3a34
00000190: 200f 8138 a88c 2e38 e9f8 8d35 a0c8 f337
000001a0: 3a48 8039 5036 1f39 1f78 3a37 ad16 6d35
000001b0: ae65 4238 a596 b937 a389 3938 0dcb c638
000001c0: c3ca 1138 e6fc 7337 3a48 a037 65b0 b938
000001d0: 2346 9f33 2ae3 4638 43da 0938 7aa4 6038
000001e0: 522c 9237 9f48 b237 2e05 cb35 d869 b035
000001f0: 7f99 a738 1cd3 7238 e2d5 0d38 7e06 da35
