GameAI3/Config/results/dwarf_2/Dwarf/Dwarf-33024.pt (torch, 555487 bytes, 36 tensors)

network_body._body_endoder.seq_layers.0.weight f4 [128, 44]
0.024428895 -0.07416898 -0.036878258 0.038772643 0.09891221 0.07808404 0.16382056 0.027994798
0.11828089 0.026833551 0.06595839 0.035600048 0.03232493 -0.18919341 0.10473763 -0.020780295
-0.12934175 -0.001710916 -0.070075385 0.17083311 -0.42906666 0.07246694 -0.11222759 0.28757212
-0.10182616 -0.23357807 -0.002453042 -0.03898408 0.061891504 -0.22528993 0.0817158 0.013038528
0.245573 0.14596848 -0.14803797 0.08035365 0.01048939 -0.10532988 -0.14380965 -0.23544893
0.045716997 0.11904323 -0.4970506 0.16027458 0.058861922 0.09637659 0.12573439 0.20633972
0.07936093 -0.1167584 -0.41401675 -0.13490579 0.036900308 0.11800285 -0.18874218 0.36923215
0.23488545 -0.02624544 0.012330112 0.008363024 -0.38425085 -0.024735864 -0.06302465 -0.16982956
-0.3649639 0.078646034 0.12481351 0.04687498 0.09840315 -0.07524043 -0.39472035 -0.10367969
0.03207431 -7.382643e-05 -0.15781991 0.04541636 0.057350054 0.08906969 -0.16279176 -0.17089318
0.12774271 -0.07185463 0.21101932 0.16392379 -0.026945528 0.0843272 0.20441249 0.040439993
0.32475582 0.12244921 -0.12270551 0.040869445 -0.15429276 -0.2946089 0.22413965 0.2433293
0.028815402 -0.016387252 0.030291837 0.062760845 0.200676 0.0714997 0.042936236 0.068455055
0.04111836 -0.045564562 0.09408942 0.055749804 0.0124496855 0.12372642 0.3061797 0.08360458
0.050015382 0.39612848 -0.046898585 -0.20717348 0.11252021 0.0008280989 0.060703825 0.20457792
0.13605449 -0.084268436 0.10295993 -0.13990715 -0.18706518 0.27880913 0.19311094 0.058291078
-0.14806592 -0.13993585 0.44085753 0.18702024 -0.12709385 0.026642622 0.30069527 -0.08330366
0.15818885 0.04561902 0.019906828 -0.35072118 0.11933036 0.005993912 0.23594984 -0.04823875
0.026440589 -0.02201613 -0.028975235 0.09287276 0.13050227 -0.21884471 -0.03362543 -0.36939973
-0.030076316 -0.092661075 -0.139741 0.0077222753 0.19374287 -0.15546179 -0.017864985 -0.11391259
-0.049915902 -0.028713128 0.023419917 -0.22751181 -0.044614818 -0.18291046 0.024297036 -0.14883296
-0.39614338 -0.0896486 -0.23788622 -0.13060528 0.110502794 -0.112685524 -0.19877607 0.11765675
0.11827733 -0.068689466 -0.22320825 -0.16917199 -0.12849368 0.20566955 0.061043583 -0.17604741
0.17010282 0.025469102 0.00021364393 -0.1578495 -0.08118218 -0.10516462 -0.0919721 -0.015086829
-0.00011520182 -0.08014247 -0.16858621 -0.026583424 -0.071121864 0.015894534 0.12729813 -0.11612347
-0.2290102 -0.13464276 0.16779725 -0.20167208 0.1094227 0.09259879 -0.06580412 -0.058087498
0.08680227 0.23014486 -0.08923901 -0.026677152 0.09280386 0.15052424 0.03535468 0.04967302
0.09630192 0.04072876 -0.06952178 -0.056701366 0.23242927 -0.31162706 0.17173652 0.090394765
0.25537604 -0.2230943 0.12278181 -0.13378944 -0.19043955 0.07138602 0.20320486 0.11998879
0.16886756 0.27712497 0.07740484 -0.23384538 0.09083954 0.05252693 0.019193167 0.056185745
0.1901243 0.037973322 -0.08367433 -0.13474531 0.07338721 -0.18855578 -0.31066996 -0.13663213
0.1063769 -0.3261891 -0.13202302 -0.061513 -0.16754584 0.18308388 0.090210244 -0.050268173
00000000: 1b1f c83c e8e5 97bd a80d 17bd 10d0 1e3d
00000010: 7c92 ca3d 86ea 9f3d 94c0 273e 5955 e53c
00000020: 403d f23d 09d2 db3c 3115 873d 5bd1 113d
00000030: 2567 043d ebbb 41be af80 d63d 703b aabc
00000040: 2a72 04be d140 e0ba af83 8fbd e0ee 2e3e
00000050: a0ae dbbe 8c69 943d 94d7 e5bd a73c 933e
00000060: 3c8a d0bd 172f 6fbe 37c3 20bb c5ad 1fbd
00000070: f281 7d3d 67b2 66be 9d5a a73d 8d9f 553c
00000080: 7d77 7b3e c378 153e 4497 17be 7490 a43d
00000090: b1db 2b3c 31b7 d7bd d642 13be 8619 71be
000000a0: bf41 3b3d f0cc f33d 6b7d febe 051f 243e
000000b0: 3319 713d 1761 c53d 84c0 003e b84a 533e
000000c0: fc87 a23d 071f efbd 01fa d3be be24 0abe
000000d0: c724 173d 7aab f13d a145 41be ff0b bd3e
000000e0: d085 703e ad00 d7bc 3d04 4a3c 1105 093c
000000f0: 87bc c4be dea2 cabc 1113 81bd cde7 2dbe
00000100: 8cdc babe 2c11 a13d 3a9e ff3d fbff 3f3d
00000110: 9787 c93d a817 9abd c918 cabe 0456 d4bd
00000120: 5a60 033d 43d3 9ab8 8b9b 21be 8106 3a3d
00000130: e4e7 6a3d 2b6a b63d e2b2 26be 9ffe 2ebe
00000140: fcce 023e 8528 93bd 7315 583e a3db 273e
00000150: debc dcbc bdb3 ac3d 8251 513e 68a4 253d
00000160: 6546 a63e a7c6 fa3d 074d fbbd b866 273d
00000170: ecfe 1dbe fad6 96be dd84 653e 512b 793e
00000180: 470e ec3c 8f3e 86bc 9626 f83c c288 803d
00000190: 027e 4d3e 6f6e 923d e8dd 2f3d 2a32 8c3d
000001a0: ba6b 283d e8a1 3abd f4b1 c03d e859 643d
000001b0: c4f9 4b3c 4764 fd3d 96c3 9c3e e138 ab3d
000001c0: eedc 4c3d 5ad1 ca3e bb18 40bd 4925 54be
000001d0: ff70 e63d c714 593a 93a4 783d e07c 513e
000001e0: de51 0b3e ee94 acbd a8dc d23d d243 0fbe
000001f0: 048e 3fbe 12c0 8e3e e0be 453e a0c2 6e3d
00000200: 989e 17be 584b 0fbe 14b8 e13e 3c82 3f3e
00000210: e424 02be a141 da3c bbf4 993e 1c9b aabd
00000220: 42fc 213e 02db 3a3d a513 a33c ba91 b3be
00000230: 7a63 f43d 9468 c43b d69c 713e ff95 45bd
00000240: ef99 d83c 2c5b b4bc 795d edbc 1334 be3d
00000250: 63a2 053e d418 60be d2ba 09bd f621 bdbe
00000260: 9b62 f6bc 17c5 bdbd 4418 0fbe 240b fd3b
00000270: 8864 463e 6031 1fbe 9759 92bc 014b e9bd
00000280: 9e74 4cbd cb37 ebbc 20db bf3c dbf8 68be
00000290: 07be 36bd e14c 3bbe 940a c73c ab67 18be
000002a0: 4ed3 cabe af99 b7bd 7298 73be 64bd 05be
000002b0: 4a4f e23d abc7 e6bd f48b 4bbe 06f6 f03d
000002c0: 633b f23d 10ad 8cbd b490 64be 6c3b 2dbe
000002d0: d993 03be 0a9b 523e d608 7a3d c645 34be
000002e0: 6f2f 2e3e 94a4 d03c 9b05 6039 4da3 21be
000002f0: d842 a6bd 8c60 d7bd de5b bcbd bf2e 77bc
00000300: 8298 f1b8 bc21 a4bd dda1 2cbe 7bc5 d9bc
00000310: 57a8 91bd 4135 823c 715a 023e 24d2 edbd
00000320: a681 6abe cbdf 09be 0bd3 2b3e 2083 4ebe
00000330: 0219 e03d 6fa4 bd3d 4fc4 86bd 28ed 6dbd
00000340: 63c5 b13d 18ab 6b3e f1c2 b6bd 0b8a dabc
00000350: f30f be3d 0723 1a3e 12d0 103d f075 4b3d
00000360: f139 c53d 33d3 263d 6f61 8ebd b13f 68bd
00000370: f001 6e3e 958d 9fbe b3db 2f3e e420 b93d
00000380: a6c0 823e d572 64be 0875 fb3d 1900 09be
00000390: 9602 43be d532 923d ef14 503e afbc f53d
000003a0: 9eeb 2c3e 53e3 8d3e 6e86 9e3d 2a75 6fbe
000003b0: 150a ba3d 7a26 573d fd3a 9d3c 0623 663d
000003c0: f2af 423e ea89 1b3d 725d abbd adfa 09be
000003d0: 094c 963d c414 41be 2210 9fbe 4be9 0bbe
000003e0: 22dc d93d 4202 a7be 0b31 07be 0ef5 7bbd
000003f0: 2391 2bbe 577a 3b3e 26c0 b83d 00e6 4dbd

network_body._body_endoder.seq_layers.0.bias f4 [128]
0.018735873 -0.020549556 -0.0055875354 -0.025125813 -0.0049951673 -0.011256302 -0.07524373 -0.024168134
-0.043513484 -0.0045431806 -0.015264891 0.023469428 0.01960254 -0.017372368 0.0009890118 -0.005487498
-0.002333128 0.010019746 -0.027174411 -0.052737504 -0.02885262 -0.002541752 -0.0028550713 -0.017366454
-0.040182374 -0.021339966 -0.0635939 -0.03110214 -0.015602486 -0.056275506 -0.029029451 0.008696648
-0.024731215 -0.030738741 -0.0067368886 -0.011789471 -0.018002318 0.00067733566 -0.017809613 0.010217286
-0.024877349 0.0010836029 0.010964947 -0.03522093 -0.088449985 -0.037547693 0.0044096094 0.0021231852
-0.029281786 -0.012220599 0.01399192 -0.029651577 0.030884158 -0.014872135 0.001158586 -0.059169214
0.006791037 -0.0480422 -0.0062895133 -0.037644364 -0.005409872 0.0010616239 -0.006568838 -0.025582703
-0.02704038 -7.538623e-05 -0.03141045 -0.00950395 -0.0030720935 -0.028069822 0.015201252 -0.028829841
-0.00640575 -0.024276124 -0.016807852 -0.00790237 -0.028274514 -0.015843788 0.002495614 -0.039886847
0.020811262 -0.014831212 -0.007979879 -0.015457055 -0.012732679 -0.0047747 0.013651217 0.008478966
0.003917887 0.045995757 -0.016451973 -0.057150826 -0.010563085 -0.019619493 -0.016425539 -0.027458647
0.024848863 -0.041321617 -0.011015101 0.0019659004 -0.025833167 -0.03539146 0.03582008 -0.0023919186
-0.0075294934 -0.014997698 -0.0064211627 -0.013242808 -0.012834366 -0.016832605 -0.03906307 -0.019690953
0.03282441 -0.030782357 -0.00048995565 -0.03166376 -0.016550625 0.025484908 -0.035434365 0.0034054318
0.008962449 0.0035922935 -0.031467307 -0.033027515 -0.012647916 -0.01664376 -0.020438693 -0.014405712
00000000: f97b 993c 8b57 a8bc a517 b7bb a6d4 cdbc
00000010: 80ae a3bb 5a6c 38bc 6219 9abd 40fc c5bc
00000020: 323b 32bd f6de 94bb 9819 7abc f542 c03c
00000030: 8295 a03c 7f50 8ebc bba1 813a 78d0 b3bb
00000040: 64e7 18bb dc29 243c df9c debc 4803 58bd
00000050: 545c ecbc 8693 26bb 261c 3bbb 1844 8ebc
00000060: 4696 24bd 27d1 aebc 853d 82bd eac9 febc
00000070: 92a1 7fbc 2581 66bd 2ccf edbc 637c 0e3c
00000080: 1e99 cabc d0cf fbbc 1ec1 dcbb a028 41bc
00000090: 9979 93bc 3a8f 313a 77e5 91bc 6766 273c
000000a0: 95cb cbbc ae07 8e3a 52a6 333c d243 10bd
000000b0: 4425 b5bd 9ccb 19bd 7c7e 903b 2325 0b3b
000000c0: 5be0 efbc e838 48bc 5e3e 653c dde7 f2bc
000000d0: c600 fd3c 41aa 73bc b2db 973a 6b5b 72bd
000000e0: 5987 de3b e6c7 44bd 4318 cebb fa30 1abd
000000f0: 4c45 b1bb 3026 8b3a 683f d7bb d192 d1bc
00000100: c983 ddbc ad18 9eb8 3ea8 00bd 75b6 1bbc
00000110: 2d55 49bb aff2 e5bc ac0e 793c 8f2c ecbc
00000120: 53e7 d1bb b9de c6bc 9fb0 89bc f178 01bc
00000130: f49f e7bc d5ca 81bc 758d 233b 6460 23bd
00000140: 617c aa3c 9dfe 72bc 0abe 02bc 963f 7dbc
00000150: ba9c 50bc 1675 9cbb 5ba9 5f3c 5ceb 0a3c
00000160: 9e61 803b 0c66 3c3d 4ac6 86bc fc16 6abd
00000170: ca10 2dbc 0fb9 a0bc da8e 86bc f5f0 e0bc
00000180: d88f cb3c db40 29bd af78 34bc 56d6 003b
00000190: 14a0 d3bc a3f6 10bd 14b8 123d bcc1 1cbb
000001a0: f8b9 f6bb e8b8 75bc 9e68 d2bb 5df8 58bc
000001b0: 3c47 52bc 88e4 89bc 9900 20bd ec4e a1bc
000001c0: e372 063d 482b fcbc 5e70 00ba dcb1 01bd
000001d0: 2d95 87bc bac5 d03c a023 11bd aa2d 5f3b
000001e0: 3cd7 123c af6c 6b3b dde3 00bd dc47 07bd
000001f0: 3439 4fbc 7f58 88bc 0c6f a7bc ef05 6cbc

network_body._body_endoder.seq_layers.2.weight f4 [128, 128]
-0.053252757 0.047600806 -0.031239165 0.008891499 -0.13766898 -0.10893726 0.21907946 0.064424075
0.16774026 -0.024311887 -0.117829785 0.07605673 -0.029319104 0.059280343 -0.051920403 -0.13914582
-0.116425574 -0.17621103 -0.1790163 -0.15348132 0.13311045 0.005703879 -0.017806277 0.030683793
0.058368165 -0.10822345 0.03167642 -0.09002398 -0.0099496385 0.031125102 0.11246547 0.07450053
-0.040653672 -0.0017096081 0.14246686 -0.08882702 -0.0035244299 -0.039336905 -0.021983342 0.14239168
0.13926463 0.014757577 0.24777581 -0.10180906 0.16830225 0.0361114 0.06595012 0.0124213165
0.04254638 -0.11117285 0.024440955 -0.14356126 -0.09020205 -0.050125726 -0.02521702 -0.03910078
-0.025903467 0.17092726 0.059065454 0.06687986 0.04237347 -0.05673243 0.020678837 -0.010277317
-0.04606505 -0.09012153 0.057222027 -0.021664597 0.029116934 -0.032190297 -0.04754923 -0.030656056
-0.07179703 0.11123508 0.052782424 0.1017356 0.09968332 -0.09378564 0.1512506 -0.048214685
-0.01805396 0.024033953 0.18639635 0.045189787 -0.07773757 -0.012114578 0.075687155 0.07382992
-0.15436418 -0.21407852 -0.0770021 0.039418884 0.0033531408 0.12878409 0.036837697 0.002477548
-0.12403281 0.0702069 -0.0266875 0.0573453 -0.014453161 -0.06063526 -0.15622216 0.07903776
0.07482889 -0.02940794 -0.11310514 0.0048090527 -0.020097494 0.03077148 0.033330314 -0.00028833176
0.034920067 -0.18498562 -0.022984706 -0.027037436 -0.20574751 -0.054703727 -0.007171535 0.060481105
-0.06187119 0.029714253 0.07893023 0.051253896 0.012768741 -0.05476333 0.27588332 0.031419266
-0.11926024 0.02802432 -0.08030639 0.0124970805 -0.09579453 -0.1752114 -0.007650453 0.06575144
-0.010184326 -0.123110965 0.0075903097 -0.1354532 -0.016362105 0.031893246 0.03400179 -0.017691437
0.08510824 0.030672444 0.19634731 -0.041757528 0.080772474 0.08653806 0.041995484 -0.03941295
-0.005617665 -0.09245273 0.0752342 -0.0069700144 0.057235666 -0.02553712 0.12581879 0.010390483
-0.09249857 0.12664747 0.018174866 -0.09595033 -0.03943433 0.13778897 -0.1276042 -0.119546205
-0.032454915 0.085900865 0.01415632 -0.03519454 -0.10868091 -0.08540084 0.015438363 0.06591789
-0.16190745 -0.1072548 -0.11433919 0.08122813 0.027822582 0.01972281 -0.0051154494 -0.11911538
-0.019297315 -0.003519245 -0.11420163 0.024771811 0.037064556 -0.15955743 0.005480972 0.07372953
-0.11545735 0.011296686 -0.122813106 0.058436003 -0.08387204 0.12243447 0.088097066 0.04341506
0.08855318 0.08570048 -0.070981696 -0.11753483 -0.07762145 0.024347948 0.044820443 0.04768224
0.082529604 0.018818123 0.1737517 0.11478411 -0.027903385 0.0793726 0.16329056 -0.056059726
0.21630037 0.14354095 0.18257679 -0.10242881 0.036969803 0.062796555 -0.055441443 0.029876089
0.06738375 0.00868674 -0.20861422 0.100325845 0.06815283 -0.011163595 -0.020765696 0.034449156
-0.10014099 -0.15901464 -0.18465053 0.0016341497 -0.031053599 -0.08971647 -0.11247121 -0.028273448
0.09274335 -0.0010192142 -0.24312557 -0.04525697 -0.048955277 0.014873009 0.020430489 0.11879077
-0.20230389 0.11445509 -0.09730547 -0.19758447 -0.0069830194 -0.051172536 -0.12287937 -0.058286414
00000000: 901f 5abd 10f9 423d 47e9 ffbc a6ad 113c
00000010: 19f9 0cbe 801a dfbd 5e56 603e c5f0 833d
00000020: 1ac4 2b3e b929 c7bc be50 f1bd a1c3 9b3d
00000030: 9e2e f0bc f2cf 723d 7daa 54bd 3e7c 0ebe
00000040: 8870 eebd aa70 34be 0d50 37be 352a 1dbe
00000050: 1b4e 083e 9be7 ba3b 78de 91bc 945c fb3c
00000060: 7513 6f3d 42a4 ddbd 22bf 013d 7e5e b8bd
00000070: cf03 23bc 12fa fe3c 4c54 e63d bc93 983d
00000080: 7784 26bd ee14 e0ba d5e2 113e f1ea b5bd
00000090: 1ffa 66bb bc1f 21bd 6916 b4bc 20cf 113e
000000a0: 639b 0e3e c4c9 713c f1b8 7d3e 4581 d0bd
000000b0: 6d57 2c3e 8ce9 133d db10 873d c782 4b3c
000000c0: 1d45 2e3d 97ae e3bd 6638 c83c b901 13be
000000d0: dabb b8bd a250 4dbd ed93 cebc 2428 20bd
000000e0: 8233 d4bc 8e07 2f3e 9eee 713d 4ff8 883d
000000f0: ce8f 2d3d 4460 68bd aa66 a93c 3162 28bc
00000100: b5ae 3cbd a391 b8bd a561 6a3d f479 b1bc
00000110: a386 ee3c f9d9 03bd fbc2 42bd 6922 fbbc
00000120: 520a 93bd 38cf e33d 6232 583d c15a d03d
00000130: c526 cc3d b012 c0bd 70e1 1a3e c37c 45bd
00000140: e6e5 93bc dae2 c43c afde 3e3e ed18 393d
00000150: e034 9fbd 397c 46bc de01 9b3d 2434 973d
00000160: a511 1ebe 6637 5bbe 47b3 9dbd b275 213d
00000170: 5ec0 5b3b fadf 033e 20e3 163d 5c5e 223b
00000180: ea04 febd a3c8 8f3d be9f dabc e8e2 6a3d
00000190: f3cc 6cbc ae5c 78bd b4f8 1fbe 8dde a13d
000001a0: e43f 993d ece8 f0bc aba3 e7bd 4295 9d3b
000001b0: 80a3 a4bc 7914 fc3c 5e85 083d 3c2b 97b9
000001c0: 5808 0f3d df6c 3dbe 6c4a bcbc 9d7d ddbc
000001d0: 7aaf 52be 0411 60bd 32ff eabb 09bb 773d
000001e0: a56c 7dbd 4e6b f33c 2ca6 a13d 9bef 513d
000001f0: fb33 513c 834f 60bd 9440 8d3e 7db1 003d
00000200: b63e f4bd 4293 e53c ad77 a4bd 8ec0 4c3c
00000210: ec2f c4bd 9e6a 33be a7b0 fabb b1a8 863d
00000220: 29dc 26bc 9a21 fcbd 22b8 f83b 3eb4 0abe
00000230: d209 86bc 7ea2 023d 7645 0b3d a2ed 90bc
00000240: 3b4d ae3d c744 fb3c 450f 493e f109 2bbd
00000250: 0a6c a53d de3a b13d 7503 2c3d 796f 21bd
00000260: 6414 b8bb db57 bdbd 6314 9a3d b864 e4bb
00000270: f26f 6a3d 3933 d1bc a4d6 003e d83c 2a3c
00000280: e46f bdbd e0af 013e 75e3 943c 9b81 c4bd
00000290: e485 21bd 8d18 0d3e adaa 02be a4d4 f4bd
000002a0: 72ef 04bd cbec af3d e9ef 673c 2628 10bd
000002b0: 1994 debd a3e6 aebd 30f1 7c3c f5ff 863d
000002c0: 11cb 25be 68a8 dbbd aa2a eabd ef5a a63d
000002d0: 2fec e33c bb91 a13c 809f a7bb c4f2 f3bd
000002e0: 6715 9ebc 22a3 66bb 8be2 e9bd 41ee ca3c
000002f0: 01d1 173d 0663 23be ba99 b33b 82ff 963d
00000300: e774 ecbd bc15 393c 7085 fbbd 975a 6f3d
00000310: 1bc5 abbd ecbe fa3d 3c6c b43d fdd3 313d
00000320: 5f5b b53d bc83 af3d da5e 91bd 1ab6 f0bd
00000330: fff7 9ebd 5975 c73c a495 373d 744e 433d
00000340: 4805 a93d 7728 9a3c f7eb 313e ee13 eb3d
00000350: a495 e4bc 1a8e a23d a435 273e e29e 65bd
00000360: d87d 5d3e 66fc 123e 69f5 3a3e 32c6 d1bd
00000370: a66d 173d 7b9b 803d 9116 63bd b3be f43c
00000380: 7e00 8a3d d452 0e3c f79e 55be a377 cd3d
00000390: b693 8b3d 83e7 36bc d21c aabc 8f1a 0d3d
000003a0: b816 cdbd bcd4 22be 0715 3dbe f730 d63a
000003b0: 1e64 febc 45bd b7bd 4e57 e6bd b89d e7bc
000003c0: 3af0 bd3d 2797 85ba e9f5 78be 5f5f 39bd
000003d0: 5485 48bd ecad 733c d75d a73c 9348 f33d
000003e0: c028 4fbe 6e67 ea3d 1748 c7bd 9553 4abe
000003f0: d0d1 e4bb 4b9a 51bd 2ea8 fbbd bcbd 6ebd

network_body._body_endoder.seq_layers.2.bias f4 [128]
-0.008958398 -0.005859443 -0.00919317 -0.0236613 -0.01581988 -0.0071190023 -0.01780349 -0.012833857
-0.0104080485 -0.012792962 -0.039843682 -0.042012878 -0.02430821 0.016007049 -0.022993041 -0.0105487695
-0.021070952 0.011679482 -0.04005983 -0.043936383 -0.017067958 -0.013715823 -0.02434309 -0.0064526326
0.0024799502 -0.018341217 -0.025609074 -0.046427887 -0.047304146 -0.03677825 -0.007844057 -0.0039781644
-0.03593915 -0.014364258 -0.0042139622 -0.0058288756 -0.0663197 -0.010368571 -0.04454257 0.0019457547
-0.03178303 -0.026370523 -0.0064491387 0.022036372 -0.01375233 0.0086131375 -0.019835657 -0.0043253154
-0.02819046 -0.015861478 0.0049758893 -0.030035261 -0.044216212 -0.016312402 -0.0049812756 -0.012779472
0.00316529 0.0075282264 0.026397329 -0.034941018 -0.01355256 -0.05556283 -0.016951349 -0.0430494
-0.017146261 -0.007865656 -0.016714748 0.0024057059 -0.008616835 -0.019026633 -0.008848138 -0.01407464
-0.029698117 -0.019289194 -0.036981206 -0.011604275 0.0005266011 0.01597928 0.021556595 0.00054880977
-0.024949905 -0.028904509 -0.044953167 -0.0010537093 -0.0425347 0.002816663 -0.042386517 0.017969292
0.0052398117 -0.0067071985 0.020007754 -0.026677513 -0.04123902 -0.007164221 -0.03185467 -0.012310831
-0.015111512 -0.01240537 -0.012565709 -0.063865356 -0.03743443 -0.008253866 -0.011269189 -0.031176964
0.003845449 -0.0013607463 -0.004480194 -0.015963346 -0.017842313 -0.04446419 -0.04551327 -0.008621707
-0.033104196 -0.011229083 -0.03562107 -0.021025525 -0.014210267 0.0154255 -0.07662986 -0.015621902
-0.011094809 -0.013794596 -0.027415851 -0.025077859 -0.017262656 -0.014017363 -0.011853742 -0.017424094
00000000: 3fc6 12bc 9200 c0bb f39e 16bc 58d5 c1bc
00000010: b198 81bc 8546 e9bb a0d8 91bc 1945 52bc
00000020: 8586 2abc 9299 51bc 2133 23bd b215 2cbd
00000030: 0322 c7bc 3721 833c e75b bcbc bfd4 2cbc
00000040: fd9c acbc 4c5b 3f3c c715 24bd a3f6 33bd
00000050: 1ad2 8bbc 55b8 60bc 296b c7bc 9b70 d3bb
00000060: a986 223b 5240 96bc 1fca d1bc 2b2b 3ebd
00000070: fec1 41bd caa4 16bd 5c84 00bc 435b 82bb
00000080: ee34 13bd 1158 6bbc 4715 8abb 2700 bfbb
00000090: 9fd2 87bd f0e0 29bc 4572 36bd b208 ff3a
000000a0: ec2e 02bd ff06 d8bc 4c53 d3bb 9f85 b43c
000000b0: 7451 61bc 1e1e 0d3c 637e a2bc 60bb 8dbb
000000c0: aeef e6bc eeef 81bc c90c a33b 820c f6bc
000000d0: 0f1c 35bd 96a1 85bc f839 a3bb fe60 51bc
000000e0: c170 4f3b 57af f63b 363f d83c 501e 0fbd
000000f0: 8e0b 5ebc da95 63bd 8edd 8abc 9154 30bd
00000100: 5176 8cbc f4de 00bc 5eed 88bc 0ca9 1d3b
00000110: a02d 0dbc bedd 9bbc c8f7 10bc 5299 66bc
00000120: 7749 f3bc 5f04 9ebc 9b79 17bd db1f 3ebc
00000130: 9a0b 0a3a fbe6 823c 7597 b03c 00de 0f3a
00000140: be63 ccbc 26c9 ecbc d020 38bd 9e1c 8aba
00000150: de38 2ebd c397 383b 7c9d 2dbd 5634 933c
00000160: bab2 ab3b 0fc8 dbbb 4de7 a33c cd8a dabc
00000170: 3fea 28bd d7c1 eabb 0b7a 02bd 5eb3 49bc
00000180: 4696 77bc e53f 4bbc 67e0 4dbc d7cb 82bd
00000190: d854 19bd 393b 07bc 68a2 38bc d566 ffbc
000001a0: ee03 7c3b 125b b2ba 97ce 92bb 90c5 82bc
000001b0: 0b2a 92bc 1520 36bd 1f6c 3abd 0f42 0dbc
000001c0: 4498 07bd 30fa 37bc 66e7 11bd b93d acbc
000001d0: 2ed2 68bc 3dbb 7c3c 1ef0 9cbd 02f3 7fbc
000001e0: 00c7 35bc bb02 62bc 3597 e0bc 1570 cdbc
000001f0: 6a6a 8dbc 15a9 65bc 3336 42bc f9bc 8ebc

action_model._continuous_distribution.log_sigma f4 [1, 2]
-0.122402295 -0.13272272
00000000: 0eae fabd 77e8 07be

action_model._continuous_distribution.mu.weight f4 [2, 128]
-0.0044813766 -0.0025000863 0.027893623 -0.002371781 -0.0028613538 -0.001335053 0.0164411 -0.007559082
0.016681822 0.0021509104 0.002321741 -0.00012629668 -0.006347393 0.038603526 -0.0032057692 -0.008588504
0.0050720433 0.010120384 0.0013724235 0.00030504988 -0.021942576 -0.012399345 -0.0061980435 -0.00921275
-0.006954586 -0.0028046323 -0.0072531323 0.00850561 -0.0021368517 0.0034274978 -0.025121799 0.010629603
0.007227017 0.002551495 0.0038733457 -0.003240145 0.0017315529 0.010087855 -4.4281172e-05 -0.008320186
0.00026364316 -0.0035398854 0.013394543 -0.006607255 -0.008422032 0.0013964473 -0.0070600365 0.012081029
0.011604337 0.0009280738 -0.015803257 0.0012212099 -0.003796692 0.0052895234 0.008664172 -0.0019398907
0.029801302 0.0118616205 0.011222867 0.0043146266 -0.027296364 0.0031796736 0.0022064706 -0.0020589624
0.007482718 -0.010209077 0.026898343 -0.007860613 0.007577806 0.0024585945 -0.009878507 -0.030968877
-0.0018537514 -0.0040331637 0.001041029 -0.01037669 0.002057628 -0.006730451 0.0013135318 0.019473951
0.01347311 8.409745e-05 -0.0019271007 -0.009069525 0.002769402 0.007815069 0.0018812005 0.018304298
-0.028072262 -0.006855389 -0.013726642 -0.00077081134 0.0034488388 0.01580481 -0.0026016778 0.0035018334
-0.007326758 -0.0051038093 0.012942887 -0.005032704 -0.0017348754 -0.025014708 0.0057681873 0.0014460685
0.032708984 0.00311493 0.021720128 0.005311535 0.0014349092 -0.0038942285 0.00085647014 0.0024945838
-0.002303002 0.0074995467 0.0022168942 -0.011799568 0.011919724 0.003635162 0.0012342415 0.0074575096
-0.022021461 -0.016707845 0.03696856 -0.008191661 -0.010954681 0.00095737143 0.014986088 -0.0012271442
0.037528668 0.010711031 0.041145664 0.029583441 0.025930678 -0.026016748 0.016727738 0.036848404
0.03770897 0.036500193 0.006935887 0.016784158 0.018512644 -0.00032406882 0.014033018 0.031783473
-0.009554737 -0.0035243297 0.0063763773 0.016395345 0.0075710164 0.010058026 0.016421529 0.0011798361
-0.032124475 0.0043878863 -1.1352533e-05 0.003435894 0.009163709 0.0077246227 0.019361282 0.0063438737
0.015124636 -0.0016724026 0.006742166 -0.0039368332 0.012129783 0.0030190924 0.013231807 0.0008488972
0.018897345 0.012836399 -0.00957451 0.055921014 -0.013986262 0.042158052 0.007862256 0.029678928
0.03211507 0.018484317 -0.037201855 0.014017492 -0.00012734818 0.016159398 0.003947904 0.014844013
0.0070625134 -0.021756487 -0.0494718 0.017152525 0.02092125 0.013119325 0.01921457 0.0033887976
0.001576313 -0.00020941457 -0.012331245 0.03602845 -0.00073587155 0.03196432 -0.0006168548 0.036121823
0.021105591 0.012778791 0.021814693 -0.0050047305 0.0057908553 -0.052507173 -0.02771495 0.00083588273
0.0132710375 0.023462474 0.009644892 -0.020090237 0.004642174 -0.0122697875 0.014278125 0.016381025
0.027596548 0.011446166 -0.055001687 0.020454798 0.016765831 0.0022455407 0.022357387 -0.007062772
0.009301023 0.00048718724 0.011047481 0.009583702 0.018697718 0.057108913 0.024211511 0.018603655
0.057765882 0.005165057 0.022640808 0.04012684 -0.006096706 0.0007764258 0.009674805 -0.015759736
0.00410391 -0.008702352 0.016542865 0.006987044 0.023216754 -0.047723476 0.007159682 0.0027223541
-0.0009455511 0.03480629 -0.007421745 0.020593956 0.01910356 0.0020000567 0.024241382 -0.0038707126
00000000: 83d8 92bb 7dd8 23bb 2b81 e43c e26f 1bbb
00000010: 8d85 3bbb f2fc aeba 7caf 863c 2db2 f7bb
00000020: 51a8 883c 4af6 0c3b 5a28 183b 826e 04b9
00000030: cbfd cfbb bb1e 1e3d e217 52bb ccb6 0cbc
00000040: 6233 a63b f8cf 253c e4e2 b33a 1aef 9f39
00000050: ebc0 b3bc 9f26 4bbc f518 cbbb 13f1 16bc
00000060: 4ce3 e3bb eccd 37bb afab edbb 1d5b 0b3c
00000070: 6c0a 0cbb df9f 603b 3bcc cdbc c927 2e3c
00000080: 9dd0 ec3b fc36 273b f5d7 7d3b 9d58 54bb
00000090: 46f5 e23a 8847 253c 8cba 39b8 6451 08bc
000000a0: 9639 8a39 6cfd 67bb c974 5b3c ac81 d8bb
000000b0: 90fc 09bc ff08 b73a e157 e7bb 82ef 453c
000000c0: 1e20 3e3c fa49 733a d575 81bc 0111 a03a
000000d0: ecd1 78bb bd53 ad3b 2cf4 0d3c ee43 feba
000000e0: dc21 f43c 3e57 423c 1ee0 373c b661 8d3b
000000f0: a09c dfbc 1262 503b 6f9a 103b a8ef 06bb
00000100: 9731 f53b f943 27bc ea59 dc3c cdc9 00bc
00000110: 3e4f f83b 5f20 213b 76d9 21bc 71b2 fdbc
00000120: 93f9 f2ba a128 84bb 2373 883a fe02 2abc
00000130: 45d9 063b 1d8b dcbb d02a ac3a d687 9f3c
00000140: 52be 5c3c 7a5d b038 c596 fcba 5898 14bc
00000150: db7e 353b c60a 003c 9d92 f63a e5f2 953c
00000160: cdf7 e5bc 2ca3 e0bb b6e5 60bc 4610 4aba
00000170: ea05 623b 1779 813c e980 2abb 047f 653b
00000180: 4d15 f0bb db3d a7bb 670e 543c 62e9 a4bb
00000190: c264 e3ba a5eb ccbc 1003 bd3b 028a bd3a
000001a0: dbf9 053d da23 4c3b 69ee b13c 630c ae3b
000001b0: 9013 bc3a 5036 7fbb bd84 603a 2c7c 233b
000001c0: f6ed 16bb c2be f53b 5049 113b fa52 41bc
000001d0: f24a 433c e63b 6e3b 46c6 a13a 205e f43b
000001e0: 5a66 b4bc e4de 88bc 586c 173d 5136 06bc
000001f0: 437b 33bc 1cf8 7a3a 3588 753c 20d8 a0ba
00000200: a9b7 193d 527d 2f3c 5b88 283d f958 f23c
00000210: 936c d43c 1321 d5bc 9c08 893c 5aee 163d
00000220: b974 1a3d 3a81 153d 7046 e33b ee7e 893c
00000230: d4a7 973c c8e7 a9b9 beea 653c 632f 023d
00000240: 798b 1cbc 71f8 66bb eef0 d03b 884f 863c
00000250: 4a16 f83b 6bca 243c 7186 863c bba4 9a3a
00000260: f494 03bd 42c8 8f3b c276 3eb7 bc2c 613b
00000270: 6223 163c d51e fd3b 8d9b 9e3c 45e0 cf3b
00000280: 52cd 773c 8534 dbba 63ed dc3b 8d00 81bb
00000290: ffbb 463c f7db 453b 39ca 583c 8788 5e3a
000002a0: 9bce 9a3c c24f 523c 68de 1cbc 6f0d 653d
000002b0: a226 65bc ecad 2c3d b1d0 003c 3921 f33c
000002c0: 178b 033d 6c6c 973c f960 18bd 9fa9 653c
000002d0: c488 05b9 b760 843c 6b5d 813b 4e34 733c
000002e0: a86c e73b a93a b2bc f1a2 4abd 7483 8c3c
000002f0: 0b63 ab3c 70f2 563c e067 9d3c 9716 5e3b
00000300: 4a9c ce3a 4c96 5bb9 fd08 4abc 9192 133d
00000310: 81e7 40ba 05ed 023d 6db4 21ba 7af4 133d
00000320: a2e5 ac3c 225e 513c bab4 b23c b9fe a3bb
00000330: 37c1 bd3b c311 57bd 760a e3bc 241f 5b3a
00000340: c46e 593c 6034 c03c 9c05 1e3c 4894 a4bc
00000350: 611d 983b 3807 49bc ccee 693c 8031 863c
00000360: 2812 e23c b388 3b3c 7349 61bd d290 a73c
00000370: 7f58 893c ec29 133b d726 b73c d36e e7bb
00000380: 5163 183c 2a6d ff39 7e00 353c f604 1d3c
00000390: f52b 993c 09eb 693d 3857 c63c b166 983c
000003a0: eb9b 6c3d a33f a93b 3779 b93c 0b5c 243d
000003b0: e0c6 c7bb 0e89 4b3a 1383 1e3c 901a 81bc
000003c0: 187a 863b 4f94 0ebc e784 873c 93f3 e43b
000003d0: 1031 be3c b179 43bd c49b ea3b 8669 323b
000003e0: dcde 77ba 0a91 0e3d 1c32 f3bb a8b4 a83c
000003f0: 127f 9c3c 6213 033b dd95 c63c c8ab 7dbb

action_model._continuous_distribution.mu.bias f4 [2]
-0.004975809 -0.025425013
00000000: 1c0c a3bb 1e48 d0bc

exp_avg f4 [128, 44]
-0.000174241 0.0 -1.0014337e-06 -1.3104882e-05 -0.00017701209 0.0 1.7695685e-06 -2.622078e-05
-0.00017688186 0.0 1.6394425e-06 -1.5613281e-05 -0.00012410826 0.0 -5.1134255e-05 -7.341661e-05
-0.00017788078 0.0 2.6383186e-06 -2.0361169e-05 8.157694e-05 0.0 -0.0002568194 -0.00024214911
-0.00016563096 0.0 -9.611497e-06 -2.1647073e-05 -2.8216506e-05 0.0 -0.00014702597 -0.00015298033
-0.00016243986 0.0 -1.2802606e-05 -2.7408638e-05 0.00084642106 -0.0027881071 -1.812644e-05 0.0009264619
0.0009843885 0.0 0.0014421071 -4.775264e-05 5.4558182e-05 0.0 3.2057204e-07 6.7447854e-06
5.5735796e-05 0.0 -8.5703687e-07 1.7963489e-06 5.24731e-05 0.0 2.40566e-06 1.1254917e-05
6.457552e-05 0.0 -9.696762e-06 -1.2554851e-06 5.252406e-05 0.0 2.35469e-06 1.0979e-05
4.781063e-05 0.0 7.068122e-06 1.4270221e-05 6.442029e-05 0.0 -9.541534e-06 6.510283e-06
1.9886375e-05 0.0 3.499239e-05 3.94946e-05 4.6516958e-05 0.0 8.3617915e-06 1.6955364e-05
-0.00026506447 0.00087312114 5.676459e-06 -0.00030462682 -0.00031085318 0.0 0.00013014005 -3.0648137e-06
0.00031828435 0.0 -1.0232417e-06 3.6921825e-05 0.00033120692 0.0 -1.3945958e-05 -1.2839766e-05
0.00029705657 0.0 2.02045e-05 7.567383e-05 0.00042169803 0.0 -0.000104437066 -4.1636275e-05
0.00031846983 0.0 -1.2087136e-06 3.4945788e-05 0.0002907975 0.0 2.6463527e-05 7.5236196e-05
0.00045626136 0.0 -0.00013900017 -3.2168893e-05 6.4579363e-06 0.0 0.00031080312 0.00033890872
0.00031999068 0.0 -2.7296192e-06 3.2847543e-05 -0.0015323707 0.0050476254 3.281633e-05 -0.0018486788
-0.0018080268 0.0 0.0015525448 -6.7611586e-06 0.00026329886 0.0 5.4348893e-06 3.930318e-05
0.0002634999 0.0 5.233792e-06 2.3362265e-05 0.0002575046 0.0 1.1229148e-05 5.34852e-05
0.00028467661 0.0 -1.594288e-05 1.3707722e-05 0.00024917253 0.0 1.9561217e-05 7.201325e-05
0.00031100848 0.0 -4.227472e-05 6.583732e-06 0.00029553397 0.0 -2.6800179e-05 5.843828e-05
0.0001985449 0.0 7.018888e-05 0.00010200304 0.00021234255 0.0 5.6391178e-05 0.00012277382
-0.0012979838 0.004275554 2.7796832e-05 -0.0014606281 -0.0015134969 0.0 0.00048638883 -2.706793e-05
-0.00027651066 0.0 2.5258004e-07 -3.1578067e-05 -0.00027966168 0.0 3.403602e-06 -9.968489e-06
-0.0002686098 0.0 -7.64829e-06 -5.0705807e-05 -0.00031513284 0.0 3.887471e-05 -6.3425614e-06
-0.0002716364 0.0 -4.6216705e-06 -4.0092906e-05 -0.00019618373 0.0 -8.0074366e-05 -0.000114269176
-0.00034409887 0.0 6.7840694e-05 -4.4679255e-06 -4.2801883e-05 0.0 -0.00023345614 -0.00025379207
-0.00026487908 0.0 -1.1379016e-05 -4.739563e-05 0.001334326 -0.004395264 -2.8575134e-05 0.0015560638
0.0015650224 0.0 -0.0005108395 -5.259427e-06 0.00021929458 0.0 1.0335184e-05 3.9401068e-05
0.00021780228 0.0 1.1827454e-05 3.9879957e-05 0.00021761487 0.0 1.2014944e-05 4.5927925e-05
0.00020412836 0.0 2.5501418e-05 4.9778435e-05 0.0002038638 0.0 2.5765983e-05 7.3662515e-05
0.00020907169 0.0 2.0558058e-05 5.5105185e-05 0.00022136685 0.0 8.262925e-06 6.826317e-05
0.00019764056 0.0 3.1989213e-05 5.605901e-05 0.00016969335 0.0 5.9936465e-05 0.000115513394
00000000: 76b4 36b9 0000 0000 0069 86b5 0add 5bb7
00000010: 529c 39b9 0000 0000 e981 ed35 b2f4 dbb7
00000020: 5d79 39b9 0000 0000 d10a dc35 44f9 82b7
00000030: 0f23 02b9 0000 0000 fd78 56b8 3ef7 99b8
00000040: 8285 3ab9 0000 0000 f80d 3136 47cd aab7
00000050: 4914 ab38 0000 0000 b7a5 86b9 68e9 7db9
00000060: 39ad 2db9 0000 0000 1141 21b7 bc96 b5b7
00000070: 7cb2 ecb7 0000 0000 fc2a 1ab9 5869 20b9
00000080: 9e54 2ab9 0000 0000 c6ca 56b7 9aeb e5b7
00000090: 5be2 5d3a adb8 36bb 3c0e 98b7 cedd 723a
000000a0: 9906 813a 0000 0000 1605 bd3a 024a 48b8
000000b0: 67d5 6438 0000 0000 161b ac34 4451 e236
000000c0: dbc5 6938 0000 0000 200f 66b5 141a f135
000000d0: 9016 5c38 0000 0000 ed70 2136 80d3 3c37
000000e0: b86c 8738 0000 0000 47af 22b7 2482 a8b5
000000f0: 484d 5c38 0000 0000 4405 1e36 7232 3837
00000100: 4688 4838 0000 0000 b52a ed36 226a 6f37
00000110: 6119 8738 0000 0000 9414 20b7 e872 da36
00000120: aad1 a637 0000 0000 cbc4 1238 01a7 2538
00000130: 341b 4338 0000 0000 9f49 0c37 5e3b 8e37
00000140: 5af8 8ab9 2be2 643a 6978 be36 52b6 9fb9
00000150: 02fa a2b9 0000 0000 3476 0839 19ad 4db6
00000160: 67df a639 0000 0000 5156 89b5 82dc 1a38
00000170: d7a5 ad39 0000 0000 6ff9 69b7 606a 57b7
00000180: 42be 9b39 0000 0000 d57c a937 14b3 9e38
00000190: 5a17 dd39 0000 0000 3905 dbb8 9ca2 2eb8
000001a0: 4cf8 a639 0000 0000 153b a2b5 c192 1238
000001b0: 2e76 9839 0000 0000 fefd dd37 20c8 9d38
000001c0: 5d36 ef39 0000 0000 93c0 11b9 16ed 06b8
000001d0: 40b1 d836 0000 0000 4af3 a239 8faf b139
000001e0: 6cc4 a739 0000 0000 802e 37b6 c8c5 0938
000001f0: d4d9 c8ba 8d66 a53b 44a4 0938 5e4f f2ba
00000200: 50fb ecba 0000 0000 c27e cb3a e9dd e2b6
00000210: 600b 8a39 0000 0000 585d b636 78d9 2438
00000220: 5c26 8a39 0000 0000 ee9d af36 15fa c337
00000230: af01 8739 0000 0000 d364 3c37 4c55 6038
00000240: a640 9539 0000 0000 13bd 85b7 38fa 6537
00000250: 5fa3 8239 0000 0000 6517 a437 d205 9738
00000260: da0e a339 0000 0000 2350 31b8 d4e9 dc36
00000270: e6f1 9a39 0000 0000 f2d0 e0b7 a01b 7538
00000280: 7e30 5039 0000 0000 5e32 9338 77ea d538
00000290: 45a8 5e39 0000 0000 9185 6c38 d9bc 0039
000002a0: 1c21 aaba f219 8c3b 3e2d e937 8c72 bfba
000002b0: 8760 c6ba 0000 0000 0102 ff39 f00f e3b7
000002c0: a2f8 90b9 0000 0000 569a 8734 b172 04b8
000002d0: 8e9f 92b9 0000 0000 7069 6436 563e 27b7
000002e0: 32d4 8cb9 0000 0000 2851 00b7 f2ac 54b8
000002f0: 6a38 a5b9 0000 0000 670d 2338 30d2 d4b6
00000300: 6c6a 8eb9 0000 0000 d913 9bb6 6e29 28b8
00000310: abb6 4db9 0000 0000 99ed a7b8 cca3 efb8
00000320: 2b68 b4b9 0000 0000 b245 8e38 30eb 95b6
00000330: 2c86 33b8 0000 0000 e8cb 74b9 650f 85b9
00000340: 78df 8ab9 0000 0000 80e8 3eb7 acca 46b8
00000350: 8de4 ae3a 2606 90bb a2b4 efb7 d6f4 cb3a
00000360: 7021 cd3a 0000 0000 dce9 05ba 227a b0b6
00000370: 71f2 6539 0000 0000 4765 2d37 9342 2538
00000380: db61 6439 0000 0000 876e 4637 c744 2738
00000390: 8c2f 6439 0000 0000 cb93 4937 bca2 4038
000003a0: 4a0b 5639 0000 0000 e1eb d537 30c9 5038
000003b0: 46c4 5539 0000 0000 0724 d837 437b 9a38
000003c0: 413a 5b39 0000 0000 1874 ac37 be20 6738
000003d0: b61e 6839 0000 0000 fea0 0a37 8328 8f38
000003e0: bc3d 4f39 0000 0000 282c 0638 e720 6b38
000003f0: b6ef 3139 0000 0000 4a64 7b38 c83f f238

exp_avg_sq f4 [128, 44]
1.2834369e-06 0.0 2.7963615e-08 6.81059e-08 1.2121116e-06 0.0 9.801962e-08 1.4552086e-07
1.3185744e-06 0.0 1.556914e-08 4.9892858e-08 1.0208058e-06 0.0 2.9147995e-07 3.5124265e-07
1.3098039e-06 0.0 1.3313153e-08 4.754428e-08 4.806749e-07 0.0 8.1245264e-07 8.549593e-07
1.2951252e-06 0.0 1.5001952e-08 4.8150188e-08 4.0580903e-07 0.0 8.569741e-07 9.2781994e-07
1.2912175e-06 0.0 2.4484626e-08 7.308359e-08 3.0854895e-05 0.00033478826 1.4150652e-08 3.48685e-05
4.0752744e-05 0.0 7.1242093e-06 1.4802439e-06 1.2088547e-07 0.0 6.33246e-09 9.628881e-09
1.2212857e-07 0.0 5.26015e-09 8.530921e-09 1.1905942e-07 0.0 7.553038e-09 1.201219e-08
1.1867697e-07 0.0 8.8482786e-09 1.2608321e-08 1.1509131e-07 0.0 1.27315465e-08 1.8398815e-08
1.0733022e-07 0.0 2.0015625e-08 2.35887e-08 1.08813175e-07 0.0 1.7720957e-08 2.5155476e-08
9.583045e-08 0.0 2.927806e-08 3.421585e-08 9.970385e-08 0.0 2.8048241e-08 3.6603158e-08
2.949369e-06 3.200183e-05 1.3526356e-09 3.328643e-06 3.9161905e-06 0.0 2.0659085e-07 7.0345756e-08
1.30289e-05 0.0 8.545989e-07 1.2326427e-06 1.325975e-05 0.0 6.695132e-07 1.0491412e-06
1.2818618e-05 0.0 9.767575e-07 1.4973534e-06 1.2961479e-05 0.0 1.0120222e-06 1.4208546e-06
1.2700487e-05 0.0 1.3798762e-06 2.0524712e-06 1.1954329e-05 0.0 1.9572365e-06 2.397339e-06
1.1775503e-05 0.0 2.1003264e-06 2.9118564e-06 1.0380562e-05 0.0 3.2717153e-06 3.8266508e-06
1.0553011e-05 0.0 3.3625922e-06 4.3062014e-06 0.00032203656 0.0034942322 1.4769239e-07 0.00036646193
0.00042272915 0.0 2.413891e-05 1.0424288e-05 2.2155973e-06 0.0 1.6062653e-07 2.1532e-07
2.2297968e-06 0.0 1.315858e-07 2.0124978e-07 2.2269073e-06 0.0 1.4609904e-07 2.0840781e-07
2.133188e-06 0.0 2.1555546e-07 3.0409353e-07 2.2330669e-06 0.0 1.280454e-07 2.152603e-07
1.8750294e-06 0.0 4.9690834e-07 5.8177926e-07 2.2528936e-06 0.0 1.0262906e-07 2.2771509e-07
1.5431975e-06 0.0 8.4753947e-07 9.357434e-07 2.0731213e-06 0.0 3.616925e-07 4.9501597e-07
5.4785018e-05 0.0005944398 2.5125464e-08 6.1184684e-05 7.290801e-05 0.0 4.6370874e-06 2.1329897e-06
7.281287e-06 0.0 2.1679654e-07 3.9331388e-07 7.204326e-06 0.0 2.6255452e-07 4.4945247e-07
7.194947e-06 0.0 2.4624828e-07 4.8860335e-07 7.0449846e-06 0.0 4.3835885e-07 6.800344e-07
6.9418365e-06 0.0 6.0377494e-07 9.0504443e-07 6.502663e-06 0.0 1.1161239e-06 1.3463177e-06
6.3919056e-06 0.0 1.1294613e-06 1.4850888e-06 5.6752947e-06 0.0 1.8000761e-06 2.0976202e-06
6.051309e-06 0.0 1.4599534e-06 1.9530648e-06 0.00017391467 0.0018870422 7.976065e-08 0.00019194218
0.00023292706 0.0 1.30511235e-05 3.7020607e-06 5.416793e-07 0.0 4.6410545e-08 6.548872e-08
5.662217e-07 0.0 2.1410798e-08 4.0173855e-08 4.9993776e-07 0.0 8.096344e-08 1.0529395e-07
5.727231e-07 0.0 2.151845e-08 3.895034e-08 4.7144175e-07 0.0 1.1234075e-07 1.4532898e-07
5.560032e-07 0.0 2.9018482e-08 4.8542944e-08 4.5081552e-07 0.0 1.3669234e-07 1.8034439e-07
5.1555844e-07 0.0 6.026011e-08 8.357812e-08 3.784481e-07 0.0 2.0724285e-07 2.4136958e-07
00000000: 8e42 ac35 0000 0000 a434 f032 9d41 9233
00000010: d6af a235 0000 0000 db7e d233 7840 1c34
00000020: dff9 b035 0000 0000 e7bc 8532 c749 5633
00000030: 9f02 8935 0000 0000 b37c 9c34 6c92 bc34
00000040: 85cc af35 0000 0000 deb7 6432 7d33 4c33
00000050: ba07 0135 0000 0000 5217 5a35 5b80 6535
00000060: 2ad4 ad35 0000 0000 a4dd 8032 b1cd 4e33
00000070: f8dd d934 0000 0000 d00a 6635 4d0f 7935
00000080: e54d ad35 0000 0000 4352 d232 21f2 9c33
00000090: 316a 0138 8586 af39 3a1b 7332 c43f 1238
000000a0: eded 2a38 0000 0000 7e0c ef36 cbac c635
000000b0: bfcc 0134 0000 0000 e894 d931 446c 2532
000000c0: 7222 0334 0000 0000 c5bc b431 638f 1232
000000d0: 9cad ff33 0000 0000 9dc2 0132 2c5e 4e32
000000e0: 5bdb fe33 0000 0000 2403 1832 fb9b 5832
000000f0: 1e28 f733 0000 0000 efb9 5a32 6c0b 9e32
00000100: 6a7d e633 0000 0000 d3ee ab32 1aa0 ca32
00000110: adac e933 0000 0000 cc38 9832 7a15 d832
00000120: 59cb cd33 0000 0000 237f fb32 baf4 1233
00000130: c51c d633 0000 0000 bcee f032 9935 1d33
00000140: c6ed 4536 b439 0638 a2e7 b930 a761 5f36
00000150: d267 8336 0000 0000 43d3 5d34 fd10 9733
00000160: b396 5a37 0000 0000 9767 6535 4871 a535
00000170: 3176 5e37 0000 0000 99b8 3335 38d0 8c35
00000180: 8c0f 5737 0000 0000 2219 8335 acf8 c835
00000190: 2175 5937 0000 0000 d1d4 8735 31b4 be35
000001a0: 2d14 5537 0000 0000 2f34 b935 30bd 0936
000001b0: 748f 4837 0000 0000 1159 0336 f8e1 2036
000001c0: 668f 4537 0000 0000 55f3 0c36 5069 4336
000001d0: 2d28 2e37 0000 0000 a48f 5b36 ae66 8036
000001e0: d60c 3137 0000 0000 e5a8 6136 fd7d 9036
000001f0: 04d7 a839 7dff 643b 6095 1e34 b021 c039
00000200: bfa1 dd39 0000 0000 ea7d ca37 fae3 2e37
00000210: acaf 1436 0000 0000 af78 2c34 b632 6734
00000220: 9ea3 1536 0000 0000 074a 0d34 1e17 5834
00000230: fa71 1536 0000 0000 66df 1c34 b4c6 5f34
00000240: e427 0f36 0000 0000 6f73 6734 4c42 a334
00000250: ccdb 1536 0000 0000 da7c 0934 4d22 6734
00000260: 85a9 fb35 0000 0000 4863 0535 912b 1c35
00000270: 6b30 1736 0000 0000 ec64 dc33 d981 7434
00000280: dd1f cf35 0000 0000 7882 6335 cc2f 7b35
00000290: f41f 0b36 0000 0000 a42e c234 3de1 0435
000002a0: f7c8 6538 2ed4 1b3a 7bd3 d732 4750 8038
000002b0: 31e6 9838 0000 0000 4798 9b36 7c24 0f36
000002c0: c751 f436 0000 0000 94c8 6834 a628 d334
000002d0: b0bc f136 0000 0000 38f5 8c34 474c f134
000002e0: 206c f136 0000 0000 1b34 8434 9128 0335
000002f0: f563 ec36 0000 0000 9557 eb34 9c8b 3635
00000300: eced e836 0000 0000 1913 2235 2ef2 7235
00000310: 7331 da36 0000 0000 bacd 9535 20b3 b435
00000320: 0d7a d636 0000 0000 ff97 9735 4353 c735
00000330: 696e be36 0000 0000 259a f135 d7c4 0c36
00000340: 590c cb36 0000 0000 9ef3 c335 6611 0336
00000350: dd5c 3639 a156 f73a e248 ab33 1644 4939
00000360: e23d 7439 0000 0000 26f6 5a37 eb70 7836
00000370: eb67 1135 0000 0000 ef54 4733 cea2 8c33
00000380: 75fe 1735 0000 0000 d8ea b732 9f8b 2c33
00000390: 7633 0635 0000 0000 1fde ad33 f61d e233
000003a0: 3bbd 1935 0000 0000 92d7 b832 5a4a 2733
000003b0: 761a fd34 0000 0000 fb3f f133 ba0b 1c34
000003c0: 4040 1535 0000 0000 5144 f932 887d 5033
000003d0: 9d07 f234 0000 0000 b4c5 1234 b0a4 4134
000003e0: e864 0a35 0000 0000 5968 8133 8f7b b333
000003f0: 832d cb34 0000 0000 7b86 5e34 9595 8134

exp_avg f4 [128]
-0.00017524249 5.4878758e-05 0.00031726097 0.00026873377 -0.0002762581 0.0002296298 2.3229832e-05 -0.00018115834
-6.3262036e-05 1.6681257e-05 -0.00043427997 5.9220074e-05 0.00023400549 2.4205378e-06 0.0006504564 0.0009882334
0.00034861022 0.00035590192 2.1884374e-05 3.846551e-08 -0.00047218453 0.00019670535 9.667965e-06 -5.9069025e-06
-8.577724e-06 3.5378798e-07 -2.698656e-05 1.5893089e-05 -0.00026335355 -0.00012024575 -6.7492956e-06 5.7317597e-05
8.3964645e-05 4.1776657e-05 -4.667232e-06 0.0002895453 0.00026059302 0.0004621418 0.0005930266 9.8613156e-05
-2.079326e-06 -0.000114692506 1.8512152e-05 0.00029653267 0.00014300697 -0.00010659237 -3.6182377e-05 0.00038468317
0.00011381599 -0.00042764045 1.4746363e-05 0.0006364661 7.7449215e-05 7.6040315e-06 0.00045962536 1.0503584e-07
6.879316e-06 -0.00014621558 6.3010702e-06 6.430152e-05 2.9273324e-05 0.00065048336 0.00028706956 -3.5073415e-06
-0.00020318486 7.321221e-06 -5.3820977e-06 -1.7239121e-05 -3.5868794e-05 8.494608e-06 0.00057740597 -0.00022075916
5.3056116e-05 -0.00011665438 -0.0009900708 -9.357943e-05 -1.5500416e-05 -0.00043047726 0.00019975699 2.4316869e-05
-9.062307e-05 0.00092528923 -4.790299e-06 -0.00020484862 0.0003672907 -0.00023338145 0.00017938676 -0.0004569875
-0.000111366564 0.00010856141 -3.814562e-05 2.6049885e-05 -6.1153396e-06 -4.5808692e-06 5.4543825e-06 0.0004450776
0.0006049967 -1.393136e-05 0.00034296123 0.00027499392 -1.6302338e-06 -1.3203933e-05 0.00035012068 -0.00014166329
-8.4356325e-05 -0.0008234814 6.2926156e-05 -0.00028526766 0.00068454683 -0.00023867571 0.00011301867 -7.651979e-06
0.00044178675 0.00041411907 2.8353952e-05 0.00025951292 4.8559083e-05 -2.3377204e-05 1.2198781e-05 -4.067979e-05
0.00048006783 -1.8030216e-05 -5.2246975e-08 0.00057947973 5.8913156e-06 0.0009142534 4.900756e-07 3.0718384e-05
00000000: 4cc1 37b9 9e2d 6638 0c56 a639 d6e4 8c39
00000010: bcd6 90b9 c8c8 7039 afdd c237 52f5 3db9
00000020: 8cab 84b8 baee 8b37 12b0 e3b9 1263 7838
00000030: 5f5f 7539 8670 2236 6483 2a3a 9c87 813a
00000040: acc5 b639 5998 ba39 5694 b737 4735 2533
00000050: 898f f7b9 b142 4e39 9833 2237 e833 c6b6
00000060: 0be9 0fb7 40f0 bd34 3261 e2b7 2652 8537
00000070: b712 8ab9 722c fcb8 0278 e2b6 4d68 7038
00000080: 2d16 b038 5839 2f38 389b 9cb6 1dce 9739
00000090: 34a0 8839 9f4b f239 5775 1b3a 89ce ce38
000000a0: 8c8a 0bb6 1287 f0b8 8b4a 9b37 f177 9b39
000000b0: 24f4 1539 588a dfb8 88c2 17b8 4daf c939
000000c0: 7fb0 ee38 ee34 e0b9 2667 7737 84d8 263a
000000d0: 3b6c a238 2226 ff36 dff9 f039 1090 e133
000000e0: e0d4 e636 7251 19b9 c86d d336 9ed9 8638
000000f0: fc8f f537 3385 2a3a d381 9639 ab5f 6bb6
00000100: 050e 55b9 cfa8 f536 de97 b4b6 bb9c 90b7
00000110: d371 16b8 1084 0e37 0f5d 173a 967b 67b9
00000120: 9288 5e38 58a4 f4b8 43c5 81ba 1340 c4b8
00000130: e406 82b7 aeb1 e1b9 dc75 5139 14fc cb37
00000140: e40c beb8 1c8f 723a 5bbc a0b6 a2cc 56b9
00000150: ec90 c039 dbb7 74b9 c419 3c39 d397 efb9
00000160: 788d e9b8 77ab e338 8cfe 1fb8 b485 da37
00000170: 5e32 cdb6 5eb5 99b6 ca04 b736 4e59 e939
00000180: a498 1e3a bcba 69b7 7acf b339 0f2d 9039
00000190: 68ce dab5 7686 5db7 6790 b739 738b 14b9
000001a0: 75e8 b0b8 e7de 57ba 39f7 8338 fa8f 95b9
000001b0: 2973 333a 0645 7ab9 7004 ed38 0061 00b7
000001c0: 9d9f e739 1f1e d939 a6d9 ed37 3c0f 8839
000001d0: ebab 4b38 2a1a c4b7 5ea9 4c37 989f 2ab8
000001e0: 9db1 fb39 983f 97b7 2866 60b3 3ae8 173a
000001f0: 04ae c536 82aa 6f3a bd8d 0335 9dd7 0038

exp_avg_sq f4 [128]
1.322603e-06 1.2642552e-07 1.3804202e-05 2.3483792e-06 7.4549075e-06 5.9000644e-07 1.4874557e-09 1.370548e-06
2.4417218e-06 2.1879066e-08 2.0403554e-06 1.8768166e-06 4.6620912e-07 1.6865138e-09 1.31628785e-05 1.8945313e-05
8.866292e-07 5.3415847e-06 2.5359526e-08 3.462922e-12 2.795554e-06 1.3378032e-06 1.2026127e-09 5.3090847e-09
1.5246813e-09 4.6317497e-09 3.276826e-07 5.641545e-09 4.5476847e-07 3.6266698e-07 5.5872583e-08 2.26258e-07
7.675565e-07 9.4556434e-08 3.0232346e-07 8.309851e-06 4.322272e-07 1.2303272e-05 2.0885739e-06 1.0688225e-06
2.1186985e-08 1.0681449e-06 6.310375e-07 3.9894257e-06 2.1165329e-06 2.317618e-06 1.2405898e-08 4.342812e-06
8.408099e-08 1.9553954e-06 5.8238342e-08 9.446448e-06 8.675288e-07 1.9541964e-08 6.308419e-06 2.0674526e-10
2.351224e-08 4.0981772e-07 6.2155103e-09 3.498082e-08 4.035482e-09 1.9941617e-06 8.168461e-06 3.0484934e-10
1.2604237e-06 3.9924477e-09 1.64566e-09 3.7371123e-08 9.879463e-09 4.879571e-09 1.6862203e-06 1.3889492e-06
6.3972914e-07 9.513982e-07 1.3049692e-05 1.6661409e-06 5.1903644e-06 1.0670955e-06 2.418309e-06 3.0909025e-06
7.7538e-08 2.6319422e-06 2.192854e-10 7.6133483e-07 6.0034467e-06 3.086035e-07 1.8232058e-06 1.0130243e-05
6.8360987e-06 2.1750027e-06 1.7498954e-06 1.7500608e-06 1.12637055e-08 6.4140067e-09 6.698222e-09 1.608668e-05
4.310909e-06 2.6967735e-09 1.5710302e-05 6.153334e-07 6.3136913e-09 1.573192e-07 1.7777416e-05 5.617391e-07
3.750734e-07 7.92594e-06 2.7659336e-08 1.1482681e-06 1.2360351e-05 5.6191215e-07 9.2011184e-08 3.4487218e-07
4.318808e-06 1.2687505e-06 6.748152e-07 1.5704637e-06 7.72282e-09 1.8687492e-06 1.0245433e-09 2.8875911e-05
6.996057e-06 3.2048393e-07 4.0056103e-10 1.2406553e-05 8.189523e-08 1.5679872e-05 6.547311e-11 1.851812e-08
00000000: 4b84 b135 95bf 0734 9998 6737 d998 1d36
00000010: 2b25 fa36 ef60 1e35 326f cc30 acf3 b735
00000020: 76dc 2336 93f0 bb32 0aed 0836 ede6 fb35
00000030: 4b4b fa34 eeca e730 22d6 5c37 c0ec 9e37
00000040: b200 6e35 dd3b b336 30d6 d932 75ae 732c
00000050: 419b 3b36 918e b335 2c49 a530 346b b631
00000060: f48c d130 4d25 9f31 5bec af34 8ed7 c131
00000070: e726 f434 92b4 c234 8ef8 6f33 53f1 7234
00000080: 150a 4e35 f30e cb33 054f a234 8a6a 0b37
00000090: db0c e834 276a 4e37 6d29 0c36 7674 8f35
000000a0: acfe b532 2e5d 8f35 9164 2935 e8dc 8536
000000b0: c209 0e36 6088 1b36 b721 5532 79b8 9136
000000c0: 0390 b433 7039 0336 bc21 7a33 2f7c 1e37
000000d0: 20e0 6835 3cdd a732 e8ac d336 9e51 632f
000000e0: f6f7 c932 eb04 dc34 3590 d531 d13d 1633
000000f0: 7aa8 8a31 70d3 0536 460b 0937 bb97 a72f
00000100: d42b a935 f12d 8931 842d e230 fc81 2033
00000110: 56ba 2932 29a9 a731 1752 e235 ee6b ba35
00000120: dab9 2b35 9663 7f35 00f0 5a37 2aa0 df35
00000130: e428 ae36 1f39 8f35 3b4a 2236 4d6d 4f36
00000140: f782 a633 6ca0 3036 5a1b 712f 885e 4c35
00000150: 3771 c936 24ae a534 e0b4 f435 10f5 2937
00000160: a461 e536 43f6 1136 f3dd ea35 a2e3 ea35
00000170: 4d82 4132 3362 dc31 2f26 e631 e2f1 8637
00000180: 6da6 9036 2452 3931 9ec9 8337 642d 2535
00000190: d1ef d831 93eb 2834 b620 9537 6bca 1635
000001a0: b25d c934 a7f9 0437 8697 ed32 311e 9a35
000001b0: 4e5f 4f37 4fd6 1635 af97 c533 df26 b934
000001c0: 47ea 9036 ef49 aa35 f324 3535 b9c8 d235
000001d0: 52ad 0432 bcd1 fa35 eacf 8c30 8c3a f237
000001e0: acbf ea36 fa0e ac34 f435 dc2f bd25 5037
000001f0: 61de af33 4588 8337 16fa 8f2e c711 9f32
