GameAI3/Config/results/dwarf_2/Dwarf/Dwarf-12032.onnx (onnx, 73485 bytes, 7 tensors)

network_body._body_endoder.seq_layers.0.weight f4 [128, 8]
00000000: 73b2 dabd 8f21 033f f0e1 133e d0e2 e1be
00000010: 67dc b4be a713 7e3d 1d9e dc3e 64ed 74be
00000020: 5dc8 e8bd cfa2 86bd 1331 06be 2afe 0cbf
00000030: 90a8 91bd 2053 ba3e d85b 13bf b29c 993d
00000040: 7fa0 b03e 2683 163f ce18 553d 065a f63d
00000050: 129b d83d 7d7f 833e 59a1 a73c c055 52bd
00000060: 4d49 903d 17ca 1fbf d5db 83be 16b5 793e
00000070: 9196 c93d b5ad 53be f9b8 333f fa30 40bf
00000080: a74a d1bd f01b 1b3e b800 d63c cc14 963e
00000090: c38a 1fbf 8928 fd3e 63f1 09be e1c7 19bf
000000a0: 0a43 bebc f147 073e 002f 36be 43f9 8d3d
000000b0: 6f90 1b3f e50d fb3d bdc9 86be b553 083e
000000c0: 62fd d33d 141c 44bf 3614 d7be f7d7 233f
000000d0: 14ff a9be 0707 84be da92 07bf f45c 5f3e
000000e0: 3a45 bd3e 7dbb e2bd ca61 39be 1b74 cd3c
000000f0: 2e3f 18bf 6035 a93e 88be debd 18d4 1ebf
00000100: e88e b33d e09d 373d 1b9e 3bbf fdc7 dcbd
00000110: b0a0 843e db5b 69bd ec48 6ebd 3fdb c93e
00000120: b724 f8bb 3748 43be 91ae af3c e914 253e
00000130: b7c1 a1be 9c0e 18bf 5958 5fbe 5fc9 d1be
00000140: f34e 04be 67d0 ab3c d916 1dbf 89b5 e1bd
00000150: 5a8d a5bd 401a c3be cad5 ca3e d437 183d
00000160: 6e1e 573f 0ab4 ffbe e3a1 2cbf 1be1 7fbe
00000170: b4d2 15be 30f8 b5be 3916 0c3f 0e8a 743e
00000180: 9c15 33be 1262 8dbe 8f55 fcbe 031c 653d
00000190: eef2 c93d bbd1 fb3e 5d9e b43c e9d5 163f
000001a0: eeef a3bd ba70 66be 3923 fdbe b524 0cbe
000001b0: b9d6 313e c608 4abf 1077 69be 92b4 93be
000001c0: e978 c73d 6b96 9c3e 62aa 9abe eeaa de3d
000001d0: 820e 0d3f fffc f2be 7d82 b0be ad1d 77be
000001e0: 541d 04bf f22e 06bf 5812 c33d b4b1 7b3e
000001f0: 7d00 9bbe 26d4 913d 8b31 4a3e de44 9ebe
00000200: c21d 063f aade 2abe f7f8 c93e 29aa 163b
00000210: f90b 373f 62f5 85be be21 45ba 389e 0ebe
00000220: f248 bc3e 0bdd 363f 2b1d 29bf 0219 c43c
00000230: cfd9 c6be 4165 f8be b585 6c3e 5628 3a3e
00000240: 2780 873e ffde ed3e 1b84 27bf dedb 233e
00000250: b62a b13e 3aaf 213f ccdd 99be e269 a2be
00000260: db69 aa3e f46d d33d 4630 c7bd 55ef 41be
00000270: f3ae 0a3f 151d 50bf 26a3 8c39 37b0 d33c
00000280: c577 c33e da23 dfbe be5f 783e 81aa a7be
00000290: 6a53 45bd 2e6d afbd d5ee f9be ba2a d9be
000002a0: dc01 8dbe 5821 003f 5e94 18be d2c6 42bf
000002b0: 6e1a e23e 4c11 673e 5fe5 11be 9e9a 18be
000002c0: 05d0 86bd 29e7 443d 1f2c 11bd ef00 243f
000002d0: 0963 d43e dcba 1bbf 0435 20bd 74cb 8cbe
000002e0: 9fec 203e 0d1f 003e 0f6f 74bd 3be5 5fbf
000002f0: 247a 213e 4721 e33e 3f95 e43e 71e3 df3e
00000300: 4591 fcbe 0b33 cfbe 6e62 06bd bb44 14bf
00000310: 2e99 303e 71c1 0abf 5db6 dd3d 0e61 413f
00000320: 527d ae3e 7016 043e 9b36 303f 0c0d 6bbd
00000330: 2de5 25be d40e abbe fb94 6dbe 2ef1 eb3e
00000340: 1954 57bc 05cc 13be 7e9a eebd 44d3 663e
00000350: 3368 f4be 6dca e53e 8b81 a7be b7ed 87bd
00000360: 6a7c f43e 9d33 12be 9ca7 f23d 1a44 f1be
00000370: 02e8 b1be 1303 293f 8da2 a03e bdd1 71bc
00000380: 0fde 943f 4804 1cbe 7cf9 513e 5c9c 2a3f
00000390: 8be1 9cbe af2b c6bd 1427 2bbd 40e9 bfbd
000003a0: d2a5 003f 37cb f13d 4826 cb3e b62d 41be
000003b0: 7a67 cebd a14a d6bc dbff a93e c88b b23e
000003c0: abbc 7d3e 7a70 a83d 3879 e1be 4666 cb3e
000003d0: c35e 7d3e 36c8 ac3c 9be5 893e 5aab b7be
000003e0: 8524 c53d bbe3 453f e6ed eb3e 2f20 0abe
000003f0: 1431 26be 759a 193f 7d82 e03d 0e0f c8be
-0.10678568 0.5122308 0.14441657 -0.44118357 -0.35324404 0.06203046 0.4308938 -0.23918682
-0.11366341 -0.06574022 -0.13104658 -0.55075324 -0.07112229 0.36391544 -0.5756202 0.075005904
0.3449745 0.58793867 0.05202561 0.12028889 0.10576452 0.25683203 0.020462679 -0.05135131
0.07045231 -0.6241774 -0.25753656 0.24385485 0.098431714 -0.20671733 0.7020412 -0.7507473
-0.10219317 0.15147376 0.02612339 0.29312742 -0.6232111 0.49444988 -0.13470988 -0.60070616
-0.023225326 0.13211037 -0.17791367 0.069323085 0.60767263 0.122585095 -0.2632579 0.13313182
0.10351063 -0.76605344 -0.42007607 0.6400141 -0.33202422 -0.2578661 -0.5295845 0.21812803
0.36966878 -0.11070917 -0.1810371 0.025079777 -0.59471405 0.33048534 -0.10876185 -0.6204238
0.087674916 0.044828296 -0.73288125 -0.10780332 0.25903845 -0.056972366 -0.058175012 0.39425084
-0.007572736 -0.19070517 0.021445544 0.16121258 -0.31593105 -0.5939729 -0.21811046 -0.40973946
-0.12920742 0.020973397 -0.6136299 -0.11020953 -0.08083601 -0.38105965 0.39616233 0.037162617
0.84030807 -0.49942046 -0.6743452 -0.24988215 -0.14631158 -0.35540915 0.5472141 0.23880789
-0.17488712 -0.27613884 -0.49284026 0.055934917 0.09860788 0.4918345 0.02204817 0.5892015
-0.08004747 -0.2250394 -0.49440935 -0.13685878 0.17367066 -0.7891964 -0.22799325 -0.28848702
0.09739859 0.3058351 -0.30208117 0.10872446 0.5510026 -0.47458646 -0.34474555 -0.24132414
-0.5160725 -0.5241538 0.09524983 0.24579507 -0.3027381 0.07120542 0.19745462 -0.30911916
0.52389157 -0.16686502 0.39447758 0.0022989607 0.71502644 -0.26163775 -0.00075199816 -0.13927543
0.36774403 0.71431035 -0.6606013 0.023937706 -0.3883805 -0.4851475 0.2309788 0.1817945
0.2646496 0.46459195 -0.6543595 0.16001841 0.34602898 0.63158 -0.3005203 -0.31721407
0.33283886 0.10323706 -0.09726004 -0.18938954 0.541732 -0.81294376 0.00026824436 0.025840862
0.38177314 -0.4358204 0.24255273 -0.32747272 -0.048175253 -0.08565746 -0.48815027 -0.4241541
-0.2754048 0.5005088 -0.14900348 -0.76084626 0.4416079 0.22565192 -0.14247654 -0.14902732
-0.06582645 0.048072014 -0.035442468 0.64063925 0.41481808 -0.60832 -0.03911306 -0.27498972
0.15715264 0.12511845 -0.059676226 -0.8745915 0.15769249 0.44361326 0.44645116 0.43728212
-0.49329582 -0.4046863 -0.032808714 -0.57917374 0.17245933 -0.5420142 0.10825799 0.7553872
0.34079987 0.12899184 0.6883332 -0.05738549 -0.16200705 -0.3340975 -0.23201363 0.46082443
-0.013142609 -0.14433296 -0.11650561 0.22541529 -0.47735748 0.44881 -0.3271602 -0.066371374
0.4775117 -0.14277501 0.11848375 -0.4712227 -0.3474732 0.66020316 0.31374016 -0.014759478
1.1630267 -0.15236008 0.20505327 0.66644835 -0.30640826 -0.09676301 -0.041785315 -0.09370661
0.5025302 0.11806338 0.39677644 -0.18865094 -0.1007833 -0.026158633 0.33203015 0.3487227
0.24779002 0.08224578 -0.44037795 0.39726466 0.2474318 0.021091562 0.26932988 -0.35872918
0.09626106 0.77300614 0.4607994 -0.1348884 -0.1622966 0.6000131 0.10962389 -0.39073986

network_body._body_endoder.seq_layers.0.bias f4 [128]
00000000: 7a35 6dbc 1f55 063c a7a6 d1bc 4623 8433
00000010: 4916 19bc 11b0 7ebb 9bd3 f7ab 5ff7 16bc
00000020: 1a5f b0bb 44a0 163c 08ee 503b 85b2 14b5
00000030: acc9 65bc fdfd 613b 99ae debc 0601 6332
00000040: 2474 46bc d520 87bc a70e edbb b8ce 32bb
00000050: 1973 db36 dc78 0fbe 6351 26bc a697 6c3c
00000060: 6ea2 3e3a 912a 42bb 9bec 553b 17de 60ba
00000070: d301 cfbb 2293 253c 5a92 b9bc a0f0 403a
00000080: 2837 a335 6446 84bc 64c3 8b3b a310 0dba
00000090: 13da 673c d476 48bb 1ce8 5837 4dd6 523b
000000a0: 0e3f 1dbc d00d 58bc ec6e 101c c912 c2bc
000000b0: 0620 ecbc 0827 dcbb d025 95bc 24e7 d5bc
000000c0: 4617 e8bb 1d56 29bc 288c 45ba a5a0 59bc
000000d0: 7757 efbb 4ccf d536 9a1f 64bd 6c8f 20bc
000000e0: a857 bfba 628f 1dbc 20b0 ccbb 4c4a c8bb
000000f0: 1ac3 02bd 9663 c0b6 f9b8 88bc 84e3 00bd
00000100: f1d7 6ebc b32b 66bc fa5e 083c f08b f9bc
00000110: 5121 87bc d2ac 29bc 7dff 44bc 5290 49bc
00000120: 8014 50bc 8922 bcbb 7b38 b3bc b7aa f6ba
00000130: 8fce 9cbc 9d95 d2bc 8f51 9a3a 2727 a432
00000140: fefa 8dbc b0ff 54bb fd85 d8bb 068e a73c
00000150: b66e 8d3b dad0 4b3b 35b6 a2bb 4a73 f73b
00000160: fa75 2ebc 9039 88bc 5242 6439 7929 97bc
00000170: fda3 d7ba 0f8d 9e33 a1ed 9bbb 4833 87bb
00000180: 745d 6abb 9bf8 dd39 8376 a7bc 55b8 dfbb
00000190: 3359 e3ba a9ad 00bc 4a77 c5b8 5da7 203a
000001a0: fb2e 9e1e 8a9d 82bc 3d73 d9bc 1a03 debb
000001b0: 17fb 1fa5 e328 2b3b 0c79 56bc 3f53 c6bc
000001c0: 5d99 d63b 2874 97bb 5b9d 00b7 2ef3 04bc
000001d0: b97f 36bc 82c7 9aba 3b6c 4bbb 4521 c8bb
000001e0: ed85 1fbd 8088 a638 3b12 39bc 5e70 b5b8
000001f0: 6d69 c0bc 12db 4f3c 70af 1bbb 66a8 84bc
-0.014478082 0.008199005 -0.025592161 6.153145e-08 -0.009343692 -0.0038862268 -1.7609138e-12 -0.009214251
-0.0053824307 0.009193484 0.003188016 -5.5394077e-07 -0.014025133 0.0034483664 -0.027182864 1.3213372e-08
-0.012112651 -0.016495148 -0.0072344127 -0.0027283859 6.5401077e-06 -0.14010948 -0.01015124 0.014440453
0.0007272129 -0.0029627422 0.0032642249 -0.0008578016 -0.006317356 0.01010588 -0.022652794 0.00073600747
1.2160499e-06 -0.016146846 0.0042652357 -0.0005381202 0.014151114 -0.0030588405 1.2928645e-05 0.003217119
-0.009597553 -0.013186887 4.7788966e-22 -0.023690598 -0.028823864 -0.00671852 -0.018206507 -0.026111193
-0.0070828525 -0.010335472 -0.00075358385 -0.01328293 -0.007304128 6.372027e-06 -0.0556942 -0.009799819
-0.0014598267 -0.009616705 -0.0062465817 -0.0061123725 -0.031924345 -5.7336392e-06 -0.016689764 -0.031466976
-0.014577852 -0.014048505 0.008323425 -0.030462235 -0.016495379 -0.010356145 -0.012023804 -0.012302475
-0.0127002 -0.0057414216 -0.021877518 -0.0018819188 -0.019141464 -0.025706107 0.0011773574 1.9109917e-08
-0.017331596 -0.0032501034 -0.0066077695 0.020453464 0.0043161763 0.0031099827 -0.0049655684 0.0075515853
-0.010648245 -0.01662901 0.0002176848 -0.018452393 -0.001645207 7.383107e-08 -0.004758552 -0.0041259862
-0.0035761269 0.0004233763 -0.020442253 -0.006827394 -0.0017345309 -0.007853904 -9.415911e-05 0.00061284547
1.6748331e-20 -0.015944261 -0.026544208 -0.006775272 -1.3876124e-16 0.00261169 -0.013090383 -0.024209617
0.006549044 -0.004622001 -7.666032e-06 -0.008114619 -0.01113885 -0.0011808726 -0.0031039852 -0.0061074817
-0.03894608 7.940922e-05 -0.01129585 -8.6516826e-05 -0.02348777 0.012686508 -0.0023755692 -0.01619358

network_body._body_endoder.seq_layers.2.weight f4 [128, 128]
00000000: 4e37 273d 9984 023e 291a cb3c ee9a 12bc
00000010: d9f4 7c3e 2f0a 7bbd 53b6 553d 9c66 b6bc
00000020: 22d4 95bd 8f50 00be afe5 85bd 68c9 fcbb
00000030: 3ffb 4f3d 0835 b83c 6104 873d 5342 693d
00000040: 5928 c93c de03 1a3d 35c9 203e 627e 91bc
00000050: d2ae 6d3b 1c62 fe3b d9f4 49be 724f 65bd
00000060: bd05 a63b 0ef8 47be 23da c5bc 59dc b83d
00000070: 577e bd3d 101b 30bd 11eb e3bd ce4b a7bd
00000080: 1a17 03be 44be b43c dc75 fdbb 254a b63d
00000090: 0937 bdbd b973 683c 6134 103c 2377 3fbb
000000a0: 282a c23c b0bc d6bd 458d c2bc c920 14be
000000b0: 7dc6 6a3e 2b8f 143c 7b3c c03d 87c0 90bc
000000c0: 96d7 463c bd32 72bc 4c82 fbbd beb5 7bbc
000000d0: 92b3 883d a0cd d1bc 3632 013d 2ddf a73d
000000e0: fb09 dabb 40d8 363c fbe7 a13d 54e3 4c3c
000000f0: 0c36 7cbc 695d c13d b77e 5b3d 6c11 d5bd
00000100: 2100 2b3e e236 1dbd ea35 13bd aad2 043e
00000110: 77e5 4dbe 111a 073c 2d45 71be a118 8b3d
00000120: 3fab 1a3e 235b c1bd 5b0d 18be 8592 2d3d
00000130: c9d9 febc 76aa 123e 48fb 96bd a759 653c
00000140: 53c9 8d3c 5ab4 3c3d 7284 b2bd 9963 083e
00000150: 702c 92bd 297f b63d 425a d23c aa51 4dbd
00000160: aef6 c73d 9a22 343d 8587 663d d02f 44bd
00000170: f19f cdbb 0680 6c3d 9f25 20be 22d6 8f3c
00000180: 696c 04be 01bf 803d 4f0f 6abe 8bdd 7d3d
00000190: 37af ef3c 8090 e5bd 5b14 173d 2658 da3b
000001a0: 9838 5b3c ffc5 ba3d 92a4 92bc 47b7 5abd
000001b0: 5630 7ebd cbed dbbd f695 9d3c f7cf c0bc
000001c0: ac25 7f3c 7692 8cbc 67d4 583d 3705 9ebd
000001d0: 20d9 1fbc 65b4 ecbc 1e23 88bd 9b26 01bd
000001e0: 8ce0 d73d 555e 8b3d 7d91 0e3e 3330 333d
000001f0: 9010 c0bb aa86 d9bd 9ab0 283e e14a f2bd
00000200: d243 8fbd 06d7 3a3e e416 7ebd 08f6 d9bc
00000210: 4a1e 823d 1d32 683d d16c 273b 99f6 01bd
00000220: c49d dabb 568c 143e 0973 0cbd ac42 473d
00000230: 30aa 23bd d906 a7bd 6998 a1bd 40d6 b4bd
00000240: d1a3 1e3d 6902 d93c 86af a8bd 95c8 f93d
00000250: e2f0 e03d 5eee 17bd 704e debd 257d 4bbd
00000260: 9565 c9bd b3a4 2f3b 6247 743d f682 d4bd
00000270: 1107 62bd 42bc 29bd 333e e8bd c17b b2bd
00000280: e8b3 333c 4fc6 d5bd a5d0 df3d 07d3 9dbb
00000290: 1f33 92bd 9517 883c ca02 bebc a787 2dbe
000002a0: 4342 2c3d fdf9 9f3b c332 913c c4c8 fbbc
000002b0: e176 f3bc 0068 5b3b 67b7 4fbe 3baa 42bd
000002c0: 47a9 11bd b0c9 83bd 23ee 183e f79a 38bd
000002d0: 499a 323e d5d9 b1bd f4f9 963c 15e8 b13d
000002e0: 6fe6 243d 3541 78bd 9b9d a83d 37a7 853d
000002f0: 1804 833d 1569 34bd 0ceb 12be 30de f6bd
00000300: 28dc 743e 8225 08bd 3bc2 833d 2252 c0bd
00000310: fef5 b1bc 7366 063e 4ea1 a73d 6634 7cbd
00000320: fb6d c7bc af51 253e 7490 77bd b173 0a3c
00000330: 08c4 763d 5d0d 04bd 02d5 83bd 04c9 e43b
00000340: c7b8 55bc a807 6c3d 0b1d dabd d230 7c3d
00000350: 1cde 72bd ac11 9dbd 656e 873d 4ed1 bfbd
00000360: 3380 85bd da43 83bd c0bf cb3c 9e05 293e
00000370: e23a 483e f271 b3bd bde6 933d 7940 a83c
00000380: ea31 8a3c 3aba 2d3d 69e0 003e 0da9 003d
00000390: e4d4 b3bc 4d17 0f3e 6910 d7bd 3338 f83d
000003a0: 45c4 963c f52a 47bd 0b2b 893d e8fb 1d3c
000003b0: 9e63 2abe 3a29 973c e8d3 c53d a8ec dc3d
000003c0: 86ab a23d ab94 a63d b193 24bd 0769 c73d
000003d0: 77bf 323c c1a2 f83b 1e5c 973d d679 633d
000003e0: b817 993d 81f7 9e3d a07b 1e3d 886a 523d
000003f0: 8b93 dc3d 9e1b f13d c84e 203b 9c1c 5a3c
0.040824227 0.12745894 0.024792748 -0.008948071 0.24702777 -0.06128901 0.05217583 -0.022265725
-0.07315852 -0.1253073 -0.06537949 -0.007714439 0.050776716 0.022486225 0.06592632 0.056948017
0.024555372 0.037601344 0.15701754 -0.01776046 0.003626753 0.0077631604 -0.19722308 -0.055983968
0.005066602 -0.19528219 -0.024151867 0.09026403 0.09252613 -0.04299456 -0.1112882 -0.081687555
-0.12801781 0.022063382 -0.007734997 0.08900861 -0.09239013 0.014187747 0.008801551 -0.0029215298
0.023701742 -0.10485208 -0.023749003 -0.14465632 0.2292728 0.009067337 0.09386536 -0.01766993
0.012136361 -0.014782605 -0.122807115 -0.015363155 0.06674875 -0.025610745 0.031542026 0.08196864
-0.006654022 0.011159956 0.07905575 0.012505371 -0.015393745 0.09441645 0.05358764 -0.104037136
0.16699268 -0.03838242 -0.03594009 0.12970987 -0.20107065 0.008245961 -0.23561545 0.06791807
0.15104388 -0.09441211 -0.14848845 0.04237606 -0.031109707 0.14322838 -0.07372147 0.013998426
0.017307913 0.046070434 -0.08716668 0.13319243 -0.07137382 0.089109726 0.025677804 -0.05012671
0.09763847 0.04397831 0.056281585 -0.04789716 -0.00627517 0.05773928 -0.15639351 0.017558161
-0.1293198 0.06286431 -0.22857402 0.061978858 0.029258354 -0.11209202 0.036884647 0.00666334
0.013380192 0.09119796 -0.017900739 -0.053397443 -0.062057815 -0.10738715 0.019236546 -0.023536665
0.0155729465 -0.017159682 0.052936938 -0.077158384 -0.0097563565 -0.028894613 -0.06647323 -0.031530958
0.10540876 0.06805102 0.13922687 0.04374714 -0.0058613494 -0.10621388 0.16473618 -0.11830688
-0.069953576 0.18246087 -0.06203355 -0.026606575 0.063534334 0.056688417 0.0025547037 -0.031729314
-0.006671639 0.14506659 -0.034289394 0.048647568 -0.039957225 -0.08155603 -0.07890398 -0.088299274
0.038730446 0.026490407 -0.082366034 0.12196461 0.10983445 -0.03709256 -0.108548045 -0.049679894
-0.09833828 0.002680105 0.05963839 -0.10376541 -0.05518252 -0.041439302 -0.113399886 -0.087150104
0.010968186 -0.10438215 0.10928468 -0.004816416 -0.07138657 0.016612807 -0.02319469 -0.16946279
0.04205538 0.004882096 0.0177244 -0.030735381 -0.029719772 0.0033478737 -0.20284806 -0.047525626
-0.035561826 -0.06434953 0.14934592 -0.04506966 0.17441668 -0.08684126 0.018429734 0.08686844
0.04025882 -0.06060906 0.08233186 0.06526034 0.06397265 -0.044045527 -0.14347476 -0.12054098
0.23912108 -0.033238895 0.06433531 -0.093906656 -0.021723744 0.13125019 0.08185063 -0.06157341
-0.024344435 0.16144441 -0.060440496 0.008450435 0.060245544 -0.032239307 -0.064371124 0.0069819707
-0.013044543 0.05762449 -0.10650071 0.061569996 -0.05929385 -0.07669386 0.06612853 -0.093660936
-0.06518593 -0.06409426 0.024871707 0.16506049 0.19553712 -0.08761968 0.07221744 0.020538555
0.016869504 0.042413928 0.12585606 0.03141122 -0.0219521 0.13973732 -0.10501177 0.12120094
0.018404135 -0.04862495 0.06697663 0.009642579 -0.16639563 0.018452276 0.096595585 0.10787326
0.07942872 0.08133825 -0.040179912 0.09736829 0.010909907 0.007587761 0.07390617 0.055536114
0.07475227 0.077620514 0.038692117 0.051371127 0.10770329 0.11772846 0.002446102 0.013312485

network_body._body_endoder.seq_layers.2.bias f4 [128]
00000000: 317c 77bc 74c9 27bc e400 82bc e516 90bb
00000010: 2280 fdb7 41f1 79bb 90e3 3ebc 654a f8bb
00000020: bdbd 47bc 11dc d9bb 7d43 6cbb fd46 debb
00000030: 17be fbbb 36a9 10bc 1ea7 14bc dd90 6cb5
00000040: d80a 21bc a30b 61bb d757 27bb ec95 23bc
00000050: 5c3d febb 6ba1 47b3 d9ae d1bb 301c aabb
00000060: 09ea 08b4 e03a b9bb 5950 80bc 3eb5 99bb
00000070: ec4b 13ba 8695 0fbc a4c9 a1bb 64eb 16bc
00000080: 15ff cbbb ce30 e9bb 98b4 11bc e5a4 17bb
00000090: 29fa 3fbc b807 06bb 1231 b0bb 1fc7 e0bc
000000a0: 01c4 91b6 dea3 0bb9 2f8b 70b9 c9dc 1db9
000000b0: 4786 d1bb 9932 5bbc 3340 e3bb 70fd 84bc
000000c0: 61e6 41bc 460c 19bc 21c5 e7ba 4920 3fbc
000000d0: c5c6 55bc d2ad 02b6 71fd d5bb 52cb 563a
000000e0: 1bd3 a2bc 2456 89bb bac4 fdb8 6e00 02bc
000000f0: 6e4e 84bb 4d80 ba27 1f23 17bc 296b a2bb
00000100: 5968 cfb9 88a3 cdbb 1189 6536 b334 fabb
00000110: 1a43 9eba dc16 18bc 9312 82bb 4989 09bc
00000120: 6ccb 3cb9 0ea8 50bb 2669 d8b8 5abe 35bb
00000130: eff2 a1bb 1a5f 94bb 0712 13bc c38f e5bb
00000140: 2107 1b35 60e9 aab9 f114 27bc 49b5 bebb
00000150: b907 b8b9 1f8a 58bc 7904 edbb c21e 1bb9
00000160: e29f 1abc b9fb 92bc 4035 30ba cbcc dc30
00000170: a5ed 20bc 9549 f4b6 dada 9abb 7c62 eebb
00000180: 67dd 8cbc 27da 51bc c820 b8bb 3cb3 84bb
00000190: 2697 2fbc bd6a 93bc 50f7 e9bb 23fe 5dbc
000001a0: f232 6abb 5833 27bc f561 5bbc 3c7d f2bb
000001b0: 4fd5 c7bb 40d0 1bbc b76f 8db9 8780 eebb
000001c0: fd77 8dbb ab37 40bc 6c14 31bb c6dc 3cbc
000001d0: 0c57 d1bb 7770 5abc 9257 41bc 72c8 5fbb
000001e0: ffe6 37bc c762 d9bb 2444 3dbc 3713 99bb
000001f0: 5705 95bb 9659 a2bc 2bdf 86bb c9da b83b
-0.015105293 -0.010240901 -0.015869565 -0.0043972605 -3.0219617e-05 -0.0038138183 -0.011650935 -0.007577228
-0.012191233 -0.0066485484 -0.0036050968 -0.006783365 -0.0076825726 -0.0088294055 -0.009073047 -8.8127655e-07
-0.0098292455 -0.0034339211 -0.0025534534 -0.009984475 -0.0077587795 -4.6480107e-08 -0.0063990173 -0.0051913485
-1.2751129e-07 -0.0056527704 -0.015663313 -0.004690795 -0.0005618918 -0.0087636765 -0.0049373675 -0.009211395
-0.0062254765 -0.0071164137 -0.008893155 -0.0023139056 -0.011717358 -0.0020451378 -0.0053769434 -0.027438698
-4.3441546e-06 -0.00013317118 -0.00022940034 -0.00015054936 -0.006394181 -0.013378763 -0.0069351434 -0.01623413
-0.011834712 -0.009341305 -0.001768265 -0.011665412 -0.013047879 -1.9472686e-06 -0.0065304567 0.0008193749
-0.019876054 -0.004191177 -0.00012100623 -0.007934673 -0.00403767 5.1764475e-15 -0.009224682 -0.004956622
-0.00039559862 -0.006275598 3.4203442e-06 -0.007635677 -0.0012074441 -0.009282794 -0.0039694994 -0.008394548
-0.00018004858 -0.003183845 -0.00010319268 -0.0027731867 -0.00494229 -0.0045279386 -0.008976466 -0.007005663
5.7752374e-07 -0.00032598805 -0.010197864 -0.0058199507 -0.0003510097 -0.013216524 -0.007233199 -0.0001479341
-0.009437533 -0.017942296 -0.0006721802 1.6065312e-09 -0.009822284 -7.2803327e-06 -0.004725796 -0.007274924
-0.017195417 -0.012808359 -0.005619142 -0.0040496867 -0.010717189 -0.017995233 -0.0071400777 -0.01354936
-0.0035735932 -0.010205112 -0.013390054 -0.007400183 -0.0060984264 -0.0095101 -0.0002697685 -0.0072785052
-0.0043172822 -0.011732022 -0.002702023 -0.011527246 -0.0063885506 -0.013332478 -0.011800664 -0.0034146574
-0.011224507 -0.0066340896 -0.0115518905 -0.00467148 -0.0045477557 -0.019818109 -0.004115959 0.0056413156

action_model._continuous_distribution.log_sigma f4 [1, 2]
00000000: f75a 823c b304 f73c
0.015912516 0.030153608

action_model._continuous_distribution.mu.weight f4 [2, 128]
00000000: 7b3d cfba a9db 4cbc d54e 5239 9de1 f5ba
00000010: 4cfa f83b 8ce1 5f3c 180b 16bc 2273 ef3b
00000020: f152 13b9 111f 1bbc d66a 843c 8f29 883a
00000030: 8c46 17bb 038d 27bb 9b10 4a3a e98f 023b
00000040: d7eb 93bc ee71 223c e4cd a73c b3d4 18bc
00000050: 5d7e 7c3b 7d47 a33c 6566 443c 4cee 8b3a
00000060: af2c 213c 6cd5 153c fb6f 0d3a fe8f ab3c
00000070: 6dd8 ecbb 3f3e 3f3b 4bd2 74bc 709e 923c
00000080: e9fc 713b 5a78 963b 4058 68bc 9b6e 4a3b
00000090: bdc7 0339 29c4 ebbc cb41 8f3c 4d4c 32b8
000000a0: 6c8a c13b c3bd 483c 6c50 363c 674b b73c
000000b0: cb3b 8fba 93c5 ad39 8356 f73b 2944 1bba
000000c0: 77b3 bb3a 309c ce38 220b c4bc 283d e1bb
000000d0: 83ac adbb 36ca 00bc fd54 57bc d25d ab3c
000000e0: b3b3 b93b ab81 94bc cca9 2d3c 1b95 ebbb
000000f0: 43d6 423b aeb6 09bb d8e5 97bb 5828 1f3c
00000100: 9815 d2bc 9ee9 c3bc 281e 58bc 4a09 ccba
00000110: c016 a53c 26f5 b2bc c40e a1bc ec3a 803b
00000120: d058 a8bc d0b1 433c 22ce c8bc 2b66 743b
00000130: 5434 763b 6701 ccbb 185a 9cbb dba4 8c3c
00000140: 820d eabc 0755 8d3b b71b 803a b057 b73b
00000150: 0eb2 a83c e009 bdba 88e1 abbc cc24 923c
00000160: b4bc 1dbc 3b4b 2fba 3a64 803c 689b ccbb
00000170: 95c9 30bc cbcd e33c 509b 16bc 4c4d e7bc
00000180: d693 3fba 40c8 2bbb 1762 3d3c 5215 913c
00000190: a859 eb3c 0f93 d23a c271 b73a cba8 a3bc
000001a0: 0570 b93c fc1b d8bc 165d 92ba ded3 c43a
000001b0: dfdb 69bc 6f98 fc39 a36a 833b 0c1f 943b
000001c0: 647e 733c b0e6 133b 19fd 2a3d 832e 7fbb
000001d0: ed52 0b3b 8f71 a83a 2b5b 3abc 1ea7 703c
000001e0: afcd 163b b7e8 893a 06f2 3abc 0184 5b3c
000001f0: dc54 ad3b f0fe db3b dda9 53bb f121 1ebd
00000200: 1232 ca3b aa52 f838 e3d4 e738 08c0 423c
00000210: c872 72bc 8c02 3e3c e497 8dbb 53b4 9cbb
00000220: 5e29 e9b8 64ad 6c3c 6d93 1b3c e6c8 363b
00000230: 7104 89ba 3ece 46b8 3c5a 46bb 5018 c6bc
00000240: a008 93bc 29c6 8fbb d8e3 cd3a 4d04 043b
00000250: 6586 8f3b f8b1 003c 8e66 19bd 5619 ef3b
00000260: 02ad a23c e528 e7bc a4de 8f3b c60e a7bb
00000270: ec62 453b 96e0 86bc ca31 f9bb 8b05 4dbc
00000280: 0c2a 8a3c b26e 97b9 4166 0d3b f282 023c
00000290: 086c 9cb8 f0f7 b33c 77e1 89bc 7573 ceb7
000002a0: 77ea 87bc 3d81 5dba a9ef 873c c5e4 ac3c
000002b0: df89 7dba 20b0 a3b8 4f56 09bc b901 3e3a
000002c0: 9570 8cba 77ea 9d3b da6e 86bc 93fa 5a3c
000002d0: 4b5c e6ba aa89 73bc 1eb3 4b3c 3db2 963c
000002e0: 0d90 523a 7b29 9d3b b72e dc3b 71ed 38bb
000002f0: b83d e63a 0d98 a93c 6b5a f3ba 3ca6 73bc
00000300: f849 d93b eb25 863c ac36 8d3c 20ea 5bbc
00000310: 830a 8a3c 7bb3 833c a80a 353b 0e74 7d3c
00000320: aa02 a43c 322b 1b3c 4e52 62bc 0572 6a3a
00000330: 849b 3c3b 843b 82bb b629 00bb 82ea 8e3b
00000340: 05a0 f03c 1907 7abc c684 caba 98d3 1bbd
00000350: c95a 0dbc b220 ccbb 297f 053c 9ad5 903b
00000360: 8b9a 4bbc 776e e4ba f98a 693a b4f3 1a3c
00000370: a513 583a 444f 433c e2f3 783c 0078 1e3c
00000380: 5f1b 59ba 3242 55bb b561 453b 0d79 fb3b
00000390: 8a8e 1d3c 272e cd39 4461 093b e132 73bb
000003a0: 8c9e 923c 6758 49bc c0f2 e1bb eb59 65ba
000003b0: 653d 083c 02da 473b b16e ecb9 2453 263d
000003c0: ee2e db3c 29a2 863b 7c05 dc3b 6fe6 6e3b
000003d0: a755 3fbd 0064 273a 0208 33bb cf39 38bc
000003e0: f06b 533c d744 943b e537 f0bb a53e ae3b
000003f0: a526 563c 91f2 94ba 4198 7cbc a3f0 bb3b
-0.0015811169 -0.012503543 0.00020056528 -0.0018759255 0.007598197 0.013664614 -0.009157918 0.007307426
-0.0001404991 -0.009467856 0.016164225 0.0010388362 -0.002308282 -0.0025566227 0.0007708163 0.0019922203
-0.018056793 0.009914858 0.020483918 -0.009328055 0.0038527467 0.01993155 0.011987303 0.0010675876
0.009837314 0.009145122 0.00053954095 0.020942684 -0.0072279484 0.0029181389 -0.014942716 0.017897815
0.0036924428 0.0045919837 -0.014181197 0.003088868 0.00012567542 -0.02878006 0.017487427 -4.2509568e-05
0.0059063938 0.012252274 0.0111275725 0.022374822 -0.0010927854 0.00033144336 0.007548155 -0.00059229374
0.0014320452 9.851938e-05 -0.02393109 -0.0068737455 -0.005300106 -0.007860711 -0.013142821 0.02091876
0.005667174 -0.018128237 0.010599565 -0.0071894056 0.002972976 -0.0021013427 -0.004635554 0.009714209
-0.025645062 -0.023915108 -0.013190784 -0.0015566733 0.02015245 -0.021845412 -0.019660361 0.003913274
-0.020550162 0.011944249 -0.024512354 0.0037292342 0.003756781 -0.006225753 -0.004771482 0.017168453
-0.028570894 0.0043131146 0.0009773885 0.00559517 0.020592716 -0.0014422499 -0.020981565 0.017839812
-0.00962751 -0.00066869304 0.015672792 -0.006244112 -0.010790248 0.02780809 -0.009192303 -0.0282351
-0.0007308101 -0.0026211888 0.011559031 0.017710362 0.028729275 0.0016065555 0.0013995694 -0.019977948
0.022636423 -0.026380531 -0.0011166658 0.0015016755 -0.014273613 0.00048178757 0.004010515 0.0045203026
0.014861677 0.002256792 0.04174528 -0.0038937635 0.0021259144 0.0012851226 -0.011374275 0.014688281
0.002301078 0.0010521625 -0.011410242 0.013398171 0.005289657 0.0067137405 -0.0032297291 -0.038606588
0.0061705196 0.00011840959 0.000110545916 0.011886604 -0.014797874 0.011597287 -0.0043210853 -0.0047822385
-0.00011118011 0.014445636 0.009495598 0.002789074 -0.0010453594 -4.7398957e-05 -0.0030266186 -0.024181515
-0.017948449 -0.004387636 0.0015708162 0.0020144165 0.0043800347 0.007854931 -0.03745132 0.0072967215
0.019857887 -0.028217742 0.0043905545 -0.0050981967 0.0030118776 -0.016464513 -0.0076048123 -0.012513529
0.016865753 -0.0002888344 0.002157584 0.00796579 -7.458782e-05 0.021968812 -0.016831143 -2.4610878e-05
-0.016591294 -0.0008449739 0.016593771 0.02110518 -0.00096717285 -7.8052515e-05 -0.008382394 0.00072481815
-0.0010714704 0.00481921 -0.01641028 0.013365406 -0.0017575113 -0.014864365 0.012432842 0.018395538
0.00080323295 0.0047962046 0.006719436 -0.0028217698 0.0017566001 0.020702386 -0.0018566375 -0.014871176
0.006631132 0.016375503 0.017237984 -0.013422519 0.016850716 0.016076794 0.002762476 0.015469564
0.020020802 0.009470748 -0.013813568 0.0008943382 0.0028779218 -0.00397438 -0.0019556112 0.0043614516
0.029373178 -0.015260481 -0.0015450947 -0.03804359 -0.008627602 -0.0062294835 0.008147993 0.0044199945
-0.012426983 -0.0017427941 0.0008908953 0.009457517 0.00082426734 0.011920754 0.015194865 0.009672165
-0.00082819717 -0.0032540676 0.0030118052 0.0076743425 0.0096165035 0.00039135033 0.0020962516 -0.0037109184
0.017897867 -0.012289143 -0.006895393 -0.00087490556 0.008315419 0.0030494933 -0.000450959 0.040606633
0.026755776 0.0041086865 0.006714521 0.0036453267 -0.046712544 0.00063854456 -0.0027318005 -0.011244251
0.012904152 0.004524808 -0.007330882 0.0053175264 0.013070737 -0.0011363794 -0.01541716 0.0057354732

action_model._continuous_distribution.mu.bias f4 [2]
00000000: 0289 d83a 9bcf 0c3b
0.0016520324 0.0021486047
