GameAI3/Config/results/dwarf_2/Dwarf/Dwarf-500221.pt (torch, 555551 bytes, 36 tensors)

network_body._body_endoder.seq_layers.0.weight f4 [128, 44]
000000 f8 92 54 3e fc 7a 89 be ae 1f c7 3c 51 d5 1c 3e
       0.20759189 -0.26851642 0.024307098 0.15315749
000010 c3 fd 73 bd 93 5a db bd c6 e2 08 be 2b 19 78 be
       -0.059568178 -0.10710635 -0.13367757 -0.24228351
000020 7e 99 ae be 7e 80 23 be 4b ad e2 3e d8 07 47 3e
       -0.3410148 -0.15966985 0.44272837 0.19436586
000030 54 9d 29 be a9 d4 f4 3c c0 6e a8 be 25 63 3d be
       -0.16563922 0.02988656 -0.32896996 -0.18494852
000040 eb bc 70 be 94 ff a2 bc a6 4a 30 3e 6b fe 37 be
       -0.23509566 -0.01989726 0.17215976 -0.17968147
000050 d3 2a c4 bb cd 26 a9 bd 3a ba 01 be 79 85 b7 bd
       -0.0059865504 -0.08259354 -0.12668696 -0.08961005
000060 5e 86 c3 ba 68 98 20 be 5e 62 53 be 1f b1 a4 be
       -0.0014917364 -0.15683138 -0.20642993 -0.32166383
000070 33 19 93 3e 1f 57 b4 bd b6 39 60 be c1 6a 9e be
       0.28730163 -0.088056795 -0.21897015 -0.30940822
000080 c2 48 83 bd 8d ff bb bd 23 18 10 be 53 44 81 3d
       -0.06410362 -0.09179602 -0.14071707 0.0631186
000090 55 37 c0 3d bd c4 3c be cc dc a1 bd a7 b5 43 3e
       0.09385554 -0.18434425 -0.07903442 0.19112264
0000a0 13 ee 95 3e 55 97 c4 3d a9 0c 0a be 67 dd e5 3d
       0.292832 0.09599177 -0.13481392 0.1122387
0000b0 90 cc f2 3c 49 33 bc bd 21 dd 4c be 90 fe 66 be
       0.029638559 -0.09189469 -0.20006229 -0.22558045
0000c0 7b e1 6f be d9 5b 18 3d 12 bf 7a bd 7c dc 0f bd
       -0.23425858 0.037196968 -0.061217375 -0.03512238
0000d0 72 f4 08 3d dc 97 40 3e b9 bc 7a be f3 23 35 bb
       0.033436246 0.1880793 -0.24486054 -0.0027639836
0000e0 32 64 e5 3d d5 01 a6 3d 90 ae c9 3d 14 5a f8 3d
       0.11200751 0.08105818 0.09847748 0.12126556
0000f0 b1 e3 44 be ab 98 01 be f5 05 26 be 19 dc 4f bc
       -0.19227482 -0.12655894 -0.1621321 -0.012686753
000100 e8 55 67 be cc 12 5b be ab 5a a8 bb bb 50 cc 3d
       -0.22591364 -0.21393889 -0.0051377616 0.099763356
000110 6e 77 1b be cf ec ea bd 08 14 17 bd 25 59 92 bd
       -0.15182278 -0.11470949 -0.036884338 -0.07145909
000120 22 68 0c be 7f 9a 79 bd 51 67 4f be 54 d6 34 3d
       -0.13711599 -0.060938355 -0.20254256 0.04414971
000130 a7 66 97 be 5c b2 19 be 0c c7 0b 3e d0 d6 b0 bd
       -0.29570505 -0.15009445 0.13650149 -0.08634722
000140 fd 2b a8 3d bb 72 44 bc 36 b4 5b 3b f3 35 30 bd
       0.08211515 -0.0119902445 0.0033524162 -0.0430202
000150 44 6a 6c be a5 a0 aa bc 72 2f a0 bb 7e ab 85 3c
       -0.23087412 -0.020828554 -0.0048884684 0.016317125
000160 78 0a 4d bd 20 d4 74 3d 4b 77 08 be df 89 11 3d
       -0.050058812 0.05977261 -0.13326757 0.035531875
000170 69 19 1d be 22 7e dc bd 9a 91 a2 3d d1 7e 23 bd
       -0.15341724 -0.107662454 0.079379275 -0.039915863
000180 7a c8 3b be 10 6b 94 bc c4 8e 1e bd 15 5e d3 bb
       -0.18338194 -0.018117458 -0.03871037 -0.0064504244
000190 d4 50 90 be fe 57 65 bd cf ca de be eb ff 80 be
       -0.28186667 -0.05599212 -0.43514106 -0.2519525
0001a0 93 b2 88 bd 6e 4d 8b bd 55 95 6c 3d 39 35 44 be
       -0.06674685 -0.06801878 0.0577596 -0.19160928
0001b0 80 00 9a bd d4 a6 44 bc a6 4a 1c be 1c 35 90 be
       -0.075196266 -0.012002666 -0.15262851 -0.2816552
0001c0 c2 1a 9a be a0 af 0d bd b4 3b bb 3c 74 d7 8b be
       -0.3009854 -0.034591317 0.022855617 -0.27312815
0001d0 8c 0e d9 be c7 e2 0f 3e 3a 43 81 be 91 0b 88 be
       -0.4239391 0.14051352 -0.25246602 -0.26571324
0001e0 56 e9 b0 3c 2d b3 f3 3c b1 21 7b bc 60 2f bb 3d
       0.021595638 0.029748524 -0.015327857 0.091398954
0001f0 c8 6c 58 3e 83 cc f7 bd 20 30 3d bd 7b 3b 20 3e
       0.21135247 -0.120995544 -0.046188474 0.1564769
000200 45 a7 71 3e 21 f5 2b be da f1 4b 3e b5 28 20 be
       0.23598965 -0.16792728 0.19916478 -0.15640529
000210 f6 0f 82 bd 23 1d 06 3e 3e b5 8d 3e b4 46 89 3d
       -0.063507006 0.13097052 0.2767734 0.06702939
000220 d0 6d 7c 3d a1 14 9a bd 26 6e 95 bd db 1e eb 3d
       0.061628163 -0.07523466 -0.072964 0.114804946
000230 1d ac 04 bd f8 51 b9 ba ca 10 fd bd 88 fc a9 be
       -0.032390703 -0.0014138808 -0.12356718 -0.3320048
000240 b3 58 01 be 96 51 8b 3a 95 98 02 bd d6 bf 60 3d
       -0.12631492 0.0010629173 -0.031883795 0.05487045
000250 1c f9 59 3e b3 9b 0e 3e 62 99 fa 3e d2 be 45 be
       0.21286434 0.13926582 0.48945147 -0.19311073
000260 68 be 85 be 4d d1 8e 3e 5b 38 b4 3e 77 83 87 3d
       -0.2612183 0.2789406 0.35199246 0.06616872
000270 87 ec 9e be 7e 8d 41 3d d0 89 c4 3d 4f 4c 2b be
       -0.3103983 0.047254078 0.09596598 -0.16728328
000280 d8 3b b6 bd 35 62 76 3d 2d 03 c5 3e d5 d9 2b bd
       -0.08898133 0.06015225 0.38478985 -0.041955788
000290 2a fb 85 be 54 01 48 bb 94 67 00 3e d2 f6 ea 3d
       -0.26168185 -0.003051837 0.12539512 0.114728585
0002a0 ed fc b7 3c b4 fc fd 3d d2 46 93 3d 53 96 80 3e
       0.022459472 0.12401715 0.07191242 0.25114688
0002b0 e8 fe 89 bd 20 73 08 3e 4b 3b ad be 53 a9 db bb
       -0.06738073 0.13325167 -0.338343 -0.0067035346
0002c0 22 8e 9f be a6 15 5e bd 00 8b 0e be f3 a4 d8 bd
       -0.31163126 -0.054219864 -0.13920212 -0.105783366
0002d0 3c aa ee 3d 4b 70 e8 3d 98 ed 23 be 44 c8 18 be
       0.116535634 0.11349543 -0.16008604 -0.14920145
0002e0 a4 24 2d bc 53 8b 39 bd e7 07 22 3e 75 2f cb be
       -0.010567818 -0.045298886 0.15823327 -0.39684644
0002f0 e6 43 37 be 60 27 01 3e 03 52 3c be a5 c7 6b bd
       -0.17896995 0.12612677 -0.1839066 -0.057563443
000300 3b a1 9d be 51 84 5b bd 77 fe 4b 3e d4 a8 7d bd
       -0.30787072 -0.053592984 0.1992129 -0.061928585
000310 f2 a4 0d be 88 16 58 3e 35 ae fe bd bc 1a 89 3e
       -0.13832453 0.21102345 -0.12435571 0.2677821
000320 ab c5 3d bd b6 74 81 3d f0 bf 40 be 2e 4f 16 bf
       -0.04633109 0.06321089 -0.18823218 -0.5871457
000330 11 3c 09 be f2 e7 12 3d 87 b4 b3 bd 7c 8a 46 be
       -0.1340182 0.03586573 -0.08774667 -0.19388765
000340 4b 9d b6 bd 16 e6 4b be a2 02 7e be 3c 03 69 be
       -0.0891672 -0.1991199 -0.24805692 -0.2275514
000350 27 42 1c be ec b3 1f 3e 57 c1 4c 3e 9c e6 ca 3d
       -0.1525961 0.15595978 0.19995628 0.099072665
000360 4d 8e 0b 3e 04 b5 78 be 5c 18 73 bc c9 24 3c be
       0.13628502 -0.24287802 -0.014837351 -0.18373407
000370 ab e1 bf 3c 86 7f 0f 3d 81 6b 1c be f0 a1 9e 3d
       0.023423037 0.035033725 -0.15275384 0.07745731
000380 c2 9d 9f be 3d 23 56 be 3a a2 bf ba 2a 55 a3 be
       -0.31175047 -0.2091188 -0.0014620491 -0.31900913
000390 78 d1 c3 3d c0 fd 8d 3c 5a 81 66 bb c6 f7 97 3b
       0.09561437 0.017332911 -0.0035172314 0.004637691
0003a0 11 36 1e be 98 e2 6c be d9 34 1b be 73 92 aa be
       -0.15450312 -0.23133314 -0.15156879 -0.33314857
0003b0 47 c3 7e bd 36 43 3e be c1 89 9c 3e 0c 1f 2d 3e
       -0.06219795 -0.18580326 0.30573848 0.16906375
0003c0 3e 6a 4d be d8 84 42 3e 09 44 82 3e 11 bc a9 3e
       -0.2006006 0.18995988 0.25442532 0.33151296
0003d0 9a 80 99 be 4d 36 5e bd 2a 6f a2 3d 64 dc c6 3d
       -0.29980928 -0.054251004 0.07931359 0.09710005
0003e0 e1 4d 6d 3d 35 5b bc bd 71 26 21 bd a2 29 90 be
       0.0579356 -0.09197084 -0.0393433 -0.28156763
0003f0 c0 a8 75 be 7c 76 cb 3c 64 8a 80 3e 6d a7 3e be
       -0.23990154 0.024836771 0.25105584 -0.18618555

network_body._body_endoder.seq_layers.0.bias f4 [128]
000000 0e 7d 3d bd dc 08 ea bc 6f 75 08 be ec 8e e3 bc
       -0.04626184 -0.028568678 -0.13326047 -0.027778111
000010 a2 eb d7 bd 82 3f 68 bd 47 c9 d2 bd 6a 3d 43 bd
       -0.1054299 -0.05670119 -0.10292297 -0.04766599
000020 0d e6 e6 bc b1 b2 dc 3c ff b4 14 bd 07 11 03 bd
       -0.028185869 0.026940675 -0.036305424 -0.03199866
000030 aa ec 17 be 30 d0 a2 bc b1 eb 3b bd 3d 0d 70 bc
       -0.14836374 -0.019874662 -0.04587907 -0.014651594
000040 f2 3f aa bd 51 81 d7 bc eb ec 43 be 3b ab 7f 3b
       -0.08312978 -0.02630678 -0.19133346 0.0039011973
000050 85 ed 90 bd 10 c1 33 bd f2 4a 99 bd 11 6f 4d bd
       -0.07076553 -0.04388529 -0.07484998 -0.05015475
000060 96 bb ae 3c 4f 7a a5 bc 8a 6d 76 bd e3 b9 b7 3c
       0.021329682 -0.020199923 -0.06016306 0.022427505
000070 f1 fc 20 be f9 7d c6 bd 69 92 cc 3b 13 c8 88 3c
       -0.1572149 -0.09691996 0.0062430394 0.016696965
000080 6e b6 6b bd c0 33 0b bd b2 38 06 be d3 58 1c 3d
       -0.057547025 -0.0339849 -0.13107565 0.038170647
000090 54 2c d9 bc 28 d3 76 bc a1 91 49 bc fd ba 90 bc
       -0.026510395 -0.015064992 -0.012302787 -0.017667288
0000a0 96 1b b1 bc c3 3e 88 bd c5 47 4b bd 28 38 38 bd
       -0.0216196 -0.06652596 -0.04962899 -0.04497543
0000b0 3b 5a 6b bd 01 38 77 3d 00 5d d2 bd 39 d2 49 3b
       -0.057459097 0.060356144 -0.102716446 0.0030795468
0000c0 00 95 46 bd ae 18 a6 bc 9e e5 fb bd a6 97 04 be
       -0.04848194 -0.02027544 -0.122996554 -0.12948474
0000d0 85 61 c6 bd 71 fa 0c be 1e e7 d1 bd b1 da 70 bd
       -0.09686569 -0.13767411 -0.1024916 -0.05880231
0000e0 42 a7 4a bc c0 9b 33 bd 0b a3 bc bc 4c 79 a9 bc
       -0.012368979 -0.043849707 -0.023026964 -0.020687722
0000f0 6f d2 6f bd e2 f8 c6 bd 3a d4 0c be f9 65 4c bd
       -0.058550294 -0.097154394 -0.13752833 -0.049901936
000100 72 a4 94 bd 0e e1 23 bd 20 3e 69 3a 0e 91 3e bd
       -0.07257928 -0.04000955 0.0008897502 -0.046525054
000110 da 01 d4 bd ac 53 d8 bd 84 91 5b bd 19 6c 6e bd
       -0.10351916 -0.10562834 -0.05360557 -0.05820856
000120 44 32 41 bd ef e8 c3 bd 7f 25 a1 bc 0f 2b fb bd
       -0.047167078 -0.09565913 -0.0196712 -0.12264072
000130 1c 2b ad bd 92 49 16 bd cf 6c aa 3c 93 78 4d 3c
       -0.08455488 -0.036691256 0.020803837 0.012540954
000140 c9 5f 44 3c 4c 9f 43 bd 71 1b 55 3c 31 78 bb 3d
       0.011985728 -0.04775934 0.013007031 0.09153784
000150 34 f1 01 3c 7c 7e bd 3c 34 6a 2f bd 58 72 b8 bd
       0.007931042 0.023131602 -0.042825893 -0.09006184
000160 2b 87 10 bc 3c e3 04 bd bc 45 90 3c cd 69 bb bd
       -0.008821289 -0.03244327 0.017611377 -0.09151039
000170 36 48 b1 bd 99 6a fe 3c dc 5c ca bc 26 23 0e be
       -0.08656351 0.03105669 -0.024702482 -0.13880596
000180 76 4a 68 bd 4a 88 ad bc cb 0f 85 bd 12 a8 f7 bc
       -0.056711636 -0.021183152 -0.06497153 -0.03023151
000190 77 4a 1b bd dd cc be bc 39 18 01 3d bd b5 12 be
       -0.037912812 -0.023291046 0.03151724 -0.1432714
0001a0 db e3 79 bd 63 d0 20 3d 08 03 b4 bc a2 17 e9 3b
       -0.061008316 0.039261233 -0.021974102 0.007113413
0001b0 e9 28 30 bc 7d 90 45 bd 80 f4 45 bd 89 3f e7 bb
       -0.010751941 -0.048233498 -0.048328876 -0.0070571345
0001c0 b5 67 e2 bd fd ec 9d bc aa 5e 8f bd e9 ac 96 bd
       -0.11054937 -0.019278044 -0.070004776 -0.07357199
0001d0 0a 01 98 bd d1 76 ff bd b0 45 0b be ba 72 da bd
       -0.07422073 -0.12473834 -0.13600802 -0.106664136
0001e0 99 b9 76 3b a4 51 9c bc 25 bd 2b 3d d4 f5 8d bd
       0.0037647246 -0.019081898 0.04192843 -0.069316536
0001f0 80 e9 85 bd 62 97 4a bd 7d b3 19 3d 6a 7d 94 bc
       -0.06538677 -0.049460776 0.03752469 -0.018126208

network_body._body_endoder.seq_layers.2.weight f4 [128, 128]
000000 18 d5 1b 3e 05 4d 00 be 8d 13 e1 3d d9 ef 5f 3d
       0.15218008 -0.1252938 0.10990057 0.054672096
000010 a1 b8 13 be d7 cc 4c 3d 1c ca 90 3e 8a 0a 50 3d
       -0.14425899 0.050000038 0.28279197 0.0507913
000020 76 7c 8a be e1 1b ca 3d 61 ed 65 bd af 28 cb bd
       -0.2704808 0.09868599 -0.056134585 -0.09919869
000030 bb 73 a5 3e 0c 85 1d be ed 54 21 3e b9 1e ff bd
       0.32314858 -0.15382785 0.15755053 -0.12457032
000040 ff c6 18 bd 10 5c 55 3e f5 8c f4 bc a4 b2 27 3e
       -0.037299152 0.208359 -0.02985237 0.1637674
000050 44 5a a4 bd 26 9f aa be cd 21 91 be 8e b4 16 bb
       -0.08025029 -0.33324546 -0.283461 -0.0022995803
000060 33 b3 3c be df 77 17 3e 8b 32 9c 3d 8d 07 fe be
       -0.18427734 0.14791821 0.07626828 -0.49615136
000070 89 62 d6 3d f5 15 75 bd 71 1f dd bd f7 19 f7 3c
       0.10468013 -0.059835393 -0.107970126 0.030163748
000080 cd 4f 3d be 74 6f 44 3d 9d c4 72 3e f1 6b ab 3d
       -0.18487473 0.047957852 0.23707815 0.083701976
000090 e9 7c 62 be db b8 10 be b9 40 af b9 48 02 93 be
       -0.22117962 -0.14133017 -0.00033426823 -0.28712678
0000a0 01 a1 48 be 93 c6 49 be d4 01 c2 bc 87 43 06 be
       -0.19592668 -0.19704656 -0.023682512 -0.13111697
0000b0 b4 3e db bd 07 02 79 3c 9d 0d 90 be 5e b6 19 3e
       -0.10705319 0.015198237 -0.28135386 0.15010974
0000c0 d4 c1 09 3e 6f 5c b5 bc 66 ec 80 be 84 a1 d9 bd
       0.13452846 -0.022138802 -0.25180358 -0.1062651
0000d0 c2 1d 02 3e 76 63 57 3e c2 75 07 bc d7 e8 31 bd
       0.12706664 0.21034035 -0.008267822 -0.043434944
0000e0 18 81 4e be 95 d1 a7 3e c2 6d 05 bd 2f d3 68 3e
       -0.20166433 0.32777086 -0.032575376 0.2273681
0000f0 60 a2 03 3c 07 8a 82 be 46 ed 04 be aa 58 86 3e
       0.008034319 -0.25495932 -0.12981138 0.2623952
000100 38 ed 2f 3e ae 33 f5 3c 88 c4 9e be 9e cb b1 3d
       0.17180336 0.02993187 -0.31009316 0.08681415
000110 83 ff 54 be 2b 04 9b bd 65 b0 2e bd 8d 07 a3 bd
       -0.20800595 -0.07569154 -0.04264869 -0.079604246
000120 34 0d 5d bc 06 8f 41 be 42 90 3a be ec 4c 90 bc
       -0.013491917 -0.18902215 -0.18219092 -0.017614804
000130 15 d6 1e bd 97 7d 49 be 86 67 5f 3d cf 59 87 3e
       -0.038778383 -0.19676815 0.054542087 0.26435706
000140 ff 30 0e be cf 20 79 bd 84 ea a5 bd bf 2d aa 3e
       -0.13885878 -0.060822304 -0.08101371 0.33238026
000150 f2 e4 1b be f4 a3 bf bd e6 df 19 3e 3b c2 ca 3d
       -0.15224054 -0.093574435 0.15026817 0.09900328
000160 db 0c f4 bd 0e ea 38 be a6 ee 4b 3d a3 cf 2f 3e
       -0.119165145 -0.18058035 0.04978814 0.17169051
000170 a3 23 cc bc 35 9c 3f bd c0 56 d1 3d 74 a5 b3 3d
       -0.024919337 -0.04677983 0.102216244 0.08771792
000180 6a 79 42 be 46 84 a8 be a1 a2 49 3e 6d 45 12 be
       -0.18991628 -0.32913417 0.19690944 -0.14284296
000190 1b d6 93 be a2 1b 04 3e 85 db 88 bd 28 9a 91 3d
       -0.28874287 0.12901166 -0.06682495 0.07109481
0001a0 01 4f 30 be 67 54 6d 3d 8b f9 33 3d c0 6b f0 bb
       -0.17217638 0.05794182 0.043939155 -0.0073370636
0001b0 a1 bf 2c 3c 92 53 f3 3c b3 a0 db bd 49 76 98 3c
       0.010543735 0.029702935 -0.1072401 0.01861109
0001c0 ee 77 2b be b8 70 a9 3d 8d ae 88 3e 41 03 9f bd
       -0.16744968 0.082734525 0.26695672 -0.077642925
0001d0 e4 26 83 be b4 4d 0a be 28 87 e3 bd fb 2e 03 3e
       -0.2561561 -0.13506204 -0.111097634 0.1281089
0001e0 77 19 ae 3d a4 69 9b bd b5 1d 0e 3e 63 4f b1 3e
       0.08500951 -0.07588509 0.1387852 0.3463088
0001f0 83 f3 34 3e 00 17 f4 bd 6f f1 13 bd 3a f3 39 be
       0.17671017 -0.119184494 -0.03611892 -0.1815919
000200 9d 24 20 bb a2 79 7c bc a7 0e ee bd b5 bc 2a be
       -0.0024435886 -0.015409859 -0.116238885 -0.16673549
000210 4a ba e6 bd 4d 8c bb 3d fa 84 41 bc 87 c3 3f bc
       -0.112660006 0.091576196 -0.011811489 -0.011704332
000220 eb 69 1b 3e 3e f2 a2 3d 27 08 2b be 39 78 15 bd
       0.15177123 0.0795636 -0.16702329 -0.036491606
000230 ab 4e be 3d 82 19 c0 bd aa a8 8c bd aa e3 39 3e
       0.092923485 -0.09379865 -0.068681076 0.18153253
000240 24 2e 0b 3d 07 42 c7 bd 6e 13 84 3d dd 6f a8 bc
       0.03397955 -0.097293906 0.064490184 -0.020561153
000250 f7 f1 95 be 08 66 89 bc fc 1e 50 3c 45 c0 41 be
       -0.29286167 -0.016772285 0.0127027 -0.18921001
000260 05 07 d4 ba 1d 71 d5 bd ae 82 1f 3d 19 35 88 3e
       -0.0016176408 -0.10421965 0.038942985 0.2660301
000270 3b 74 1c 3e b2 a0 4a be 43 65 c4 bd 99 13 95 3d
       0.15278713 -0.19787863 -0.09589627 0.072791286
000280 ea a6 db bd 84 e6 dd bd 71 89 7a 3d 1a ea 51 be
       -0.10725196 -0.10834983 0.06116623 -0.20499459
000290 64 97 2c 3e 3a 74 26 3e 67 94 03 be 57 2a 53 bb
       0.16854626 0.16255274 -0.1284958 -0.0032221281
0002a0 18 eb be 3d c9 e6 18 bd b7 3c b2 3c 9d bd 8b bd
       0.09322184 -0.03732947 0.021757467 -0.06823275
0002b0 16 1a be bd 48 91 18 3d ab 7b 5b bd da 6f ac bd
       -0.09282319 0.037247926 -0.053584736 -0.084197715
0002c0 f8 c6 d2 bd 14 bf 93 3d 8a 53 a3 bd ac 11 ed 3d
       -0.102918565 0.0721418 -0.07974918 0.11575636
0002d0 df a1 20 3c e2 3f bb 3d a5 6a aa 3d 1f 48 ff bb
       0.009804218 0.09143044 0.08321122 -0.00779058
0002e0 0c 70 28 bd bc aa 0b 3e e2 fc fd bc 7a c2 b0 3c
       -0.04112248 0.13639349 -0.031004373 0.021577109
0002f0 91 76 95 be e5 7c 42 bc 08 cc ab 3d d3 cf 3e be
       -0.2919202 -0.0118705975 0.08388525 -0.18633966
000300 3f 4d bb 3d 13 ab 84 3d c4 6f 01 3e 52 89 cc 3d
       0.09145593 0.06477942 0.12640291 0.09987129
000310 74 ca 40 3e f8 6f fd bd d4 f5 01 bc ce 63 0e 3e
       0.1882723 -0.12374872 -0.007932145 0.1390526
000320 b4 31 74 bc 30 fe 9e bc 19 ca 7a bd df 9d 49 3e
       -0.014904428 -0.019408315 -0.06122789 0.1968913
000330 04 08 7e 3d 90 8b 97 be 25 46 07 3d 82 07 e2 bd
       0.062019363 -0.29598665 0.03302588 -0.11036588
000340 44 09 7b bd 1d 84 78 3b eb a7 28 3d 51 01 bb 3c
       -0.061288133 0.0037920543 0.041175764 0.022827776
000350 49 16 58 be 15 a0 39 bc b4 e3 24 be e9 90 72 3d
       -0.21102251 -0.01132967 -0.16102487 0.05922023
000360 fa 87 4b bd f2 99 52 3c 88 8c ed bd ce 3f 2b 3d
       -0.049690224 0.012854086 -0.1159907 0.041808896
000370 2c 8d d8 3c fa 39 4a 3d db d1 d8 3d 42 e8 c2 3c
       0.026434503 0.049371697 0.10586902 0.02379239
000380 b4 c1 d1 bd a5 6f dc 3d 9e 10 2f bd 48 fd 11 bd
       -0.10242024 0.10763482 -0.042740457 -0.03564194
000390 47 47 81 bd 6a c0 59 bd ac c4 36 be 4b 1c c0 3d
       -0.06312423 -0.053162016 -0.17848462 0.093803965
0003a0 58 a7 b7 bc 36 a2 5a bd 4d 92 91 3d 84 95 53 be
       -0.022418663 -0.053377353 0.07107983 -0.20662504
0003b0 9b e9 00 be e4 c6 d8 bd 53 05 ae bd 99 5c ac 3d
       -0.12589113 -0.105848104 -0.08497109 0.08416099
0003c0 aa 17 06 bd 47 0d 23 bd b8 0f 84 3e 48 5b 0b bd
       -0.03273741 -0.039807584 0.25793242 -0.0340226
0003d0 8f ab c5 3d 4d 9b 8f bd 95 7a 3d bd 64 be 2f 3e
       0.09651863 -0.07012043 -0.04625948 0.17162472
0003e0 81 da b5 bd 93 87 88 3d 19 fa 3b be ed 55 e0 3d
       -0.08879567 0.06666484 -0.18357123 0.10953889
0003f0 e9 cb 49 3c 96 4e 13 3d fc f3 6d 3c 8b b5 a1 bc
       0.012316682 0.035963617 0.014523502 -0.019739887

network_body._body_endoder.seq_layers.2.bias f4 [128]
000000 f3 31 1f be af e6 81 bc df 7d 38 be 61 1c 01 be
       -0.15546398 -0.015857069 -0.18016766 -0.12608482
000010 3f ac 54 be 4f 13 df bd 65 c4 73 3c 26 51 38 bd
       -0.20768832 -0.10892355 0.014878367 -0.044999264
000020 40 e7 b5 bd ab 90 25 bd eb f4 83 bd ca 0c d8 bd
       -0.08881998 -0.04042117 -0.06443199 -0.10549314
000030 91 fe 5c 3b d4 a9 5f 3d 50 a7 4e bd 1c 98 b5 bc
       0.003372107 0.05460532 -0.05045253 -0.022167258
000040 d3 ca 65 bd 87 f6 a4 bc a4 9e 84 b9 3b e0 cb bd
       -0.05610163 -0.020137085 -0.00025295198 -0.09954878
000050 c7 81 8d bc 2a 3e 7c bd e3 ac 94 bd 9d 92 03 be
       -0.017273797 -0.06158272 -0.07259538 -0.12848897
000060 35 73 e7 bc 3b da c4 bd 53 6a 06 bd 9c a7 83 3d
       -0.028253177 -0.09611937 -0.032816242 0.06428453
000070 63 63 8f bd db 62 7b bd 01 86 6f bd a0 44 06 3c
       -0.070013784 -0.061373573 -0.058477405 0.008195072
000080 14 a9 9c bd 1a 0e 7f bc ea 9b de bd 2e 65 51 bd
       -0.076494366 -0.015567327 -0.10869582 -0.051121883
000090 35 e5 d2 bd 30 81 55 be 50 49 56 be 0f 6b e8 bd
       -0.10297624 -0.20850062 -0.20926404 -0.11348545
0000a0 92 a2 4b bd c4 46 69 bd 26 06 9e bd 2b 57 04 be
       -0.049715586 -0.056952253 -0.077160165 -0.12923877
0000b0 40 3c 69 be f1 fa f3 bc d5 3f a6 bc 4b f5 c3 bd
       -0.2277689 -0.029782744 -0.02029411 -0.0956827
0000c0 0f 82 12 be 1b 7f e7 bd 44 21 5c bd 03 c7 1e be
       -0.14307426 -0.1130354 -0.053742662 -0.15505604
0000d0 2c 52 15 bc 21 f0 af bd 85 1a fe 3c a4 86 8d bc
       -0.00911383 -0.08590723 0.031018505 -0.017276116
0000e0 21 6e f9 bc 9c 24 07 3c 93 17 8b bd 52 42 0a ba
       -0.030448021 0.008248474 -0.06791606 -0.0005274165
0000f0 ca 2b da bd 5f a4 a1 bd 20 91 b8 bc 9c 97 74 bc
       -0.10652883 -0.078926794 -0.022530138 -0.014928725
000100 c9 30 41 bd 44 cb da bd 71 07 3f be fd 92 bb bd
       -0.047165666 -0.10683301 -0.18655182 -0.09158895
000110 d3 dd e5 bd ee e5 b0 bd d7 ef ef bc 94 f1 2c be
       -0.1122395 -0.086376056 -0.02928917 -0.1688903
000120 34 f1 95 bd 78 02 02 3c 4f 61 0d be aa 89 0c bd
       -0.073213965 0.007935159 -0.13806652 -0.034310974
000130 88 e5 22 be 42 ba 58 3c e2 a9 26 bd c0 7c 47 bd
       -0.15907872 0.013228001 -0.040689357 -0.048702955
000140 39 1b 3d be 10 99 44 be c4 25 72 bc 7b 26 3d bd
       -0.18467416 -0.19199014 -0.014779512 -0.046179276
000150 a0 aa b9 bd 1f 89 39 3d 69 e1 e1 bd 86 eb a2 bd
       -0.09065747 0.045296784 -0.11029322 -0.07955079
000160 be c8 f0 bb e1 ef 0d 3d 55 cd b0 bd 8b 5b 1f be
       -0.007348149 0.034652594 -0.08632914 -0.15562265
000170 64 26 bc bd 9f c0 4e be 57 b2 3f bd 3f df c6 bc
       -0.0918701 -0.20190667 -0.046800938 -0.024276374
000180 36 72 33 be 2b 10 cb 3c e7 22 5d be 9b 45 23 be
       -0.17524037 0.024787983 -0.21595345 -0.15944521
000190 a4 37 40 bc 9e 79 06 bd 8d 80 52 3d 3f 25 4e be
       -0.011732016 -0.032830827 0.051392127 -0.20131396
0001a0 9b 16 f2 bc 5a 71 24 be c4 10 f3 bd 55 b5 ef ba
       -0.029551795 -0.16058865 -0.11868432 -0.0018288294
0001b0 ae 16 08 3d f7 c0 2d be e5 35 84 bd 68 21 a4 3b
       0.033224754 -0.16968141 -0.06455592 0.005008865
0001c0 35 4e a5 3b 3b 88 9f bd cd f0 79 bd 9b 62 ec 3c
       0.0050447234 -0.07789656 -0.06102066 0.028855613
0001d0 1d 2c fc bd c9 f4 42 be af 16 b3 bd 82 42 60 bd
       -0.123131014 -0.1903869 -0.08744561 -0.054750927
0001e0 81 b3 04 3d 2a 3d 0f be a0 a1 d5 bc c1 2f c1 bc
       0.03239775 -0.13988176 -0.026078045 -0.023582341
0001f0 6b 5d a1 bd 73 9d d3 bd 90 c1 72 bc 04 76 2b be
       -0.07879146 -0.103327654 -0.014816657 -0.16744238

action_model._continuous_distribution.log_sigma f4 [1, 2]
000000 3c 16 05 bf 0f b6 f2 be
       -0.5198705 -0.47404525

action_model._continuous_distribution.mu.weight f4 [2, 128]
000000 ff d6 fb bb da b5 3c 3b 66 17 1b bc 93 13 37 bb
       -0.0076855416 0.0028794915 -0.009466028 -0.002793525
000010 60 76 f4 3c 27 a7 2d bc 16 2b 8a bd 30 40 b3 3d
       0.029841602 -0.010598934 -0.06746499 0.08752477
000020 64 c0 0a 3d e8 bf c3 bb 44 a4 cf 3c f6 4d 65 3b
       0.033874884 -0.0059738047 0.025346883 0.0034989095
000030 e6 94 8b 3d 17 4b 78 3d 5b 3f f4 bc 22 a0 82 3d
       0.068155095 0.060618486 -0.029815366 0.06378199
000040 d3 8c 15 3c 46 16 ac 3d 15 f1 6c bd 1b 91 3f bc
       0.009127813 0.08402686 -0.0578471 -0.011692311
000050 09 1a 3c bd 71 95 00 3d b0 fa 18 3d 36 03 44 3d
       -0.045923267 0.03139252 0.03734845 0.047854625
000060 a2 17 76 3c df ad b1 3c fe ca 38 3d fe 0d 52 3d
       0.015020283 0.021689354 0.045115463 0.051282875
000070 64 15 a4 3b 1e 3c 1a 3d 31 2d 2a 3c 80 82 42 3c
       0.005007433 0.03765499 0.010386751 0.011871934
000080 99 d7 03 3d 0f 6c 25 3d c8 ad 29 3d 1f 00 85 3c
       0.03218803 0.040386256 0.041425496 0.01623541
000090 3e be 9f bc e1 b0 80 3c 79 0d 0a 3c e4 58 04 3d
       -0.019499894 0.015709342 0.008426064 0.032311335
0000a0 5e 5a bd bc 5d 45 5b 3c 0f dc d0 3c ee 82 5f 3c
       -0.02311438 0.013383237 0.025495557 0.013642056
0000b0 5f 98 25 3c ce 5e 85 bb 1b 55 71 3d 82 6b 84 3c
       0.010107129 -0.0040701395 0.058919054 0.016164545
0000c0 87 0d 93 3c 5c a3 da 3c 28 4c 42 3b d5 5c 41 3c
       0.017950786 0.026689224 0.0029647443 0.011801918
0000d0 06 ce cc 3d 40 a1 1a 3c b0 72 a8 3d ce ae 25 bd
       0.10000233 0.009437859 0.08225 -0.04044991
0000e0 f2 07 21 bd 72 37 26 3d c6 d8 01 3d d4 8a 5f 3d
       -0.039314218 0.04058022 0.031700872 0.054575756
0000f0 12 b1 44 3b f4 33 03 3d 4f 53 dc 3c 42 f1 94 bd
       0.0030012769 0.03203197 0.026895193 -0.07272579
000100 a7 84 48 bc 56 ef 01 3c 5b 67 91 3c 26 dd 3d 3d
       -0.012238658 0.007930597 0.017749479 0.04635348
000110 43 a7 41 3c 93 b2 b9 3c 58 8d 84 bc 8e e0 ad bb
       0.011819663 0.022668159 -0.01618068 -0.00530631
000120 7c f8 2a bd 7c a5 09 bd 18 62 cb ba 4a 51 3f bc
       -0.04174088 -0.033605084 -0.0015516905 -0.011677096
000130 f6 cc b7 3c 0c 9a 82 3b ca 9b 79 bc 30 a7 85 3d
       0.0224366 0.003985649 -0.015234897 0.06526029
000140 9b 33 15 bc 00 be 0c bc 4b 67 8e 3d 76 64 f3 bc
       -0.009106542 -0.008590221 0.06953295 -0.02971099
000150 b3 68 61 3d c1 0d 5e 3d bd 00 34 3d 5c 75 89 3c
       0.05503149 0.054212335 0.043946017 0.016779594
000160 fe 29 39 bd a4 53 a8 3b 7c e5 99 bc 7e 51 e1 bc
       -0.045206062 0.005136924 -0.018786184 -0.027504679
000170 79 4d 40 3d 2a 9c 97 3c a3 68 f7 bc 60 60 f4 3c
       0.046948884 0.018507082 -0.030201262 0.029831111
000180 ba d6 61 3b c5 33 54 3d c0 9e e4 3b 57 92 ea 3c
       0.0034460262 0.051807184 0.0069769323 0.028634233
000190 69 c9 97 bd d1 77 0e bd ff 23 0a bd d2 cd e6 3b
       -0.07411463 -0.034782235 -0.033725735 0.0070435787
0001a0 ed 73 2a bc 04 62 87 3a 70 84 ab b9 c0 5a b1 3c
       -0.010403615 0.0010328894 -0.00032714335 0.021649718
0001b0 de 6d 51 3d 7a a3 85 bc db 74 36 3b 63 14 4f 3d
       0.05113017 -0.016313303 0.0027840647 0.05055655
0001c0 af ca 9c bb ab 0a 35 3c 99 96 03 3d 0e 89 55 3d
       -0.004784904 0.011049907 0.032126043 0.05213266
0001d0 46 74 e6 bb 64 d9 df 3c e6 41 c8 3c ce 4b 88 bc
       -0.007032904 0.02732534 0.024445485 -0.016637709
0001e0 53 ca 2e 3d 6b 82 38 bc e3 a1 fd 3d 92 f5 9f 3d
       0.04267342 -0.011261563 0.12384393 0.07810511
0001f0 14 b2 91 bb 4d 20 a1 bb fe b4 23 3c 1b 02 26 3c
       -0.0044462774 -0.0049171806 0.009991882 0.010132338
000200 fe 1f c1 bc 82 3d 7a 3b 0f b1 4f 3d 4c 27 a3 3b
       -0.023574825 0.0038183634 0.050705966 0.00497905
000210 42 6f 73 3d 61 4d 56 3d bd 72 00 3c 25 9e 32 3d
       0.059432276 0.052319888 0.007839856 0.04360785
000220 39 92 88 3d 7d 59 c3 3d 46 44 6b 3d 49 dc 6f 3d
       0.06668515 0.09538553 0.057438157 0.05855969
000230 33 52 37 bd 19 6b 9f bd 0e f6 c2 3d dc 18 6d 3c
       -0.044756126 -0.07784099 0.095195875 0.014471259
000240 e5 0c 77 3d ed 37 18 3d 08 9e ed 3b 9b 6b 52 3d
       0.06031503 0.03716271 0.007251505 0.05137215
000250 0c 32 86 3d 16 a3 96 3d 43 b7 1b 3d a8 76 89 3d
       0.065525144 0.07355325 0.03801657 0.06712085
000260 8d 35 c6 3b 4a 0d 82 3d ae f5 a7 3d 31 04 2e bd
       0.006048864 0.06350191 0.082011566 -0.042484466
000270 70 11 7f 3d dc 97 84 3d 2e 65 7f 3d 4c 48 7e bd
       0.06227249 0.064742774 0.06235235 -0.062080666
000280 92 27 7c 3d be 5c ab bc ac f4 98 3b 1f e7 a8 3b
       0.061561175 -0.020918246 0.004667839 0.005154505
000290 79 d8 2a 3d d3 fc 94 3d 04 1c 25 3d b7 81 8f 3d
       0.04171035 0.07274785 0.04030992 0.07007163
0002a0 ca 79 56 3d e7 fe 8c 3d 6f b3 78 3d 90 15 db 3c
       0.05236224 0.06884556 0.060717996 0.02674368
0002b0 a3 91 91 3d f2 4a 0d 3d 46 7a c4 3a cb cc 92 3d
       0.07107856 0.0344953 0.0014990054 0.071679674
0002c0 cb 0f 97 3d 6a 2e 92 3d bb 24 c2 3d 4d 75 33 3d
       0.07376059 0.07137759 0.09479662 0.04381304
0002d0 78 0d 8c bc f1 de 8e 3d cb 23 66 bd 34 8f 9e 3c
       -0.017096266 0.069761164 -0.05618648 0.019355394
0002e0 99 1c 6c 3d ee b8 d7 bc 7c 13 04 3d ed 1d 58 bc
       0.05764446 -0.026333299 0.032245144 -0.013190729
0002f0 05 f2 7e 3d cd 3a 65 3d e0 29 4d bc ae 27 11 3c
       0.062242527 0.05596428 -0.012522191 0.008859558
000300 93 28 9a 3d 0c 58 4e 3d 8d 80 34 3d 3e 03 74 3d
       0.0752727 0.050376937 0.044067908 0.059573404
000310 81 67 78 3d d9 9f 9c bb a1 67 a1 3d fe 81 12 3d
       0.060645584 -0.0047797975 0.07881094 0.0357685
000320 fa a0 ce 3b bc 32 c9 bc 3a 71 4b 3d 01 09 d0 3c
       0.006305811 -0.024560325 0.04966853 0.025394918
000330 5e 77 b5 3c 9c bc 86 bd 96 98 c8 3c 6a 85 b8 3c
       0.022151645 -0.06578943 0.024486821 0.022524554
000340 ed 59 86 3d 71 03 22 3d 00 29 09 3d 84 cb a7 3d
       0.06560121 0.039554063 0.033486366 0.081931144
000350 18 32 53 3d 55 71 16 bd 8c 60 75 3d e7 68 93 3d
       0.051561445 -0.036729176 0.059906527 0.07197743
000360 5b 7a bc 3b 0d 4c 88 bd 1d ac 66 3d f4 51 7a 3d
       0.0057518906 -0.066551305 0.056316484 0.061113313
000370 d5 ed b5 3d 9d 99 94 3d 46 7f e8 3d 82 86 4a bc
       0.088832535 0.07255862 0.113524005 -0.012361171
000380 6d 41 7d 3d 86 ff 91 3c 36 fc 91 3d e7 77 9c 3d
       0.061829973 0.017822038 0.071281835 0.07640057
000390 b3 ae c5 3d 14 96 21 3d 35 0f 94 bd 31 bf 1f 3d
       0.09652462 0.039449766 -0.07229463 0.039000694
0003a0 32 f7 a9 3d 9b f2 5a 3d 9f 0d 50 3d 97 19 de 3c
       0.08299102 0.053454023 0.05079424 0.027111812
0003b0 78 41 86 bd 81 a6 5b 3d 32 17 7e 3d 9f 79 14 3d
       -0.06555456 0.053625587 0.06203384 0.0362488
0003c0 2f 6a 59 bd c3 2a 43 3d 34 86 47 3d b9 84 65 bd
       -0.05307978 0.047648203 0.04871197 -0.056034777
0003d0 51 17 54 3d 08 c2 95 3d 73 26 83 3d 36 74 77 3d
       0.05178005 0.07312399 0.06403818 0.06041356
0003e0 ce 64 b5 bd 42 6b 4e 3d b3 01 8a 3d ed 08 b7 3d
       -0.088571176 0.050395258 0.06738605 0.08937249
0003f0 93 23 42 3d f8 a9 59 bd 5e 30 95 bd 53 72 88 3d
       0.047397207 -0.05314061 -0.07284616 0.066624306

action_model._continuous_distribution.mu.bias f4 [2]
000000 6c d8 a8 bb 7f dd 1e bd
       -0.0051527526 -0.038785454

exp_avg f4 [128, 44]
000000 d2 00 cb b6 04 00 00 80 24 55 bb 96 c5 b5 d9 b5
       -6.049967e-06 -6e-45 -3.026521e-25 -1.6220662e-06
000010 f4 f7 ca b6 04 00 00 00 a9 ee 8d b0 a8 8b 98 b5
       -6.0489347e-06 6e-45 -1.0326932e-09 -1.1365528e-06
000020 90 ce ca b6 04 00 00 80 00 0b c9 b1 ab 13 f7 b5
       -6.044116e-06 -6e-45 -5.8511205e-09 -1.8408658e-06
000030 d8 e4 c9 b6 04 00 00 00 ff fc 0d b3 a0 7c 89 b5
       -6.0169077e-06 6e-45 -3.305922e-08 -1.0243566e-06
000040 04 a7 af b6 04 00 00 00 71 ce 5a b5 aa 40 0b b6
       -5.2348496e-06 6e-45 -8.151174e-07 -2.0750253e-06
000050 bf 44 b3 b6 04 00 00 00 9f e0 3d b5 ed 94 fc b5
       -5.342619e-06 6e-45 -7.0734853e-07 -1.8818806e-06
000060 80 e6 8f b6 04 00 00 00 4e 69 ec b5 0d 53 31 b6
       -4.288566e-06 6e-45 -1.7614018e-06 -2.6423397e-06
000070 72 9b a9 b6 04 00 00 80 83 95 85 b5 01 57 1d b6
       -5.0546887e-06 -6e-45 -9.952786e-07 -2.3445466e-06
000080 42 f2 3a b6 04 00 00 00 64 0f 5b b6 81 3c 87 b6
       -2.7857172e-06 6e-45 -3.2642502e-06 -4.030357e-06
000090 5a 20 f5 37 7f dc c9 b8 b9 fb 27 b5 4e 8b f7 37
       2.922134e-05 -9.6254975e-05 -6.257865e-07 2.9509563e-05
0000a0 20 79 02 38 00 00 00 00 43 32 87 b6 91 ec b2 36
       3.110722e-05 0.0 -4.0291648e-06 5.3323533e-06
0000b0 79 20 73 b9 04 00 00 00 02 93 05 18 80 3f 28 b8
       -0.00023186383 6e-45 1.7264067e-24 -4.011346e-05
0000c0 a7 d0 73 b9 04 00 00 00 a7 2a 30 35 c9 03 e6 b7
       -0.00023252015 6e-45 6.5627177e-07 -2.74199e-05
0000d0 3d 3a 73 b9 04 00 00 00 61 12 ce 33 5c 30 42 b8
       -0.00023195981 6e-45 9.5959656e-08 -4.6298243e-05
0000e0 99 2c 7a b9 04 00 00 00 b7 83 e1 36 8e 7b df b5
       -0.00023858472 6e-45 6.720856e-06 -1.6650754e-06
0000f0 c1 12 7e b9 04 00 00 00 38 24 2f 37 62 0b 32 b8
       -0.00024230314 6e-45 1.0439246e-05 -4.2449108e-05
000100 e8 3e 61 b9 04 00 00 00 7e 0c 8f b7 93 fd 3b b8
       -0.00021481107 6e-45 -1.7052746e-05 -4.4820434e-05
000110 ea 4d 71 b9 04 00 00 00 90 48 e9 b5 4f 80 95 b8
       -0.00023012576 6e-45 -1.7380971e-06 -7.128773e-05
000120 47 71 61 b9 04 00 00 80 a1 79 8d b7 da 17 47 b8
       -0.00021499871 -6e-45 -1.6865148e-05 -4.746751e-05
000130 a2 32 ad 38 04 00 00 00 e6 dc a4 b9 fb dd 9c b9
       8.258714e-05 6e-45 -0.000314451 -0.00029920027
000140 b1 c9 92 3a 61 c2 71 bb 6f 2f c9 b7 d4 2d 8c 3a
       0.0011199025 -0.003688954 -2.3983155e-05 0.001069481
000150 60 37 a6 3a 00 00 00 00 4f e7 39 ba cd c4 8b b9
       0.0012681298 0.0 -0.00070916576 -0.00026658774
000160 54 06 9c 37 04 00 00 80 13 a9 0d 17 3b 61 31 35
       1.8599596e-05 -6e-45 4.577296e-25 6.607913e-07
000170 9f 0a 9c 37 04 00 00 80 a2 5d 09 b1 8b f9 9a 35
       1.8601595e-05 -6e-45 -1.9989348e-09 1.1546521e-06
000180 16 b0 9e 37 04 00 00 00 71 70 aa b4 66 4e 22 36
       1.8917064e-05 6e-45 -3.174678e-07 2.4185515e-06
000190 80 fe 9b 37 04 00 00 80 f7 7c 7a 31 a3 5e 81 36
       1.859595e-05 -6e-45 3.6450822e-09 3.8555168e-06
0001a0 8a fe 6a 37 04 00 00 00 3b 1c 9a 36 37 3f ce 36
       1.4006751e-05 6e-45 4.592844e-06 6.1466376e-06
0001b0 89 0e a9 37 04 00 00 00 39 83 d0 b5 e2 23 4a 36
       2.0153138e-05 6e-45 -1.5535398e-06 3.0121232e-06
0001c0 3e 5e 65 37 04 00 00 00 d8 5c a5 36 59 82 0c 37
       1.3671406e-05 6e-45 4.9281916e-06 8.374999e-06
0001d0 77 4f bf 37 04 00 00 80 89 24 8d b6 5c ab 06 36
       2.2805978e-05 -6e-45 -4.2063807e-06 2.00673e-06
0001e0 9c 81 93 36 04 00 00 00 d8 4b 6e 37 26 94 78 37
       4.39603e-06 6e-45 1.4203564e-05 1.4816445e-05
0001f0 5d 66 bc b8 a7 25 9b 39 e9 1b 01 36 0e 35 b1 b8
       -8.983605e-05 0.00029591957 1.9238744e-06 -8.4499e-05
000200 f6 65 d9 b8 00 00 00 00 e6 d6 52 38 b7 ac ca b7
       -0.00010366358 0.0 5.026804e-05 -2.4160703e-05
000210 ac a8 16 b9 04 00 00 80 b6 bb 10 99 84 a8 f0 38
       -0.0001436795 -6e-45 -7.4825334e-24 0.0001147548
000220 9e 64 17 b9 04 00 00 80 be f5 3b 35 a3 eb 17 39
       -0.00014437965 -6e-45 7.002053e-07 0.00014488264
000230 d2 f7 16 b9 04 00 00 80 16 47 9e 34 31 ff f8 b7
       -0.00014397435 -6e-45 2.9481515e-07 -2.9682737e-05
000240 01 3a 30 b9 04 00 00 80 88 8a cc 37 ad 49 03 39
       -0.00016806276 -6e-45 2.4383204e-05 0.0001252058
000250 af 91 ae b8 04 00 00 80 64 7f 7d b8 9f ac a5 b8
       -8.324102e-05 -6e-45 -6.0438542e-05 -7.899966e-05
000260 a8 91 96 b9 04 00 00 00 9d 7a 16 39 c4 4a de 38
       -0.00028718752 6e-45 0.00014350792 0.00010599711
000270 df fd f9 b9 04 00 00 00 86 a9 ae 39 ed 3f 73 39
       -0.0004768213 6e-45 0.0003331417 0.000231981
000280 e1 34 e8 b9 04 00 00 80 8b e0 9c 39 12 09 4c 39
       -0.00044289886 -6e-45 0.00029921936 0.00019458335
000290 ce 27 0a ba 04 00 00 00 44 fb c8 39 62 b6 91 39
       -0.00052702136 6e-45 0.0003833418 0.0002779244
0002a0 ad eb 35 3a ba cf 15 bb 79 56 79 b7 9d 5e 50 3a
       0.00069397205 -0.002285941 -1.486169e-05 0.0007948669
0002b0 b3 02 c8 3a 00 00 00 00 a1 c0 a2 b8 60 f1 1e b9
       0.0015259593 0.0 -7.760642e-05 -0.00015157973
0002c0 73 dd 51 ba 04 00 00 00 3d 1b 28 99 1a 06 a3 b9
       -0.0008005716 6e-45 -8.690897e-24 -0.0003109433
0002d0 77 00 52 ba 04 00 00 00 75 0f 0c 35 1b 08 d3 b9
       -0.00080109335 6e-45 5.2176557e-07 -0.00040251095
0002e0 02 92 50 ba 04 00 00 80 38 b8 a5 b6 eb 2f 6d b8
       -0.0007956327 -6e-45 -4.938829e-06 -5.654983e-05
0002f0 c6 da 57 ba 04 00 00 00 4a aa bf 37 3f bc cd b9
       -0.0008234199 6e-45 2.2848271e-05 -0.000392409
000300 4a c9 47 ba 04 00 00 80 9f 42 21 b8 a7 a8 8e b8
       -0.0007621242 -6e-45 -3.8447437e-05 -6.8025016e-05
000310 e4 5f 60 ba 04 00 00 80 f5 26 68 38 82 fd c0 b9
       -0.00085592107 -6e-45 5.5349392e-05 -0.00036809972
000320 3b 37 1d ba 04 00 00 80 e0 98 52 b9 76 11 4f b9
       -0.00059973047 -6e-45 -0.00020084111 -0.00019747563
000330 69 51 cc b9 04 00 00 00 7d 69 d7 b9 39 11 25 ba
       -0.00038970567 6e-45 -0.0004108659 -0.0006296817
000340 ae b3 5f ba 04 00 00 80 b9 63 5d 38 4c ec d7 b8
       -0.0008533549 -6e-45 5.278338e-05 -0.000102960126
000350 7b 69 7d 3b 3e af 50 bc 52 a9 ad b8 55 fc 60 3b
       0.0038667608 -0.0127370935 -8.280821e-05 0.003433009
000360 09 a0 5c 3b 00 00 00 00 54 a7 e0 3a 27 fe 09 3b
       0.0033664724 0.0 0.0017139711 0.0021056028
000370 24 c2 b6 b9 04 00 00 00 3c 05 33 19 1a 9a 3e b9
       -0.0003485839 6e-45 9.25514e-24 -0.0001817722
000380 e9 d6 b6 b9 04 00 00 00 27 f4 25 34 e1 24 cd b9
       -0.00034873866 6e-45 1.5455645e-07 -0.00039128124
000390 98 b0 bc b9 04 00 00 00 62 ce 3d 37 e2 75 87 38
       -0.00035989727 6e-45 1.131333e-05 6.459259e-05
0003a0 d3 ab bb b9 04 00 00 00 d0 35 1d 37 cb 3a e3 b9
       -0.00035795438 6e-45 9.370458e-06 -0.00043340618
0003b0 b4 eb 2b b9 04 00 00 00 93 98 41 b9 40 6f e9 b8
       -0.00016395637 6e-45 -0.00018462753 -0.00011131028
0003c0 46 d6 fb b9 04 00 00 00 49 28 0a 39 e9 8e 7b b9
       -0.00048034097 6e-45 0.00013175713 -0.00023990464
0003d0 87 d8 48 39 04 00 00 00 30 97 0d ba c8 96 db b9
       0.00019154149 6e-45 -0.0005401252 -0.00041883276
0003e0 19 71 1b b9 04 00 00 80 35 13 52 b9 ca b5 b8 b9
       -0.00014824084 -6e-45 -0.00020034316 -0.00035230658
0003f0 8f bf 27 b9 04 00 00 00 b0 c4 45 b9 76 2d 4f b9
       -0.00015997722 6e-45 -0.00018860656 -0.00019757994

exp_avg_sq f4 [128, 44]
000000 59 bb 97 31 f4 01 00 00 8e a4 30 2e 24 90 46 2f
       4.4159774e-09 7e-43 4.016392e-11 1.8059204e-10
000010 44 d0 97 31 f4 01 00 00 fd 18 24 2e c4 64 27 2f
       4.4183555e-09 7e-43 3.7311477e-11 1.522436e-10
000020 69 4f 89 31 f4 01 00 00 1a 5d 08 30 be 4b 36 30
       3.9962527e-09 7e-43 4.9608817e-10 6.631885e-10
000030 ce d2 97 31 f4 01 00 00 46 bb 1f 2e 74 7d 51 2f
       4.418644e-09 7e-43 3.6318747e-11 1.9053009e-10
000040 4b 46 85 31 f4 01 00 00 93 02 2f 30 38 16 48 30
       3.878801e-09 7e-43 6.366829e-10 7.279115e-10
000050 09 f1 96 31 f4 01 00 00 4b 3c 6c 2e e2 5c a6 2f
       4.392977e-09 7e-43 5.371374e-11 3.026122e-10
000060 90 00 6d 31 f4 01 00 00 21 a4 83 30 4e e2 98 30
       3.4488359e-09 7e-43 9.578153e-10 1.1123775e-09
000070 9e c5 95 31 f4 01 00 00 ab 54 c4 2e 22 29 07 30
       4.358937e-09 7e-43 8.928088e-11 4.9171167e-10
000080 ca 3a 7a 31 f4 01 00 00 d7 e9 62 30 64 f3 b5 30
       3.6413206e-09 7e-43 8.255063e-10 1.3238659e-09
000090 55 d0 de 33 f0 19 97 35 44 47 51 2e ac fe bb 33
       1.0375576e-07 1.1257926e-06 4.7584395e-11 8.7541906e-08
0000a0 92 94 0f 34 00 00 00 00 15 d0 6b 31 49 4b 89 31
       1.3371962e-07 0.0 3.4315282e-09 3.9957837e-09
0000b0 f4 0c 29 37 f4 01 00 00 2a a7 3a 35 66 9b 7d 35
       1.0076201e-05 7e-43 6.9533655e-07 9.447598e-07
0000c0 68 2f 27 37 f4 01 00 00 b0 31 58 35 2d 81 8d 35
       9.965013e-06 7e-43 8.0538575e-07 1.0542914e-06
0000d0 0c 7d 35 37 f4 01 00 00 5a 28 4f 33 d8 1e b5 34
       1.0817555e-05 7e-43 4.8232643e-08 3.373632e-07
0000e0 af 7d 24 37 f4 01 00 00 ea b6 8a 35 2d 63 bb 35
       9.804425e-06 7e-43 1.0335036e-06 1.396145e-06
0000f0 a6 ac 34 37 f4 01 00 00 89 a2 c0 33 09 ed dd 34
       1.0769034e-05 7e-43 8.970262e-08 4.1336924e-07
000100 1e c5 22 37 f4 01 00 00 dc 14 ae 35 6b 1e f4 35
       9.701847e-06 7e-43 1.2970081e-06 1.818827e-06
000110 02 4d 0f 37 f4 01 00 00 42 88 12 36 59 5b 23 36
       8.541394e-06 7e-43 2.1835008e-06 2.4342064e-06
000120 1b 12 22 37 f4 01 00 00 3f 42 b9 35 51 60 12 36
       9.660168e-06 7e-43 1.3802854e-06 2.181176e-06
000130 e6 80 fe 36 f4 01 00 00 7b af 59 36 cf bf 7a 36
       7.5847956e-06 7e-43 3.2437663e-06 3.736455e-06
000140 46 e2 84 39 ee 3a 34 3b 5e 9f f9 33 b7 b9 69 39
       0.0002534559 0.0027500945 1.1623955e-07 0.00022289796
000150 8b 25 b1 39 00 00 00 00 74 50 f2 36 af c5 8f 36
       0.00033788042 0.0 7.221528e-06 4.2847455e-06
000160 8f 87 1f 32 f4 01 00 00 31 50 03 2f 7b ef 26 30
       9.2858405e-09 7e-43 1.194287e-10 6.073077e-10
000170 c3 3f 1f 32 f4 01 00 00 4b db 13 2f a3 cb 6a 30
       9.269516e-09 7e-43 1.344748e-10 8.541809e-10
000180 3a f2 1f 32 f4 01 00 00 84 50 9e 2f e0 fc 18 30
       9.310094e-09 7e-43 2.8797242e-10 5.5656635e-10
000190 51 9c 1f 32 f4 01 00 00 d4 b5 04 2f ec a7 6c 30
       9.29056e-09 7e-43 1.2069928e-10 8.609493e-10
0001a0 29 9c 0d 32 f4 01 00 00 78 ba b1 30 76 a2 d3 30
       8.242787e-09 7e-43 1.2931443e-09 1.5398445e-09
0001b0 9f 74 20 32 f4 01 00 00 9b df 6c 2e 3c 49 4a 30
       9.339742e-09 7e-43 5.385879e-11 7.3591244e-10
0001c0 8e 21 9a 31 f4 01 00 00 b2 b0 af 31 5e 7b b6 31
       4.4858046e-09 7e-43 5.1132583e-09 5.3109224e-09
0001d0 1e d2 11 32 f4 01 00 00 bb 5b 88 30 61 df d1 30
       8.487886e-09 7e-43 9.921374e-10 1.527024e-09
0001e0 3f 97 33 31 f4 01 00 00 9b ae e4 31 14 a8 f3 31
       2.6133902e-09 7e-43 6.6555237e-09 7.091339e-09
0001f0 1a a2 6b 34 79 cb 1f 36 99 51 dd 2e ee 58 4b 34
       2.1945053e-07 2.3811283e-06 1.0064411e-10 1.89382e-07
000200 0f 4f 87 34 00 00 00 00 91 da 83 33 9b 6e 92 33
       2.5203232e-07 0.0 6.13992e-08 6.818774e-08
000210 35 5a 85 38 f4 01 00 00 14 11 dd 36 89 8f 40 37
       6.3587366e-05 7e-43 6.5883014e-06 1.1477511e-05
000220 92 12 85 38 f4 01 00 00 67 05 e2 36 ba ca 4c 37
       6.345393e-05 7e-43 6.735954e-06 1.22065485e-05
000230 ec 38 92 38 f4 01 00 00 23 d2 8f 34 39 7f 74 36
       6.972425e-05 7e-43 2.678872e-07 3.6432887e-06
000240 4f bb 83 38 f4 01 00 00 51 e2 02 37 b7 6c 5d 37
       6.281456e-05 7e-43 7.801297e-06 1.3197939e-05
000250 b1 ab 90 38 f4 01 00 00 a0 8a 0a 36 0d d1 99 36
       6.898435e-05 7e-43 2.0644293e-06 4.584092e-06
000260 96 be 7f 38 f4 01 00 00 bb 17 22 37 00 83 5d 37
       6.0974235e-05 7e-43 9.661478e-06 1.3203127e-05
000270 b3 87 0a 38 f4 01 00 00 58 1a 18 38 8a bd 1b 38
       3.3028144e-05 7e-43 3.626416e-05 3.71314e-05
000280 30 37 39 38 f4 01 00 00 36 73 d9 37 4e af ed 37
       4.4158834e-05 7e-43 2.5922065e-05 2.8334234e-05
000290 93 be 17 38 f4 01 00 00 31 66 07 38 52 70 19 38
       3.617869e-05 7e-43 3.228168e-05 3.658265e-05
0002a0 25 ef d5 3a 67 14 91 3c 42 f0 48 35 a9 50 c0 3a
       0.0016321881 0.017709924 7.4855427e-07 0.0014672476
0002b0 40 ae fd 3a 00 00 00 00 ca 0c 0f 39 c2 ae c0 39
       0.0019354299 0.0 0.00013642307 0.00036751298
0002c0 91 bf 06 38 f4 01 00 00 7a 34 62 36 49 75 ae 36
       3.21265e-05 7e-43 3.370717e-06 5.199258e-06
0002d0 5f 74 06 38 f4 01 00 00 ae dc 66 36 7e ec c2 36
       3.205647e-05 7e-43 3.4401123e-06 5.809182e-06
0002e0 4b e1 14 38 f4 01 00 00 c3 59 88 34 af 40 e7 35
       3.549577e-05 7e-43 2.5397284e-07 1.7229667e-06
0002f0 00 2f 04 38 f4 01 00 00 05 37 91 36 bd 11 f2 36
       3.1515025e-05 7e-43 4.327742e-06 7.214227e-06
000300 bf 9c 13 38 f4 01 00 00 0f 74 52 35 8e 6e 00 36
       3.5193512e-05 7e-43 7.8399984e-07 1.9137838e-06
000310 2e 04 f3 37 f4 01 00 00 e2 41 f3 36 95 9e 22 37
       2.8969804e-05 7e-43 7.249634e-06 9.692875e-06
000320 63 2f f3 37 f4 01 00 00 44 b8 cc 36 e0 11 e6 36
       2.8989924e-05 7e-43 6.101125e-06 6.856615e-06
000330 50 fb c2 37 f4 01 00 00 4f 02 5f 37 b6 0f 81 37
       2.3243629e-05 7e-43 1.3292373e-05 1.5385314e-05
000340 9c f0 ff 37 f4 01 00 00 9c 74 bc 36 1c 56 0c 37
       3.0510411e-05 7e-43 5.6164117e-06 8.364699e-06
000350 50 ff 5a 3a 65 83 14 3c 96 b1 cd 34 38 a1 44 3a
       0.00083540846 0.00906453 3.8313436e-07 0.000750083
000360 35 a0 84 3a 00 00 00 00 d6 26 74 38 3b a5 dc 38
       0.0010118546 0.0 5.8210302e-05 0.00010521194
000370 73 c2 28 39 f4 01 00 00 c4 b2 10 33 e4 36 c1 37
       0.00016094166 7e-43 3.36902e-08 2.3032953e-05
000380 b6 ae 28 39 f4 01 00 00 26 56 6a 34 a1 c5 c0 37
       0.00016086813 7e-43 2.1824289e-07 2.2980212e-05
000390 fd 8f 28 39 f4 01 00 00 35 82 11 35 b3 be 3f 37
       0.00016075368 7e-43 5.4206185e-07 1.1428888e-05
0003a0 02 90 28 39 f4 01 00 00 75 c5 b3 34 b5 20 bc 37
       0.00016075376 7e-43 3.3485017e-07 2.2426577e-05
0003b0 b9 4f 27 39 f4 01 00 00 d1 4b ed 36 72 aa 8d 37
       0.0001595606 7e-43 7.0719766e-06 1.688788e-05
0003c0 fd 02 28 39 f4 01 00 00 73 ce 71 35 7d 70 28 37
       0.00016022842 7e-43 9.007992e-07 1.0039771e-05
0003d0 13 e0 83 37 f4 01 00 00 84 1e 17 39 de c5 17 39
       1.572076e-05 7e-43 0.0001441185 0.00014474193
0003e0 33 93 0d 39 f4 01 00 00 84 9d f8 37 00 b6 0c 38
       0.00013501644 7e-43 2.9637253e-05 3.35481e-05
0003f0 7b 54 c4 38 f4 01 00 00 53 84 90 38 8b 30 08 39
       9.361744e-05 7e-43 6.8911024e-05 0.00012988054

exp_avg f4 [128]
000000 d2 00 cb b6 79 20 73 b9 54 06 9c 37 ac a8 16 b9
       -6.049967e-06 -0.00023186383 1.8599596e-05 -0.0001436795
000010 73 dd 51 ba 24 c2 b6 b9 1c e4 06 37 46 21 b5 b7
       -0.0008005716 -0.0003485839 8.040133e-06 -2.1592376e-05
000020 4b e7 d2 b9 ff 06 02 3a 72 78 26 3b ad d4 9f 3b
       -0.00040226648 0.0004960149 0.002540138 0.004877648
000030 7f 15 6f b7 15 d6 4e ba 9e b8 19 b8 55 41 60 38
       -1.4250515e-05 -0.0007890177 -3.664998e-05 5.3466607e-05
000040 4f 98 4a b7 0d fd 59 39 e0 70 d6 34 84 25 53 3b
       -1.20756e-05 0.00020789001 3.9942734e-07 0.0032218406
000050 a1 59 c6 b9 f2 bf 78 3b 57 ea 44 ba fe 88 99 ba
       -0.00037832282 0.0037956205 -0.0007511726 -0.00117138
000060 41 17 26 3b e8 9c d1 3a d8 a3 5b 38 b8 53 0f 3c
       0.002534345 0.0015992196 5.236626e-05 0.008747987
000070 bf f4 4e 35 68 c1 5e ba ec 50 be ba e3 53 cc ba
       7.709713e-07 -0.00084974477 -0.0014519966 -0.0015588965
000080 14 fc 03 3b cf 11 65 3a 58 0a 83 b6 70 66 4d bb
       0.0020139264 0.00087383104 -3.9053084e-06 -0.0031341575
000090 ee 7a 38 3b 0e e6 8d 3b 6f e1 18 ba 79 4a d9 3a
       0.0028149444 0.004330403 -0.0005831932 0.0016577981
0000a0 a8 4b 23 3b c1 f3 43 bb 70 91 02 ba 76 4b 95 3b
       0.002491692 -0.0029899927 -0.00049807783 0.004556115
0000b0 e3 25 51 3a 7a 92 0a bb 0e 8a 49 b9 a5 02 81 38
       0.0007978363 -0.0021144436 -0.00019220283 6.151692e-05
0000c0 d0 b4 d5 b7 e0 ef 64 b9 fe 1f 0f ba 5f d3 98 b9
       -2.5475776e-05 -0.00021833135 -0.00054597843 -0.00029149183
0000d0 03 44 68 b5 24 b2 96 35 0e 18 90 ba 4c b9 54 36
       -8.6525705e-07 1.1227717e-06 -0.0010993497 3.1698319e-06
0000e0 52 69 3c 3b 3c e5 a6 37 9e bd 94 ba 42 e4 25 bb
       0.00287493 1.9895488e-05 -0.0011348014 -0.0025313054
0000f0 df 99 c2 ba 0e 5c d3 39 0b 50 bf 37 69 67 9d 38
       -0.0014846883 0.00040313642 2.2806247e-05 7.505605e-05
000100 73 d7 9a 36 e6 5d 6c 3a 96 f7 f7 ba ba ff 8e b6
       4.6146392e-06 0.00090166775 -0.0018918391 -4.2617003e-06
000110 31 ac e5 b8 ee e6 17 ba 44 53 89 3a 30 8f a3 3b
       -0.00010951644 -0.0005794604 0.0010477086 0.0049914345
000120 62 0d 7b b7 f2 db 45 39 32 89 79 3b a0 c6 4b b8
       -1.4963882e-05 0.0001886932 0.003807616 -4.8583956e-05
000130 6c df 80 ba ad 49 01 ba 44 c9 80 3a 55 73 18 3b
       -0.000983221 -0.0004931938 0.0009825607 0.0023262103
000140 0c d8 8d 3b 4a 6c bd b8 3a 08 b0 38 c2 3b a0 38
       0.0043287333 -9.032393e-05 8.393866e-05 7.640525e-05
000150 ca fa 26 ba df b4 80 ba 0f 90 bc 35 c0 22 ef 37
       -0.0006369768 -0.0009819529 1.4049018e-06 2.8507202e-05
000160 00 45 c8 3b e1 ce 62 3a d7 61 05 bb cc c9 77 39
       0.006111741 0.0008652043 -0.0020352507 0.00023630931
000170 b3 93 e1 b6 0a 9a 0c 3b 0f 47 3a b8 45 3b 51 35
       -6.722717e-06 0.002145412 -4.4412034e-05 7.7944816e-07
000180 28 05 54 ba 00 18 13 39 4a 05 59 39 7d 64 be ba
       -0.00080879265 0.00014027953 0.00020696703 -0.0014525797
000190 d4 d7 e6 3b 28 1d e1 ba 8c ed aa ba 65 f1 3d 39
       0.0070447717 -0.0017174827 -0.0013040765 0.00018114371
0001a0 ab 2d b7 3a 47 5d 50 3b aa 42 42 b9 a8 9e 0a ba
       0.0013975402 0.003179388 -0.00018526116 -0.0005287924
0001b0 12 da 11 38 28 fe 6e bb a4 1d 85 ba 9e f0 91 39
       3.4773788e-05 -0.0036467407 -0.0010155928 0.0002783583
0001c0 82 19 97 3b 5b ac 00 ba 28 89 04 39 dc 3c eb b9
       0.004611195 -0.00049084955 0.00012639596 -0.00044868037
0001d0 68 b9 95 38 58 60 c0 36 fd 11 4d b9 2e af bf 37
       7.139408e-05 5.733262e-06 -0.00019557025 2.2850549e-05
0001e0 02 b2 18 ba ce 13 ee 3b a9 5f 4b 3a 80 ae 0e 38
       -0.0005824865 0.0072655445 0.000775809 3.4017954e-05
0001f0 9c a9 67 36 8a 03 23 bb d9 b5 60 ba 3e 7a 51 bb
       3.4520408e-06 -0.0024873936 -0.0008572019 -0.003196373

exp_avg_sq f4 [128]
000000 d5 d0 98 31 75 46 36 37 95 9b 21 32 bf b9 92 38
       4.4475237e-09 1.086445e-05 9.406809e-09 6.9964204e-05
000010 bf 32 16 38 98 ce 28 39 87 7a a6 32 3b 90 b0 32
       3.5810048e-05 0.0001609869 1.9380662e-08 2.0554685e-08
000020 7d d8 99 36 2b 58 f2 37 ee 94 c9 38 c9 4c ac 39
       4.584958e-06 2.8889704e-05 9.612167e-05 0.00032863606
000030 fe 6b 21 34 7b 95 43 38 1e 46 c3 33 ac 1b b2 36
       1.5033581e-07 4.6630837e-05 9.093149e-08 5.308035e-06
000040 66 62 28 32 f7 20 7f 35 45 21 f5 2c aa c1 af 39
       9.80126e-09 9.504287e-07 6.9670125e-12 0.00033522892
000050 a8 81 f4 37 4b ce da 39 13 10 28 39 66 38 18 39
       2.9147443e-05 0.000417339 0.00016027717 0.0001451686
000060 0b 80 f3 38 4d 5c 91 38 16 86 47 33 b5 42 9e 3a
       0.00011610993 6.931331e-05 4.645525e-08 0.0012074324
000070 13 4e 15 2e 21 d1 80 38 e9 bd 99 37 a2 59 6b 39
       3.394802e-11 6.142469e-05 1.8327455e-05 0.00022444737
000080 39 f3 1d 39 5c ce 89 38 09 c9 22 31 9d ce 37 3a
       0.00015063294 6.5711065e-05 2.3688378e-09 0.0007011684
000090 ee 44 06 39 55 5b 13 3a 5a c5 57 38 ed 5c 6f 39
       0.00012804914 0.00056212145 5.1443792e-05 0.00022827434
0000a0 28 77 d1 38 6a 93 87 39 b8 9b 8f 38 1f 57 f0 39
       9.988091e-05 0.0002585904 6.847776e-05 0.00045841277
0000b0 9d 63 48 39 2a 2f 20 39 13 9c d5 36 fb c3 f7 33
       0.00019110595 0.00015276359 6.366064e-06 1.15374824e-07
0000c0 8c 9d 16 33 fe 5e 83 39 57 76 32 38 5a b7 7e 38
       3.5067885e-08 0.00025057042 4.254872e-05 6.072908e-05
0000d0 2c 1b c3 2f b2 9e c7 2d 07 af f9 37 32 d3 c4 2f
       3.54896e-10 2.2694156e-11 2.9764617e-05 3.5802256e-10
0000e0 28 d5 b2 39 4e ce 4d 32 3c d0 07 39 d8 19 a2 39
       0.0003410962 1.1979479e-08 0.00012952177 0.00030918303
0000f0 8f 56 60 38 5c aa 9b 38 f8 00 94 33 0e e7 fa 33
       5.3486376e-05 7.422708e-05 6.891963e-08 1.1683561e-07
000100 19 c5 9d 30 bc 04 fa 37 94 a7 9e 38 b2 12 c9 30
       1.1479272e-09 2.9804527e-05 7.565241e-05 1.4629988e-09
000110 ad ce cd 35 92 4f 18 38 f9 c7 50 38 64 2c a1 39
       1.5333841e-06 3.631373e-05 4.9777304e-05 0.00030741387
000120 07 8d 75 36 2d 6a b5 37 c1 95 92 39 60 16 30 33
       3.6589934e-06 2.1626323e-05 0.00027958865 4.0998543e-08
000130 26 11 51 37 b2 c5 c9 37 9d 98 a1 39 84 c0 e5 38
       1.2461363e-05 2.4053126e-05 0.0003082202 0.0001095543
000140 28 22 f4 39 ff ea 48 38 43 f7 89 39 7d dc 81 38
       0.00046564755 4.7902573e-05 0.000263149 6.1922685e-05
000150 b4 ce 86 38 e9 0a 1c 3a c6 0d e1 30 ab 06 4d 33
       6.4281194e-05 0.00059525535 1.6374819e-09 4.7736346e-08
000160 cf 73 42 3a 00 c4 43 39 a5 22 1b 39 b8 ff 04 36
       0.00074177695 0.00018669665 0.00014794858 1.981838e-06
000170 d2 53 17 32 d0 34 9d 39 76 d0 5e 33 00 19 2d 31
       8.808415e-09 0.00029984722 5.1877997e-08 2.5189024e-09
000180 cf 16 5b 37 8b ec 4f 37 1c a9 1b 36 8c ea 91 38
       1.3058728e-05 1.2393236e-05 2.3195234e-06 6.9578266e-05
000190 cf 84 b3 3a 35 5f ec 38 b1 3d 8c 38 4a 55 0e 35
       0.0013696196 0.000112710906 6.687211e-05 5.3023234e-07
0001a0 af 19 29 39 38 c3 c5 39 5a a0 23 38 98 79 4c 37
       0.00016126664 0.00037720217 3.9011567e-05 1.2187658e-05
0001b0 95 f7 ab 33 ad 1b aa 39 94 fd fa 37 af 1d c9 38
       8.007843e-08 0.00032445547 2.9920404e-05 9.589956e-05
0001c0 d6 88 22 3a bf d3 d0 36 6b 34 f9 35 ae 13 71 38
       0.00062002 6.2235335e-06 1.8567201e-06 5.7477206e-05
0001d0 e4 87 92 38 ba 01 6c 30 b8 b9 74 37 5e b4 68 33
       6.987134e-05 8.5858753e-10 1.4586774e-05 5.4180752e-08
0001e0 f7 a6 1a 38 bd 2c 56 3a da 76 fd 38 12 0e bc 33
       3.687196e-05 0.00081701187 0.00012086118 8.7569916e-08
0001f0 c3 5c e9 33 e9 ab 2b 39 9f 80 08 39 c7 73 32 39
       1.0866781e-07 0.00016371872 0.00013017886 0.00017018533
