GameAI3/Config/results/dwarf_2/Dwarf/Dwarf-54677.onnx (onnx, 73485 bytes, 7 tensors)

network_body._body_endoder.seq_layers.0.weight f4 [128, 8]
-0.7349811 0.05519955 0.10023453 0.109261625 -0.12983589 -0.27158374 0.47786403 -0.17554422
0.156507 -0.57987785 0.23154414 0.25451273 0.02914795 -0.102338985 0.47170126 -0.15869051
-0.3289978 0.3623136 0.07952947 -0.083492406 0.2651541 0.46429208 0.35286477 0.10946813
0.24873388 -0.108420216 -0.38553187 0.040142633 -0.47230598 -0.37306595 -0.28573287 0.51690966
0.10275396 -0.3241448 -0.21506128 -0.3408498 0.2772054 -0.18963967 0.21975423 0.015805583
-0.18955192 0.2613314 0.056733385 -0.49726185 0.94932604 0.030228056 0.29278544 0.3748387
-0.1610552 0.79705554 -0.016610121 -0.0637822 -0.41401744 0.18362232 0.2497547 -0.087031275
0.5444106 0.0070685586 0.56682634 0.40238705 0.659757 -0.619919 0.18500042 -0.3965683
0.07270676 0.042702172 0.07399359 0.22268023 -0.5123877 -0.018883118 0.057438463 -0.06235533
-0.26135242 0.20096108 -0.2453964 0.19011754 0.28705 -0.8454002 0.01688474 -0.074027404
-0.42104453 -0.06531903 -0.09172311 -0.5391953 0.31165862 0.117424026 -0.65032685 0.25316262
0.5605828 -0.34789574 -0.76120406 0.26482219 -0.16973472 -0.52046597 0.45581067 0.41445616
0.22598243 -0.2987249 -0.15037504 0.593477 -0.07721495 -0.13621458 0.07173912 0.117094986
-0.34878653 -0.18125506 -0.29082313 0.3657898 -0.27874097 -0.45496967 0.17161857 -0.21740781
-0.2360216 0.086501464 -0.4772692 -0.16537496 -0.6582808 -0.004233218 -0.075027995 0.18833572
0.50091195 -0.28603256 0.16594493 0.017867709 0.17137393 -0.3564371 -0.54430807 -0.030218415
-0.0035746219 0.07962915 -0.3879995 -0.24252923 -0.5015899 0.33146235 0.3046408 -0.0025569734
0.4518945 0.24249458 -0.18388419 0.11329777 0.5535594 0.22401683 -0.3153825 0.19539534
-0.42023155 0.30116266 0.14027223 0.31591287 -0.003529609 -0.093101844 -0.17682108 -0.33797857
-0.037553597 0.15675595 -0.33453336 0.50392 -0.6420433 0.5379084 -0.099278554 -0.22725907
-0.23150116 0.79184467 0.090525575 -0.22411509 0.8319293 -0.4182976 0.022582665 0.3118529
0.021481454 -0.3208681 0.15485303 -0.17581697 -0.17290345 -0.03853247 0.011068435 0.5163704
0.09429851 -0.14704251 0.8092367 -0.75164235 -0.14801958 0.49686417 0.26708555 -0.087845445
-0.34730354 -0.06377363 0.09716079 -0.32282332 -0.10170189 0.0077259224 0.5748277 0.66620904
0.14058836 0.3323573 0.481841 -0.12081525 0.012607787 -0.12991154 -0.6440675 0.4023144
-0.58480424 0.4245906 -0.3979997 0.03222169 0.4072975 -0.12475723 -0.30082822 -0.024423443
-0.58323926 0.18978578 -0.7000744 -0.17196631 0.339237 0.20106742 -0.07398731 0.086584486
0.41272053 0.72242105 -0.37440193 0.1965415 -0.3325465 -0.42815268 0.46392483 0.61998236
-0.2527422 -0.54168457 -0.29567593 0.2868195 0.03736161 -0.11313934 0.602288 -0.05094716
0.16932908 0.51577663 -0.19441533 0.62536436 0.06975972 0.15970199 0.28443617 -0.05324276
0.5309151 -0.19872421 -0.36051905 0.31961608 0.16401625 -0.42032167 -0.03208857 0.4538218
0.06705526 -0.4999993 0.025101067 0.2529531 0.27706596 0.5447675 0.5360464 0.027738225
00000000: b927 3cbf ec18 623d c347 cd3d 8fc4 df3d
00000010: b3f3 04be 060d 8bbe 98aa f43e ddc1 33be
00000020: 5f43 203e e072 14bf e819 6d3e 7e4f 823e
00000030: aec7 ee3c 1a97 d1bd d482 f13e c47f 22be
00000040: 6672 a8be 2b81 b93e 59e0 a23d 11fe aabd
00000050: 47c2 873e b1b7 ed3e b1aa b43e d430 e03d
00000060: 18b4 7e3e 6b0b debd 6f64 c5be 9a6c 243d
00000070: 17d2 f1be 8002 bfbe 944b 92be 3154 043f
00000080: ab70 d23d 4ff6 a5be 0639 5cbe dd83 aebe
00000090: deed 8d3e e730 42be 4107 613e b67a 813c
000000a0: e619 42be 3bcd 853e 4461 683d 1b99 febe
000000b0: 0807 733f d4a0 f73c f9e7 953e dcea bf3e
000000c0: a8eb 24be d50b 4c3f f311 88bc 3ea0 82bd
000000d0: 18fa d3be 7d07 3c3e b2bf 7f3e 743d b2bd
000000e0: 7e5e 0b3f 5e9f e73b 881b 113f ad05 ce3e
000000f0: d6e5 283f 03b3 1ebf c070 3d3e 000b cbbe
00000100: 48e7 943d 79e8 2e3d f489 973d 4906 643e
00000110: d72b 03bf c5b0 9abc 9844 6b3d 4d68 7fbd
00000120: fccf 85be bec8 4d3e 3249 7bbe 2cae 423e
00000130: 38f8 923e 266c 58bf de51 8a3c ae9b 97bd
00000140: 2693 d7be fcc5 85bd 53d9 bbbd b408 0abf
00000150: b891 9f3e 027c f03d d27b 26bf 889e 813e
00000160: 5b82 0f3f 641f b2be 45de 42bf c696 873e
00000170: f0ce 2dbe 423d 05bf 0460 e93e 9933 d43e
00000180: f067 673e 78f2 98be eafb 19be 1cee 173f
00000190: df22 9ebd d67b 0bbe f6eb 923d 7fcf ef3d
000001a0: 2694 b2be ed9a 39be c5e6 94be cd48 bb3e
000001b0: 23b7 8ebe c9f1 e8be c7bc 2f3e 27a0 5ebe
000001c0: a5af 71be ae27 b13d a15c f4be 0e58 29be
000001d0: 1785 28bf ceb6 8abb 47a8 99bd 14db 403e
000001e0: c43b 003f dc72 92be 78ed 293e 4d5f 923c
000001f0: a67c 2f3e ec7e b6be c657 0bbf 9c8c f7bc
00000200: 3444 6abb 9c14 a33d dfa7 c6be 9559 78be
00000210: 3268 00bf 6fb5 a93e e1f9 9b3e e592 27bb
00000220: b75e e73e 8050 783e 234c 3cbe a908 e83d
00000230: 12b6 0d3f ab64 653e d179 a1be b715 483e
00000240: 9728 d7be fe31 9a3e 86a3 0f3e 55bf a13e
00000250: 0351 67bb 2eac bebd 9610 35be 870b adbe
00000260: cdd1 19bd a284 203e f547 abbe e700 013f
00000270: f35c 24bf 5db4 093f 8e52 cbbd 9ab6 68be
00000280: a40e 6dbe 55b6 4a3f 7965 b93d 6d7e 65be
00000290: 52f9 543f 1a2b d6be 48ff b83c 2fab 9f3e
000002a0: e0f9 af3c d348 a4be cb91 1e3e 5d09 34be
000002b0: 9a0d 31be 39d4 1dbd 6258 353c da30 043f
000002c0: 941f c13d 5092 16be 232a 4f3f a26b 40bf
000002d0: 7292 17be fb64 fe3e 70bf 883e 50e8 b3bd
000002e0: c5d1 b1be c09b 82bd 3cfc c63d 1949 a5be
000002f0: 1549 d0bd bc29 fd3b e827 133f ad8c 2a3f
00000300: 65f6 0f3e bc2a aa3e ddb3 f63e fc6d f7bd
00000310: e490 4e3c 8807 05be 9ce1 24bf 27fc cd3e
00000320: bbb5 15bf f063 d93e 9ec6 cbbe e4fa 033d
00000330: 4c89 d03e b880 ffbd 2806 9abe ac13 c8bc
00000340: 2b4f 15bf 3457 423e 1338 33bf f017 30be
00000350: 79b0 ad3e 9ee4 4d3e a986 97bd 3553 b13d
00000360: 1b50 d33e 96f0 383f 9cb1 bfbe 2d42 493e
00000370: 8943 aabe d436 dbbe 8e87 ed3e 2ab7 1e3f
00000380: 6d67 81be d7ab 0abf d662 97be 01da 923e
00000390: 7d08 193d 99b5 e7bd 8c2f 1a3f f8ad 50bd
000003a0: 9a64 2d3e f009 043f d014 47be e117 203f
000003b0: 2fde 8e3d eb88 233e 9ea1 913e 1515 5abd
000003c0: 0dea 073f 5c7e 4bbe f495 b8be b8a4 a33e
000003d0: e0f3 273e 6734 d7be 4e6f 03bd 555b e83e
000003e0: 4554 893d e9ff ffbe c1a0 cd3c 1283 813e
000003f0: 97db 8d3e e275 0b3f 563a 093f 463b e33c

network_body._body_endoder.seq_layers.0.bias f4 [128]
-0.026352666 0.023499576 -0.020434596 -0.023597065 0.009529179 -0.007143973 -0.023710592 0.002967823
0.011357719 0.015791846 -0.00578143 -0.07880912 -0.09353171 0.0024924472 -0.0045511844 -0.00041125776
0.0030259856 0.088503934 -0.015439321 -0.009537867 0.026157994 0.0033346005 -0.04369712 0.009405357
-0.04161097 -0.012645383 0.0146128535 0.008534143 -0.101493895 -0.018275635 -0.0370186 -0.00027944986
0.0028604285 -0.040175986 0.049845673 0.03196 -0.029521132 -0.05390562 0.0051654093 0.020324105
-0.014042124 -0.025430499 0.019552525 0.055186708 -0.007866776 -0.011398497 -0.009950034 -0.0014676065
-0.03526667 0.027255606 0.058026254 -0.04729768 0.0072427415 -0.0048689954 0.0046170666 -0.010087593
0.0471096 -0.08392171 0.01942002 0.027518503 -0.04586292 -0.027500212 0.012756122 -0.014194607
0.019719323 -0.07148557 0.034279015 0.008216847 -0.020875534 0.03527762 -0.021669107 -0.04743101
0.061396964 -0.020662505 -0.049521882 0.07939347 0.012986006 0.005770451 -0.018859617 0.0071183764
-0.01398353 0.0072110402 0.045418583 -0.049028866 -0.031164365 0.097771354 -0.0059079104 0.03371549
-0.011319045 -0.0067006806 -0.013777498 -0.046449438 0.03238383 0.053808484 -0.010676193 -0.048773687
0.05327081 0.017118018 0.045774907 -0.071819454 -0.0065549957 -0.015569473 -0.049663115 -0.018498026
0.00452892 0.01076049 -0.05021932 0.014018159 0.04381527 -0.032654136 0.007493404 -0.017745934
-0.038016487 -0.0228 0.024343126 0.008425628 -0.018289205 -0.106671445 -0.03914226 -0.07524435
-0.0349248 0.02712179 -0.0012082526 -0.060408566 -0.034201227 -0.010210638 -0.024315786 -0.026175862
00000000: 8ce1 d7bc 2f82 c03c 7466 a7bc a24e c1bc
00000010: 4620 1c3c fd17 eabb b73c c2bc cf7f 423b
00000020: ba15 3a3c e75d 813c 2672 bdbb ad66 a1bd
00000030: 8e8d bfbd 5358 233b 1a22 95bb 159e d7b9
00000040: 9d4f 463b 8d41 b53d 35f5 7cbc b744 1cbc
00000050: 4a49 d63c 5089 5a3b c0fb 32bd ed18 1a3c
00000060: 4470 2abd 952e 4fbc c06a 6f3c cad2 0b3c
00000070: 08dc cfbd c9b6 95bc d1a0 17bd 2083 92b9
00000080: 0776 3b3b 938f 24bd fa2a 4c3d 7de8 023d
00000090: 4dd6 f1bc 24cc 5cbd 9842 a93b bd7e a63c
000000a0: f010 66bc 9f53 d0bc 9e2c a03c 750b 623d
000000b0: a6e3 00bc c3c0 3abc 7805 23bc b45c c0ba
000000c0: c973 10bd 2647 df3c f0ac 6d3d 36bb 41bd
000000d0: 8554 ed3b 188c 9fbb c34a 973b 6f46 25bc
000000e0: fff5 403d 25df abbd bc16 9f3c 7c6e e13c
000000f0: c2da 3bbd 2048 e1bc 0eff 503c 7f90 68bc
00000100: 6b8a a13c 0767 92bd 2768 0c3d f49f 063c
00000110: 2b03 abbc 447f 103d 6983 b1bc 0547 42bd
00000120: 627b 7b3d 6a44 a9bc 75d7 4abd 0b99 a23d
00000130: 42c3 543c 0d16 bd3b 7c7f 9abc 4541 e93b
00000140: 2d1b 65bc 974a ec3b d608 3a3d 7ed2 48bd
00000150: 694c ffbc 593c c83d 2597 c1bb 4119 0a3d
00000160: 8473 39bc 6291 dbbb 04bb 61bc c441 3ebd
00000170: e8a4 043d 4966 5c3d 33eb 2ebc ebc6 47bd
00000180: 7e32 5a3d 163b 8c3c 787e 3b3d 1416 93bd
00000190: 4acb d6bb 1a17 7fbc 8d6b 4bbd 2c89 97bc
000001a0: 5667 943b c44c 303c c6b2 4dbd 6cac 653c
000001b0: a477 333d 58c0 05bd 3b8b f53b ec5f 91bc
000001c0: 2db7 1bbd 11c7 babc 3c6b c73c a50b 0a3c
000001d0: 3ed3 95bc 8f76 dabd a253 20bd b619 9abd
000001e0: 4f0d 0fbd 842e de3c 3b5e 9eba f96e 77bd
000001f0: 9616 0cbd 854a 27bc e631 c7bc c36e d6bc

network_body._body_endoder.seq_layers.2.weight f4 [128, 128]
0.04224073 0.09673687 -0.1536173 -0.047200587 0.08561286 0.12784405 -0.08265703 -0.07621759
-0.0035816492 -0.10240835 0.048000425 -0.156221 -0.086173 -0.062251527 -0.09449812 -0.072524086
-0.082235284 0.058055166 -0.040796 -0.076871485 -0.08319516 -0.0452504 -0.023900963 0.004593565
0.09964417 -0.019674208 0.009471779 -0.06921704 0.02488929 0.081659466 0.050266955 0.0928564
-0.10316224 -0.09641251 -0.0005472404 -0.09851998 0.023532689 -0.013709483 -0.04152444 -0.09646981
-0.06305454 0.09437376 0.16560663 0.08175409 -0.059070256 -0.11541246 -0.05046426 -0.029615028
0.016012538 -0.057027478 0.047302216 -0.061266612 0.20835112 -0.08917529 0.118646726 0.0040879375
-0.14299247 0.12749645 0.047087133 -0.014324193 -0.024133973 0.05019726 -0.054835428 -0.116789
0.065356284 0.051735885 0.06775934 -0.024435412 0.11950484 -0.19862327 0.10790113 0.09017054
0.15015501 0.017254625 0.12367456 0.032974534 0.07131102 0.027647462 -0.0688283 -0.06785152
-0.12138712 -0.015673535 0.035120416 -0.023556326 -0.019791279 0.17197147 0.05945643 -0.1792526
0.0015989307 -0.053452373 -0.038209967 0.041940514 0.112081036 0.038496442 0.17031534 0.06374026
0.24925748 -0.25434816 -0.008326476 0.051655106 0.004556357 0.039810102 -0.078295566 0.09910844
-0.055934347 -0.1679895 -0.1007289 -0.11659232 -0.05740266 0.041735973 0.037663236 -0.058026005
-0.11584459 0.028378583 -0.029844359 0.12412823 -0.07638012 0.12729032 0.23880011 0.047572084
-0.17357053 0.08362572 -0.09176179 0.027335405 0.024965297 0.08194596 0.17987138 -0.16354021
-0.0044954605 0.11820194 0.07569153 -0.025763525 0.026600884 0.11887304 0.04034018 -0.08125877
0.08466383 0.020322658 0.07334045 0.025686415 -0.06616589 0.076505706 0.10750783 -0.12740433
-0.0365272 0.01687323 -0.03780798 0.035313092 -0.07994431 -0.045677003 0.015641958 0.074437596
0.08972187 -0.06334014 0.009893038 -0.09270959 0.045330424 -0.055344436 -0.19141684 -0.079911835
-0.01657686 0.029456353 0.05437523 -0.015749406 0.049032435 0.025890466 -0.0702002 -0.0046899873
0.033012833 -0.0033285683 -0.06438318 -0.17895027 -0.14787705 0.10009966 -0.020928878 -0.094403155
-0.16995983 -0.1552659 -0.07333528 -0.08471601 0.031068064 -0.00057344115 -0.115483716 0.10803587
-0.006706088 -0.041966412 0.011372604 -0.03942289 -0.083029315 -0.20524846 -0.18808077 -0.08288856
-0.10170324 -0.07472819 0.008657564 0.054612473 -0.034532785 -0.09069454 0.13564977 0.0262759
0.094451435 0.05318894 0.11268004 0.020523096 -0.15232731 0.017186288 -0.15947033 -0.15341826
-0.07713981 -0.17744198 -0.06391586 -0.07053449 -0.011591892 0.12152087 0.048735514 -0.103192754
-0.11461886 -0.020697314 0.099222675 -0.019911276 -0.09247563 -0.1581073 -0.14684035 -0.07518584
-0.0035376549 -0.07528124 0.14957494 -0.2387469 -0.033573944 0.15164733 0.08061441 0.08363932
-0.13992932 -0.045372244 -0.08705869 -0.009867712 -0.05203032 0.15172654 0.15566398 0.045148738
0.062939756 -0.13465533 0.045346905 -0.15988697 0.16920845 -0.12790169 0.012718863 0.08173997
0.026421258 -0.05903605 0.0076336926 0.010605323 0.1585227 0.1384512 0.15161806 -0.0059989626
00000000: 9e04 2d3d fb1d c63d da4d 1dbe 6755 41bd
00000010: cc55 af3d 8de9 023e 1748 a9bd f817 9cbd
00000020: 1aba 6abb 78bb d1bd 189c 443d 66f8 1fbe
00000030: 787b b0bd 75fb 7ebd 3b88 c1bd 8287 94bd
00000040: f96a a8bd 41cb 6d3d b519 27bd cc6e 9dbd
00000050: 3962 aabd 7c58 39bd f4cb c3bc 9e85 963b
00000060: 3e12 cc3d ce2b a1bc 852f 1b3c aac1 8dbd
00000070: a0e4 cb3c 143d a73d b9e4 4d3d 7f2b be3d
00000080: b946 d3bd ec73 c5bd ae74 0fba d8c4 c9bd
00000090: a0c7 c03c bd9d 60bc 8815 2abd f791 c5bd
000000a0: bd22 81bd 0847 c13d c994 293e b06e a73d
000000b0: a7f3 71bd 5e5d ecbd 9db3 4ebd 379b f2bc
000000c0: ba2c 833c a595 69bd f8bf 413d b3f2 7abd
000000d0: ff59 553e 89a1 b6bd 0efd f23d 1bf4 853b
000000e0: 9e6c 12be 6e8e 023e 70de 403d 05b0 6abc
000000f0: 9cb4 c5bc a49b 4d3d 1d9b 60bd 122f efbd
00000100: 84d9 853d 02e9 533d 69c5 8a3d c62c c8bc
00000110: f4be f43d e663 4bbe 45fb dc3d 55ab b83d
00000120: 3cc2 193e 9259 8d3c 1649 fd3d 4e10 073d
00000130: 830b 923d ee7c e23c daf5 8cbd bdf5 8abd
00000140: cf99 f8bd c965 80bc 6dda 0f3d 32f9 c0bc
00000150: 5221 a2bc 4a19 303e 9688 733d fe8d 37be
00000160: 3693 d13a e0f0 5abd 0e82 1cbd d1c9 2b3d
00000170: be8a e53d 72ae 1d3d 2567 2e3e 418a 823d
00000180: 5a3d 7f3e ec39 82be c66b 08bc 4e94 533d
00000190: 7e4d 953b eb0f 233d 6d59 a0bd 5ef9 ca3d
000001a0: 6a1b 65bd 7105 2cbe f44a cebd f4c7 eebd
000001b0: 0d1f 6bbd 57f3 2a3d c444 1a3d adac 6dbd
000001c0: ee3f edbd 347a e83c 287c f4bc f136 fe3d
000001d0: 2e6d 9cbd 6558 023e 0488 743e f2da 423d
000001e0: 79bc 31be f643 ab3d 9bed bbbd 80ee df3c
000001f0: 0684 cc3c 49d3 a73d 3430 383e 1677 27be
00000200: a84e 93bb dc13 f23d 2904 9b3d 070e d3bc
00000210: 19ea d93c b573 f33d bf3b 253d ff6a a6bd
00000220: 3b64 ad3d b47b a63c 8533 963d 516c d23c
00000230: fb81 87bd 06af 9c3d 112d dc3d 4876 02be
00000240: 8c9d 15bd ba39 8a3c 8adc 1abd 76a4 103d
00000250: d8b9 a3bd cf17 3bbd 9023 803c bd72 983d
00000260: 1ac0 b73d 7ab8 81bd 6916 223c 87de bdbd
00000270: 65ac 393d d9b0 62bd c702 44be d1a8 a3bd
00000280: 32cc 87bc 734e f13c 90b8 5e3d e604 81bc
00000290: 3cd6 483d 3e18 d43c 1fc5 8fbd 77ae 99bb
000002a0: 7738 073d 1c24 5abb 54db 83bd bd3e 37be
000002b0: 156d 17be 0d01 cd3d 0a73 abbc 7156 c1bd
000002c0: f309 2ebe 06fe 1ebe cf30 96bd 967f adbd
000002d0: 7482 fe3c fc52 16ba ba82 ecbd e941 dd3d
000002e0: bebe dbbb f9e4 2bbd 2954 3a3c e579 21bd
000002f0: 460b aabd a72c 52be 3f98 40be 7ac1 a9bd
00000300: ca49 d0bd 180b 99bd 75d8 0d3c 54b1 5f3d
00000310: 4072 0dbd 0fbe b9bd c6e7 0a3e 8e40 d73c
00000320: c16f c13d a5dc 593d cbc4 e63d 0d20 a83c
00000330: b1fb 1bbe 42ca 8c3c 314c 23be ad19 1dbe
00000340: 7afb 9dbd 5ab3 35be 52e6 82bd 6374 90bd
00000350: ebeb 3dbc efdf f83d e49e 473d b956 d3bd
00000360: 4bbd eabd 6a8d a9bc 4235 cb3d f91c a3bc
00000370: dd63 bdbd e1e6 21be 515d 16be 09fb 99bd
00000380: 00d8 67bb 0d2d 9abd 2c2a 193e 117a 74be
00000390: d584 09bd 7049 1b3e 2b19 a53d 184b ab3d
000003a0: a249 0fbe 3fd8 39bd d44b b2bd 2fac 21bc
000003b0: bf1d 55bd 345e 1b3e 6166 1f3e e2ed 383d
000003c0: 8fe6 803d 16e3 09be adbd 393d 69b9 23be
000003d0: fb44 2d3e a9f8 02be c762 503c 4967 a73d
000003e0: 6571 d83c c9cf 71bd 0e24 fa3b f3c1 2d3c
000003f0: c653 223e 27c6 0d3e c441 1b3e f292 c4bb

network_body._body_endoder.seq_layers.2.bias f4 [128]
-0.019940024 0.01667291 -0.015815973 0.04142801 -0.030812135 -0.0054912893 -0.019127637 0.0048895003
-0.014754174 -0.039776016 -0.033533476 0.021874867 -0.027221726 0.034850877 -0.031949583 -0.012112471
-0.0056341877 -0.024952598 -0.001253203 -0.038528588 -0.0029533186 -0.019936329 -0.03204552 -0.027833164
0.03488402 0.016245017 0.012454228 -0.05149784 0.008289872 -0.0050013345 -0.02088168 -0.026294589
-0.03231092 -0.04658289 0.003585807 -0.029197011 -0.030577019 -0.014653196 -0.011659799 -0.029428212
-0.04187627 0.024500407 0.015401671 -0.0128131 -0.0567293 -0.02020692 -1.2528424e-05 0.025082909
-0.03640939 -0.014185979 -0.01337327 -0.0044002202 -0.018008817 -0.051038593 -0.037513062 -0.021505643
0.018396977 0.013805784 -0.028437447 0.03789894 0.0075696483 -0.048331834 0.011347768 0.0040811826
-0.030058177 -0.007169476 -0.025091492 -0.02950169 -0.040986944 -0.031104052 0.023489906 0.0029594356
-0.060962867 -0.0058243433 0.0011002861 0.016496008 -0.013201088 -0.033476017 -0.034838736 -0.012823476
0.011274689 -0.029487131 -0.008544581 -0.015061867 -0.028951744 -0.012053937 0.028841646 -0.017641481
-0.04182085 -0.0028267389 -0.025891023 0.02440978 0.0009561151 -0.006991717 -0.019085016 -0.034474764
0.011988376 -0.053409588 0.01918197 -0.03314013 -0.016660806 0.0083610695 0.012091117 0.008489544
0.00079390686 -0.04971107 0.0304452 -0.0610033 -0.043978684 0.020904558 -0.042014204 -0.043042175
-0.022300819 -0.010458943 0.0013435349 -0.023748698 -0.014528923 -0.024113618 -0.041167505 -0.026651511
-0.0105336625 0.0013312221 -0.03309686 0.016958654 -0.016633242 -0.022387208 0.012642973 -0.02364598
00000000: 4359 a3bc a095 883c 8090 81bc 6bb0 293d
00000010: bb69 fcbc 46f0 b3bb 90b1 9cbc 1a38 a03b
00000020: 7ebb 71bc 2dec 22bd 665a 09bd ec32 b33c
00000030: 1900 dfbc cbbf 0e3d 91dd 02bd 6373 46bc
00000040: fe9e b8bb 6469 ccbc 8442 a4ba 27d0 1dbd
00000050: 778c 41bb 8351 a3bc 2a42 03bd 6002 e4bc
00000060: 8ce2 0e3d 4514 853c d10c 4c3c 66ef 52bd
00000070: 3ed2 073c 3ce2 a3bb 0f10 abbc c067 d7bc
00000080: 7558 04bd b3cd 3ebd dcff 6a3b 922e efbc
00000090: a87c fabc f513 70bc be08 3fbc 6f13 f1bc
000000a0: 7486 2bbd 14b5 c83c 4a57 7c3c 09ee 51bc
000000b0: fc5c 68bd fc88 a5bc 2c31 52b7 ac7a cd3c
000000c0: 0322 15bd 4f6c 68bc 8f1b 5bbc b92f 90bb
000000d0: 3a87 93bc d80d 51bd 4ca7 19bd 9a2c b0bc
000000e0: 42b5 963c a831 623c a6f5 e8bc eb3b 1b3d
000000f0: d00a f83b 9af7 45bd fdeb 393c 71bb 853b
00000100: 913c f6bc eced eabb ac8c cdbc 87ad f1bc
00000110: ede1 27bd edcd febc e76d c03c 17f3 413b
00000120: 33b4 79bd 22da bebb 7a37 903a a322 873c
00000130: 6049 58bc 261e 09bd 10b3 0ebd 8f19 52bc
00000140: 79b9 383c ff8e f1bc 92fe 0bbc 0dc6 76bc
00000150: 352c edbc e07d 45bc 5145 ec3c de84 90bc
00000160: 574c 2bbd cf40 39bb 6919 d4bc 05f7 c73c
00000170: cca3 7a3a c61a e5bb 2e58 9cbc 6935 0dbd
00000180: e56a 443c 03c4 5abd 8223 9d3c f2bd 07bd
00000190: 3e7c 88bc defc 083c d219 463c ba17 0b3c
000001a0: 301e 503a d69d 4bbd 3668 f93c 99de 79bd
000001b0: fe22 34bd 0940 ab3c 1617 2cbd fe4c 30bd
000001c0: 35b0 b6bc fd5b 2bbc 8d19 b03a a18c c2bc
000001d0: b80a 6ebc ec89 c5bc 429f 28bd 4554 dabc
000001e0: 6295 2cbc 677c ae3a 9390 07bd e0ec 8a3c
000001f0: 7042 88bc 6165 b7bc 7924 4f3c 37b5 c1bc

action_model._continuous_distribution.log_sigma f4 [1, 2]
-0.049889665 -0.068033464
00000000: 1b59 4cbd 2155 8bbd

action_model._continuous_distribution.mu.weight f4 [2, 128]
0.03554769 -0.017396327 0.016838273 -0.06382202 0.017193375 -0.0283606 0.004510302 0.039506916
0.030112091 -0.00095367414 0.023590792 -0.05456274 0.023879651 -0.04783373 0.0042501753 0.016635101
0.026676262 -0.022024194 0.031353027 0.014403132 0.033740256 0.007438507 0.014001101 0.014260596
0.032646824 -0.048411537 0.0936524 -0.0005057204 0.037227392 -0.021817746 0.0109846415 0.013967768
0.008467706 -0.0036882581 -0.041736335 0.010367293 0.0051043704 0.01524885 0.026874477 -0.0019913828
-0.0036180587 -0.046837866 0.052963026 0.013824933 -0.0041637435 0.07233651 0.021627218 -0.013346465
0.011467805 0.05473487 0.016488766 -0.026690912 0.009633561 0.009041646 -0.002408118 0.021822467
0.03422219 -0.018494995 0.018587863 -0.068244316 0.0860917 0.024738202 0.004299428 -0.04427574
-0.01152473 0.035445962 0.03399513 0.028297137 -0.0006105538 0.04057658 -0.0829839 0.0042447685
0.0010899159 0.003396362 0.023164248 0.053372625 0.029435981 -0.006296268 -0.031605072 0.059680153
-0.019232955 0.01431265 0.031121356 0.05464732 -0.0007017788 0.031405933 0.07015244 -0.033645645
-0.009657916 0.051600955 0.039438453 -0.037254795 0.007219935 0.031616535 0.01272418 0.0077940784
0.07381386 0.002138831 -0.05033279 -0.016709851 0.055393495 0.031114673 -0.031563144 0.03906734
0.02175603 0.0055010803 -0.06529277 0.00020533155 0.013001577 -0.062166527 -0.028664276 0.0016671915
0.006863155 -0.003111412 0.026137345 0.049340595 0.041014526 0.002944788 -0.0007915656 0.017067365
0.020623237 0.023733037 -0.021480078 -0.03523929 0.020832485 0.005698556 0.04862613 0.0012320303
-0.011510885 -0.057122815 -0.057567604 0.0141914375 -0.0042150924 0.037505157 -0.008102187 0.010728848
0.016557345 -0.0018591622 -0.02586465 0.057070877 0.0063364147 0.010018014 -0.0020143979 -0.026447587
0.03131336 -0.020419499 -0.032889623 -0.011195838 -0.016198164 0.0050873207 -0.029992828 -0.023372486
0.093319006 0.002327322 -0.058519877 -0.0033444746 0.026300102 0.032079976 -0.0065921224 -0.032756355
-0.02172278 -0.0076454342 0.03361032 -0.027384808 -0.0005582356 -0.055472493 -0.02203371 -0.0055044363
-0.005534352 0.01445075 0.033750642 -0.033441547 -0.0041484074 -0.018649817 0.016658949 0.051163673
-0.0075488864 0.038156867 -0.024975449 0.042651657 -0.03334751 -0.010181705 -0.0021714366 -0.004445211
0.03212273 0.046218924 0.00432057 0.020191029 -0.050686147 -0.005940698 0.040085524 0.012922005
-0.0037807992 0.019543663 -0.04580895 -0.04346868 -0.010074161 0.03184076 0.01989686 -0.027150506
-0.001496498 -0.04928116 0.01880198 0.06582292 -0.011974519 -0.0005923907 -0.0060694725 0.0041599986
0.025635062 -0.03489918 -0.033798907 -0.0570495 -0.008375098 -0.04381755 0.010051296 -0.01575179
-0.0034924184 -0.050925814 -0.0326628 0.033516623 0.031904086 0.0038897824 -0.019568132 -0.019936888
-0.0021993995 -0.006615162 0.02258151 -0.009262422 -0.037108444 0.04060395 0.043457996 0.046541657
-0.03211212 -0.0016915564 0.019968234 -0.0047323257 -0.0015700836 0.031368334 -0.013710445 -0.005880486
0.016632374 0.0075911414 0.015810424 0.004700506 -0.018681169 -0.0019597337 0.0046869423 -0.019425148
-0.040668033 0.024400448 -0.009813023 0.076784596 -0.008167927 -0.015178314 0.020763088 -0.02201843
00000000: 749a 113d be82 8ebc 6bf0 893c 1fb5 82bd
00000010: 1fd9 8c3c 7d54 e8bc 28cb 933b 01d2 213d
00000020: a2ad f63c fdff 79ba 7a41 c13c 2e7d 5fbd
00000030: 429f c33c 4ded 43bd 0e45 8b3b 5646 883c
00000040: 2d88 da3c 156c b4bc 086c 003d 1dfb 6b3c
00000050: 3933 0a3d b8be f33b e064 653c 46a5 693c
00000060: adb8 053d 2d4b 46bd d4cc bf3d 5292 04ba
00000070: c07b 183d 21bb b2bc edf8 333c 11d9 643c
00000080: 22bc 0a3c b4b6 71bb b8f3 2abd 94db 293c
00000090: 9042 a73b 50d6 793c dd27 dc3c dc81 02bb
000000a0: f41c 6dbb 10d9 3fbd c2ef 583d f981 623c
000000b0: 0370 88bb 2a25 943d 902b b13c 22ab 5abc
000000c0: 76e3 3b3c ac31 603d 7313 873c e6a6 dabc
000000d0: 15d6 1d3c 6923 143c 84d1 1dbb 08c5 b23c
000000e0: 912c 0c3d d182 97bc 9345 983c adc3 8bbd
000000f0: d850 b03d c5a7 ca3c 37e2 8c3b 7a5a 35bd
00000100: 39d2 3cbc c92f 113d 7a3e 0b3d 66cf e73c
00000110: 920d 20ba a133 263d 77f3 a9bd b317 8b3b
00000120: 82db 8e3a 8095 5e3b f3c2 bd3c 419d 5a3d
00000130: ba23 f13c ed50 cebb 5274 01bd 2d73 743d
00000140: 6e8e 9dbc 9b7f 6a3c 37f2 fe3c ded5 5f3d
00000150: 94f7 37ba 82a3 003d 15ac 8f3d 04d0 09bd
00000160: 3c3c 1ebc 865b 533d 378a 213d 7c98 18bd
00000170: 3495 ec3b 5780 013d 1479 503c 7865 ff3b
00000180: b92b 973d a12b 0c3b c129 4ebd 19e3 88bc
00000190: 4ae4 623d 33e4 fe3c 5b48 01bd 1305 203d
000001a0: b439 b23c 6842 b43b 37b8 85bd 454e 5739
000001b0: 9104 553c 54a2 7ebd 58d1 eabc aa85 da3a
000001c0: 51e4 e03b d5e8 4bbb fc1d d63c 5d19 4a3d
000001d0: d9fe 273d 58fd 403b 1181 4fba dcd0 8b3c
000001e0: 10f2 a83c c96b c23c fdf6 afbc 1357 10bd
000001f0: e3a8 aa3c f4ba ba3b 312c 473d 147c a13a
00000200: 2798 3cbc 9df9 69bd 02cc 6bbd 3483 683c
00000210: c21e 8abb 029f 193d 09bf 04bc 0dc8 2f3c
00000220: 45a3 873c 22af f3ba 1ae2 d3bc 27c3 693d
00000230: b3a1 cf3b 9922 243c fd03 04bb 9ca8 d8bc
00000240: 7042 003d cb46 a7bc 45b7 06bd c06e 37bc
00000250: 03b2 84bc 8ab3 a63b 85b3 f5bc a877 bfbc
00000260: 091e bf3d fc85 183b 8ab2 6fbd f92e 5bbb
00000270: 5073 d73c 4b66 033d bb02 d8bb 872b 06bd
00000280: f9f3 b1bc 8d86 fabb faaa 093d 1b56 e0bc
00000290: 8f56 12ba 2037 63bd 0a80 b4bc 8f5e b4bb
000002a0: 8259 b5bb d7c2 6c3c 1d3e 0a3d 01fa 08bd
000002b0: 5def 87bb 80c7 98bc 5978 883c 0091 513d
000002c0: a65c f7bb 604a 1c3d 5099 ccbc 81b3 2e3d
000002d0: 6697 08bd 2ad1 26bc a94e 0ebb 22a9 91bb
000002e0: 2093 033d 0e50 3d3d 9193 8d3b a867 a53c
000002f0: 479c 4fbd 30aa c2bb b830 243d d1b6 533c
00000300: 49c7 77bb 081a a03c 2aa2 3bbd 370c 32bd
00000310: 180e 25bc 756b 023d bdfe a23c bd6a debc
00000320: 2426 c4ba 0bdb 49bd 9c06 9a3c 2bce 863d
00000330: c630 44bc ab4a 1bba 6de2 c6bb 9950 883b
00000340: 9f00 d23c 71f2 0ebd b970 0abd bdac 69bd
00000350: b537 09bc 087a 33bd 31ae 243c e609 81bc
00000360: 0fe1 64bb 9697 50bd 6ec9 05bd ba48 093d
00000370: dcad 023d b8eb 7e3b 594d a0bc af52 a3bc
00000380: cd23 10bb 00c4 d8bb dcfc b83c 6ac1 17bc
00000390: 06ff 17bd 5450 263d 0301 323d 77a2 3e3d
000003a0: 0088 03bd 37b7 ddba 6c94 a33c a011 9bbb
000003b0: 43cb cdba 157c 003d c6a1 60bc 18b1 c0bb
000003c0: 9e40 883c 1cbf f83b dd84 813c b406 9a3b
000003d0: 4009 99bc e06e 00bb ec94 993b 7d21 9fbc
000003e0: 8693 26bd 73e3 c73c cdc6 20bc 3e41 9d3d
000003f0: c5d2 05bc 77ae 78bc 5a17 aa3c ff5f b4bc

action_model._continuous_distribution.mu.bias f4 [2]
-0.019536557 0.040245038
00000000: 210b a0bc fbd7 243d
