GameAI3/Config/results/dwarf_2/Dwarf/Dwarf-36096.onnx (onnx, 73485 bytes, 7 tensors)

network_body._body_endoder.seq_layers.0.weight f4 [128, 8]
0	0xbe5e51e8	-0.21710932
1	0x3e3126cf	0.1729996
2	0x3d8dc81e	0.06922935
3	0x3e8568c3	0.2605649
4	0x3df31da4	0.11870888
5	0x3e350dec	0.17681092
6	0xbf59f487	-0.85138744
7	0xbe4049fc	-0.18778223
8	0xbf1e21ec	-0.6177051
9	0x3ecff68f	0.40617797
10	0x3ecad75c	0.3961743
11	0xbd85c9d5	-0.06532637
12	0x3d97d1c3	0.07413056
13	0xbe15c53e	-0.14626023
14	0xbe444724	-0.19167763
15	0xbe80495e	-0.25055975
16	0xbeb913e2	-0.36147982
17	0x3e9a7287	0.30165502
18	0xbc9bbb29	-0.019010143
19	0x3f5c5fc8	0.8608365
20	0x3e92e3bf	0.2868938
21	0x3da99d51	0.08281959
22	0xbcb3c436	-0.021944147
23	0xbf089a91	-0.5336085
24	0xbe58638e	-0.21131727
25	0xbf0a5250	-0.5403185
26	0x3e1812d8	0.14850938
27	0x3f04dd0c	0.5189979
28	0x3d8785b7	0.06617301
29	0x3e99a1d3	0.30006275
30	0x3ecca417	0.3996894
31	0xbe38545d	-0.18000932
32	0xbcf11be0	-0.029432237
33	0x3ea8d623	0.32975873
34	0x3f296d3b	0.661823
35	0x3e539346	0.20661649
36	0xbed44990	-0.41462374
37	0x3e87fa1a	0.26558
38	0x3ea14339	0.314966
39	0x3d0525e5	0.032506842
40	0xbe2cddd1	-0.16881491
41	0x3dd9d055	0.10635439
42	0xbeba2949	-0.36359623
43	0x3e3bdda0	0.18346262
44	0x3e32d148	0.17462647
45	0xbeef9625	-0.4679424
46	0x3ed41a7e	0.41426462
47	0xbee2f96d	-0.44330922
48	0x3eb0407a	0.34424192
49	0x3e484f87	0.19561587
50	0xbe547b80	-0.20750237
51	0x3d85e4f0	0.06537807
52	0x3eb96d0d	0.36216012
53	0x3e6d6bce	0.23185655
54	0x3e15743b	0.1459512
55	0x3ee19adb	0.44063458
56	0x3e70d91d	0.23520322
57	0x3ee28b9b	0.44247136
58	0xbe1002af	-0.14063524
59	0xbc1ac7d3	-0.009447056
60	0xbe729e81	-0.23693277
61	0xbe51d5a7	-0.20491658
62	0xbe1ad925	-0.15121897
63	0xbe6ce013	-0.23132353
64	0x3d84080a	0.06446846
65	0xbeaf039a	-0.34182435
66	0xbe24aa90	-0.1608069
67	0x3e89238a	0.26784927
68	0xbe23edbf	-0.16008662
69	0x3b6d7ff9	0.0036239608
70	0x3e1eab8a	0.15495124
71	0xbf9fb441	-1.2476884
72	0xbf17008d	-0.58985215
73	0xbeab8820	-0.33502293
74	0x3eaaf711	0.33391622
75	0x3ee0caad	0.4390463
76	0xbe9b657c	-0.30350864
77	0x3ebfa010	0.37426805
78	0x3ea5aedc	0.3235997
79	0xbe5d325d	-0.21601243
80	0xbe272f38	-0.16326606
81	0x3eb9a45c	0.3625821
82	0x3e8d0fd1	0.2755113
83	0xbf06ca22	-0.5265218
84	0x3d3ab5dd	0.045583595
85	0x3e59f960	0.21286535
86	0xbec63c01	-0.38717654
87	0x3e10864f	0.14113735
88	0x3c8de945	0.017323146
89	0x3e74989d	0.23886342
90	0x3e6e50b3	0.23272972
91	0x3e23d00c	0.15997332
92	0x3f2c9ec1	0.6742974
93	0xbf818e84	-1.0121617
94	0xbe8d94d0	-0.27652597
95	0x3f11ba35	0.56924754
96	0x3eafa3a8	0.34304547
97	0x3f2e5436	0.68097246
98	0xbdeafa5f	-0.11473536
99	0x3d82b1a1	0.06381536
100	0xbefb64e8	-0.49100423
101	0xbdfd0db1	-0.12356127
102	0xbe5814db	-0.21101706
103	0xbd9446c7	-0.07240062
104	0xbeede97b	-0.46467194
105	0xbdc536a8	-0.096295655
106	0xbe68d125	-0.22736032
107	0xbd8473b3	-0.064673804
108	0xbf13a405	-0.5767215
109	0x3f3f4ba5	0.747248
110	0xbe7c8589	-0.24660315
111	0x3ecaa29c	0.39577186
112	0x3ccf67a4	0.025317974
113	0x3dffe8a7	0.12495547
114	0x3f713574	0.9422219
115	0xbcd069a9	-0.025441008
116	0x3e2972b3	0.1654766
117	0xbf2fe95f	-0.6871547
118	0x3d7f136d	0.062274385
119	0x3eb16e77	0.3465459
120	0xbf1db193	-0.6159908
121	0xbc9362fc	-0.017991535
122	0x3cee1851	0.02906433
123	0xbf2b7db2	-0.6698867
124	0x3ee1acfe	0.44077295
125	0x3e98b424	0.29824936
126	0xbe2ccae9	-0.16874279
127	0xbec05490	-0.37564516
128	0x3e8645ef	0.2622523
129	0xbdb6e929	-0.089311905
130	0x3ee4d10f	0.4469075
131	0xbd036f56	-0.0320886
132	0x3f25a57f	0.6470565
133	0xbda0e4ae	-0.07856117
134	0xbe2078ee	-0.15671131
135	0x3e4a8504	0.19777304
136	0xbd6f08d4	-0.05835803
137	0x3eabaced	0.3353037
138	0x3eab496b	0.3345445
139	0x3cdc29c1	0.026875379
140	0xbe99a4b7	-0.3000848
141	0x3e66b93a	0.22531596
142	0xbef979fb	-0.48725876
143	0x3e999d1f	0.30002686
144	0xbc6712aa	-0.014103571
145	0xbf02c448	-0.5108075
146	0x3edfc9ed	0.43708745
147	0x3e2a91f2	0.16657236
148	0x3ec6b3c0	0.38809013
149	0x3f0fca98	0.5616851
150	0x3eea95fd	0.45817557
151	0xbd4edd3e	-0.05050396
152	0x3d8dd3e3	0.0692518
153	0x3f1c9ebe	0.6117972
154	0xbe8dee58	-0.27720904
155	0x3dddf59d	0.10837863
156	0xbe7f638e	-0.24940321
157	0xbd35e35a	-0.044406272
158	0xbc92358c	-0.017847799
159	0x3e7b2b1b	0.24528162
160	0x3e11c16c	0.14233941
161	0xbe921278	-0.28529716
162	0xbec1b437	-0.37832806
163	0xbd3cc8bc	-0.046089873
164	0xbe96e0d3	-0.29468402
165	0x3e0ad8aa	0.13559213
166	0x3e6fedc5	0.23430546
167	0xbebc527a	-0.36781675
168	0x3e0c24a5	0.13685854
169	0xbebb0e80	-0.365345
170	0x3eb59a7c	0.35469425
171	0x3f01f8db	0.5077035
172	0x3d6e5235	0.058183867
173	0xbed82fc0	-0.4222393
174	0x3dec83a8	0.11548549
175	0x3e697ed6	0.2280229
176	0xbdf63a56	-0.120228454
177	0xbd6b21bc	-0.05740522
178	0x3eb62237	0.3557298
179	0x3e671c83	0.2256947
180	0xbe9f8eec	-0.31163728
181	0xbd863bf8	-0.06554407
182	0x3f093749	0.53599983
183	0x3ba74c2c	0.005105516
184	0xbf632a1e	-0.8873614
185	0xbf5043a7	-0.8135323
186	0x3eb161fb	0.34645066
187	0x3e9e6c15	0.30941835
188	0xbeaf3a77	-0.34224293
189	0x3b83f376	0.0040268255
190	0x3e954b49	0.29159
191	0x3ede6bb1	0.43441537
192	0x3e815bc4	0.25265324
193	0x3e1c12d0	0.15241551
194	0xbd13e86f	-0.036110338
195	0xbef6a329	-0.48171356
196	0x3eb8df91	0.36108068
197	0xbd9b6b93	-0.075888775
198	0xbee618ca	-0.44940788
199	0xbe9c447e	-0.30521005
200	0x3d7a4074	0.061096624
201	0xbe115abb	-0.14194767
202	0x3d546cc5	0.051861543
203	0xbd95bc1b	-0.07311269
204	0x3ee4f632	0.44719082
205	0x3ec3aa6a	0.38215953
206	0x3f39fe0c	0.7265327
207	0x3e39545b	0.18098585
208	0xbe99ba6e	-0.30025047
209	0xbeeeda9b	-0.46651158
210	0x3e5be614	0.21474487
211	0x3f54fad4	0.83195233
212	0x3d6ac464	0.0573162
213	0x3e877317	0.26454994
214	0x3e6ef634	0.23336107
215	0x3ea7bfae	0.32763427
216	0xbed8a550	-0.42313623
217	0x3e655f0b	0.22399537
218	0xbd3e5304	-0.04646589
219	0x3e2b14ba	0.16707125
220	0x3ed9b1cd	0.42518464
221	0xbe06b8be	-0.13156411
222	0x3e9a8a37	0.30183575
223	0xbe74e13d	-0.23914047
224	0x3ea86003	0.3288575
225	0xbda5ad76	-0.08089726
226	0x3e3f612f	0.18689416
227	0xbdfd7dbe	-0.12377499
228	0xbdea2ae4	-0.11433962
229	0x3f1f9058	0.62329626
230	0xbf7a63e7	-0.9780869
231	0xbf3e9bae	-0.744563
232	0x3e21bc07	0.15794383
233	0x3e0b82ca	0.13624111
234	0xbe4fb7d3	-0.20284967
235	0xbe0867bc	-0.13320822
236	0x3ed06e06	0.4070894
237	0x3ec56e46	0.38560694
238	0x3ea13182	0.31483084
239	0xbf421fc5	-0.75829726
240	0x3f5ed393	0.87041587
241	0xbece48e4	-0.40289986
242	0xbdbbc995	-0.09169308
243	0xbd9cb7cd	-0.07652245
244	0x3e699132	0.22809294
245	0x3e0ec14f	0.13940929
246	0x3f13eb86	0.57781255
247	0x3f031483	0.51203173
248	0x3ec969a8	0.39338422
249	0xbe1be2a5	-0.15223177
250	0xbeb322ae	-0.34987396
251	0x3e4d76e1	0.2006488
252	0xbebadb46	-0.36495417
253	0x3e9a9826	0.30194205
254	0x3d87bed6	0.06628196
255	0x3f565331	0.8372069

network_body._body_endoder.seq_layers.0.bias f4 [128]
0	0x3b1dd382	0.0024082367
1	0xbcaccf27	-0.021094872
2	0xbd0b10e2	-0.033951648
3	0x36b3deac	5.360538e-06
4	0xbd0329f8	-0.032022446
5	0xbbc50596	-0.006012629
6	0xbc908ac3	-0.017644292
7	0xbc85d3c4	-0.01633633
8	0xba755093	-0.0009358015
9	0xbc18be61	-0.009322734
10	0xbcb8f27a	-0.02257656
11	0xbc8ce61f	-0.017199574
12	0x3c91797d	0.017758125
13	0xbcf30b94	-0.029668607
14	0xbc30ef33	-0.010799217
15	0xbcc023b1	-0.023454519
16	0xbc7c05d7	-0.015382252
17	0xbc1839a6	-0.009291088
18	0xbb656da2	-0.0035007973
19	0xbd661635	-0.056173522
20	0xbbd37612	-0.006453284
21	0xbc056ec0	-0.008144081
22	0x3c8c8d47	0.01715721
23	0xa9048ac3	-2.9430244e-14
24	0xbcf55521	-0.02994782
25	0xbc831499	-0.016001033
26	0xbc050406	-0.008118635
27	0x3b1ef8f9	0.0024257286
28	0xbc7f14f0	-0.015568957
29	0xbd114b9c	-0.035472497
30	0xbc0709c9	-0.008242079
31	0x3b11e2bc	0.0022260388
32	0xadfa3648	-2.8445815e-11
33	0x3b45011e	0.003006048
34	0xbc9e3f1c	-0.019317202
35	0x3b3d1681	0.0028852525
36	0xbc4c7ec9	-0.0124814
37	0xb58507b9	-9.91152e-07
38	0xbcae99cd	-0.021313572
39	0xbcea7012	-0.028617892
40	0xbdb92730	-0.090406775
41	0xbd9984f9	-0.07496066
42	0x3d3f4b89	0.046702895
43	0xbb69c03b	-0.0035667557
44	0xbd911a7c	-0.070851296
45	0xbcdefb2e	-0.027219381
46	0xba76b46f	-0.0009411042
47	0xbbb81f70	-0.005618982
48	0xbcd27b5d	-0.02569359
49	0xbc8c724f	-0.01714435
50	0xbb926d63	-0.0044686063
51	0xbca26371	-0.019822808
52	0xbca7a4e6	-0.020464372
53	0xbd1573d0	-0.0364874
54	0xbcded4f3	-0.027201151
55	0xbcb3b24f	-0.02193561
56	0xbbed7a60	-0.0072472543
57	0xbcf7146a	-0.030161101
58	0xbc9d2434	-0.019182302
59	0x36a2bb9b	4.8498164e-06
60	0xbc843086	-0.016136419
61	0xbce07a66	-0.027402114
62	0x3b9a374a	0.004706298
63	0xbc819ac6	-0.015820872
64	0xbd16fb4f	-0.03686076
65	0xbc1a21ef	-0.009407504
66	0xb88793dd	-6.464843e-05
67	0xb02b7d0f	-6.2387157e-10
68	0xbc52de14	-0.01287033
69	0xbc1e21ac	-0.009651583
70	0x34859c13	2.488674e-07
71	0xbaa00110	-0.0012207348
72	0xbd2d958f	-0.04237896
73	0x3b24ed99	0.0025166033
74	0x39ccde0b	0.00039075347
75	0xbc5eb480	-0.013592839
76	0xbd59703c	-0.05308555
77	0xbd5578e6	-0.05211725
78	0xb6061662	-1.9980585e-06
79	0xb87ee08c	-6.0767445e-05
80	0xbb9a517f	-0.004709422
81	0xbc0f4ead	-0.008746785
82	0x3c29b916	0.010359069
83	0xba46a5cd	-0.0007577807
84	0xbc5512b1	-0.013004945
85	0xbd2ba759	-0.041907642
86	0xbd112b8b	-0.035441916
87	0xbc950da3	-0.018194979
88	0xbb835c7e	-0.0040088287
89	0xbc1330aa	-0.00898377
90	0xbcd6c0ae	-0.026214924
91	0xbb25ab9e	-0.0025279294
92	0xbd34fe1c	-0.04418765
93	0xbbf17f8e	-0.007369942
94	0xbd0fad3c	-0.03507732
95	0x3a00ba82	0.00049106043
96	0xbbb418c6	-0.0054961173
97	0xbd1ed2a2	-0.038775094
98	0x3a1e90b5	0.00060487847
99	0xbcdedb07	-0.02720405
100	0x3478bb3f	2.316492e-07
101	0xbb4af844	-0.0030970732
102	0xbbf5fae4	-0.007506715
103	0xbcba8c9d	-0.022772128
104	0x26aff44d	1.2209282e-15
105	0xbbb27170	-0.0054456517
106	0x3a87659d	0.0010329966
107	0x3a2aa526	0.00065095944
108	0x3af99379	0.0019041143
109	0xbc594759	-0.0132616395
110	0xbca09e2d	-0.019606674
111	0xbd0d8cd9	-0.03455815
112	0xbcc28888	-0.023746744
113	0x3c06a41b	0.008217837
114	0xbb50847d	-0.003181725
115	0xbc0eefbe	-0.008724151
116	0xbce5f8d0	-0.028072745
117	0xbcd8c9a5	-0.02646334
118	0xbd088747	-0.033332136
119	0xbcf4a585	-0.029864082
120	0xbc966c23	-0.01836211
121	0xbbcc54fe	-0.006235718
122	0xbc96b4a5	-0.018396685
123	0xbc2ee7d7	-0.010675392
124	0xbcb91c0e	-0.022596385
125	0xbc97bb58	-0.01852195
126	0x3bad27ea	0.005284299
127	0xbc903bce	-0.017606642

network_body._body_endoder.seq_layers.2.weight f4 [128, 128]
0	0xbdcc91f2	-0.09988774
1	0xbcaafd72	-0.020872805
2	0x3d4951ea	0.049150385
3	0xbcebba00	-0.028775215
4	0x3d6fa6f1	0.058508817
5	0x3d18abec	0.037273332
6	0xbd9cbfbc	-0.07653758
7	0x3ce2cff8	0.027687058
8	0xbcc2e6d2	-0.023791704
9	0xbe029e9a	-0.12755814
10	0xbd329120	-0.043595433
11	0xbd063d69	-0.03277341
12	0x3df6f14e	0.12057744
13	0xbcc8e07f	-0.02452111
14	0x3c3e7bdc	0.01162621
15	0x3d8a2ef7	0.06747239
16	0xbd2e0035	-0.042480666
17	0x3dfc3dc9	0.12316472
18	0x3e0f6cbf	0.14006327
19	0x3cc8ee06	0.02452756
20	0x3d74490f	0.059639987
21	0x3d67fb22	0.056635983
22	0x3e3253f4	0.17414838
23	0x3d603bc9	0.054744516
24	0xbdbb19bf	-0.0913577
25	0x3df5280d	0.1197053
26	0xbba32df0	-0.0049798414
27	0x3cbee999	0.023304747
28	0x3d78de67	0.060758974
29	0xbe1f293f	-0.15543078
30	0xbce340e8	-0.02774091
31	0xbd876487	-0.06610971
32	0x3c39f9e3	0.011351082
33	0xbd15ade4	-0.03654279
34	0xbcc764b9	-0.02434002
35	0x3de499ff	0.11162185
36	0xbd2e765f	-0.042593356
37	0x3dbe50da	0.09292765
38	0x3ca4575e	0.020061191
39	0xbe240b99	-0.16020049
40	0x3b7f288a	0.0038934075
41	0xbdd3f2bf	-0.103490345
42	0xbcc4e53a	-0.024035085
43	0x3d1ee724	0.03879465
44	0xbbb227b7	-0.0054368633
45	0x3cb5e564	0.022204109
46	0x3d21797e	0.039422505
47	0xbe05091d	-0.12991758
48	0xbcd05d22	-0.025435034
49	0x3dd428ab	0.10359319
50	0x3d81c22b	0.06335863
51	0xbd8570c6	-0.065156505
52	0x3dda1a86	0.1064959
53	0x3d6a62fa	0.057223298
54	0xbd43006a	-0.047607817
55	0xbe0b07e0	-0.13577223
56	0x3c48e5e0	0.012261838
57	0x3db8ae19	0.090175815
58	0x3d9f5bd2	0.07781185
59	0xbd1fdf61	-0.03903139
60	0x3e41e04b	0.18933217
61	0x3de919d0	0.113818765
62	0x3dcdb703	0.10044672
63	0xbdeb65e1	-0.11494041
64	0x3d45c6a4	0.04828514
65	0xba0fad38	-0.00054808287
66	0x3d2f77f4	0.042839006
67	0x3bd36238	0.0064509176
68	0xbc8ee759	-0.0174443
69	0x3e288ea0	0.16460657
70	0xbca8b052	-0.020591889
71	0xbaa6155b	-0.0012671159
72	0x3e413a67	0.18869935
73	0xbd9941fe	-0.0748329
74	0xbd8304e9	-0.06397421
75	0xbdcc1b63	-0.09966161
76	0x3d76f4ec	0.06029217
77	0x3db05d52	0.086115494
78	0x3cfdc8ed	0.030979598
79	0xbd929585	-0.07157425
80	0x3da337c8	0.07969624
81	0xbe14656a	-0.14491811
82	0x3d6f4483	0.058414947
83	0x3d02b45e	0.031910293
84	0xbd8417f9	-0.06449885
85	0xbd97870c	-0.07398805
86	0xbd7ed957	-0.06221899
87	0xba3e5a1b	-0.00072613516
88	0xbd470228	-0.04858604
89	0xbca8c987	-0.020603908
90	0x3d807e4f	0.062740915
91	0xbd161a7e	-0.03664636
92	0x3c335af1	0.010946975
93	0x3cd8111d	0.026375348
94	0x3d957435	0.07297555
95	0xbe3233b8	-0.17402542
96	0x3c381743	0.011236015
97	0xbe74c6ba	-0.23903933
98	0xbccc5926	-0.024944853
99	0xbd0cb154	-0.0343488
100	0xbc92579c	-0.017864041
101	0xbda9f17d	-0.08298013
102	0xbdbcc0c1	-0.092164524
103	0x3e128d3f	0.14311694
104	0x3b0db439	0.0021622314
105	0xbc9b36b2	-0.01894698
106	0x3a68ae0b	0.0008876032
107	0x3df2b1db	0.118503295
108	0xbdae3fa3	-0.085082315
109	0xbd84e061	-0.064881094
110	0x3e4c10d8	0.199283
111	0xbd614777	-0.054999795
112	0xbddb1eee	-0.10699259
113	0xbe27e027	-0.16394101
114	0xbc6a2899	-0.014291906
115	0x3e3be9c4	0.18350893
116	0x3dc473a5	0.0959237
117	0x3c755652	0.014974194
118	0xbdb64b2e	-0.08901058
119	0xbd4b10b4	-0.049576476
120	0x3cc73f93	0.024322307
121	0x3a3e6510	0.0007262984
122	0xbe4144e1	-0.18873931
123	0xbdb16eee	-0.08663736
124	0x3e06357b	0.13106339
125	0xbc19db80	-0.009390712
126	0xbdf9ac5f	-0.1219108
127	0xbd197878	-0.037468404
128	0xbd30a085	-0.043121833
129	0x3cc8f076	0.024528723
130	0x3cffccd7	0.031225605
131	0xbd97c101	-0.074098594
132	0x3c484145	0.012222593
133	0xbe043f4e	-0.12914774
134	0x3d8ac8a2	0.06776549
135	0x3dc5c56f	0.09656798
136	0x3d842363	0.06452062
137	0x3da69964	0.08134726
138	0xbd13f2c3	-0.036120187
139	0xbdbd0bb1	-0.092307456
140	0xbbc2957d	-0.0059382305
141	0x3e16d15a	0.14728299
142	0xbc5b0d0b	-0.013369809
143	0x3d5e1176	0.05421587
144	0x3df10e5d	0.11770318
145	0x3c3288b7	0.010896853
146	0xbd38217a	-0.0449538
147	0xbdfa7df3	-0.12231054
148	0x3d16bdc6	0.036802076
149	0xbdf79c77	-0.1209039
150	0x3d21a650	0.03946525
151	0x3ce1b421	0.027551712
152	0x3d5f6242	0.054537065
153	0xbe1663a6	-0.1468645
154	0xbdf2da37	-0.118580274
155	0xbbc595fa	-0.0060298415
156	0x3dc903da	0.09815188
157	0xbe1b7f06	-0.15185174
158	0xbe0cfc99	-0.13768233
159	0x3d32f30f	0.04368883
160	0x3e70498f	0.2346556
161	0x3bca20ad	0.006168446
162	0xbd9efe20	-0.07763314
163	0xbdc3fbc7	-0.09569507
164	0xbd9b617a	-0.075869516
165	0xbdd26b32	-0.10274352
166	0x3d4a546e	0.049396925
167	0xbd650eab	-0.05592219
168	0x3d80339d	0.062598445
169	0x3cd7faa4	0.026364632
170	0x3d6052f1	0.0547666
171	0xbdade5be	-0.084910855
172	0xbe1c0a4b	-0.15238301
173	0xbbef433d	-0.0073017166
174	0xbd6b87d9	-0.0575026
175	0x3d498f60	0.049209
176	0x3bd96f8c	0.006635612
177	0x3d827372	0.06369676
178	0x3dd2fafe	0.10301779
179	0xbd5184a9	-0.051151905
180	0x3d63ddae	0.055631332
181	0xbe019790	-0.12655473
182	0x3de2b9c4	0.11070588
183	0xbd8a6a3f	-0.06758546
184	0xbe0ec2b7	-0.13941465
185	0x3b1518ff	0.0022750495
186	0x3e06cc9e	0.13163993
187	0x3d499b2a	0.04922024
188	0x3d8e9191	0.06961358
189	0xbc479da4	-0.012183581
190	0xbdb67f31	-0.089109786
191	0xbe536e91	-0.20647646
192	0x3e25ad73	0.16179447
193	0xbd0774c9	-0.03307036
194	0x3da50c47	0.08058982
195	0x3bef7309	0.0073074144
196	0x3ce61440	0.028085828
197	0xbd492dc3	-0.049115907
198	0xbcd292d3	-0.025704777
199	0x3d5b70d4	0.0535744
200	0xbe395e65	-0.18102415
201	0xbd6c36a8	-0.05766931
202	0x3dae7da9	0.085200615
203	0xbd2cfd0f	-0.042233523
204	0xbd83b2ca	-0.06430586
205	0x3c65a26a	0.014015773
206	0xbd4ef580	-0.050527096
207	0x3d041345	0.03224494
208	0xbd591b18	-0.053004354
209	0x3df72bb6	0.12068884
210	0x3d990eb7	0.0747351
211	0xbbfd5f71	-0.007732325
212	0x3cd2cd66	0.025732707
213	0xbb9ecc9a	-0.0048461678
214	0x3d8fd6a8	0.07023364
215	0xbcdcb892	-0.026943479
216	0xbd120d9e	-0.035657518
217	0x3e0fe151	0.14050795
218	0x3dd1968d	0.102337934
219	0x3d7146da	0.05890546
220	0xbe1db350	-0.15400434
221	0x3d9ca97d	0.07649515
222	0x3e0e8086	0.13916215
223	0x3bd20fc5	0.0064105713
224	0xbdf7fcf4	-0.12108794
225	0x3cda2220	0.0266276
226	0x3deee849	0.11665399
227	0x3cbdafdc	0.023155145
228	0x3e09fe03	0.13475804
229	0x3dea5b95	0.11443249
230	0x3cc90c4b	0.024541995
231	0xbd07b3ea	-0.033130564
232	0xb9569e5f	-0.00020467628
233	0x3df3df54	0.11907831
234	0xbd0848d6	-0.033272587
235	0x3daf4f98	0.08560103
236	0x3bda730a	0.0066665458
237	0x3d6ec2ca	0.058291234
238	0x3e2d3dc5	0.16918094
239	0x3e55e4e4	0.20888096
240	0xbb5c1077	-0.003357915
241	0x3d9356a6	0.07194261
242	0xbde23f37	-0.110472135
243	0x3d108ae3	0.035288703
244	0x3c9448a2	0.01810104
245	0xbd943b57	-0.07237881
246	0x3dc6fb36	0.097158834
247	0x3daafd05	0.08349041
248	0x3dcb6bee	0.09932695
249	0x3dd16605	0.10224537
250	0xbd2c2aac	-0.042032883
251	0x3c70857b	0.014680262
252	0xbdbf4067	-0.09338456
253	0xbccfbde2	-0.025359098
254	0xbdba3791	-0.0909263
255	0xbdced449	-0.10099084

network_body._body_endoder.seq_layers.2.bias f4 [128]
0	0xbc8dd3a5	-0.017312834
1	0xbc0782c6	-0.008270925
2	0xbc8a47c7	-0.01687993
3	0xbc5b3f84	-0.0133818425
4	0xbbe1a221	-0.0068857823
5	0xbc57e4e3	-0.013177129
6	0xbca10064	-0.019653507
7	0xbc0f8da3	-0.008761796
8	0xbc4e82c7	-0.012604422
9	0xbc9ef0cf	-0.019401936
10	0xbc8a0c5a	-0.016851593
11	0x2d84d606	1.5101708e-11
12	0xbb594af3	-0.0033156245
13	0xbcc1d6e1	-0.023662033
14	0xb83422f8	-4.294791e-05
15	0xbc64caee	-0.013964398
16	0xbd0fbdb6	-0.03509303
17	0xbc7b1d18	-0.015326761
18	0xbc4a1696	-0.0123344865
19	0xbbd7a4b8	-0.0065809153
20	0xba16341c	-0.0005729811
21	0xbc4327e2	-0.011911364
22	0xbc2bde32	-0.010489987
23	0xbc61a928	-0.01377324
24	0xba791885	-0.000950225
25	0xbc108602	-0.008821012
26	0xac95d063	-4.2579703e-12
27	0x3ae1b88b	0.0017221136
28	0xbc74dabb	-0.0149447275
29	0xbbe0df1b	-0.0068625337
30	0xb8a1b7e6	-7.711332e-05
31	0xbc8016f3	-0.015635943
32	0xbc3b3703	-0.01142669
33	0xbc49350e	-0.012280716
34	0xbc9bac21	-0.019002976
35	0xbcc0dac5	-0.023541817
36	0xbcd3ca77	-0.025853379
37	0xbc108f42	-0.008823218
38	0xbb54be08	-0.00324619
39	0xbc473fb5	-0.012161185
40	0xbbeb84ee	-0.0071874773
41	0xbc649b84	-0.013953093
42	0xbb7f3d4d	-0.003894645
43	0xbcc328ac	-0.023823105
44	0xbc590765	-0.013246392
45	0xbc21a7eb	-0.009866695
46	0xbc432621	-0.011910946
47	0x3b20db05	0.0024544608
48	0xbc375fac	-0.011192244
49	0xbc8d5afa	-0.017255295
50	0xbc524976	-0.012834897
51	0xbc817973	-0.015804982
52	0xbc1a0e9b	-0.009402896
53	0xbc94665f	-0.01811522
54	0xbbf23785	-0.0073918724
55	0xbc306185	-0.010765438
56	0xbc9055dd	-0.017619068
57	0xbc271d5a	-0.010199869
58	0xbc63d233	-0.013905096
59	0xbb861a8e	-0.004092521
60	0xbc2fd455	-0.010731776
61	0xbbc4b2ea	-0.0060027735
62	0xbc893044	-0.016746648
63	0xbce7f05a	-0.02831285
64	0xbb80f2b8	-0.0039351843
65	0xbc0d7add	-0.00863525
66	0xbc269e03	-0.010169509
67	0xbc6f36a4	-0.01460043
68	0xbca33ec9	-0.0199274
69	0xb913464d	-0.00014045202
70	0xbbe690eb	-0.0070363185
71	0xbc75952c	-0.014989179
72	0xbc5f3cf1	-0.013625369
73	0xbbb9da49	-0.0056717736
74	0xbc3f542b	-0.011677782
75	0xb3bc8eff	-8.780443e-08
76	0x36a2215d	4.83186e-06
77	0xb9086dad	-0.00013010828
78	0xbc1bb57b	-0.0095037175
79	0xbc6d340b	-0.01447774
80	0xbc36d871	-0.011160002
81	0xbc9439ae	-0.01809391
82	0xbc4f3f8d	-0.012649429
83	0xbca18be6	-0.01972003
84	0xbcd3a9c7	-0.025837792
85	0xbccdfebc	-0.02514588
86	0xbc536790	-0.012903109
87	0xbc386d5d	-0.011256543
88	0xba81b790	-0.0009896625
89	0xbbec9a31	-0.0072205295
90	0xbc8d727a	-0.0172665
91	0xbc0e4e7e	-0.008685706
92	0xbbb8a945	-0.005635413
93	0xbc83260a	-0.01600935
94	0xbc317951	-0.010832147
95	0xbca57370	-0.020196646
96	0xbce317aa	-0.027721245
97	0xb9595176	-0.00020725079
98	0xbcd273a7	-0.025689913
99	0xbc64c094	-0.01396193
100	0xbc26d157	-0.010181746
101	0xbc26abb5	-0.010172774
102	0xbc708769	-0.014680722
103	0xbc69d7f8	-0.014272682
104	0xbc621c54	-0.013800699
105	0xbc29d7ed	-0.010366422
106	0xbb0aeaca	-0.0021197074
107	0xbc68942c	-0.014195483
108	0xbc44779c	-0.011991408
109	0xbc911420	-0.017709792
110	0xbc9af46a	-0.018915374
111	0xbc7e4fcb	-0.015521954
112	0x38fefebf	0.00012159114
113	0xbc091433	-0.008366632
114	0xbb9ec565	-0.0048453086
115	0xbcbf90c2	-0.023384456
116	0xbcc58932	-0.024113271
117	0xb5bd84eb	-1.4120282e-06
118	0xbbfa4e87	-0.0076387557
119	0xbb02b00b	-0.0019941356
120	0xbc00ad2e	-0.007853789
121	0xbc6404ca	-0.013917157
122	0xbc803b15	-0.015653173
123	0x366cfca8	3.5313806e-06
124	0xbca6eb0d	-0.020375753
125	0xbbc3a62c	-0.005970737
126	0xbc7f74cb	-0.01559181
127	0xbc5e28f9	-0.013559573

action_model._continuous_distribution.log_sigma f4 [1, 2]
0	0x3c9dfc87	0.019285453
1	0xbd175cfc	-0.03695391

action_model._continuous_distribution.mu.weight f4 [2, 128]
0	0xbb8e9823	-0.004351632
1	0xb921f343	-0.00015444779
2	0xb88f7586	-6.840662e-05
3	0xb8c89c2e	-9.565834e-05
4	0xbadee6a6	-0.0017005994
5	0xba2a035f	-0.00064854877
6	0xbadefa52	-0.0017011857
7	0x3c4512d1	0.012028412
8	0x3ad5bacf	0.0016306284
9	0xbb39df31	-0.0028361792
10	0xbabdf573	-0.0014492705
11	0xbcb35a72	-0.021893714
12	0xbc37a196	-0.011207959
13	0x392ddeb5	0.0001658153
14	0xbc3bf1f6	-0.011471262
15	0xb8691a63	-5.5576103e-05
16	0xba1f88d8	-0.000608576
17	0xbad5b80d	-0.0016305462
18	0xb9c1eef9	-0.00036989877
19	0xbbcf28f2	-0.0063220197
20	0x3b911a18	0.0044281594
21	0x3bdd072e	0.0067452407
22	0xbb0e8c60	-0.002175115
23	0x3a7ebf0c	0.0009717799
24	0x395fd65d	0.00021346794
25	0x3c423e73	0.011855709
26	0x3c00f886	0.007871753
27	0x3c4787f1	0.012178407
28	0x3a30191c	0.0006717609
29	0x38b50767	8.632131e-05
30	0x3cf5084f	0.029911188
31	0xba5d405b	-0.00084400707
32	0xba8048b3	-0.0009787291
33	0x3b999451	0.00468687
34	0xb99f2da6	-0.00030360854
35	0xbb0c1220	-0.0021373108
36	0x39eaf2ff	0.00044813004
37	0xbb8e47ea	-0.004342069
38	0xbb8c15a4	-0.0042750407
39	0x3bfb6ee3	0.007673131
40	0xbbcecd05	-0.0063110613
41	0x3bbf05cb	0.005829548
42	0x3c3f50c5	0.011676972
43	0xba83573f	-0.0010020508
44	0x3b534093	0.0032234534
45	0xbbb55ce7	-0.0055347565
46	0x3b9d7689	0.0048053903
47	0x3ceb921b	0.028756192
48	0xbb9c4898	-0.004769396
49	0x37effd14	2.8608869e-05
50	0x3a8ce6ec	0.0010749972
51	0xbabe3dbb	-0.0014514247
52	0xbb4f463e	-0.003162756
53	0xba147f58	-0.00056647277
54	0xbb718615	-0.00368536
55	0x39aeed9d	0.00033364902
56	0xb9d28cca	-0.00040159217
57	0x3a520e3a	0.0008012984
58	0x3a5de4c0	0.00084645674
59	0xbb799b2c	-0.0038086874
60	0x3a3b187b	0.0007137132
61	0x3c1b741d	0.009488133
62	0xba2c3cf1	-0.000657036
63	0xb997ebc3	-0.0002897662
64	0xbc4c2a23	-0.012461218
65	0xba8990c9	-0.001049542
66	0x3c2592f7	0.01010584
67	0xbaf4d103	-0.0018678013
68	0xba914383	-0.0011082742
69	0x3c42f241	0.011898578
70	0x3ab594e0	0.0013853572
71	0xbb947e2b	-0.004531642
72	0xbb8507a7	-0.00405975
73	0xbba96d6c	-0.005170515
74	0x3c6173c2	0.013760509
75	0x3c121f25	0.008918558
76	0x3b9a17a0	0.0047025234
77	0x3b8d36c6	0.004309508
78	0xbb5d959b	-0.0033811096
79	0xbaca3b28	-0.0015429007
80	0x3a109b51	0.0005516308
81	0xb9b99a02	-0.00035400694
82	0x3c86ccf2	0.016455147
83	0xbab42967	-0.0013745249
84	0x3a9d76ff	0.0012013613
85	0xbbc3703a	-0.005964306
86	0x3a3ff007	0.00073218386
87	0x3a25d589	0.00063260697
88	0xbb600633	-0.0034183383
89	0x3ad29c45	0.00160683
90	0xba3babb4	-0.00071590696
91	0xba944234	-0.0011311234
92	0x3c57e895	0.0131780105
93	0xbb02ad55	-0.001993974
94	0xbbcd0dce	-0.006257749
95	0xba087f63	-0.00052069704
96	0xb9834681	-0.00025038797
97	0xbc19be8f	-0.009383812
98	0x3bf65ae5	0.0075181597
99	0xb805a4e4	-3.1863237e-05
100	0x3b6a2071	0.0035724903
101	0xbb0ebb59	-0.0021779148
102	0x3c098999	0.008394622
103	0x3a72a5a4	0.000925625
104	0xba4c0646	-0.0007782917
105	0xbb447456	-0.0029976568
106	0x3ad12b3a	0.0015958317
107	0xba2372ed	-0.0006235082
108	0xbad2cd2c	-0.0016082874
109	0xbb3dab5a	-0.0028941245
110	0xba441de0	-0.00074812584
111	0x3afda9fc	0.0019353027
112	0x3c63c4c9	0.013901898
113	0xbb878140	-0.004135281
114	0xbc6db320	-0.014508039
115	0xb914338e	-0.00014133586
116	0x3a842aad	0.0010083519
117	0x391f8a5c	0.00015214965
118	0x38c13afd	9.2139446e-05
119	0xbba474af	-0.0050187926
120	0xbaab7273	-0.0013080373
121	0xbad55935	-0.0016277196
122	0xba696299	-0.0008902937
123	0x3cb65d39	0.022261249
124	0xb9bf2b30	-0.00036462536
125	0x3c00cb53	0.007860976
126	0xbb484a76	-0.003056196
127	0xbb133337	-0.0022460946
128	0x3a3b0b21	0.0007135142
129	0xbab7331b	-0.0013977023
130	0x3b0e6b1c	0.0021731323
131	0xba982a24	-0.0011609239
132	0x3d22e63e	0.039770357
133	0xb9d7dcdb	-0.00041172546
134	0xbacd0554	-0.0015641847
135	0x3aaef9a1	0.0013349542
136	0x3c0ee241	0.008720935
137	0xbaf305a8	-0.0018541114
138	0xbb2efd40	-0.0026701242
139	0x3d26a943	0.040688764
140	0x3c7e2897	0.015512607
141	0x37fe8a62	3.0343599e-05
142	0xbcf0aa3a	-0.029378045
143	0xbc22d95e	-0.00993952
144	0xba337f22	-0.00068472524
145	0xbad121c9	-0.0015955503
146	0xbb1ad6ce	-0.0023626569
147	0xbc075263	-0.008259389
148	0xbb16ebc1	-0.0023028704
149	0xbb803685	-0.0039127492
150	0x3c2a5b52	0.010397749
151	0xb9ea709b	-0.00044715856
152	0x3bee3ccb	0.0072704307
153	0x3c9012f7	0.017587168
154	0x3c245187	0.010029203
155	0x3ce7bfef	0.028289763
156	0xbabba33a	-0.0014315613
157	0x3b416c4d	0.0029514015
158	0x3b9a8772	0.0047158534
159	0x39e12846	0.0004294535
160	0x39658eb8	0.00021892309
161	0xbbd216ba	-0.0064114006
162	0xba82817b	-0.0009956801
163	0xbb658bb8	-0.0035025906
164	0x3aa7920c	0.0012784614
165	0xbb090f66	-0.002091372
166	0xbb77287f	-0.0037713347
167	0xbc9c9f7c	-0.019119017
168	0x3becd7ce	0.0072278744
169	0x3bd7b6b3	0.0065830587
170	0x3c27a84d	0.010232997
171	0xbabff901	-0.0014646353
172	0x3c277ff9	0.010223382
173	0xbcc418c7	-0.023937596
174	0x3c5b27d7	0.013376198
175	0x3cc6e430	0.02427873
176	0xba4081c3	-0.0007343555
177	0xbad50c8f	-0.0016254353
178	0x39a5642d	0.0003154589
179	0xbadabb14	-0.0016687834
180	0xbc0e6fa8	-0.008693613
181	0xba112677	-0.0005537043
182	0xbc6838a6	-0.014173662
183	0x3923e959	0.0001563182
184	0xbb0a21b6	-0.0021077222
185	0xbc241b3e	-0.010016261
186	0xbb6b1b51	-0.0035874436
187	0x3bee3c7e	0.007270395
188	0xbc83417e	-0.01602244
189	0x3c1bcf06	0.009509807
190	0x39bc4ba1	0.00035914502
191	0xb9adb7d0	-0.00033134082
192	0xbbb3b585	-0.0054842853
193	0x3b2c63db	0.0026304636
194	0xbc971894	-0.018444337
195	0x3b44728a	0.0029975497
196	0xb943cf9b	-0.00018673988
197	0x3c46b53a	0.012128169
198	0x3be6581c	0.0070295464
199	0x3a24e6fb	0.0006290522
200	0xbca977a9	-0.020686941
201	0x3ce4d733	0.027934646
202	0x3c111486	0.008854991
203	0xbd04708e	-0.032333903
204	0xbcce1580	-0.025156736
205	0x3ca04aee	0.01956698
206	0xbbe887a0	-0.007096246
207	0xba350073	-0.0006904669
208	0x38eb4ac4	0.000112195994
209	0xba087b4b	-0.00052063604
210	0x3c7ee07f	0.015556454
211	0x390a2fd7	0.00013178527
212	0x3a797da1	0.00095173164
213	0xbbe5e322	-0.0070156017
214	0x3a01e20d	0.00049546437
215	0xba9fe9fb	-0.0012200469
216	0xbd02643a	-0.031833865
217	0xbc89b727	-0.016810967
218	0x3b97be55	0.0046308436
219	0xbb259ccb	-0.0025270458
220	0x3cb20b26	0.021733832
221	0x3a9b1c89	0.0011834066
222	0x3b4a0325	0.0030824628
223	0x38c3e950	9.3417824e-05
224	0x3996b9c6	0.00028748641
225	0x3c808916	0.015690368
226	0xbbbc1db1	-0.005740844
227	0xba4d73a5	-0.0007837362
228	0x3c48dbac	0.012259405
229	0x3aeae1ec	0.0017920113
230	0x3a5ed436	0.000850025
231	0x3af05357	0.0018335384
232	0x391390f5	0.00014073013
233	0xb9c947a8	-0.00038391096
234	0xbb277cb8	-0.0025556516
235	0xbb1bea75	-0.002379087
236	0xbb041020	-0.0020151213
237	0x3ad35392	0.0016122928
238	0xb9bbd519	-0.0003582619
239	0x3c222c44	0.009898249
240	0x3c99332a	0.018701155
241	0xbbbefd1b	-0.0058285124
242	0x3cc5626a	0.024094779
243	0xba9600b6	-0.0011444304
244	0xbb469ab4	-0.0030304613
245	0x3bef79d8	0.007308226
246	0x3ac35417	0.001490238
247	0xbc4fccfe	-0.012683151
248	0xba985241	-0.0011621193
249	0x3aaacc72	0.00130309
250	0xba1075c8	-0.0005510715
251	0x3cbf2fb1	0.02333817
252	0x3b6e631a	0.0036374987
253	0x3cf518ac	0.029918991
254	0x36bfa903	5.711919e-06
255	0xbc413105	-0.011791472

action_model._continuous_distribution.mu.bias f4 [2]
0	0x3c6e70b7	0.0145532405
1	0x3c9af80b	0.018917104
