GameAI3/Config/results/dwarf_2/Dwarf/Dwarf-20576.onnx (onnx, 73485 bytes, 7 tensors)

network_body._body_endoder.seq_layers.0.weight f4 [128, 8]
-0.5520163 -0.2648261 -0.0046845777 -0.0045054145 -0.02028942 -0.17707627 -0.24105878 0.06729041
-0.25382778 0.075849354 0.5486333 -0.5120091 0.010861398 -0.43121135 -0.061421987 0.05977279
-0.014070763 0.6402461 0.12736423 -0.5915709 -0.4538365 0.15887691 0.41504523 -0.12571055
-0.2182214 0.012696663 0.35759786 -0.2449725 0.28304031 -0.55401415 0.55700755 -0.31995568
0.27638027 0.15613006 0.24721618 -0.28858355 0.4014864 -0.028704297 0.24758081 -0.14836162
-0.028986966 0.28821042 0.10139455 -0.43363792 -0.739339 0.027082121 -0.42586678 0.4970197
-0.30233014 -0.20384696 0.3741142 -0.3841778 -0.013794277 0.51011604 -0.11280554 0.041584067
0.042251997 -0.1450369 0.36411503 -0.82404774 0.249279 0.061949432 0.064584635 0.019718822
-0.009805982 -0.42448443 -0.4082209 0.3380442 -0.5050163 -0.32781774 0.6428693 -0.017301964
0.4420699 -0.18021925 0.82266897 0.45979863 -0.3813629 0.046984185 0.022354882 0.17337903
-0.1592949 -0.20900771 0.090289176 0.34243178 -0.17916295 0.27011892 -0.1934921 -0.3826903
-0.19568788 0.3753791 -0.01745318 -0.0071974187 0.30553302 -0.054680355 -0.13320798 0.47732684
0.2040139 0.007308169 0.09813939 0.050049104 -0.13260753 0.6730628 -0.40559006 -0.052674696
-0.21730702 -0.9044092 -0.4878106 -0.25874278 0.28286868 0.0025088324 -0.11471333 0.029969051
-0.14264758 0.42904893 0.44993615 0.62797827 0.09197497 -0.8680131 0.16591676 0.40186584
0.4626329 0.38858706 0.31363943 0.09431702 0.047295943 -0.23615357 0.11926081 0.25706232
0.16149694 0.19589986 0.2186116 0.40420055 -0.19135723 -0.37083575 0.047029268 -0.72422135
0.079829045 0.10224087 0.107804164 -0.44210395 -0.2571142 0.27653912 -0.28367296 -0.02654264
0.3658585 0.019637551 0.14037435 -0.44173488 -0.0640534 0.001563601 0.23674811 0.25349978
0.060695063 0.024539934 0.33376017 0.3268102 -0.40777677 0.5019355 -0.041060288 0.5633648
-0.08078196 -0.12272779 0.4617032 0.17576416 -0.093008466 -0.054625023 0.0852397 -0.08747868
-0.15898286 -0.23073478 -0.049286477 -0.4465983 0.37937945 -0.25815278 -0.34995398 -0.017148556
0.0018877119 0.019740872 0.3511054 0.021536116 -0.21246456 -0.7815698 0.18493176 0.17539106
-0.7666134 0.079769425 0.60501415 -0.4605833 -0.6773925 0.39548588 0.12411574 0.10777015
0.0903217 -0.31597117 -0.2866051 0.5824943 -0.14115162 0.053639382 -0.025988974 0.14061494
0.04424172 -0.21282582 -0.16780528 0.19479793 -0.50891423 0.40302265 0.1894999 -0.2780052
-0.15989862 -0.009737159 0.1518108 -0.3437593 0.35080552 -0.9577606 -0.06108972 0.10270971
-0.19977023 0.38293028 0.09377616 0.16934495 0.30890906 0.42519802 0.8612135 -0.1619225
0.08644168 0.28354803 -0.29946 -0.12529275 -0.061887603 -0.6091651 -0.17648776 -0.14008585
0.00073530606 -0.22268854 0.4738854 -0.2596832 -0.5382228 0.09662266 -0.33456218 0.53947955
0.23552164 0.46248907 0.15890473 0.37583587 0.16398092 0.38041222 -0.02381434 -0.9976227
0.32338107 -0.73576677 0.5089977 -0.14989674 -0.09103042 -0.5608672 -0.11226301 -0.06632869
00000000: f150 0dbf 4997 87be 1681 99bb 28a2 93bb
00000010: ff35 a6bc 7b53 35be 1dd8 76be 8ecf 893d
00000020: b7f5 81be e856 9b3d 3b73 0c3f 0713 03bf
00000030: 01f4 313c bcc7 dcbe 9f95 7bbd 50d4 743d
00000040: 0f89 66bc 2be7 233f c56b 023e 3171 17bf
00000050: 425d e8be a1b0 223e cf80 d43e 44ba 00be
00000060: 6e75 5fbe aa05 503c 1117 b73e 12da 7abe
00000070: a9ea 903e dfd3 0dbf 0c98 0e3f 3bd1 a3be
00000080: b781 8d3e 8fe0 1f3e 3d26 7d3e 39c1 93be
00000090: a08f cd3e 4625 ebbc d385 7d3e 1cec 17be
000000a0: 1376 edbc 5190 933e f2a7 cf3d ca05 debe
000000b0: 5245 3dbf 53db dd3c 360b dabe 5e79 fe3e
000000c0: 04cb 9abe 42bd 50be e58b bf3e f4b2 c4be
000000d0: 6401 62bc f796 023f 9706 e7bd 0e54 2a3d
000000e0: 6e10 2d3d 8e84 14be 496d ba3e cbf4 52bf
000000f0: ff42 7f3e b0be 7d3d f344 843d 5e89 a13c
00000100: 45a9 20bc 0656 d9be 5402 d1be 2114 ad3e
00000110: c048 01bf bad7 a7be 1593 243f d9bc 8dbc
00000120: fc56 e23e 658b 38be 6f9a 523f ba6a eb3e
00000130: ff41 c3be 7d72 403d 9621 b73c 468a 313e
00000140: 341e 23be 1e06 56be 88e9 b83d 3853 af3e
00000150: 7e76 37be 074d 8a3e cb22 46be fcef c3be
00000160: 6762 48be b031 c03e f9f9 8ebc 53d8 ebbb
00000170: d36e 9c3e 82f8 5fbd ac67 08be 2f64 f43e
00000180: 05e9 503e 5d79 ef3b 4efd c83d 4a00 4d3d
00000190: 45ca 07be d84d 2c3f 80a9 cfbe 6cc1 57bd
000001a0: bb85 5ebe 5d87 67bf 50c2 f9be ef79 84be
000001b0: 2ad4 903e 396b 243b d3ee eabd a881 f53c
000001c0: 3512 12be 4dac db3e 085e e63e 2fc3 203f
000001d0: 605d bc3d 1b36 5ebf 15e6 293e 5cc1 cd3e
000001e0: 38de ec3e e2f4 c63e 5995 a03e 4829 c13d
000001f0: 64b9 413d 3ed2 71be 033f f43d ac9d 833e
00000200: 745f 253e f999 483e b8db 5f3e 60f3 ce3e
00000210: 26f3 43be 2fde bdbe c3a1 403d 9266 39bf
00000220: 697d a33d a963 d13d 6ec8 dc3d 735b e2be
00000230: 79a4 83be 8996 8d3e 953d 91be f36f d9bc
00000240: ce51 bb3e eede a03c 4bbe 0f3e 132b e2be
00000250: 6e2e 83bd bef1 cc3a 196e 723e b9ca 813e
00000260: 639b 783d f907 c93c 9de2 aa3e ab53 a73e
00000270: 1ec8 d0be d87e 003f d52e 28bd ad38 103f
00000280: 0371 a5bd b558 fbbd 5d64 ec3e 85fb 333e
00000290: 397b bebd 7dbe 5fbd 2792 ae3d 0628 b3bd
000002a0: 67cc 22be bd45 6cbe 9ee0 49bd 88a8 e4be
000002b0: 063e c23e 9a2c 84be 2b2d b3be 217b 8cbc
000002c0: 1a6d f73a 9cb7 a13c 16c4 b33e 826c b03c
000002d0: 4f90 59be f514 48bf c05e 3d3e b799 333e
000002e0: c740 44bf 275e a33d 35e2 1a3f 93d1 ebbe
000002f0: 9869 2dbf 207d ca3e 6530 fe3d 99b6 dc3d
00000300: 95fa b83d f9c6 a1be e7bd 92be 591e 153f
00000310: 0d8a 10be f8b4 5b3d d4e6 d4bc 5dfd 0f3e
00000320: ce36 353d 03ef 59be 26d5 2bbe 1c79 473e
00000330: 3448 02bf fc58 ce3e 430c 423e b356 8ebe
00000340: 77bc 23be 9b88 1fbc 4a74 1b3e 3801 b0be
00000350: c89c b33e cc2f 75bf 3739 7abd 7859 d23d
00000360: 9190 4cbe 700f c43e b70d c03d c368 2d3e
00000370: 5429 9e3e 8eb3 d93e 7d78 5c3f 03cf 25be
00000380: 5608 b13d 352d 913e d252 99be be4c 00be
00000390: db7d 7dbd 3ef2 1bbf 35b9 34be aa72 0fbe
000003a0: 8ec1 403a 7708 64be 1ba1 f23e 32f5 84be
000003b0: f8c8 09bf 1ae2 c53d bc4b abbe 551b 0a3f
000003c0: 962c 713e 5ecb ec3e ecb7 223e 8f6d c03e
000003d0: 9dea 273e 64c5 c23e 4a16 c3bc 3464 7fbf
000003e0: 3492 a53e 365b 3cbf ac4d 023f 887e 19be
000003f0: 286e babd fe94 0fbf 26ea e5bd 56d7 87bd

network_body._body_endoder.seq_layers.0.bias f4 [128]
-0.009129315 -0.01198487 -0.032813244 -0.008601873 0.00800789 -0.022779312 -0.013216095 0.004856739
0.005172601 -0.0076631904 0.0071145846 0.012208541 -0.035602793 -2.6987601e-11 -0.008535063 -0.0011313652
-0.0012445045 -0.0060089873 -0.053638212 -0.038365696 -0.012333125 0.009073554 -0.0057912 0.011545918
-0.007813197 -0.008589995 0.010232518 -0.017461725 -0.003649566 0.014179339 -0.057706073 -3.0372494e-14
-0.001353856 -0.00031671103 -0.010144418 0.0029272563 -0.030039402 -0.019201852 1.3064631e-07 -0.038926467
0.0008278871 0.0010970751 -0.029045131 0.0009953751 -0.00764893 -0.00018935713 -0.0030475094 -0.0019283349
-0.03474281 -0.04052762 -0.017150959 -0.005379388 -0.053227853 -0.01443758 -0.00261314 -0.011757371
-0.00043409833 -0.003697235 -0.019796424 -0.055240788 -0.013578284 -0.029305948 -0.011907494 -0.021179104
-0.014566786 -0.0050799 -0.008608636 -0.004293655 0.023531795 -0.003477904 -0.0096646845 -0.01953529
0.0026912782 1.4491533e-08 -0.026224762 1.4397665e-08 -0.019735483 -0.0034116353 -0.035871655 -0.016741863
-0.00019252811 0.0030800586 -0.044614613 -0.0016251899 -0.0069110403 0.009287642 -0.008775956 -0.012249419
-0.0063604936 -0.0036117488 0.015281024 -0.014141074 0.00428682 -0.0044242134 -0.016037054 0.00393268
-0.013127125 -0.0057402854 -0.009782148 0.0039127674 -0.0046393094 -0.013960633 6.674892e-06 0.01399838
-0.030358637 0.012516121 -0.0003294669 -0.016668307 5.484831e-07 7.0992576e-07 -0.012986614 -0.019587828
-0.01752596 -0.0016175627 -0.02313303 0.00030186755 1.8072164e-05 -8.9517e-16 -0.007239052 -0.00032518472
-0.015326525 -0.0012020713 -0.036612518 -0.0053770603 0.011512735 0.0049572163 0.009625793 -0.011953036
00000000: 1f93 15bc 305c 44bc 2e67 06bd dfee 0cbc
00000010: 8633 033c ae9b babc 5288 58bc 4825 9f3b
00000020: ec7e a93b 801b fbbb 7621 e93b 5506 483c
00000030: 3cd4 11bd ad62 edad a6d6 0bbc 514a 94ba
00000040: a41e a3ba 0ae7 c4bb beb3 5bbd 5925 1dbd
00000050: e010 4abc 3ea9 143c 1bc4 bdbb 172b 3d3c
00000060: ec02 00bc 0dbd 0cbc 4ba6 273c e40b 8fbc
00000070: 8f2d 6fbb 7550 683c 345d 6cbd 1ac9 08a9
00000080: de73 b1ba 3c0c a6b9 c634 26bc 36d7 3f3b
00000090: 3115 f6bc 344d 9dbc c947 0c34 5c71 1fbd
000000a0: 9006 593a bbcb 8f3a 0ef0 edbc 3f77 823a
000000b0: e0a3 fabb 2b8e 46b9 b9b8 47bb 2fc0 fcba
000000c0: 7a4e 0ebd 4a00 26bd 2b80 8cbc 9445 b0bb
000000d0: 7305 5abd 998b 6cbc 3741 2bbb fda1 40bc
000000e0: b197 e3b9 4f4d 72bb 1c2c a2bc 2a44 62bd
000000f0: 7377 5ebc 0713 f0bc a617 43bc cd7f adbc
00000100: 87a9 6ebc 4a75 a6bb 3d0b 0dbc cab1 8cbb
00000110: c0c5 c03c 8ced 63bb a058 1ebc 7908 a0bc
00000120: 2860 303b 70f6 7832 50d5 d6bc 9a59 7732
00000130: 4fac a1bc be95 5fbb 28ee 12bd 3b26 89bc
00000140: 5fe1 49b9 cfda 493b d0bd 36bd 5304 d5ba
00000150: 0276 e2bb 322b 183c 07c9 0fbc cab1 48bc
00000160: b06b d0bb 17b3 6cbb 435d 7a3c f7af 67bc
00000170: 7478 8c3b fef8 90bb 2460 83bc b6dd 803b
00000180: 2713 57bc 0119 bcbb 4d45 20bc ac36 803b
00000190: 5905 98bb 24bb 64bc e3f8 df36 7659 653c
000001a0: adb2 f8bc 6b10 4d3c 4cbc acb9 f98b 88bc
000001b0: 793b 1335 ba91 3e35 cfc5 54bc a776 a0bc
000001c0: 9a92 8fbc 6604 d4ba 7b81 bdbc fa43 9e39
000001d0: ad99 9737 f201 81a6 9235 edbb 8e7d aab9
000001e0: 1b1c 7bbc d28e 9dba 02f7 15bd 0d32 b0bb
000001f0: e99f 3c3c 2570 a23b 81b5 1d3c abd6 43bc

network_body._body_endoder.seq_layers.2.weight f4 [128, 128]
0.046616007 -0.062202975 0.10394605 0.006190932 0.16294643 0.069879316 -0.13767406 -0.06172539
0.05669418 0.19505326 -0.081311174 0.01329699 0.0040653506 -0.078146935 -0.06256369 -0.028827826
0.008108145 0.038488574 0.027426492 0.12815757 0.05514007 -0.026841309 0.04188758 -0.0554238
0.04708895 0.08515787 -0.07853973 0.056154206 0.014079287 -0.01589903 0.046459448 -0.06063251
0.13024406 -0.060473412 0.10118874 -0.06471906 -0.0932785 -0.10070184 0.023571553 -0.033613253
-0.029779382 0.056848265 -0.08423386 0.07261312 -0.17055352 0.03958678 -0.016277332 -0.0844502
0.0081871 0.11425747 -0.0746828 0.064207375 -0.07552806 -0.051342312 -0.06394208 -0.029403402
-0.05511013 0.022617845 -0.021028256 0.015529335 0.012586979 -0.028313553 0.14050187 -0.066611685
0.09431866 0.1849893 -0.034701638 0.10732622 -0.0395902 0.06246559 0.00841582 0.024075877
-0.044533916 -0.01862462 -0.14916289 -0.0094586015 -0.020369994 -0.049596243 0.060031366 -0.15355569
-0.006378766 -0.004238721 -0.04524654 0.0013034425 -0.11538208 -0.13777441 0.124114804 0.0733998
0.032744322 -0.017179834 -0.072864525 -0.041949693 -0.066163465 0.05121133 -0.13676585 0.09418214
-0.07959218 0.17980158 0.026954206 -0.018823534 -0.00582003 0.102908544 0.03480194 -0.1899013
0.10870421 0.17374514 -0.098493084 0.11634036 -0.017902575 -0.08845324 -0.109434076 0.18020089
-0.011903682 0.13466872 0.10229557 -0.043369755 0.07148534 0.038307857 -0.13879563 -0.012547298
-0.048797406 -0.05291496 0.0060420134 0.10794888 0.029813213 0.02306603 -0.2380078 0.002005684
0.007894375 -0.023215232 -0.048721228 -0.057833113 0.036320046 -0.05074739 -0.16487528 0.0042710565
0.07180587 -0.053456154 -0.031706057 -0.08052259 0.057856962 0.084292665 0.0054182606 0.17044047
0.027584689 -0.09005991 0.011796769 0.07584736 -0.014900416 -0.11365742 0.09508538 0.17885603
-0.07490421 -0.030010503 0.04176352 -0.062065236 -0.034387387 -0.14308155 0.03505006 -0.05199695
-0.10617711 -0.013524897 -0.04833823 -0.056551244 0.109070234 -0.0885646 0.16862379 0.22517389
-0.030465879 -0.11110393 -0.086770564 0.2291699 0.18639465 -0.048427284 0.07200994 0.059288464
0.056384493 0.10453304 -0.13294956 0.030684067 -0.07515828 0.06826947 0.103708066 -0.04725401
-0.033233885 -0.03810441 0.122578256 0.035385128 -0.057882097 -0.02641487 -0.21986838 0.13166389
-0.08557785 -0.15349258 -0.033646476 -0.015701765 0.03987617 -0.34808215 -0.023877127 0.068898946
-0.10666464 -0.09515793 0.029363697 0.06058104 -0.0052591814 0.045920916 -0.0034565306 -0.048988618
-0.1263779 0.09527068 0.18499827 -0.030295497 -0.036504764 -0.09232368 0.004824174 -0.010641634
0.1417144 -0.0915617 0.0155084785 -0.08950053 0.031540222 -0.19120845 0.030895956 -0.027809473
-0.03402325 -0.057963118 -0.0063892044 -0.09650045 0.039478697 -0.122045346 -0.037843034 -0.19126874
-0.1793638 0.026809933 0.028576668 0.07789818 0.08113205 0.093985744 0.12639616 0.05590705
0.09964051 -0.042057503 0.11313515 0.12650855 -0.12450616 0.004798222 0.15148592 -0.033012025
0.11370658 -0.03984714 -0.10797613 -0.10138964 -0.16347206 -0.041943636 -0.06732604 0.033739604
00000000: 6df0 3e3d 8cc8 7ebd abe1 d43d 4ddd ca3b
00000010: 6edb 263e e31c 8f3d 6efa 0cbe c3d3 7cbd
00000020: 2838 683d 0bbc 473e 7986 a6bd 9edb 593c
00000030: a236 853b 800b a0bd 6421 80bd 5528 ecbc
00000040: 06d8 043c 32a6 1d3d 86ad e03c bd3b 033e
00000050: 8eda 613d 4ee2 dbbc 5092 2b3d 1104 63bd
00000060: 58e0 403d 4067 ae3d 70d9 a0bd f401 663d
00000070: cfac 663c af3e 82bc 434c 3e3d cb59 78bd
00000080: b35e 053e f8b2 77bd 0b3c cf3d 6d8b 84bd
00000090: cc08 bfbd c43c cebd 2119 c13c 0dae 09bd
000000a0: e4f3 f3bc bad9 683d cd82 acbd 30b6 943d
000000b0: 95a5 2ebe bf25 223d 0a58 85bc 3af4 acbd
000000c0: 3023 063c d2ff e93d 4cf3 98bd 287f 833d
000000d0: 75ae 9abd 514c 52bd 11f4 82bd 67df f0bc
000000e0: 29bb 61bd 0f49 b93c 7343 acbc c06e 7e3c
000000f0: 9e39 4e3c d3f1 e7bc b9df 0f3e b56b 88bd
00000100: 242a c13d d66d 3d3e 4e23 0ebd d9cd db3d
00000110: 5529 22bd ebdb 7f3d 82e2 093c c63a c53c
00000120: 3269 36bd a992 98bc 28be 18be 40f8 1abc
00000130: f9de a6bc 6e25 4bbd 73e3 753d b43d 1dbe
00000140: f804 d1bb f8e4 8abb 7054 39bd 46d8 aa3a
00000150: 714d ecbd bc14 0dbe e72f fe3d a252 963d
00000160: e91e 063d b9bc 8cbc ff39 95bd 71d3 2bbd
00000170: b680 87bd f9c2 513d 590c 0cbe 91e2 c03d
00000180: 3a01 a3bd e81d 383e 11cf dc3c d033 9abc
00000190: f3b5 bebb b7c1 d23d 7b8c 0e3d 7d75 42be
000001a0: 50a0 de3d 3fea 313e beb6 c9bd db43 ee3d
000001b0: 6ca8 92bc f926 b5bd f91e e0bd 9586 383e
000001c0: a907 43bc 99e6 093e 5780 d13d 7ca4 31bd
000001d0: e866 923d b3e8 1c3d 7120 0ebe 2f93 4dbc
000001e0: cadf 47bd 5bbd 58bd 15fc c53b 4d14 dd3d
000001f0: d73a f43c f9f4 bc3c 51b8 73be cb71 033b
00000200: 6957 013c df2d bebc e98f 47bd 6ae2 6cbd
00000210: 54c4 143d 7fdc 4fbd 11d5 28be 38f4 8b3b
00000220: f50e 933d d7f4 5abd 36de 01bd 07e9 a4bd
00000230: 6cfb 6c3d a2a1 ac3d aa8b b13b f287 2e3e
00000240: 49f9 e13c 5571 b8bd 3c47 413c dc55 9b3d
00000250: e020 74bc 39c5 e8bd 20bc c23d 0926 373e
00000260: 6167 99bd 96d8 f5bc 3a10 2b3d 1e38 7ebd
00000270: cad9 0cbd f883 12be a790 0f3d c1fa 54bd
00000280: 6273 d9bd 8897 5dbc 4ffe 45bd 47a2 67bd
00000290: 3760 df3d 5b61 b5bd b7ab 2c3e fc93 663e
000002a0: 9493 f9bc 758a e3bd c4b4 b1bd 84ab 6a3e
000002b0: 3dde 3e3e b05b 46bd f379 933d 76d8 723d
000002c0: 6df3 663d 6b15 d63d ee23 08be 275d fb3c
000002d0: 96ec 99bd ddd0 8b3d e564 d43d 6c8d 41bd
000002e0: 4120 08bd 5f13 1cbd 4f0a fb3d ffef 103d
000002f0: c715 6dbd ff63 d8bc 2d25 61be e6d2 063e
00000300: 7143 afbd 292d 1dbe e3d0 09bd fda0 80bc
00000310: 3255 233d d337 b2be f799 c3bc e41a 8d3d
00000320: fe72 dabd 29e2 c2bd 238c f03c d323 783d
00000330: 3655 acbb 9217 3c3d f686 62bb 4aa8 48bd
00000340: 3569 01be 461d c33d 3070 3d3e 432e f8bc
00000350: 0586 15bd 3314 bdbd 1b14 9e3b 405a 2ebc
00000360: 941d 113e b384 bbbd 4617 7e3c 0e4c b7bd
00000370: 5230 013d 26cc 43be 8419 fd3c b1d0 e3bc
00000380: f75b 0bbd bc6a 6dbd 885c d1bb 07a2 c5bd
00000390: 6ab4 213d e9f2 f9bd 4c01 1bbd f4db 43be
000003a0: 25ab 37be 81a0 db3c 9e19 ea3c 1589 9f3d
000003b0: 8f28 a63d 997b c03d ff6d 013e cafe 643d
000003c0: 5310 cc3d 7d44 2cbd 67b3 e73d 758b 013e
000003d0: 16fd febd 673a 9d3b 201f 1b3e 9e37 07bd
000003e0: ffde e83d c136 23bd 9722 ddbd 5fa5 cfbd
000003f0: 3865 27be 17cd 2bbd 3ce2 89bd 8a32 0a3d

network_body._body_endoder.seq_layers.2.bias f4 [128]
-0.019132191 -0.0033528544 -2.5078435e-09 -0.0055275843 -0.0016156031 -0.0054631894 -0.00877295 -0.007344137
-0.0049230433 -0.005653806 -0.014096929 -0.0056771147 -0.014186817 -0.011317827 -0.008294622 0.0009856165
-0.010456517 -0.006540695 -0.0011625922 -0.011444022 -0.01006064 -0.011052729 -0.009525316 -0.008257247
-0.004640848 -0.0037141875 -0.004243022 -0.011194702 -0.018793372 -0.003996297 -0.0031477176 -0.021475213
-0.0031670835 -4.4236188e-07 -0.0049969405 -0.004842335 -0.008681498 -0.03149779 -0.006671362 -0.012329175
-0.00065057323 -0.017156372 -0.01160138 -0.0077425893 -0.0080435015 -0.010254067 -0.01844689 -0.0037495256
-0.010915722 -0.006563808 -0.0024094905 -0.0117676025 -0.0065496997 -0.0120476745 -0.01301718 -0.011476156
-0.0067394977 -0.00695203 -0.005580294 -0.012437422 0.0011167742 -0.011804079 -0.013873734 -0.007871955
-0.0046329056 -0.007399342 -0.0014349598 -0.0051167887 -0.004151546 -7.327066e-07 -0.008544024 -0.018234806
-0.025795909 -0.0051711896 -0.0049439208 -0.009087007 -0.0085433945 -0.011012335 -0.0109451935 -0.0060534156
-0.007893355 -0.0013970946 -0.018945925 -0.0075886413 -0.0003093322 -0.0054196483 -0.009994938 -0.0066130413
-0.0068492997 -0.017960304 0.0016815051 -5.0033275e-05 -0.010258053 -0.022660399 -0.008387652 -0.0048350766
-0.015398621 -0.017875442 -0.0069960905 1.4198e-07 -0.011500833 -0.0045297933 -0.0014087057 -0.0058040232
-0.011128528 -0.008325881 -0.004450552 -0.008385379 -0.022483412 -0.00035349323 -9.513348e-05 -0.017443756
-0.008297632 -0.0065477113 -0.0019137815 -0.007510036 -0.017306503 -0.0014043531 -0.0037258375 -0.0003765335
-0.0006652079 -0.009642445 -0.014519506 -0.006858046 -0.001384014 -0.0095782755 -0.008308761 -0.008518742
00000000: 1dbb 9cbc 90bb 5bbb 7356 2cb1 bd20 b5bb
00000010: a5c2 d3ba 8e04 b3bb 6bbc 0fbc 16a7 f0bb
00000020: 7b51 a1bb 9043 b9bb cef6 66bc 1707 babb
00000030: d36f 68bc 686e 39bc 2be6 07bc cd2f 813a
00000040: d051 2bbc 5453 d6bb 1f62 98ba b57f 3bbc
00000050: 62d5 24bc 8116 35bc 1210 1cbc 6749 07bc
00000060: 4112 98bb ba69 73bb 0c09 8bbb fc69 37bc
00000070: 8ff4 99bc 5ef3 82bb f049 4ebb c9ec afbc
00000080: d88e 4fbb c17d edb4 60bd a3bb 73ac 9ebb
00000090: d73c 0ebc d403 01bd 719b dabb 4f00 4abc
000000a0: 3b8b 2aba 858b 8cbc b713 3ebc 8cb5 fdbb
000000b0: e4c8 03bc ad00 28bc ef1d 97bc 9aba 75bb
000000c0: dbd7 32bc 3615 d7bb 8be8 1dbb e7cc 40bc
000000d0: dd9e d6bb 9c63 45bc 0346 55bc 7d06 3cbc
000000e0: 01d7 dcbb dbcd e3bb e6da b6bb 54c6 4bbc
000000f0: b960 923a e565 41bc a84e 63bc 5ff9 00bc
00000100: a1cf 97bb 2e76 f2bb 4315 bcba bcaa a7bb
00000110: b109 88bb 37af 44b5 3cfc 0bbc 2961 95bc
00000120: f151 d3bc 1573 a9bb 9d00 a2bb abe1 14bc
00000130: 98f9 0bbc 156d 34bc 7853 33bc bb5b c6bb
00000140: 2153 01bc b71e b7ba 7c34 9bbc 23aa f8bb
00000150: dd2d a2b9 4e97 b1bb cfc1 23bc 36b2 d8bb
00000160: 1770 e0bb 7d21 93bc f365 dc3a d2da 51b8
00000170: 6511 28bc 4da2 b9bc 5d6c 09bc 906f 9ebb
00000180: 7f4a 7cbc 856f 92bc 763f e5bb 2a73 1834
00000190: fd6d 3cbc a96e 94bb 52a4 b8ba ad2f bebb
000001a0: 6e54 36bc 4769 08bc f0d5 91bb d462 09bc
000001b0: 222f b8bc 0f55 b9b9 6682 c7b8 35e6 8ebc
000001c0: cbf2 07bc 2f8e d6bb dad7 faba c016 f6bb
000001d0: 5ec6 8dbc 4512 b8ba 2e2d 74bb 7969 c5b9
000001e0: 5961 2eba 58fb 1dbc 39e3 6dbc 76b9 e0bb
000001f0: ce67 b5ba 33ee 1cbc 7821 08bc 3292 0bbc

action_model._continuous_distribution.log_sigma f4 [1, 2]
0.0262847 -0.029398136
00000000: 0353 d73c 5cd4 f0bc

action_model._continuous_distribution.mu.weight f4 [2, 128]
0.0007989111 -0.00048474828 -0.0020864191 0.014736142 -0.021592172 0.014107701 0.008399182 0.016544139
-0.0045972345 0.011129137 -0.010013203 -0.011061994 0.00787571 -0.0106004905 0.018072901 0.007130389
0.004560552 -0.0075846687 0.032613534 0.0010796875 -0.00203616 0.017642986 -0.011716609 -0.013174942
0.0017105767 0.03449815 0.01998206 0.002022056 -0.0005869715 -0.00051237614 0.009090196 -0.005905902
0.0031721343 0.0011099589 -0.026985107 0.014085824 0.0016176522 -2.399181e-06 -0.010597753 -0.001215085
0.02345485 0.0024219707 -0.020432698 0.023480056 -0.020289864 0.010856437 0.0050355345 -0.0037934443
-0.024768565 0.0070048715 0.036111306 -0.0027207131 0.0060188263 0.007679365 -0.010169051 -0.016758611
0.025067925 0.0057462873 -0.001339735 0.007294635 0.0057818554 -0.017642831 -0.00164037 0.019339662
0.0136525445 -0.01708745 0.024054468 0.011035431 0.00032863094 0.016689027 0.0069280085 -0.010428899
-2.4549054e-05 -0.00570753 0.0006691011 0.008866365 0.028909085 -0.0011945668 -0.0013280547 0.00064000726
0.009111373 0.0045138854 -0.011907176 0.004532809 0.01130652 0.016900772 0.0029639385 0.011801542
0.0057803323 -0.007074381 0.02521043 0.0023703536 0.0024363168 1.3813425e-05 -0.016006436 0.00080200925
-0.010680757 0.001704851 -0.012593465 0.012027993 -0.003584369 0.03834394 -0.009102432 -0.0013165191
-0.0039790394 -0.0043436703 0.00024691585 -0.020217456 0.0002904007 -0.00010864666 -0.0013692431 0.0030542135
0.0068305708 0.006403831 0.008347503 -0.002583407 -0.0007770328 0.019447932 0.011260718 0.011302216
0.0006916685 0.0074467943 -0.0010476968 0.004548497 -0.037284654 0.002116777 0.0060321162 0.007544164
-0.0016202871 -0.0046727974 -0.01206689 0.006512498 -0.004535729 0.001842075 0.034097053 0.009282492
0.0003633146 -0.004545946 -0.012859675 0.014246411 -0.0016365079 -0.0036717427 -0.003401419 0.02807946
-0.0054777833 -0.0016294704 -0.010972019 0.0012528696 -0.0002942719 -0.0009447977 0.04217022 0.019186962
-0.005741231 0.015040196 0.006482056 -0.0029947956 0.008204591 -0.00058233633 -0.01264941 -0.001030762
-0.013445761 -0.029962761 -0.0077445325 0.0024137504 -0.0002594568 6.4788524e-05 0.018732043 0.00054056896
0.005872212 -0.0013561837 0.031900022 -0.018794425 0.018064337 -0.0018510772 -0.0018150836 -0.0018425761
0.008757592 -0.0028240413 -0.009965673 -0.0027138933 -0.006917836 -0.005567327 0.003950394 -0.0062183524
-0.0014313838 -0.0027866948 0.0003608699 0.010248167 -0.002614653 -0.012306899 0.0017602029 0.02560617
0.023118861 -0.009492605 -0.012963764 -0.015820766 0.00026962828 0.021104502 0.0034202149 0.006335268
-0.00086462643 -0.0034128611 -0.008113715 0.007804917 -0.022367444 -0.0013472674 -0.0021495041 0.007553659
0.005316734 -0.00049725216 -0.00031449375 -0.010020347 -0.030393178 0.004471393 0.002053451 -0.015621196
0.0047656894 -0.0037656778 0.0056595095 -0.0065458044 0.009093469 -0.00024629867 -0.0028174003 -0.0026049663
0.0061753695 -0.00068994623 0.010916016 -0.019948313 -0.0031238226 -0.008114658 0.026712067 0.029052582
0.0014743344 0.024050793 -0.0006754562 -0.013382071 0.00066596037 -0.0005435975 -0.0017434281 0.0016914236
0.00064991706 -0.018692536 -0.010070676 0.0029685148 -0.001357404 -0.022994332 -0.0052035595 -0.012933614
-0.01062427 0.0030506193 -0.001595825 -0.029961353 0.010617525 -0.0007391789 -0.0012726744 0.0021618505
00000000: 046e 513a d025 feb9 4ebc 08bb dc6f 713c
00000010: 11e2 b0bc fd23 673c b99c 093c 9387 873c
00000020: 66a4 96bb fc56 363c 6b0e 24bc 5e3d 35bc
00000030: 1f09 013c aead 2dbc 9f0d 943c 0aa6 e93b
00000040: af70 953b d088 f8bb c595 053d 4d84 8d3a
00000050: 1971 05bb 0688 903c 05f7 3fbc b6db 57bc
00000060: 6e35 e03a ef4d 0d3d 6bb1 a33c 7884 043b
00000070: fede 19ba fb50 06ba 0cef 143c 4c86 c1bb
00000080: 95e3 4f3b 0a7c 913a df0f ddbc 3ac8 663c
00000090: 6707 d43a 9e01 21b6 33a2 2dbc 7d43 9fba
000000a0: 6324 c03c edb9 1e3b 7962 a7bc 3f59 c03c
000000b0: ee36 a6bc 32df 313c 2001 a53b 6f9b 78bb
000000c0: 72e7 cabc 1f89 e53b 73e9 133d fe4d 32bb
000000d0: 9339 c53b 2fa3 fb3b 179c 26bc 5b49 89bc
000000e0: 405b cd3c 5a4b bc3b 0c9a afba d507 ef3b
000000f0: b875 bd3b b387 90bc af01 d7ba 366e 9e3c
00000100: ecae 5f3c fbfa 8bbc e00d c53c f4cd 343c
00000110: 194c ac39 6db7 883c 5904 e33b f9dd 2abc
00000120: b1ee cdb7 3b06 bbbb 9d66 2f3a 3b44 113c
00000130: bfd2 ec3c 0393 9cba 1f12 aeba 29c6 273a
00000140: de47 153c 37e9 933b 5116 43bc f587 943b
00000150: fb3e 393c 7d73 8a3c a33e 423b 415b 413c
00000160: f168 bd3b 36d0 e7bb 1b86 ce3c ef57 1b3b
00000170: 9daa 1f3b 35c0 6737 ee1f 83bc ee3d 523a
00000180: 58fe 2ebc 4f75 df3a d254 4ebc 0f11 453c
00000190: bce7 6abb 890e 1d3d 5e22 15bc 0d8f acba
000001a0: 9a62 82bb 5955 8ebb 7c74 8139 149f a5bc
000001b0: ec40 9839 3bd9 e3b8 2d78 b3ba 3329 483b
000001c0: fbd2 df3b 3ad7 d13b f7c3 083c 614e 29bb
000001d0: cab1 4bba 4551 9f3c e07e 383c ee2c 393c
000001e0: 1651 353a 3d04 f43b df52 89ba 8f0b 953b
000001f0: cbb7 18bd a0b9 0a3b 0fa9 c53b 0935 f73b
00000200: d05f d4ba 441e 99bb 34b4 45bc cb66 d53b
00000210: 74a0 94bb c871 f13a 5aa9 0b3d 9815 183c
00000220: 437b be39 29f6 94bb 63b1 52bc c769 693c
00000230: 1880 d6ba 9fa1 70bb 57ea 5ebb e506 e63c
00000240: fa7e b3bb f493 d5ba fcc3 33bc 5437 a43a
00000250: 8148 9ab9 4dac 77ba aeba 2c3d fa2d 9d3c
00000260: f020 bcbb 276b 763c 6d67 d43b 5544 44bb
00000270: 8d6c 063c eea7 18ba 793f 4fbc a21a 87ba
00000280: 9c4b 5cbc 7774 f5bc d9c5 fdbb 0330 1e3b
00000290: b407 88b9 13df 8738 f173 993c f8b4 0d3a
000002a0: af6b c03b f9c1 b1ba 99a9 023d c4f6 99bc
000002b0: a9fb 933c d89f f2ba 19e8 edba 9882 f1ba
000002c0: 017c 0f3c 8d13 39bb 1047 23bc 93db 31bb
000002d0: 04af e2bb 206e b6bb 4f72 813b 52c3 cbbb
000002e0: 459d bbba fba0 36bb 2333 bd39 eee7 273c
000002f0: 995a 2bbb e0a2 49bc 9cb6 e63a 08c4 d13c
00000300: c463 bd3c df86 1bbc f865 54bc 8d9a 81bc
00000310: e55c 8d39 59e3 ac3c af25 603b 1498 cf3b
00000320: 19a8 62ba 4faa 5fbb 63ef 04bc 64c0 ff3b
00000330: ee3b b7bc cb96 b0ba b2de 0cbb af84 f73b
00000340: ff37 ae3b 075a 02ba a3e2 a4b9 622c 24bc
00000350: 1dfb f8bc c384 923b 3193 063b 0bf0 7fbc
00000360: 8029 9c3b 97c9 76bb 6873 b93b 307e d6bb
00000370: c6fc 143c a621 81b9 22a4 38bb 15b8 2abb
00000380: c15a ca3b 82dd 34ba 17d9 323c a56a a3bc
00000390: 0cb9 4cbb 58f3 04bc 44d3 da3c aeff ed3c
000003a0: 743e c13a 2b06 c53c 1911 31ba 7940 5bbc
000003b0: d893 2e3a 3680 0eba bd83 e4ba c2b2 dd3a
000003c0: 325f 2a3a 1721 99bc 7aff 24bc 6a8b 423b
000003d0: ecea b1ba 9c5e bcbc 9f82 aabb 82e7 53bc
000003e0: 6b11 2ebc e6ec 473b 002b d1ba 8371 f5bc
000003f0: 21f5 2d3c 75c5 41ba decf a6ba d5ad 0d3b

action_model._continuous_distribution.mu.bias f4 [2]
0.0042473036 -0.006336725
00000000: f72c 8b3b 4da4 cfbb
