GameAI3/Config/results/dwarf_2/Dwarf/Dwarf-54920.onnx (onnx, 96564 bytes, 7 tensors)

network_body._body_endoder.seq_layers.0.weight f4 [128, 53]
0.19223823 -0.16969638 -0.014843475 -0.11572659 -0.0515698 0.12955992 0.034358475 0.097051196
-0.032159686 0.3212736 0.22022372 0.13259968 -0.2102369 -0.13164069 -0.12645842 0.08334261
0.0016186752 -0.14350618 0.26210698 0.08241139 -0.026860751 0.16408287 -0.042899072 -0.22672798
-0.06106868 0.16588947 -0.04769914 0.031013822 -0.09481432 -0.059699576 0.16841651 -0.14992437
-0.08196686 0.0049166693 -0.22502622 -0.230119 0.054840278 0.024362143 0.055047855 0.30427203
0.36644232 -0.27314037 0.0561622 -0.05473766 0.017622208 -0.032485634 -0.17662165 -0.06800641
-0.15788019 -0.31819382 -0.03021451 0.08597347 -0.13583848 0.22654901 -0.10110259 0.1652716
0.11442408 -0.079421036 -0.097596124 0.2632483 -0.17634147 0.030402683 -0.14516775 -0.10855607
0.11207919 0.044014987 -0.12954637 0.07690657 0.15286243 -0.04300651 -0.07937915 0.0073280414
-0.024142269 -0.011669906 -0.08786554 -0.27925447 0.01947267 0.0043758815 0.104154035 0.07088988
0.24057464 -0.22374949 0.114019774 0.119316384 -0.06783098 -0.13665166 -0.076081894 0.034420583
0.0065605305 0.14860108 0.07531834 0.23499598 0.0024043475 0.19981438 0.07102333 -0.09486403
0.006496173 -0.17235638 -0.06400024 -0.029916873 0.040967483 -0.00025508477 0.008691493 -0.11199824
-0.0047856737 -0.018765587 -0.031848527 0.25277483 0.17393973 -0.1682993 0.09841714 0.074482635
0.23282108 -0.02912244 0.20160781 0.025653297 -0.006981171 -0.013427228 0.12047595 -0.054755237
0.1888629 -0.21982443 -0.17489348 0.19825311 -0.07808169 -0.022238156 -0.118349425 0.0809856
0.19910254 -0.30703047 -0.04265331 -0.015288994 -0.0013538157 0.057349693 0.34250128 0.01187359
0.1730334 0.081200615 0.07289515 -0.009461679 -0.24820639 0.019754948 -0.24767196 -0.04759944
-0.08683406 0.1558535 0.08987961 0.055637654 0.030410355 -0.2687805 0.027315335 0.106950864
-0.21134199 -0.09821124 0.09587891 0.060725544 -0.18519245 -0.000109145054 0.0882465 -0.094108514
0.01813073 0.08011864 0.04945667 0.048406206 -0.12794228 0.15741467 0.0029323788 -0.1220483
-0.06307403 0.17150767 0.06880784 0.0056858794 0.074761584 0.15434961 -0.1390319 0.024899257
0.25516504 -0.0027232661 0.2766428 -0.14228113 0.15581653 0.16272552 0.30148482 -0.18923128
-0.24977264 -0.11620477 0.15835571 0.041862477 -0.113746725 -0.44172284 -0.13191539 0.07070852
0.14982739 0.29033357 0.13278872 0.06472767 0.13869707 0.0853865 -0.3470703 0.12717031
-0.31014514 0.06388774 0.06479037 0.11838517 0.16426592 -0.030874472 -0.04445538 -0.029235363
0.14748204 0.037369583 -0.2703372 0.041287474 -0.11790145 -0.0725972 0.051721852 0.031851653
-0.030215623 0.26317042 0.06353358 0.03234528 -0.10039736 -0.04586685 -0.043376848 -0.12831147
-0.0446623 0.11933316 0.018136572 -0.099433385 0.099437565 0.02468465 -0.1497756 -0.14265694
0.0259579 -0.24698634 -0.123422444 0.030087193 -0.010879203 -0.0037422408 -0.24907015 -0.12218648
0.052103586 -0.07185509 0.20909227 0.057105985 0.06704413 0.07872741 -0.026894756 0.030803924
0.30607757 -0.0250268 -0.0885245 0.1796587 -0.17016524 0.107445985 0.17340295 -0.1107266
00000000: 19da 443e e3c4 2dbe 0c32 73bc 1002 edbd
00000010: db3a 53bd 5bab 043e 79bb 0c3d c7c2 c63d
00000020: e0b9 03bd f97d a43e 5482 613e 36c8 073e
00000030: 5848 57be d1cc 06be 517e 01be 88af aa3d
00000040: ba29 d43a 49f3 12be e332 863e 4ec7 a83d
00000050: 140b dcbc 5705 283e f0b6 2fbd 612b 68be
00000060: 2723 7abd eede 293e 2c60 43bd b310 fe3c
00000070: 032e c2bd 8b87 74bd 6175 2c3e c685 19be
00000080: 3ede a7bd 031c a13b 466d 66be 51a4 6bbe
00000090: 33a0 603d 1e93 c73c dc79 613d 8bc9 9b3e
000000a0: 549e bb3e 0ed9 8bbe 560a 663d 9934 60bd
000000b0: 735c 903c a80f 05bd 4edc 34be f246 8bbd
000000c0: 58ab 21be 4dea a2be 6c84 f7bc dc12 b03d
000000d0: 3e19 0bbe 77fc 673e e00e cfbd f53c 293e
000000e0: 2c57 ea3d 7fa7 a2bd 7ae0 c7bd 7bc8 863e
000000f0: dc92 34be 0c0f f93c dba6 14be a552 debd
00000100: c689 e53d 0f49 343d cea7 04be 3181 9d3d
00000110: f887 1c3e 9827 30bd 8991 a2bd 1120 f03b
00000120: 02c6 c5bc 2233 3fbc d9f2 b3bd 71fa 8ebe
00000130: 2685 9f3c 8e63 8f3b b64e d53d b72e 913d
00000140: 3359 763e 961e 65be 3383 e93d 265c f43d
00000150: f8ea 8abd 6aee 0bbe d3d0 9bbd 99fc 0c3d
00000160: b8f9 d63b e22a 183e 8040 9a3d c9a2 703e
00000170: 4292 1d3b 249c 4c3e ae74 913d 1348 c2bd
00000180: d9dd d43b 317e 30be 8f12 83bd 3b14 f5bc
00000190: 85cd 273d e6bc 85b9 c466 0e3c 555f e5bd
000001a0: 24d1 9cbb 4aba 99bc 9a73 02bd b46b 813e
000001b0: 421d 323e a756 2cbe ed8e c93d 5a8a 983d
000001c0: a668 6e3e 2f92 eebc 4772 4e3e dd26 d23c
000001d0: 4fc2 e4bb e0fd 5bbc 18bc f63d 0747 60bd
000001e0: 4765 413e a819 61be 4717 33be dd02 4b3e
000001f0: 4be9 9fbd cb2c b6bc 2f61 f2bd c7db a53d
00000200: 89e1 4b3e 1933 9dbe 3db5 2ebd b07e 7abc
00000210: 8472 b1ba 83e7 6a3d 545c af3e 7289 423c
00000220: ab2f 313e 824c a63d 0d4a 953d 2805 1bbc
00000230: d129 7ebe 21d5 a13c b89d 7dbe a1f7 42bd
00000240: 0ed6 b1bd 0f98 1f3e cd12 b83d 4fe4 633d
00000250: 231f f93c 999d 89be 69c4 df3c 0e09 db3d
00000260: 096a 58be f922 c9bd 295c c43d 59bb 783d
00000270: 17a3 3dbe cee4 e4b8 95ba b43d f7bb c0bd
00000280: e686 943c 3e15 a43d 1493 4a3d 9645 463d
00000290: 4d03 03be 5031 213e 272d 403b 76f4 f9bd
000002a0: f52c 81bd b59f 2f3e 20eb 8c3d 9d50 ba3b
000002b0: 9a1c 993d d30d 1e3e 615e 0ebe 87f9 cb3c
000002c0: fea4 823e d378 32bb 20a4 8d3e 25b2 11be
000002d0: 5e8e 1f3e 85a1 263e 385c 9a3e d8c5 41be
000002e0: 66c4 7fbe c4fc edbd 0028 223e fd77 2b3d
000002f0: 0bf4 e8bd 7f29 e2be d414 07be a1cf 903d
00000300: 5a6c 193e 9aa6 943e c4f9 073e f18f 843d
00000310: 9b06 0e3e 1edf ae3d 33b3 b1be ef38 023e
00000320: 58cb 9ebe 93d7 823d d0b0 843d ed73 f23d
00000330: 5335 283e 76ec fcbc d816 36bd 007f efbc
00000340: 8805 173e d910 193d a369 8abe 0e1d 293d
00000350: 5176 f1bd d7ad 94bd 4bda 533d e176 023d
00000360: c186 f7bc 46be 863e e51d 823d 7c7c 043d
00000370: 229d cdbd e1de 3bbd ecab 31bd 1564 03be
00000380: d1ef 36bd f264 f43d 2693 943c bba3 cbbd
00000390: eca5 cb3d 7737 ca3c c65e 19be a914 12be
000003a0: a9a5 d43c fde9 7cbe e8c4 fcbd 6b79 f63c
000003b0: af3e 32bc 6240 75bb 3f0c 7fbe e83c fabd
000003c0: 926a 553d c328 93bd 491c 563e f7e7 693d
000003d0: 6f4e 893d d63b a13d 6452 dcbc 8358 fc3c
000003e0: 33b6 9c3e 0105 cdbc 554c b5bd 73f8 373e
000003f0: cc3f 2ebe a40c dc3d 8b90 313e a1c4 e2bd

network_body._body_endoder.seq_layers.0.bias f4 [128]
0.0025391364 -0.0008243254 0.0013728145 -0.0040777507 0.0013893832 -0.0006055782 -0.0024892827 -0.0015262412
-0.0050375187 0.001407805 -0.011268199 -0.009926409 -0.0052078883 0.0033411256 -0.006641047 -0.0011955954
-0.0023945183 -0.0034649326 0.0048942375 -0.005499615 0.0046554846 0.0010183249 0.002523981 -0.0023995514
-0.0049158754 -0.005777121 -0.005172643 -0.00321937 -0.0068399 0.002150631 -0.006285131 -0.002306978
-0.0023408365 0.0048796837 0.0014408467 1.3821831e-05 -0.0005311453 0.00489221 0.00073902163 0.0008478117
-0.0029706338 -0.0044901907 -0.0024134773 -0.007938784 -0.0014689708 -0.0029741249 0.0029429127 0.00031322296
0.0035935931 -0.0003251654 -0.0025726357 -0.0030514624 0.002582984 0.0023747205 -0.0016052404 0.0044365986
0.0038607728 -0.002513198 -0.009495909 -0.00075211213 0.0067843613 -0.004056866 0.00034537775 -0.004992605
-0.008748227 -0.0017286764 0.00066135306 -0.00044158395 -0.012756591 -0.0028671662 -0.00606236 -0.014168981
-0.0011300236 0.00035150402 -0.0029414864 0.007942858 -0.0001166053 -0.0054546488 -0.007634061 0.009389735
-0.00511576 0.016196245 -0.0029107016 -0.004306742 -0.0053734286 -0.011127713 -0.0042787287 0.00042132044
0.003789718 -0.0072225025 0.0038562596 -0.0019176005 0.00519199 9.418449e-05 -0.005662714 -0.0029705733
-0.0021775374 -0.0018745534 -0.0056411773 0.0069684694 -0.0069150864 -0.003598625 -0.00059511303 -0.0014126541
0.0035544452 -0.0027024338 -0.0032865684 -0.0019079719 -5.5974215e-05 -0.0042676483 0.0004547053 0.00014442424
-0.0098214 0.0036788066 -0.012931436 -0.0016758951 -0.0038159906 0.00033065653 0.0004205602 -0.010857029
0.001249565 -3.6340633e-05 0.0008776575 -0.007825554 0.005026024 -0.0031053633 -0.004938661 -0.0061532874
00000000: a467 263b 8b17 58ba 03f0 b33a a79e 85bb
00000010: f71b b63a aabf 1eba 3c23 23bb 280c c8ba
00000020: c511 a5bb 1986 b83a 419e 38bc 61a2 22bc
00000030: efa6 aabb c9f6 5a3b 249d d9bb 86b5 9cba
00000040: 5aed 1cbb ec13 63bb d75f a03b 1d36 b4bb
00000050: 098d 983b 5079 853a 6069 253b cb41 1dbb
00000060: 5a15 a1bb 014e bdbb 467f a9bb 11fc 52bb
00000070: 3d21 e0bb 9af1 0c3b 80f3 cdbb ab30 17bb
00000080: b868 19bb c1e5 9f3b cbda bc3a 50e4 6737
00000090: 8f3c 0bba d54e a03b e7ba 413a ae3f 5e3a
000000a0: f7ae 42bb 7322 93bb 6e2b 1ebb ac11 02bc
000000b0: 7b8a c0ba 89e9 42bb e2dd 403b 1338 a439
000000c0: 7d82 6b3b f67a aab9 aa99 28bb 0bfb 47bb
000000d0: 4847 293b 33a1 1b3b ee66 d2ba e360 913b
000000e0: 0505 7d3b 77b4 24bb bb94 1bbc 6429 45ba
000000f0: 594f de3b 75ef 84bb d113 b539 0299 a3bb
00000100: b954 0fbc c194 e2ba a75e 2d3a 6584 e7b9
00000110: 0501 51bc 11e7 3bbb c3a6 c6bb 0425 68bc
00000120: 4d1d 94ba 124a b839 f4c5 40bb c322 023c
00000130: fe89 f4b8 e9bc b2bb 2527 fabb 67d7 193c
00000140: 1ba2 a7bb fdad 843c 78c1 3ebb 921f 8dbb
00000150: 9613 b0bb 0351 36bc 9434 8cbb ace4 dc39
00000160: eb5c 783b beaa ecbb 4db9 7c3b ff57 fbba
00000170: 9221 aa3b ea84 c538 4a8e b9bb f3ad 42bb
00000180: 04b5 0ebb 93b3 f5ba a0d9 b8bb c257 e43b
00000190: f397 e2bb e9d6 6bbb 5c01 1cba ce28 b9ba
000001a0: b2f1 683b 511b 31bb 7863 57bb ea14 faba
000001b0: dbc5 6ab8 a1d7 8bbb 8365 ee39 9670 1739
000001c0: f0e9 20bc 2218 713b 60de 53bc b5a9 dbba
000001d0: b315 7abb f85b ad39 a27e dc39 aee1 31bc
000001e0: 72c8 a33a 756c 18b8 9912 663a c136 00bc
000001f0: 58b1 a43b 5a83 4bbb 7ed4 a1bb 84a1 c9bb

network_body._body_endoder.seq_layers.2.weight f4 [128, 128]
-0.062267236 0.03759481 0.121019915 0.037549105 -0.091246545 0.056048505 0.0787043 0.019321773
0.012156137 -0.113691784 -0.029084446 -0.0075289984 0.020050962 -0.08273859 -0.0703425 -0.078421324
0.07497681 -0.04108931 0.056285907 -0.10120168 0.022461353 0.002721319 0.006660472 -0.20260817
-0.050194997 0.08202273 0.07618354 0.07502929 0.11985591 -0.043817066 0.013097825 -0.10144555
-0.061727673 0.10831707 -0.11330723 -0.014717014 0.05431734 -0.02026867 -0.07007248 0.026499009
-0.023570668 0.09919765 -0.0037888577 -0.025344895 0.013961097 0.160028 -0.09824744 -0.064820245
-0.004915372 0.06635595 0.10937773 -0.14328538 0.016470471 0.11319275 0.020840663 -0.10375858
0.16173653 -0.20683049 0.031467985 0.076218575 -0.1568805 -0.00599593 0.0071662446 0.2135377
0.06495226 0.039650016 -0.12965615 0.02924788 -0.0047146487 -0.05079061 -0.10100952 0.017802749
-0.1389521 -0.0761822 0.066319175 -0.13146894 -0.005103576 0.032509267 0.024189696 0.021039957
-0.13288352 -0.06595228 0.046817414 -0.00499555 -0.04297984 -0.056181163 0.017789979 -0.06978866
-0.049972255 -0.07186661 -0.01571161 -0.14745227 0.13880351 0.07366639 0.018288609 -0.1079885
-0.08292966 -0.015290618 -0.16116133 0.07490475 -0.05699428 0.07010776 0.021231543 -0.01567584
-0.008471497 0.028558258 -0.097568095 -0.055862755 -0.07118678 0.084697455 -0.026556449 -0.04379243
0.0805952 0.055274647 0.05016536 0.1374919 -0.04968008 -0.061159153 -0.057051226 -0.029393787
0.046972632 0.0019021975 0.086768 0.16347076 0.010354444 -0.1172911 -0.055003688 0.044423427
-0.03799691 0.050309036 0.18231699 0.03660082 -0.021045987 -0.053007938 0.028435586 0.020042727
0.050444353 -0.07298069 0.037744254 -0.15461972 -0.09830332 0.051162053 -0.012304656 0.012888168
0.02439049 -0.025909353 0.0118048405 0.08044024 0.02131212 0.041618645 0.07081324 0.029077005
-0.08387276 -0.067628436 0.107695684 -0.05039172 -0.10293323 -0.07523423 0.08052186 -0.13271733
-0.05117323 -0.10827019 -0.11427971 0.051731985 -0.049736172 0.08517638 0.022483464 0.09803369
-0.049335115 0.05642371 0.04472348 0.08824498 -0.1223449 -0.056846477 -0.04814162 0.18692511
-0.013758284 -0.20111819 -0.13665505 0.095021464 -0.0021365674 -0.104603305 0.086610086 -0.08627314
0.09010489 -0.073982924 0.061295453 0.08668913 -0.06575928 0.10135322 -0.06684999 -0.13689728
-0.050813965 -0.08311643 -0.24449657 -0.013542538 0.044833176 0.10006947 0.11332017 0.081754476
-0.07998496 -0.1542922 -0.1615928 -0.09128205 -0.0045168786 -0.046393316 -0.18315923 0.10279869
-0.049298927 -0.073612206 -0.008607653 -0.01483081 -0.09020982 -0.15991415 -0.033197206 0.1354315
-0.082082674 -0.13029099 -0.039642133 0.09901946 0.056129392 0.058457673 0.008912242 0.05602157
-0.063288584 0.02288981 0.06929878 -0.04900361 0.022305299 -0.051313654 -0.1930432 -0.06876805
-0.068398245 -0.07564848 -0.07323134 0.0074858596 0.0009033305 0.16024625 -0.0054758703 0.08870249
0.12719938 -0.030462265 -0.010786162 0.041763593 0.061658725 -0.027495427 -0.052087817 0.05164929
-0.018214025 -0.023555232 -0.14019409 -0.053480178 0.14249648 -0.047446936 0.039347444 -0.00012139181
00000000: ee0b 7fbd 04fd 193d 4ad9 f73d 17cd 193d
00000010: 78df babd 1e93 653d b82f a13d b248 9e3c
00000020: 892a 473c 3dd7 e8bd 8142 eebc d1b5 f6bb
00000030: ea41 a43c da72 a9bd bb0f 90bd 5c9b a0bd
00000040: 718d 993d 444d 28bd 0d8c 663d d442 cfbd
00000050: df00 b83c 2858 323b 1740 da3b 8478 4fbe
00000060: 4599 4dbd 88fb a73d 1e06 9c3d f5a8 993d
00000070: 0477 f53d 8679 33bd 4398 563c afc2 cfbd
00000080: 28d6 7cbd 57d5 dd3d 9f0d e8bd a11f 71bc
00000090: dc7b 5e3d 7b0a a6bc 2982 8fbd 7314 d93c
000000a0: 4617 c1bc 2328 cb3d 7c4e 78bb 19a0 cfbc
000000b0: 16bd 643c 61de 233e f435 c9bd 7ac0 84bd
000000c0: 2111 a1bb a1e5 873d 6e01 e03d 67b9 12be
000000d0: 15ed 863c 9ad1 e73d 0aba aa3c 617f d4bd
000000e0: 439e 253e 5fcb 53be 93e4 003d 7c18 9c3d
000000f0: 48a5 20be 8279 c4bb d1d2 ea3b a0a9 5a3e
00000100: b105 853d 0e68 223d 95c4 04be 4099 ef3c
00000110: 577d 9abb d109 50bd 14de cebd 12d7 913c
00000120: 7649 0ebe 6a05 9cbd 59d2 873d cb9f 06be
00000130: e63b a7bb 7028 053d 7829 c63c fd5b ac3c
00000140: 9e12 08be fd11 87bd 9ec3 3f3d b6b1 a3bb
00000150: a10b 30bd 381e 66bd 4abc 913c 5bed 8ebd
00000160: b5af 4cbd cd2e 93bd a2b5 80bc bafd 16be
00000170: 8222 0e3e 67de 963d fed1 953c 1329 ddbd
00000180: 07d7 a9bd 8085 7abc 7a07 25be a967 993d
00000190: d672 69bd a894 8f3d c6ed ad3c 9f6a 80bc
000001a0: 09cc 0abc 02f3 e93c c8d1 c7bd 58d0 64bd
000001b0: 60ca 91bd dc75 ad3d e98c d9bc b15f 33bd
000001c0: 190f a53d ab67 623d 317a 4d3d adca 0c3e
000001d0: 577d 4bbd 0582 7abd 8cae 69bd 3dcb f0bc
000001e0: 6066 403d 2853 f93a 6cb3 b13d e164 273e
000001f0: b0a5 293c 5136 f0bd 8c4b 61bd 57f5 353d
00000200: a6a2 1bbd d910 4e3d 4eb1 3a3e beea 153d
00000210: a268 acbc da1e 59bd bff1 e83c a530 a43c
00000220: bd9e 4e3d e676 95bd b899 1a3d a254 1ebe
00000230: 4053 c9bd 4d8f 513d 7899 49bc e528 533c
00000240: 91ce c73c da3f d4bc 1769 413c dabd a43d
00000250: c196 ae3c 5078 2a3d 8806 913d e632 ee3c
00000260: 7bc5 abbd c780 8abd 8e8f dc3d 8c67 4ebd
00000270: a8ce d2bd 6714 9abd a5e8 a43d 0de7 07be
00000280: 059b 51bd c3bc ddbd 7b0b eabd ebe4 533d
00000290: 28b8 4bbd f470 ae3d 3e2f b83c e3c5 c83d
000002a0: 9e13 4abd 8c1c 673d f82f 373d c9b9 b43d
000002b0: f78f fabd dad7 68bd 2630 45bd 4c69 3f3e
000002c0: 6d6a 61bc edf1 4dbe 4def 0bbe 9d9a c23d
000002d0: a705 0cbb 423a d6bd a160 b13d f9af b0bd
000002e0: ea88 b83d 5c84 97bd f110 7b3d 128a b13d
000002f0: cdac 86bd 4792 cf3d a6e8 88bd cd2e 0cbe
00000300: 4e22 50bd f238 aabd 4f5d 7abe 85e1 5dbc
00000310: fea2 373d 39f1 cc3d 6814 e83d e46e a73d
00000320: 28cf a3bd c6fe 1dbe 9578 25be 15f2 babd
00000330: 5302 94bb eb06 3ebd 188e 3bbe 1f88 d23d
00000340: aced 49bd ffc1 96bd 1d07 0dbc edfc 72bc
00000350: edbf b8bd 89c0 23be cbf9 07bd 8eae 0a3e
00000360: f61a a8bd 006b 05be ca5f 22bd b7ca ca3d
00000370: efe7 653d 5071 6f3d a704 123c e076 653d
00000380: 729d 81bd 6983 bb3c 85ec 8d3d 02b8 48bd
00000390: 9ab9 b63c 442e 52bd 1ead 45be 43d6 8cbd
000003a0: 6114 8cbd 97ed 9abd 50fa 95bd f14b f53b
000003b0: 7ccd 6c3a 9817 243e ee6e b3bb a7a9 b53d
000003c0: 8e40 023e 008c f9bc 71b8 30bc 4d10 2b3d
000003d0: dc8d 7c3d 173e e1bc 095a 55bd 358e 533d
000003e0: 9435 95bc e7f6 c0bc 0a8f 0fbe 080e 5bbd
000003f0: 99ea 113e b857 42bd c92a 213d bb93 feb8

network_body._body_endoder.seq_layers.2.bias f4 [128]
-0.0029850681 0.0016987788 -0.0018710907 0.0012633539 -0.0014432017 -0.004590272 0.002116216 0.0048474506
-0.005165226 -0.0038755385 0.0030169073 -0.0028037913 -0.00071397144 -0.001364173 -0.0046609147 -0.00044498622
-0.0035820836 -0.0026668734 -0.0073750135 0.0020217516 0.0029699071 -0.003552635 -0.0029354347 -0.0038519765
-0.00022091006 -0.007569154 -0.016511368 -0.0046446654 -0.0036332477 -0.00074359035 -0.0036655932 -0.0033899322
-0.003513719 0.0001520314 -0.0038924222 -0.00626623 -0.004812158 -0.0002686448 -0.0016192154 -0.0046903505
-0.0011357019 -0.003290625 0.001693779 -0.002242495 -0.0049057836 -0.00061961747 -0.0034127797 -0.0047448543
0.00040440314 -0.0020629566 -0.0055214344 -0.00225243 -0.000737073 0.00096801214 -0.0007837924 -0.0052530356
-0.00069912383 -0.0009971918 -0.006308126 0.0015313101 -0.0022014685 -0.0017509214 -0.001688444 -0.0027229635
-0.00075773726 -0.0006235911 0.006883261 -0.0029839985 -0.004043647 -0.0039702146 -0.00044160194 -0.005044049
-0.0014948173 -0.0019792686 -0.00044226745 -0.001573997 0.0030499352 0.000941939 -0.0031404297 -0.005208571
0.0033349432 -0.00069645495 -0.0030310175 -0.0060327826 0.00045368416 -0.0051686605 0.0019366582 -0.0018251257
0.0005134998 -0.00025484373 -0.0045623532 -0.0055544903 -0.0005774704 0.0025140608 -0.0032220772 -0.0022042796
0.0017465836 -0.0025899285 -0.0035641373 -0.0050525693 0.00028059576 -0.0034062725 -0.0006325204 0.0009204776
-0.0010991683 0.001092172 -0.0025252048 0.005207421 0.002335636 -0.0016764593 -0.0023863718 -0.0055209966
0.0013395529 -0.00353691 -0.0021019566 -0.0050293077 -0.0006385695 -0.002284489 0.0011850039 0.0038671994
0.0010179413 0.00016914771 0.0065159807 -0.006165579 -0.0053482023 -0.0028842099 -0.0016484732 -0.008753844
00000000: 22a1 43bb 8fa9 de3a 633f f5ba 1f97 a53a
00000010: d029 bdba fe69 96bb 37b0 0a3b 5dd7 9e3b
00000020: 0e41 a9bb bffc 7dbb 4eb7 453b d0bf 37bb
00000030: d029 3bba 0dce b2ba 96ba 98bb 0a4d e9b9
00000040: 64c1 6abb b6c6 2ebb 19aa f1bb 5d7f 043b
00000050: c6a2 423b 53d3 68bb 6c60 40bb 7171 7cbb
00000060: 18a4 67b9 aa06 f8bb d942 87bc 4732 98bb
00000070: c81b 6ebb 81ed 42ba 733a 70bb a029 5ebb
00000080: 6c46 66bb 9e6a 1f39 0218 7fbb f254 cdbb
00000090: 4faf 9dbb e5d8 8cb9 da3b d4ba 83b1 99bb
000000a0: d5db 94ba 87a7 57bb cb01 de3a d3f6 12bb
000000b0: b2c0 a0bb d36d 22ba f1a8 5fbb b97a 9bbb
000000c0: 1206 d439 ab32 07bb 26ed b4bb 819d 13bb
000000d0: 2238 41ba 32c2 7d3a 6b77 4dba a821 acbb
000000e0: 6845 37ba 34b4 82ba 65b4 cebb 3eb6 c83a
000000f0: 8346 10bb 2c7f e5ba c84e ddba bf73 32bb
00000100: e3a2 46ba 7e78 23ba fa8c e13b 308f 43bb
00000110: 9280 84bb 9318 82bb cf86 e7b9 8d48 a5bb
00000120: bfed c3ba 9eb6 01bb 22e0 e7b9 934e ceba
00000130: 6ce1 473b 75ec 763a abcf 4dbb a9ac aabb
00000140: 108f 5a3b 4d92 36ba 09a4 46bb a6ae c5bb
00000150: 75dc ed39 de5d a9bb 77d7 fd3a 0e39 efba
00000160: 639c 063a 8c9c 85b9 cb7f 95bb 7102 b6bb
00000170: 6261 17ba f1c2 243b 7c29 53bb ad75 10bb
00000180: 9fed e43a cabb 29bb 4d94 69bb 0690 a5bb
00000190: ed1c 9339 c53b 5fbb bacf 25ba 354c 713a
000001a0: f811 90ba 3627 8f3a e87d 25bb 03a3 aa3b
000001b0: 7811 193b a4bc dbba ad64 1cbb 7ae9 b4bb
000001c0: f093 af3a 81cb 67bb fbc0 09bb e4cc a4bb
000001d0: ac65 27ba 5eb7 15bb 2252 9b3a d770 7d3b
000001e0: 716c 853a 3e5d 3139 0284 d53b a008 cabb
000001f0: f93f afbb 0305 3dbb 9511 d8ba 486c 0fbc

action_model._continuous_distribution.log_sigma f4 [1, 2]
0.010372999 -0.009114778
00000000: 83f3 293c 2656 15bc

action_model._continuous_distribution.mu.weight f4 [2, 128]
-0.004169543 -0.023766393 -0.012620217 -0.010990752 0.001377482 0.004055754 -0.005164126 0.025746709
-0.001995654 0.005975183 0.01220347 0.008574069 0.008771559 0.0073261955 0.0051485524 -0.0138295675
-0.0061550303 -0.013056999 0.021925656 -0.019352756 0.0328829 0.0016029502 -0.00011596046 0.00016015448
0.0129323285 0.01416417 0.0013109803 -0.0068112183 -0.007880567 -0.018278511 0.019335441 0.010654592
0.015540685 -0.0012977173 0.0067564985 0.0047077117 -0.0076826513 -0.02229658 0.011986613 -0.025612028
-0.0146279335 -0.0112367645 -0.0036495335 -0.006420132 0.0053640646 0.009878218 0.008310222 -0.030768344
-0.020599997 0.017411767 0.006501278 -0.002967175 -0.005398573 -0.012131849 -0.008731583 -0.000157728
-0.00831025 0.022661898 -0.0028287491 0.013298298 0.011800495 -0.019019527 -0.0038863556 0.031355254
0.020064313 0.0017465426 0.010357246 0.01506268 -0.004959115 0.02421897 0.03272227 -0.0028280823
-0.012034332 -0.014270195 0.024894917 0.0011320739 0.015703104 -0.03698183 0.009771622 -0.034290045
0.004776536 -0.002052806 -0.017304504 0.014668253 0.0015135541 -0.0032379634 -0.003504932 -0.011529266
-0.013424241 -0.017218355 -0.006962107 -0.0010434829 0.0076507996 0.012147917 -0.0014663505 -0.017591301
-0.031309634 0.03008015 0.0063487506 -0.036786173 0.025509316 -0.012875683 0.011070812 0.01474109
0.0026547187 -0.0013537952 -0.025671048 -0.010832069 0.018975269 -0.0048905946 -0.021080986 -0.012894254
0.01698659 -0.0017439683 -0.022519989 0.018889382 -0.01658681 -0.0133674815 0.009989674 0.016297972
-0.01256706 -0.03819731 -0.011426971 -0.0017179297 0.00023927323 0.013741551 -0.0021298165 -0.0019261214
-0.018132102 -0.0011473391 -0.013850378 -0.018550951 0.014915065 0.00384635 0.014285282 0.012154254
-0.00023254994 -0.00414812 -0.053403948 0.00751958 0.018029409 0.022398528 -0.005621714 0.014947801
-0.006095217 0.0017555108 0.0026100108 -0.0071915253 0.0072908974 -0.024865862 -0.01953213 -0.0157429
0.04474765 0.00071158167 -0.00081575825 -0.0032834273 -0.0021355299 0.013617797 -0.014266043 -0.024584303
0.012683439 0.0009521587 -0.022151299 0.0034657752 0.0059159347 0.010983852 -0.013218067 -0.0040917727
-0.028633649 -0.0042777047 0.020694226 0.021121668 -0.014715446 0.019296607 0.0007878044 -0.011047791
0.004292582 0.030910052 -0.0026644098 0.009692441 0.028273953 0.021049686 0.017221518 -0.00825865
0.020057816 0.00068557373 0.016703703 0.008573596 -0.0102363555 0.02055789 0.0048116865 -0.0015565953
0.048303638 -0.0018174725 -0.002905307 -0.018009365 -0.0040032268 0.0051347213 -0.0019539762 0.0039012227
-0.0017151892 0.0029143912 -0.0013541665 -0.030416539 -0.02177309 -0.0019395467 -0.037224688 0.021242218
0.017241282 -0.024793165 0.01621221 -0.0069896164 0.017735638 -0.006873949 0.0049246815 0.006457118
0.015478436 0.018835904 0.005731949 -0.008555308 0.01051091 0.0024432265 -0.031024465 -0.03427516
-0.009563345 0.0010646792 0.0034962883 -0.011255672 -0.03791104 0.0071362737 -0.030522564 0.009564199
0.025346044 -0.0010767815 -0.01877037 -0.027974488 -0.028207023 -0.020028153 0.0129626915 -0.023814898
0.016060404 -0.007510763 -0.01422664 0.007810558 -0.026172964 -0.008707717 -0.0035606269 0.0044357013
-0.020195145 0.007933233 -0.0048443177 -0.0112626 -0.003309321 -0.00019759036 0.022667255 -0.028832283
00000000: a9a0 88bb bdb1 c2bc 07c5 4ebc 8e12 34bc
00000010: a08c b43a 21e6 843b d437 a9bb c3ea d23c
00000020: 85c9 02bb 78cb c33b 10f1 473c 407a 0c3c
00000030: 96b6 0f3c 9510 f03b 30b5 a83b 6995 62bc
00000040: 23b0 c9bb 06ed 55bc 6f9d b33c ac89 9ebc
00000050: 38b0 063d 151a d23a cc2f f3b8 24ef 2739
00000060: 1ee2 533c d610 683c 33d5 ab3a a430 dfbb
00000070: 7e1d 01bc d1bc 95bc 5c65 9e3c 9990 2e3c
00000080: 5b9e 7e3c 2b18 aaba 9e65 dd3b 2643 9a3b
00000090: c0be fbbb 51a7 b6bc 8063 443c 51d0 d1bc
000000a0: 00aa 6fbc 681a 38bc 032d 6fbb f85f d2bb
000000b0: 09c5 af3b 40d8 213c 9927 083c e50d fcbc
000000c0: 53c1 a8bc 1fa3 8e3c ac08 d53b f074 42bb
000000d0: 83e6 b0bb aac4 46bc ea0e 0fbc ca63 25b9
000000e0: b727 08bc 72a5 b93c 8962 39bb 1be1 593c
000000f0: dd56 413c d7ce 9bbc 3ab2 7ebb 5e6e 003d
00000100: ea5d a43c 3fec e43a 70b1 293c 75c9 763c
00000110: 1280 a2bb dd66 c63c c907 063d 5957 39bb
00000120: a62b 45bc 89cd 69bc 6df0 cb3c 1962 943a
00000130: cca3 803c 427a 17bd 2719 203c b873 0cbd
00000140: 7d84 9c3b 5f88 06bb 2dc2 8dbc 1d53 703c
00000150: 7362 c63a 0334 54bb 00b3 65bb 3fe5 3cbc
00000160: 59f1 5bbc 820d 8dbc 6322 e4bb 7ac5 88ba
00000170: 8fb3 fa3b 0f08 473c 8f32 c0ba a21b 90bc
00000180: 883e 00bd a66a f63c 2e09 d03b 19ad 16bd
00000190: eaf8 d03c 87f4 52bc 5a62 353c 9d84 713c
000001a0: cafa 2d3b d471 b1ba 174c d2bc fe78 31bc
000001b0: 0672 9b3c 4841 a0bb 08b2 acbc 6c42 53bc
000001c0: 7627 8b3c de95 e4ba d77b b8bc e8bd 9a3c
000001d0: 10e1 87bc 4803 5bbc bbab 233c 5383 853c
000001e0: 12e6 4dbc c874 1cbd 3138 3bbc 282c e1ba
000001f0: 6be5 7a39 3e24 613c 6494 0bbb e975 fcba
00000200: c689 94bc 5062 96ba b2ec 62bc 2af8 97bc
00000210: 515e 743c 0b13 7c3b d10c 6a3c a322 473c
00000220: a6d8 73b9 f4ec 87bb 19be 5abd cf66 f63b
00000230: 69b2 933c 1e7d b73c 5b36 b8bb 9fe7 743c
00000240: 63ba c7bb 2b19 e63a b70c 2b3b e3a6 ebbb
00000250: 7be8 ee3b 7eb3 cbbc d801 a0bc 41f7 80bc
00000260: 5049 373d 7089 3a3a 9cd8 55ba c52e 57bb
00000270: 3ff4 0bbb 2e1d 5f3c 1fbc 69bc 0565 c9bc
00000280: 33ce 4f3c 4a9a 793a a476 b5bc 0f22 633b
00000290: 75da c13b 9df5 333c 9790 58bc 4714 86bb
000002a0: 1d91 eabc fd2b 8cbb f086 a93c 5907 ad3c
000002b0: 0e19 71bc eb13 9e3c a984 4e3a cb01 35bc
000002c0: caa8 8c3b 1437 fd3c 619d 2ebb 0bcd 1e3c
000002d0: c79e e73c 6470 ac3c 2414 8d3c 4a4f 07bc
000002e0: 4a50 a43c 13b8 333a 34d6 883c 4578 0c3c
000002f0: 63b6 27bc 0569 a83c 5aab 9d3b ac06 ccba
00000300: 09da 453d 4238 eeba f766 3ebb 6088 93bc
00000310: 802d 83bb 2a41 a83b 480e 00bb a8ab 7f3b
00000320: 33d0 e0ba 5fff 3e3b 4a7e b1ba 1b2c f9bc
00000330: 7b5d b2bc 6338 feba ea78 18bd 2904 ae3c
00000340: 973d 8d3c 091b cbbc 78cf 843c 2709 e5bb
00000350: 544a 913c dd3e e1bb 395f a13b 3b96 d33b
00000360: 4499 7d3c c14d 9a3c 13d3 bb3b 902b 0cbc
00000370: f435 2c3c 8a1e 203b 0527 febc 1c64 0cbd
00000380: 94af 1cbc b58c 8b3a fc21 653b b669 38bc
00000390: 9b48 1bbd 67d7 e93b 750a fabc 28b3 1c3c
000003a0: 82a2 cf3c cb22 8dba 52c4 99bc c12a e5bc
000003b0: 6a12 e7bc 1512 a4bc 7861 543c 7617 c3bc
000003c0: 1c91 833c d91c f6bb da16 69bc b6ef ff3b
000003d0: af68 d6bc d0aa 0ebc 6859 69bb 5c59 913b
000003e0: 4a70 a5bc 64fa 013c 15bd 9ebb c586 38bc
000003f0: 31e1 58bb 4230 4fb9 aeb0 b93c ae31 ecbc

action_model._continuous_distribution.mu.bias f4 [2]
0.00019319849 0.0017034216
00000000: 5395 4a39 5845 df3a
