GameAI3/Config/results/dwarf_2/Dwarf/Dwarf-1184.onnx (onnx, 91956 bytes, 7 tensors)

network_body._body_endoder.seq_layers.0.weight f4 [128, 44]
0	0x3e261a02	0.16220859
1	0xbea1e047	-0.31616423
2	0xbe277e63	-0.16356806
3	0x3e863f71	0.26220277
4	0xbd776c9f	-0.060406324
5	0x3e2b5420	0.1673131
6	0xbc90f9ea	-0.017697293
7	0x3e64d59f	0.22347115
8	0x3e98e0d5	0.29859033
9	0xbb810cac	-0.003938278
10	0xbd1d6633	-0.038427543
11	0xbe1604c9	-0.14650263
12	0x3eb7dc48	0.3591025
13	0xbe00edbf	-0.12590693
14	0xbdb6186b	-0.08891376
15	0x3ecd79e8	0.4013207
16	0xbd587dbe	-0.052854292
17	0xbdb0aaeb	-0.0862635
18	0xbe934793	-0.28765544
19	0x3dfc7379	0.12326712
20	0xbb8ea52d	-0.0043531866
21	0xbd3ee05c	-0.046600685
22	0xbe4f91c1	-0.20270444
23	0xbdd4cbcf	-0.10390436
24	0xbd7415d7	-0.05959114
25	0x3e979768	0.296077
26	0xbea6bbe8	-0.32565236
27	0xbdb85256	-0.09000079
28	0xbc871f08	-0.016494289
29	0x3dd35fb8	0.10320991
30	0x3ee21d49	0.44162968
31	0x3ace0495	0.0015717918
32	0x3c1b8b5d	0.009493676
33	0xbe19d1df	-0.15021466
34	0xbcb30809	-0.021854417
35	0x3e2f2529	0.17104019
36	0xbc7641de	-0.015030352
37	0x3deb1689	0.114789076
38	0x3e1ef73d	0.15524001
39	0xbc062746	-0.008188074
40	0x3d2b9a26	0.041895054
41	0x3e4a7e2a	0.1977469
42	0x3e733510	0.2375071
43	0xbd6a684c	-0.05722837
44	0x3e7e7697	0.24849926
45	0xbdff6eda	-0.12472315
46	0x3e0d3563	0.13789897
47	0xbd71696b	-0.058938425
48	0xbc93d624	-0.018046446
49	0x3dd1456d	0.1021832
50	0xbc3a2369	-0.0113609815
51	0xbc254630	-0.010087535
52	0xbc087e58	-0.008330904
53	0x3d132f8d	0.03593402
54	0xbd9951c9	-0.074863024
55	0xbcc4c062	-0.024017517
56	0xbe07aea3	-0.13250212
57	0xbdeb296b	-0.11482509
58	0x3eb6596b	0.35615095
59	0xbdc6ce0f	-0.09707271
60	0x3e298018	0.1655277
61	0xbd320bdd	-0.043468345
62	0x3d3b543a	0.04573462
63	0x3d728530	0.05920905
64	0x3d49f9c1	0.04931045
65	0xbe0d0cec	-0.1377446
66	0x3e027dd4	0.12743312
67	0x3c6c6530	0.014428422
68	0xbebc748a	-0.36807662
69	0xbef6437c	-0.48098361
70	0xbe4ddedc	-0.20104545
71	0xbe7a7a3d	-0.24460693
72	0xbca75875	-0.020427922
73	0xbc96e93f	-0.018421767
74	0xbb1abe73	-0.0023612052
75	0xbe20eea6	-0.15716037
76	0xbdd92478	-0.10602659
77	0xbe5def7b	-0.21673386
78	0xbd82ebf9	-0.063926645
79	0x3d11e5ce	0.03561955
80	0x3b9d8eea	0.0048082964
81	0xbe76fe8a	-0.24120536
82	0xbdb9535c	-0.09049103
83	0x3dd69d57	0.10479229
84	0xbe69c308	-0.22828305
85	0x3e7c73ac	0.246535
86	0x3d34abea	0.044109263
87	0xbe26af10	-0.16277719
88	0x3df03459	0.117287345
89	0xbd04ca61	-0.032419566
90	0x3c9622e5	0.018327186
91	0xbd0ba52b	-0.034093063
92	0x3deb3523	0.114847444
93	0xbccf65c2	-0.025317077
94	0xbd3c1b91	-0.045924727
95	0x3db12903	0.086504005
96	0xbe57e681	-0.21084024
97	0x3d67232e	0.056430034
98	0x3ed34063	0.4126006
99	0xbe48e8da	-0.19620076
100	0x3e4ee676	0.20205101
101	0x3ea6f467	0.3260834
102	0xbdd4b984	-0.10386947
103	0xbe35a055	-0.17736943
104	0xbe47cf65	-0.19512708
105	0x3b1f04bc	0.0024264297
106	0xbdc46bae	-0.09590851
107	0x3cf5a1ab	0.029984316
108	0xbe1bcb48	-0.15214264
109	0xbc95a364	-0.018266387
110	0x3d6bbc46	0.0575526
111	0x3e27e121	0.16394474
112	0xbddedf2e	-0.10882412
113	0x3cc6bf7b	0.024261227
114	0xbd8a7859	-0.06761236
115	0xbe8ce2b3	-0.27516708
116	0xbdf0779d	-0.117415644
117	0xbc84938b	-0.016183635
118	0x3ddc5bc4	0.107596904
119	0x3cecafa0	0.028892338
120	0x3dcd2c14	0.10018173
121	0x3e9d89e7	0.30769274
122	0x3e8cd41d	0.2750558
123	0x3c849cd7	0.016188068
124	0x3e70cb86	0.23515138
125	0x3d235797	0.039878454
126	0xbe16eb41	-0.1473818
127	0xbd8689f1	-0.06569279
128	0x3e90c1a2	0.2827273
129	0x3de94a3f	0.113911144
130	0x3ccf36b2	0.025294635
131	0x3ca96cff	0.020681856
132	0xbddde557	-0.10834759
133	0xbe150bd1	-0.14555289
134	0xbe41bb82	-0.18919185
135	0xbe027d9d	-0.1274323
136	0xbdc3371a	-0.09531994
137	0x3e3d9200	0.18512726
138	0xbe30a4ac	-0.17250317
139	0x3e1c817f	0.15283774
140	0x3d8c5c76	0.06853573
141	0x3d36f977	0.044671502
142	0x3e066878	0.13125789
143	0x3ece1ee9	0.40257958
144	0x3cc096a8	0.023509338
145	0x3cdbd5a4	0.02683527
146	0x3ce531bc	0.027977817
147	0xbd48ec81	-0.049053673
148	0x3d868c89	0.06569774
149	0xbdc4b0ad	-0.09604011
150	0x3c8f2322	0.017472807
151	0xbc7e4226	-0.015518701
152	0xbd7001ce	-0.05859547
153	0x3d670926	0.05640521
154	0x3d3a8490	0.045536578
155	0x3d13b173	0.0360579
156	0xbe8fcf4b	-0.2808784
157	0xbe2b471f	-0.1672635
158	0x3de7a956	0.11311595
159	0x3e7447ea	0.23855558
160	0xbd23c327	-0.039981034
161	0xbcfd91a9	-0.030953245
162	0x3e9dab52	0.3079477
163	0xbe2e4d76	-0.17021737
164	0x3d4653fe	0.048419945
165	0x3cb9212a	0.022598822
166	0xbd5b5733	-0.053549957
167	0x3e313a65	0.17307432
168	0xbd1adb40	-0.03780675
169	0xbd7a9dd8	-0.061185688
170	0xbd91c979	-0.07118506
171	0xbdb385fa	-0.087657884
172	0xbe74858a	-0.23879066
173	0xbd978c10	-0.07399762
174	0xbdda3189	-0.10653979
175	0xbe6278b5	-0.22116359
176	0xbe9059ec	-0.28193605
177	0xbd16cb77	-0.036815133
178	0x3e579994	0.21054679
179	0x3a0fd710	0.0005487064
180	0x3e19f070	0.15033126
181	0x3da32367	0.07965737
182	0xbe1453bf	-0.14485072
183	0xbd5c118d	-0.053727675
184	0x3e0a7a50	0.13523221
185	0x3dc970d8	0.09835976
186	0x3d0a5c59	0.033779476
187	0x3e51138d	0.20417614
188	0x3e6aa069	0.22912754
189	0x3c05c5a9	0.008164802
190	0xbe7d2d5f	-0.24724339
191	0x3c3e87e9	0.011629083
192	0xbe920a42	-0.2852345
193	0xbe057bcc	-0.13035506
194	0xbe899369	-0.26870278
195	0xbe8ec15f	-0.27881905
196	0x3e14fe8b	0.14550225
197	0x3e818cf3	0.25302848
198	0x3cf0264a	0.029315133
199	0xbceea4b0	-0.029131263
200	0xbde24626	-0.11048536
201	0x3d2ef99d	0.04271852
202	0xbdb5d164	-0.08877829
203	0x3e2263b5	0.15858348
204	0xbeb57796	-0.354428
205	0xbd7c0594	-0.061528757
206	0x3e1f37a2	0.15548566
207	0x3e15825f	0.14600514
208	0x3dc0f675	0.09422008
209	0x3e2304ee	0.1591985
210	0xbe037683	-0.12838177
211	0xbd6c240e	-0.057651572
212	0x3db3c891	0.087784894
213	0x3dd98b46	0.106222674
214	0x3ce45218	0.027871177
215	0x3e30472d	0.17214651
216	0x3d5e810d	0.05432229
217	0xbe0b23c4	-0.13587862
218	0xbe9a08fb	-0.30084977
219	0xbd3d2f80	-0.046187878
220	0x3e19cff6	0.15020737
221	0x3d345f15	0.04403599
222	0xbe1c7c12	-0.15281704
223	0xbeae7f9f	-0.34081742
224	0x3c84ae0a	0.01619627
225	0xbd82e155	-0.06390635
226	0xbd7a089a	-0.06104336
227	0x3ec3b479	0.38223627
228	0x3e03e1ef	0.12879156
229	0xbda428b8	-0.08015579
230	0xbe69f9da	-0.22849217
231	0x3e5e1806	0.21688852
232	0x3e08b3a1	0.13349773
233	0x3e265b08	0.16245663
234	0xbdc1c78d	-0.094618894
235	0x3c8ffa6b	0.017575463
236	0xbd90f67e	-0.07078265
237	0xbc870c15	-0.016485253
238	0x3eae6472	0.3406101
239	0x3b094e86	0.0020951345
240	0x3d2bc8c6	0.04193952
241	0xbe637576	-0.22212777
242	0x3ddeba57	0.10875385
243	0xbd0760e6	-0.033051394
244	0x3e54608a	0.20739952
245	0xbe3939f7	-0.18088518
246	0xbca968ab	-0.020679792
247	0x3e4ff3c7	0.20307837
248	0xbe61ec1a	-0.22062722
249	0x3dd4b70b	0.10386475
250	0xbe34880f	-0.17630027
251	0xbd53f8b5	-0.051750857
252	0xbe5cba6f	-0.21555494
253	0xbd446eb2	-0.04795713
254	0x3b2b4b3a	0.0026137368
255	0x3a3440b0	0.0006876094

network_body._body_endoder.seq_layers.0.bias f4 [128]
0	0xb9ebcc23	-0.00044974787
1	0xbb19aa50	-0.0023447461
2	0xbaf9f92a	-0.0019071449
3	0x39608150	0.00021410477
4	0x3c30272e	0.010751529
5	0xbb8b2855	-0.0042467513
6	0x3b34c389	0.0027582368
7	0x3a165a34	0.0005735487
8	0xbb2c0112	-0.0026245755
9	0xba55233f	-0.0008130557
10	0x393b236a	0.00017846902
11	0xbabceaeb	-0.0014413273
12	0xba2bd058	-0.0006554178
13	0xbabf0e0c	-0.001457633
14	0xbb233d9e	-0.0024908553
15	0xba5d445f	-0.0008440669
16	0x3bb34bc4	0.0054716785
17	0xba11a455	-0.00055557984
18	0xb97304b5	-0.0002317604
19	0xbb923651	-0.0044620414
20	0xbbfd870f	-0.0077370475
21	0x3a0c8cbe	0.00053615484
22	0x3b2436f1	0.0025057162
23	0x3bad7cbd	0.005294411
24	0xb8316a56	-4.229912e-05
25	0xb9c8e769	-0.00038319387
26	0x3b73f032	0.0037222025
27	0xba82b1de	-0.0009971221
28	0xb98e7f61	-0.00027179255
29	0xbab7cf2a	-0.0014023532
30	0xbbf49d46	-0.0074650375
31	0xbb0102ec	-0.001968558
32	0xbc230eca	-0.009952256
33	0xbb50965a	-0.0031827898
34	0x39f2345b	0.00046196845
35	0xbb503e60	-0.003177546
36	0xbb4662cd	-0.0030271292
37	0xbba81ebd	-0.0051306174
38	0x3c0eeae6	0.008722996
39	0xbb23ac35	-0.002497447
40	0x39a5ba25	0.0003160994
41	0xbb11a444	-0.0022223154
42	0xba484e48	-0.00076410593
43	0x3a0ac7ee	0.0005294074
44	0xbbc74f4b	-0.0060824505
45	0xb9967bd5	-0.00028702492
46	0xbc00678f	-0.00783719
47	0xbc4bff62	-0.012451025
48	0xba9b5d1e	-0.0011853313
49	0xbb393c9c	-0.0028264886
50	0x39b55bbc	0.00034591358
51	0x3ba62789	0.005070631
52	0xbb0636dd	-0.0020479478
53	0x3a9d4e38	0.001200146
54	0xb9e64892	-0.00043923088
55	0xbb645fa6	-0.003484705
56	0xbb0414db	-0.0020154032
57	0x3b18af40	0.0023297817
58	0x3b04bf08	0.0020255465
59	0xb9f7d866	-0.0004727274
60	0xba4baf50	-0.0007769959
61	0x3afc84aa	0.0019265611
62	0xb8e1daa5	-0.00010769562
63	0x3b2da928	0.002649853
64	0xb957f3ca	-0.00020594816
65	0x3b76ab8b	0.0037638869
66	0xb9850e88	-0.00025378563
67	0xba617d58	-0.00086017465
68	0xb90b33f9	-0.00013275434
69	0xbb61d83b	-0.0034461159
70	0xba933c36	-0.0011233154
71	0xb7c1a948	-2.308622e-05
72	0x3b875a4e	0.004130638
73	0xbaf22ffb	-0.0018477434
74	0xbb496d27	-0.0030735226
75	0xb93bc3a3	-0.0001790659
76	0xbb15f199	-0.00228796
77	0x39853984	0.0002541059
78	0x3bd329eb	0.006444206
79	0xbb1a2725	-0.0023521867
80	0x3bdde547	0.0067717168
81	0xbbe3b003	-0.0069484725
82	0x3c48c0bb	0.012252982
83	0x3a5cd048	0.00084233703
84	0x3c1c8980	0.009554267
85	0x3b232871	0.002489593
86	0xbb05c8de	-0.0020413916
87	0xbad5772d	-0.0016286128
88	0x3c19b9d4	0.009382684
89	0x3b03e80f	0.0020127331
90	0xba84e8e8	-0.0010140212
91	0xbb374368	-0.0027963761
92	0x3ad0f48f	0.0015942025
93	0xbb88840f	-0.0041661332
94	0x3b323e78	0.0027197879
95	0x3bac01b7	0.005249228
96	0xb9b91b14	-0.00035306124
97	0xbb567c89	-0.0032728037
98	0xbb2ad5d3	-0.002606739
99	0xbc37894e	-0.01120217
100	0xbbfe2218	-0.007755529
101	0x3bcb76a4	0.0062092114
102	0x3b0abaf3	0.002116856
103	0x3b84193b	0.004031328
104	0xbbd20681	-0.0064094667
105	0x3c0b96ef	0.008519872
106	0xb93886ae	-0.0001759778
107	0x3b8dc4a3	0.0043264194
108	0xbbd873cb	-0.0066056005
109	0xba81ecfd	-0.0009912547
110	0x3b0ba038	0.0021305215
111	0xbaf547cd	-0.0018713415
112	0xbae83822	-0.0017716924
113	0xbc026d99	-0.0079607
114	0x3ada9d4d	0.0016678959
115	0xbb89d32a	-0.004206081
116	0xbc112e93	-0.008861202
117	0xbb324a6d	-0.0027205006
118	0xba958d8b	-0.0011409981
119	0xbac3b6ee	-0.0014931837
120	0x3bbd4a4f	0.0057766805
121	0x3ac509fc	0.0015032883
122	0xb8b27326	-8.5091495e-05
123	0xba542132	-0.00080921047
124	0x3bbaa22a	0.005695601
125	0xbb33d42c	-0.0027439697
126	0x3afa2056	0.0019083123
127	0xba9503d3	-0.0011368938

network_body._body_endoder.seq_layers.2.weight f4 [128, 128]
0	0xbe6f0849	-0.23343004
1	0x3d2825c5	0.041051645
2	0xbd8b5914	-0.068041
3	0xbc0a87ec	-0.008455258
4	0xbde044e2	-0.10950638
5	0x3e3f3e62	0.18676141
6	0xbe13be17	-0.14427982
7	0xbd7df5a5	-0.062001843
8	0x3e1c717d	0.15277667
9	0x3d354b67	0.044261362
10	0x3e0120f8	0.12610233
11	0x3e942174	0.28931773
12	0x3be0a360	0.0068554133
13	0xbe24a6d3	-0.16079263
14	0xbdb5fa83	-0.08885672
15	0x3b3e95de	0.0029081027
16	0x3de5292f	0.11189496
17	0xbe04bd98	-0.1296295
18	0x3c0caf5f	0.008586734
19	0x3db0bc22	0.086296335
20	0x3de5eee0	0.112272024
21	0xbdce99fc	-0.10087964
22	0xbcf5f1fe	-0.030022617
23	0xbdd14d17	-0.10219782
24	0x3d6d3e0e	0.057920508
25	0xbc375f95	-0.011192222
26	0x3d26831e	0.040652387
27	0x3cd71db1	0.026259275
28	0xbaebcba8	-0.0017989771
29	0xbd8207f7	-0.063491754
30	0x3dba4504	0.09095195
31	0xbcb42d06	-0.021994125
32	0xbcffeca6	-0.031240772
33	0xbbf54242	-0.007484705
34	0x3da32fd7	0.07968109
35	0xbc249324	-0.010044847
36	0xbbfb7426	-0.007673758
37	0xbbcbf49c	-0.006224228
38	0x3d953761	0.07285953
39	0x3c80df65	0.015731523
40	0xbd860917	-0.065447025
41	0xbcb2edb9	-0.02184187
42	0xbdc89681	-0.09794331
43	0x3e2fff89	0.17187323
44	0x3d90e434	0.07074776
45	0x3da59c36	0.080864355
46	0xbdcacb3f	-0.09902047
47	0xbdbfd0bb	-0.09365984
48	0x3b0edf69	0.0021800643
49	0x3ca79625	0.020457337
50	0x3d41f984	0.047357097
51	0xbd2ae41c	-0.04172145
52	0x3cd85215	0.026406327
53	0xbbff43d4	-0.007790068
54	0x3e87f52b	0.26554236
55	0x3ce74577	0.028231366
56	0x3d1517c2	0.03639961
57	0xbda0fce3	-0.07860734
58	0xbe198956	-0.14993796
59	0x3dfd5b13	0.12370887
60	0xbb006ba7	-0.0019595416
61	0xbdafe2c3	-0.08588173
62	0x3d2e9452	0.042621918
63	0x3d8de28e	0.069279775
64	0x3c8809c6	0.016606223
65	0xbc4e9a17	-0.01260998
66	0xbd8970f6	-0.06710999
67	0xbd953daa	-0.07287152
68	0x3d88747e	0.06662844
69	0x3db05e33	0.08611717
70	0xbd2ce908	-0.042214423
71	0x3dc71f27	0.09722739
72	0x3d7eafab	0.06217925
73	0x3b85b4bb	0.0040803826
74	0xbd11bd3f	-0.03558087
75	0x3d6017b8	0.05471012
76	0xbda384e1	-0.07984329
77	0x3c9c6e1a	0.01909547
78	0x3da44350	0.08020651
79	0xbcb390e9	-0.021919684
80	0x3d8677c8	0.06565815
81	0xbe66e0ea	-0.22546735
82	0xbd216507	-0.039402988
83	0x3d94b3a6	0.07260828
84	0x3dae13f9	0.08499903
85	0xbdf0d9f2	-0.1176032
86	0x3e076c53	0.13224916
87	0xbdbd1aec	-0.092336506
88	0x3dab1a28	0.08354598
89	0x3e0d167b	0.13778107
90	0xbd2ec006	-0.042663597
91	0xbdae56d3	-0.08512654
92	0xbc1f7266	-0.009731865
93	0xbe3ff3cb	-0.18745343
94	0xbe8e9561	-0.27848342
95	0x3def2b48	0.11678177
96	0xbcfc9314	-0.030831851
97	0xbd73f113	-0.05955608
98	0xbc66e6b8	-0.014093094
99	0xbe26e9ef	-0.16300176
100	0xbddfcf39	-0.109281965
101	0xbe234537	-0.15944372
102	0x3c59d68b	0.01329578
103	0xbd2a6ee8	-0.041609675
104	0xbd357136	-0.04429742
105	0xbd34d3fb	-0.044147473
106	0xbd4cca84	-0.04999782
107	0x3d8a2d0b	0.067468725
108	0xbd00d2b5	-0.031450946
109	0x3bf2518e	0.007394976
110	0xbc138782	-0.009004476
111	0x3d03861c	0.03211032
112	0x3d35dea7	0.04440179
113	0x3e127c58	0.14305246
114	0x3d467e71	0.048460428
115	0xbdeb6b63	-0.11495092
116	0x3cce8b45	0.025212893
117	0x3e5b10c9	0.21393122
118	0xbe26f9eb	-0.16306274
119	0xbc509b49	-0.012732335
120	0x3da04b4e	0.07826863
121	0x3d1079bf	0.035272356
122	0x3ca917a5	0.020641157
123	0x3dc7e33f	0.09760141
124	0xbc10218f	-0.0087970635
125	0x3d97e0dc	0.074159354
126	0x3bb2de11	0.0054586013
127	0x3d8de6af	0.06928765
128	0x3cc1952c	0.023630701
129	0x3d9c0e5b	0.076199256
130	0x3dbf06cc	0.09327468
131	0x3dd66e25	0.10470227
132	0x3d9bb5f0	0.07603061
133	0x3d09fc13	0.033687662
134	0xbd317b49	-0.043330465
135	0xbdaf3c82	-0.08556463
136	0x3c7ebfde	0.015548674
137	0xbe01bcda	-0.12669697
138	0x3d6445a6	0.055730484
139	0x3de929ed	0.1138495
140	0x3dcf33cd	0.10117302
141	0xbdce3636	-0.10068934
142	0x3ddde7c7	0.10835224
143	0xbe2b46fd	-0.16726299
144	0x3d452e95	0.048140127
145	0xbd7fa88f	-0.06241661
146	0x3d1b1629	0.03786293
147	0xbdc04500	-0.09388161
148	0x3d882866	0.066483304
149	0xbe293ef3	-0.1652792
150	0x3e070b23	0.13187842
151	0xbd5c7849	-0.05382565
152	0x3dc674a2	0.09690215
153	0xbc6dab30	-0.014506146
154	0xbdf909da	-0.12160082
155	0x3d70ad13	0.058758806
156	0x3d16e496	0.03683909
157	0xbd6d4b37	-0.05793306
158	0xbe030767	-0.12795793
159	0x3d96d3fb	0.07364651
160	0x3d7dec56	0.061992966
161	0x3d7418bf	0.059593912
162	0x3de868fb	0.113481484
163	0x3de10ca8	0.10988742
164	0x3e71d01a	0.2361454
165	0x3d4cc46e	0.049992017
166	0x3e2d0cda	0.16899434
167	0xbd13229d	-0.03592168
168	0x3e4da06c	0.20080727
169	0xbdba4416	-0.090950176
170	0xbdd59326	-0.10428457
171	0xbd3b9ae1	-0.045802
172	0xbe119a57	-0.14219032
173	0xbd62d057	-0.05537447
174	0x3e1a4a59	0.15067424
175	0x3d7b4772	0.061347432
176	0x3d2bc6e3	0.04193772
177	0xbe25dd7d	-0.16197772
178	0x3dad6cba	0.084680036
179	0x3d0ff9f2	0.035150476
180	0xbd4d92f3	-0.05018897
181	0x3ded1f81	0.115782745
182	0x3d8bfa31	0.068348296
183	0xbe422c8c	-0.18962306
184	0x3dabd29a	0.083897784
185	0x3cf38486	0.029726278
186	0x3cc19970	0.023632735
187	0xbd97d2bf	-0.074132435
188	0xbdb32da8	-0.087489426
189	0xbd09915f	-0.033585902
190	0xbca956d2	-0.020671282
191	0xbc9c6bae	-0.019094314
192	0x3d31f14e	0.043443017
193	0xbb1b2e17	-0.0023678595
194	0xbd9dc755	-0.07704035
195	0xbc06d6d2	-0.008229928
196	0x3df5580d	0.11979685
197	0x3bd62123	0.006534712
198	0xbd178f65	-0.037001986
199	0xbcf94886	-0.03043009
200	0xbce6aa4c	-0.028157376
201	0x3bd00d85	0.006349268
202	0xbc4555f6	-0.0120444205
203	0x3d8b14b2	0.06791057
204	0xbce53682	-0.027980093
205	0x3b9bfe42	0.0047605345
206	0xbc56f061	-0.013118834
207	0xbe0512e1	-0.12995483
208	0x3d47b843	0.04875971
209	0xbc0298a7	-0.0079709655
210	0x3d35d756	0.044394813
211	0xbc5b0a3d	-0.01336914
212	0x3d2df11d	0.04246627
213	0xb9f6d164	-0.00047076785
214	0xbd3940f8	-0.045227975
215	0x3d80f2ba	0.062962964
216	0xbe0489f0	-0.12943244
217	0x3c06c9b6	0.008226803
218	0xbc34e548	-0.011040993
219	0x3dd50372	0.10401048
220	0xbe1c1c46	-0.1524516
221	0x3e22cede	0.15899226
222	0x3d98ba15	0.07457367
223	0x3d52b757	0.051444378
224	0xbd0e3e28	-0.034727246
225	0xbcce7d79	-0.025206314
226	0x3d83d797	0.06437605
227	0xbcf5c1af	-0.029999582
228	0xbbe007a3	-0.006836848
229	0xbcc7e9a9	-0.02440341
230	0x3d9c89af	0.076434486
231	0xbc8b9f4e	-0.017043736
232	0xbbf44338	-0.007454302
233	0xbd8b4a56	-0.06801288
234	0x3d4128e4	0.047158137
235	0xbd640fb1	-0.055679027
236	0xbd55a234	-0.052156642
237	0xbd6c1532	-0.0576374
238	0x3dd54638	0.10413784
239	0xbdac3500	-0.084085464
240	0x3ddae465	0.10688094
241	0xbdc8799e	-0.09788822
242	0xbdc71efa	-0.09722705
243	0x3c6c4a07	0.014421946
244	0xbdefd20a	-0.11709984
245	0x3d122396	0.03567847
246	0x3d921710	0.07133305
247	0x3d779b64	0.060450926
248	0xbe4dd6e5	-0.20101507
249	0xbc3e745f	-0.011624425
250	0xbd1d7d17	-0.038449373
251	0x3d278aad	0.040903736
252	0x3db51b77	0.08843129
253	0x3e07142c	0.13191289
254	0x3d4f55c8	0.050618917
255	0xbd54b0c7	-0.0519264

network_body._body_endoder.seq_layers.2.bias f4 [128]
0	0xb98e426c	-0.0002713384
1	0xb96788e2	-0.0002208087
2	0xbaf90cf4	-0.0019001053
3	0xbb6b7066	-0.003592515
4	0xbb034812	-0.002003197
5	0xbb2898b4	-0.0025725784
6	0xbb13de22	-0.0022562821
7	0xba4963d6	-0.0007682418
8	0xba70101d	-0.00091576745
9	0xba907f37	-0.0011024241
10	0x3b41c177	0.0029564777
11	0xbaa4887a	-0.001255288
12	0x3ba94d50	0.005166687
13	0xbb3b892f	-0.0028615703
14	0xbb215c2f	-0.0024621596
15	0xb9f2c479	-0.0004630422
16	0xba8cf4b4	-0.001075408
17	0xba7000a9	-0.0009155372
18	0xbb3a7109	-0.0028448722
19	0x3b8cb23d	0.0042937086
20	0xbb92306e	-0.0044613397
21	0x3b174811	0.0023083726
22	0xba05a995	-0.0005098817
23	0x3a5c2ed9	0.0008399315
24	0x3a6ea3be	0.0009103379
25	0x3b3fcf7c	0.0029267957
26	0xba189ee1	-0.00058220146
27	0xbae50e1e	-0.0017475521
28	0xba815f34	-0.0009870292
29	0xba304f63	-0.0006725697
30	0x3b0763d8	0.0020658877
31	0xbb018640	-0.0019763857
32	0xbbaf7ef9	-0.0053557125
33	0xba78e30f	-0.00094942836
34	0x3c2e705d	0.010646907
35	0xbaef9092	-0.0018277338
36	0x3af590bc	0.0018735151
37	0xb9a03b6a	-0.00030561845
38	0xb9094dd8	-0.00013094337
39	0xbb3cb3a8	-0.0028793607
40	0x3b265b85	0.002538414
41	0x3b04c8ee	0.0020261365
42	0xbb0e2966	-0.0021692156
43	0xbad9aea8	-0.0016607838
44	0xbada6276	-0.0016661424
45	0xbaa0f46c	-0.0012279875
46	0xba42ba50	-0.00074282754
47	0x3a8d6e98	0.0010790406
48	0x3a6c78aa	0.0009020666
49	0x3b50778a	0.0031809532
50	0x37c35eb0	2.3289904e-05
51	0xbabbcfd1	-0.0014328902
52	0x3aa0d50d	0.0012270525
53	0xba748fdb	-0.00093292975
54	0xba2d1076	-0.0006601879
55	0xba870919	-0.0010302394
56	0x3b676e95	0.0035313715
57	0xbae6ec2b	-0.0017617991
58	0xbb0bcf1f	-0.002133317
59	0xbb3a09e1	-0.0028387236
60	0x3a5c5520	0.00084050186
61	0x3b0188ea	0.0019765445
62	0xba3c52a1	-0.00071839435
63	0x3c0ec2a6	0.0087134
64	0x3addd6e5	0.0016925005
65	0xbbbbcc7e	-0.0057311645
66	0x3bc6fd11	0.0060726483
67	0x3b44f09f	0.0030050648
68	0x3a937db1	0.0011252669
69	0xb99dc6ae	-0.000300934
70	0x39cca5c6	0.00039033423
71	0xbb0f7040	-0.0021886975
72	0xbb256d64	-0.0025242204
73	0xba0593d8	-0.0005095578
74	0x3b48cf11	0.0030641
75	0x3ad23d21	0.0016039946
76	0xbaaa9f3a	-0.0013017424
77	0xbc92551b	-0.017862847
78	0xbad5f98c	-0.0016324981
79	0xbb109074	-0.0022058757
80	0x39b55683	0.00034587467
81	0xbbf2b2a9	-0.007406552
82	0xb9eb0208	-0.00044824206
83	0x3a83254e	0.0010005624
84	0x3b383ff2	0.0028114286
85	0xba6b56c2	-0.00089774665
86	0x3a92fe0e	0.001121463
87	0xbae5d38c	-0.0017534359
88	0xbab54d63	-0.0013832267
89	0xbb2c17b6	-0.002625925
90	0xbb0f8a54	-0.0021902518
91	0xbb584814	-0.0033001946
92	0xba8df857	-0.0010831457
93	0xbb70c7ea	-0.0036740252
94	0x38c6d9d8	9.481952e-05
95	0xbb1886cd	-0.0023273707
96	0x3ac3c783	0.0014936778
97	0xbb4bcdb7	-0.0031097957
98	0xbb3cb8e9	-0.0028796738
99	0xb9c8b206	-0.0003827961
100	0x3b3b0f4c	0.0028543053
101	0xba8df9d9	-0.0010831907
102	0xba68e7fe	-0.0008884667
103	0xb99b34c5	-0.0002960322
104	0xba37c868	-0.0007010759
105	0xb9c7fd33	-0.00038144886
106	0xba00f448	-0.0004919213
107	0xbb16bf5b	-0.002300224
108	0xbb1c1548	-0.0023816396
109	0xbacd5777	-0.0015666325
110	0xb9746570	-0.00023307442
111	0xbbbbc173	-0.005729848
112	0xbaa1d2c9	-0.0012346144
113	0x3a3c07e8	0.0007172809
114	0xbaac8665	-0.0013162611
115	0xba649d77	-0.0008720974
116	0xbb526450	-0.0032103248
117	0xba49db79	-0.00077002455
118	0x3bc76f87	0.006086293
119	0xba67626b	-0.0008826616
120	0xba1e3338	-0.0006034854
121	0xbaa211c0	-0.0012364909
122	0xbb089c8b	-0.002084526
123	0xbb4195f8	-0.0029538851
124	0xbb16d90e	-0.0023017558
125	0x3a08e679	0.00052223314
126	0x3b8d9182	0.0043203244
127	0xba863cae	-0.0010241473

action_model._continuous_distribution.log_sigma f4 [1, 2]
0	0x3c98cd48	0.018652573
1	0xb9c5bc7d	-0.00037715203

action_model._continuous_distribution.mu.weight f4 [2, 128]
0	0xbd0816fa	-0.033225037
1	0xbcd180ca	-0.025574107
2	0xbca1ed12	-0.019766364
3	0x38eae348	0.00011200324
4	0xbb4d5d54	-0.0031336145
5	0x3c2efde4	0.010680649
6	0x3ca9f883	0.020748382
7	0x3d1a223c	0.037630305
8	0xba15a81b	-0.00057089486
9	0xbc13b901	-0.009016276
10	0x3c530b23	0.012881073
11	0xbb7cd476	-0.0038578785
12	0x3c842030	0.01612863
13	0x3c31ad2b	0.010844509
14	0x3c0a12b9	0.008427315
15	0xbcfbc811	-0.030735048
16	0xbbc2a14d	-0.0059396387
17	0xbc021ff6	-0.00794219
18	0x3d04ae1e	0.032392614
19	0xbcc88dfb	-0.024481764
20	0x3ad592fa	0.0016294413
21	0x3cb47279	0.022027241
22	0xbc0e82f3	-0.008698213
23	0xbceaa644	-0.028643735
24	0x3cc3fb82	0.02392364
25	0xbcb38fc1	-0.021919133
26	0xbc94e58e	-0.018175866
27	0x3bd617da	0.006533605
28	0xbc260e32	-0.01013522
29	0x3c6037c2	0.013685169
30	0xbc2aa817	-0.010416052
31	0x3c0b6bba	0.008509571
32	0x3cdce3b1	0.02696404
33	0x3cb06ab8	0.021535262
34	0x3cca2ea1	0.024680438
35	0xbc55fbee	-0.013060553
36	0x3ce9bd0c	0.028532527
37	0xbc9764f1	-0.01848075
38	0x3c84da4b	0.016217371
39	0xbc5aee78	-0.013362519
40	0xbd5673b1	-0.052356426
41	0x3d04e9db	0.032449584
42	0xbc668735	-0.014070322
43	0x3c1620a9	0.00916306
44	0xbc3e186a	-0.0116025
45	0xbc259f0b	-0.01010872
46	0xbc0beaa8	-0.008539833
47	0xbc8114bb	-0.015756955
48	0xbd3ddce8	-0.04635325
49	0x3c90d98e	0.017681863
50	0xbb287197	-0.002570247
51	0x3c89d044	0.016822942
52	0xbb245a80	-0.0025078356
53	0xbcdc2f24	-0.026877947
54	0xbcc68702	-0.024234299
55	0xbceb87cc	-0.028751276
56	0xbbfd446e	-0.0077291047
57	0xbc1871fe	-0.009304522
58	0xbbd37d84	-0.0064541716
59	0x3ccf55f2	0.025309537
60	0xba8721c3	-0.0010309744
61	0x3bb2fa3e	0.00546196
62	0x3ccf1db7	0.025282724
63	0x3c8c0fdb	0.017097404
64	0x3c8e4df2	0.017371152
65	0xbc766223	-0.015038046
66	0xbc77f355	-0.0151336985
67	0xbd1f8e9b	-0.03895436
68	0x3cea4ab5	0.028600076
69	0x3c70be72	0.014693843
70	0xbca2af94	-0.019859113
71	0xbb3ca7a8	-0.0028786454
72	0x3be32a9e	0.0069325706
73	0xbcb6ebc5	-0.02232922
74	0xbd304068	-0.043030173
75	0xbc928fc8	-0.017890826
76	0xbc0c79ea	-0.008573988
77	0xba605f9a	-0.00085591676
78	0xbbe96b44	-0.0071233828
79	0xbb360083	-0.00277713
80	0x3cc76f53	0.024345076
81	0x3c40e28d	0.011772764
82	0x3d0f5494	0.03499277
83	0xbcd15278	-0.02555202
84	0x3bf5a7fd	0.0074968324
85	0xbc88dfdd	-0.016708309
86	0xbc6dc560	-0.01451239
87	0x3be95875	0.0071211406
88	0x3cedc795	0.029025832
89	0x3c6402ca	0.013916681
90	0xbb403c5e	-0.0029332857
91	0x3bc03ae1	0.005866394
92	0xbc092d70	-0.00837265
93	0x3c7c94c3	0.015416327
94	0x3b6293b2	0.0034572897
95	0x3c56689f	0.013086467
96	0xbd2a3392	-0.041553088
97	0x3b76908c	0.0037622778
98	0x3ca9d8e0	0.020733297
99	0xbb6e58e3	-0.0036368899
100	0xbc7217e7	-0.014776207
101	0xbc97426e	-0.018464293
102	0x3cbb20fd	0.022842878
103	0xbd3bce48	-0.045851022
104	0xbbe3b5a2	-0.0069491426
105	0xbcbdce82	-0.02316976
106	0xbd475c79	-0.048672173
107	0xbb6265ac	-0.0034545464
108	0xbab80261	-0.0014038795
109	0xbc409abc	-0.011755642
110	0xbd0f32da	-0.034960605
111	0x3ca5cc37	0.020238979
112	0x3c979792	0.018504892
113	0x3ce0bd9e	0.027434167
114	0xbc1ced02	-0.009577991
115	0x3bfa0f30	0.007631205
116	0x3c58651d	0.013207701
117	0xbcba533d	-0.02274477
118	0x3bb8e6ac	0.0056427326
119	0xbb3c2176	-0.0028706468
120	0xbc9c1bad	-0.019056166
121	0xbb95d07a	-0.0045719715
122	0x3c3c5431	0.011494682
123	0xbbaa56b8	-0.005198326
124	0xbc04d3e4	-0.008107159
125	0xbc82321e	-0.015893038
126	0xbd08dc53	-0.033413243
127	0x3c87fc29	0.016599732
128	0xbc3c14fe	-0.011479614
129	0xbc1f3042	-0.009716095
130	0xbbb4cd76	-0.005517657
131	0x3ba506ee	0.0050362265
132	0xbb5fd6b6	-0.0034155077
133	0xbc388226	-0.011261499
134	0x3cc965fe	0.024584766
135	0x3cfdac9c	0.030966096
136	0x3c81a78f	0.015826968
137	0x3cb50d19	0.022100972
138	0x3ce32ac9	0.027730362
139	0xbc28f9aa	-0.010313431
140	0xbbf960e1	-0.007610426
141	0xbb0a3472	-0.0021088389
142	0x3ab1af3d	0.0013556253
143	0x3b98516a	0.004648377
144	0xbc9035aa	-0.017603714
145	0x3cdd2a7b	0.026997795
146	0x3a793e3a	0.00095078687
147	0xbca9cb9d	-0.020726973
148	0xbb6c6366	-0.0036069988
149	0xbd6b080d	-0.057380725
150	0x3c48a01e	0.012245206
151	0x3b4cb78e	0.0031237337
152	0x3c1023d5	0.0087976055
153	0xbcf84666	-0.030307006
154	0x3c34d675	0.011037459
155	0x3a8d5772	0.0010783507
156	0x3b0952ea	0.0020953962
157	0xbc9e4783	-0.019321209
158	0x3bfd8d52	0.007737794
159	0xbc0c2d83	-0.008555773
160	0xbce3936e	-0.02778026
161	0x3c65d309	0.0140273655
162	0x3c9e74d4	0.019342817
163	0x3cb9ead8	0.02269499
164	0x3cd18100	0.025574207
165	0xbc2be33d	-0.01049119
166	0xbc137638	-0.0090003535
167	0x3cb98030	0.022644132
168	0xbd0ad748	-0.033896714
169	0x3c95ccd6	0.01828615
170	0xbc4aa962	-0.012369486
171	0x3c419794	0.011815924
172	0x3bb0040b	0.0053715757
173	0x3cee8c53	0.029119646
174	0x3cb1485c	0.021640949
175	0xbc638e8e	-0.013888968
176	0xbc872371	-0.016496392
177	0x3a1c75dc	0.000596849
178	0xbccec547	-0.025240554
179	0xbbb389cd	-0.0054790736
180	0xbc7592c5	-0.014988606
181	0xbc763b48	-0.015028782
182	0xbb04390e	-0.0020175609
183	0x3c9b11e8	0.018929437
184	0xba5241c8	-0.00080206664
185	0xbd30c4eb	-0.043156546
186	0x3bb4c36d	0.0055164606
187	0x3bcf95c2	0.006334991
188	0x3adac106	0.0016689606
189	0xbc5d11c8	-0.013493009
190	0x3d28ebea	0.04124061
191	0x3bc9ae96	0.0061548455
192	0x3988dccf	0.00026104457
193	0xbc5e4f9d	-0.013568786
194	0x38f7fe59	0.00011825254
195	0xbac23e03	-0.0014819506
196	0xbcc4ca32	-0.024022195
197	0xbcceb19a	-0.025231171
198	0xbd1b9d09	-0.037991557
199	0xbaff77b2	-0.0019490628
200	0x3bd493c6	0.0064873425
201	0xbbd6262c	-0.006535312
202	0xbaf16935	-0.0018418195
203	0x3c76995b	0.015051211
204	0xbac8d938	-0.0015323525
205	0x39527fea	0.00020074812
206	0x3b9e4986	0.004830542
207	0xbc89fae0	-0.01684326
208	0x3c2d8175	0.010589947
209	0x3b7b1f5c	0.0038318252
210	0xbc5f6797	-0.013635538
211	0xbd0e4cfb	-0.034741383
212	0x3c9cdfb7	0.019149644
213	0x389625db	7.1596085e-05
214	0xbbf06821	-0.007336632
215	0xbcb18af2	-0.0216727
216	0xbc27f580	-0.010251403
217	0xbb5fe78f	-0.003416512
218	0x3c7621dd	0.015022722
219	0x38ac4c96	8.215864e-05
220	0xbaaeb7dc	-0.0013329941
221	0xbcf395b6	-0.029734474
222	0xbc1ca834	-0.009561587
223	0x3a796f53	0.0009515185
224	0x3c987245	0.018609175
225	0xbbca56a3	-0.0061748787
226	0x3cc04314	0.023469485
227	0x3a710d15	0.000919537
228	0xbb54fa6d	-0.0032497898
229	0x3cc6ec90	0.024282724
230	0xbb112066	-0.0022144555
231	0x3ca9c089	0.02072169
232	0x3cc06538	0.023485765
233	0x3b200769	0.002441848
234	0x3a00ac90	0.00049085263
235	0x3c9f50ad	0.019447649
236	0x3c1c5bc0	0.009543359
237	0x3bd6a6c4	0.0065506417
238	0x3c3d8e15	0.0115695195
239	0x3c322b6b	0.010874609
240	0xbbab1e14	-0.0052220915
241	0xbb1615e2	-0.0022901227
242	0xbc413032	-0.011791276
243	0x3b78e4cb	0.0037978168
244	0xba9d40f5	-0.0011997508
245	0x3b4f6932	0.0031648395
246	0x3b8aeb62	0.0042394856
247	0xbd38531a	-0.045001127
248	0x3b8d8c7c	0.0043197256
249	0x3d04edc6	0.03245332
250	0x3c646906	0.013941055
251	0x3b8ac91c	0.0042354
252	0x3b80c856	0.003930132
253	0xbd872811	-0.06599439
254	0xbcf181b4	-0.029480793
255	0x3b537006	0.0032262816

action_model._continuous_distribution.mu.bias f4 [2]
0	0xb93dabd8	-0.00018088461
1	0xba3ec689	-0.0007277509
