GameAI3/Config/results/dwarf_2/Dwarf/Dwarf-5120.pt (torch, 444703 bytes, 36 tensors)

network_body._body_endoder.seq_layers.0.weight f4 [128, 8]
000000 36 ed 84 3d 0d f4 cf be d9 6e 71 3f 02 97 2f 3f
       0.06490557 -0.40615883 0.94309765 0.68589795
000010 be 8c c4 3b ef 28 31 3f 0a 6c d4 3e 22 15 96 be
       0.005998223 0.69203085 0.41488677 -0.29312998
000020 8f a6 1d 3f b1 64 30 3e 6f 99 86 3d 4b 13 3f 3e
       0.61582273 0.1722591 0.06572234 0.18659703
000030 60 64 f4 3d 54 b9 81 3d 33 ea 35 3f 42 a7 a6 be
       0.119332075 0.06334177 0.71060485 -0.32549483
000040 7a 1d 0e bf a6 76 83 be 49 3b 6e 3e b8 1c 47 be
       -0.5551373 -0.2567646 0.23264803 -0.19444549
000050 4b 4f 44 bf 55 96 cf 3d 78 ca 1e be e6 d3 a8 bd
       -0.7668349 0.101360954 -0.15506923 -0.082435414
000060 e5 a2 d4 3e 4d 1e ab be 69 ec a8 3e 7b 25 9f 3e
       0.4153053 -0.33421555 0.32992867 0.31083283
000070 e8 98 36 bf 18 7a e3 bd 51 75 93 3e 66 0d 08 3f
       -0.71327066 -0.11107272 0.28800443 0.53145444
000080 fe 96 c1 be f8 16 0d bf f7 8d 78 3e a0 0d 9f 3e
       -0.3781051 -0.5511317 0.24272905 0.31065083
000090 02 f7 d6 3e 18 a2 a5 be 55 6f 0d 3f e1 88 27 3f
       0.41985327 -0.3235023 0.55248004 0.65443236
0000a0 2c a8 70 be 9a 9d 1d 3f c5 61 3d be 41 5c 35 3f
       -0.23501652 0.61568606 -0.18494327 0.70843893
0000b0 0a 66 a3 3e ce f8 fe 3e ac 7f 8a 3e ae 31 04 3f
       0.31913787 0.49799198 0.2705053 0.51638305
0000c0 61 f4 b8 3c da 10 32 3e a5 f5 9f 3d 74 2c 16 3f
       0.022577466 0.17389241 0.07810525 0.5866158
0000d0 65 6a 09 bf aa 8c 5d 3e 46 3b b6 3e ad 4a cd 3e
       -0.5367797 0.2163569 0.35592097 0.40096036
0000e0 47 48 6e bf c7 8c cd 3d 4f ae c2 3e 3c 3d be be
       -0.93079036 0.10036617 0.38023612 -0.37156093
0000f0 2d 4d bc 3e fd d1 be 3e 5e 2a 1e bd 61 70 94 be
       0.3677763 0.37269583 -0.038614623 -0.28991988
000100 30 5f 52 be 8a 1f 98 be 6b 71 94 3e 1b c0 17 3e
       -0.20544124 -0.29711562 0.2899278 0.14819376
000110 67 b2 f7 3e 82 3f a3 3e d1 31 e6 be df 73 fd bc
       0.48378298 0.3188439 -0.44959882 -0.03093904
000120 c4 ae 05 bc 52 15 52 3e 66 8c 9f bc 99 07 e6 be
       -0.008159343 0.20515946 -0.019476127 -0.44927672
000130 e2 1b 8d 3e 2b 83 61 3f b5 f7 23 be 74 9d a3 be
       0.27560335 0.8809077 -0.16012461 -0.31956065
000140 8b 5e f6 bc ad 14 18 3e bf 19 4b 3e dc bf a7 3e
       -0.030074378 0.14851637 0.1983404 0.32763565
000150 2d d7 ec be e2 e7 36 be b7 fe 08 bf fb d7 94 be
       -0.46257916 -0.17861894 -0.53513664 -0.2907103
000160 3e 50 20 3e 6b de 19 3e ae 7c 07 3e a8 1e 7b be
       0.1565561 0.15026252 0.13231155 -0.24523413
000170 e4 42 5f 3e 0e bc ad be f7 1f 7f 3e 8c 6d 1d 3e
       0.2180286 -0.33932537 0.24914537 0.1537382
000180 70 68 79 3d 8b 0c a7 3e 2b 9c 67 bd ab 58 8d be
       0.060890615 0.32626757 -0.056545418 -0.2760671
000190 a5 39 6e 3d 25 70 8b 3b 9a 46 cb bd b7 dd 83 3e
       0.058160443 0.004255312 -0.099255756 0.25755093
0001a0 55 c0 f1 be 69 cd 8b 3e cd fd 16 3f 76 6d 1c bf
       -0.4721705 0.27305153 0.5898102 -0.61104524
0001b0 dd 5c 05 be 39 51 fd be fd f8 dc be 78 31 6f be
       -0.13023706 -0.4947603 -0.43158713 -0.23358715
0001c0 10 eb 84 3e 8e a2 60 bf 80 d2 01 be 1d 70 9d 3e
       0.25960588 -0.8774804 -0.12677956 0.30749598
0001d0 cb 86 73 3e 9e 40 54 3e 90 3c 9b 3e 06 bf 9b 3e
       0.23781888 0.20727775 0.30319643 0.30419177
0001e0 14 d2 9a be d5 de 53 3c 5a c3 4d be 74 25 ff 3d
       -0.30238402 0.012931545 -0.20094052 0.124583155
0001f0 f2 1c 7a 3e 32 3a 83 3d a6 6d 1e be a8 10 f0 bd
       0.24425104 0.06407584 -0.15471515 -0.11721927
000200 be 1f e7 3e 36 8e ba 3e cf b0 d7 3e 6b 60 0e 3f
       0.45141405 0.36436623 0.42127082 0.5561587
000210 0c 36 0d 3e b2 3d 06 bf a1 ab d6 be 42 3f a2 3d
       0.13790148 -0.5243789 -0.41927817 0.07922222
000220 09 c8 17 bd 80 57 e0 3c 05 f4 83 3e 4a e1 fa 3d
       -0.037056003 0.027385473 0.2577211 0.12250002
000230 19 41 21 3f 75 f7 a1 3e f5 36 0a be 4b a0 f5 be
       0.62989956 0.31634107 -0.13497527 -0.47973856
000240 65 8e a7 be 86 d4 f4 3d d1 78 ff 3d 85 2b 68 3d
       -0.32725826 0.11954598 0.12474216 0.05668213
000250 22 3e 14 3e 5a c8 00 be ae 2f 4d 3e b7 07 75 3e
       0.14476827 -0.12576428 0.2003772 0.23928724
000260 35 22 0d 3f f2 8b 78 bd f2 a6 d1 3e 20 85 c9 3e
       0.5513032 -0.060680337 0.40947682 0.3935938
000270 4f fb e8 be c2 65 af 3e 06 0b 76 3f 4a 2d 06 be
       -0.45504233 0.34257323 0.9611057 -0.13103214
000280 64 9b 64 be 4f 29 8b be 7f 1d 45 bf d9 8b f1 be
       -0.22324902 -0.27179953 -0.7699813 -0.47177008
000290 d8 fe 9d 3e 18 3e 70 bc be e3 95 bc c6 d6 78 bc
       0.30858493 -0.014663242 -0.018297072 -0.015187925
0002a0 c5 c5 bd be a9 14 02 bf 2c a8 22 3e 85 1a d3 bc
       -0.3706495 -0.50812775 0.15884465 -0.025769481
0002b0 4d 30 1e 3f bc 42 6f 3d 84 b7 ce 3e d7 55 4d be
       0.6179245 0.058413252 0.40374386 -0.20052277
0002c0 eb c4 48 3f 65 8b c0 3d d1 4a df 3d c5 46 25 3e
       0.7842547 0.094015874 0.10902942 0.16140278
0002d0 6f a7 6d 3e d3 b4 40 be bd e7 98 be 38 2f af 3d
       0.23208402 -0.18818979 -0.29864302 0.08553928
0002e0 1d 9f 8a 3d b2 3d 15 3f e3 89 8b 3e b4 68 27 be
       0.0676863 0.58297265 0.27253637 -0.16348535
0002f0 08 f0 c5 be df b1 32 be 63 32 89 3e 24 63 d7 be
       -0.38659692 -0.17450665 0.26796255 -0.42067826
000300 ba af d6 3d d0 93 eb be be 76 f5 3d 8a 67 0a 3f
       0.10482736 -0.4601121 0.11985539 0.5406424
000310 d7 eb 42 bd 53 a8 4a 3c b4 a5 b0 be 19 d7 84 bb
       -0.047588196 0.012369233 -0.3450142 -0.004053962
000320 20 f9 a3 3e b8 44 19 3d 8d cd 8e be 1a 91 e5 3d
       0.32026005 0.03741905 -0.27891198 0.112093166
000330 10 b7 26 bd 00 90 e0 be 41 e5 87 bd b3 11 82 3f
       -0.040701926 -0.43859863 -0.066355236 1.0161651
000340 7d 39 30 3e 15 65 fa 3e 16 f8 d8 bd 0f c7 1b bf
       0.1720943 0.48905244 -0.10594194 -0.60850614
000350 5c 20 32 3e a3 a3 61 3e 2c 33 5b 3d ba cd 85 3f
       0.17395157 0.22035079 0.0535156 1.0453408
000360 44 9a 91 bb a2 f3 49 be ae 4e 0b be 4d 73 c0 3d
       -0.0044434387 -0.19721845 -0.13604233 0.09396992
000370 a3 34 d3 3d 7b 3a 94 be 87 8c 28 bf c8 39 da 3e
       0.10312774 -0.28950867 -0.6583943 0.4262221
000380 25 fb 90 be f3 18 13 bf 51 88 f1 3e f6 11 e8 3e
       -0.28316608 -0.57459944 0.47174314 0.45326203
000390 2a 0a a1 3e b4 de 0e be c5 b7 a1 3e 88 59 e5 3e
       0.31453067 -0.13952142 0.31585518 0.4479487
0003a0 99 79 28 be a2 95 a4 3e 52 53 47 be dc 8d 33 be
       -0.16452636 0.3214541 -0.19465378 -0.17534584
0003b0 28 29 84 3e a2 ba 80 be 5b f5 8e be 51 a7 4d be
       0.2581265 -0.2514239 -0.27921566 -0.20083357
0003c0 e3 4f 25 bc 01 6b 50 3e 10 5f b9 3e e1 c8 c4 be
       -0.010089847 0.20353319 0.3620534 -0.38434508
0003d0 c6 2d 13 3e 43 7e 12 3d ab 45 25 be 41 7d 83 3e
       0.1437293 0.035764944 -0.16139857 0.256815
0003e0 52 78 09 3e 01 9e 2e 3f 7e 8d 66 3e cd c9 32 3f
       0.13424805 0.68209845 0.22514912 0.69839174
0003f0 6e f2 8d bd 4b 54 99 bd 17 db 13 3e 1f c0 67 be
       -0.069310054 -0.07486781 0.14439045 -0.22631882

network_body._body_endoder.seq_layers.0.bias f4 [128]
000000 83 75 29 3b e4 9e cc ba 75 10 23 bc 9e 94 1f 3b
       0.0025857396 -0.0015611318 -0.009952654 0.0024350057
000010 f5 f9 6c 3c f0 b9 45 3c be 59 43 39 ab ee 09 bc
       0.014463891 0.012068257 0.00018630081 -0.008418719
000020 91 88 bf bb 76 91 0a bd a6 f6 4c bb 38 9c 7f bc
       -0.0058451374 -0.03383013 -0.0031274944 -0.01560121
000030 28 02 58 bc c5 a5 4c bd 8c ab f7 bb 8f 1b a0 bb
       -0.013184108 -0.049962778 -0.007558292 -0.0048860977
000040 78 07 3d bc 0b 3e 4c bc 16 d5 12 39 76 53 eb bc
       -0.011537425 -0.012465964 0.00014003026 -0.02872632
000050 dd 4b 8f 3b eb c5 9a bb e3 18 0c 3c 2b 41 77 bc
       0.0043730573 -0.0047233007 0.008550855 -0.015091221
000060 eb ba 3c bc 16 27 9f ba 6a 58 d2 39 6f 90 b4 3b
       -0.011519174 -0.0012142386 0.00040120195 0.005510382
000070 ab 85 d3 bb ec 57 18 3c aa f0 14 bc 4a 13 35 3b
       -0.0064551434 0.009298306 -0.009090582 0.0027629905
000080 18 05 ce 3b ea ba 01 3b 3e a5 08 bc 62 26 6b bc
       0.0062872283 0.0019795247 -0.008340178 -0.014352413
000090 76 1c 19 3b f4 0d 6d bc 7f 96 aa bb d4 17 66 ba
       0.0023362911 -0.014468659 -0.005205929 -0.00087773544
0000a0 be 9d 2d bc e6 97 20 bc 98 1e 55 bc 18 9e 55 bc
       -0.010596691 -0.00980184 -0.013007782 -0.013038181
0000b0 c5 37 27 bb 93 de 06 ba f8 4b bd 3b 03 87 e7 bb
       -0.002551542 -0.00051448605 0.0057768784 -0.007065655
0000c0 49 34 e3 3b 7d 96 b3 3b d9 ba 57 3b 39 14 cb bc
       0.006933723 0.005480586 0.0032917766 -0.024789916
0000d0 70 d3 a9 ba 7e 53 23 bc e3 de 16 bc ae f5 98 3b
       -0.001295669 -0.009968637 -0.009208414 0.004667959
0000e0 57 e4 46 3c af 47 96 ba 40 ce 0c bc 82 eb bd bb
       0.012139401 -0.0011465455 -0.008594096 -0.005795897
0000f0 d9 aa f3 bb 24 9e a7 38 63 f1 2f bb d2 cb 37 bc
       -0.007436138 7.9926365e-05 -0.0026846759 -0.011218028
000100 80 a9 38 3a 93 3f 24 bc 0a 82 8a bb ec 7e 32 3c
       0.00070443004 -0.010024923 -0.0042269276 0.010894518
000110 7e 8b 02 bb 42 8f 38 3c e4 da f7 39 a4 a9 2e bc
       -0.001991957 0.011264624 0.00047274597 -0.010660563
000120 7a fe 01 bb ab 64 fb 3b 75 ce ba bc c7 5d 4d bc
       -0.0019835518 0.0076719127 -0.022803525 -0.012534565
000130 cf 1d ac 3b 27 cd 48 bb 30 5a c9 ba 6a 67 04 ba
       0.005252577 -0.0030639858 -0.0015361961 -0.000505081
000140 09 cb bb bc 76 2f 99 bc eb 6a cc bb 47 ce b7 bc
       -0.022923963 -0.018699389 -0.0062383316 -0.022437228
000150 ed d8 71 bb a7 3f 6a 3a 2c 54 64 3b d6 a6 04 3b
       -0.003690298 0.00089358765 0.003484021 0.0020241044
000160 d5 cb b0 bb cb da 5e ba 9e 7d cc bb 92 7f 46 bc
       -0.0053953924 -0.00085012306 -0.0062405607 -0.012115376
000170 92 74 2b 3c 34 d2 d1 bc a3 ec 0c ba 5e 45 52 3a
       0.010464804 -0.025612928 -0.0005375838 0.0008021201
000180 49 3e b8 bc 3b 12 c9 3b 4d df af 3b b1 15 b1 bb
       -0.022490637 0.0061362064 0.0053671957 -0.005404197
000190 fe f2 94 bb f7 6b 57 bc 50 42 53 bb 3e 24 d4 bb
       -0.0045455685 -0.013148299 -0.003223557 -0.006474047
0001a0 be ca 89 bb b8 1f b8 bb ed 94 14 bb 29 19 62 bb
       -0.004205077 -0.0056190155 -0.0022671774 -0.003449986
0001b0 5b ce d2 bb f2 eb 67 3a 02 b3 10 bc bd 70 15 bc
       -0.006433291 0.0008847109 -0.008831741 -0.009121117
0001c0 32 92 4e bb 5d 6b b8 bb 97 19 a3 bb 9d 1e 74 3b
       -0.0031520245 -0.005628033 -0.004977416 0.0037249692
0001d0 b5 5e 05 bc a5 87 6e b9 f1 51 2a 3c 82 6e f3 3b
       -0.008140256 -0.0002274798 0.010395513 0.007428945
0001e0 1c ee 04 bc 8b af d5 bb ea 8d 60 bb 88 2c 58 bc
       -0.00811341 -0.0065211705 -0.0034264275 -0.013194211
0001f0 1e 6a 07 bc a3 ed b5 bc 15 5f f8 bb 20 11 71 3b
       -0.008265046 -0.02220804 -0.007579694 0.003678389

network_body._body_endoder.seq_layers.2.weight f4 [128, 128]
000000 ac 53 28 3d 2e 0b 69 3e 1b fa eb 3c 0e 53 2b 3c
       0.04109542 0.22758171 0.028805783 0.0104568135
000010 bf 48 12 3e 4d e5 dc 3b f2 31 21 bd 9a a1 50 bd
       0.14285563 0.006741202 -0.039354272 -0.050935365
000020 9c b4 d2 3d 7b cb 82 bd 9a f2 00 be 50 5e 5e 3b
       0.10288355 -0.06386467 -0.12592545 0.0033930726
000030 59 e8 c7 bd 02 14 c5 bd ac d0 a2 bb d3 99 9c 3c
       -0.09761114 -0.09622957 -0.0049687233 0.019116318
000040 b2 25 0c 3c 4c 7b 29 3d 3d c5 00 bd 7e 6c 13 3d
       0.008553909 0.04137735 -0.0314381 0.035992138
000050 37 69 a7 bc 55 ba fb 3d 07 56 00 3d ba 48 a6 bd
       -0.020435913 0.122913994 0.031332042 -0.0811934
000060 da 33 26 3e 65 d9 26 bc 12 78 10 be 8b 9f 00 3c
       0.16230717 -0.010183667 -0.14108303 0.007850538
000070 e5 1a a0 bd ab 34 70 3c b0 64 5b 3c cf ca 74 3e
       -0.0781763 0.0146609945 0.013390705 0.2390549
000080 26 77 41 bb b3 6d f2 3d 83 a5 08 3c 99 62 c6 3d
       -0.002952048 0.1183733 0.008340242 0.09686775
000090 47 95 69 3d 3e ee b8 bd a1 35 a4 bd d3 94 45 3d
       0.057027128 -0.09029816 -0.080180414 0.048237633
0000a0 b7 11 a9 bd 6c 6a 8d 3c 10 9c 4f 3c 7c 98 85 3d
       -0.08255332 0.01726266 0.012671486 0.06523225
0000b0 e1 6c 46 3c 50 24 10 be 9f ae 9b bd 9e 8d 08 3e
       0.01211092 -0.14076352 -0.07601666 0.13335273
0000c0 b3 7e 1d bd 9e 3e ae 3d 9c ac c7 bd 4f dd cf 3d
       -0.038450908 0.08508037 -0.097497195 0.10149633
0000d0 d4 8c ea 3d 2c 0b e8 3c 7e cb 86 bd 61 da f3 bc
       0.11452642 0.02832564 -0.06581782 -0.029767217
0000e0 a4 ac df bd d8 ea cd 3d 83 05 00 be de 49 5b 3c
       -0.109216005 0.100545585 -0.12502103 0.0133843105
0000f0 fc ee 5a bd 47 c0 33 be 99 5b 95 3b 40 a0 4a bc
       -0.05345057 -0.17553817 0.0045580384 -0.012367308
000100 36 93 51 bc 52 b2 fc 3d 57 79 20 be fc 20 37 bd
       -0.0127914455 0.123386994 -0.15671287 -0.04470919
000110 75 c5 13 be 4a 66 81 bc 21 ab f0 3d 99 df 66 3d
       -0.14430793 -0.015795846 0.1175139 0.056365583
000120 70 b3 fb bd e3 67 47 3e f5 d8 83 3c 0c c8 eb 3d
       -0.12290084 0.19473223 0.016094664 0.11512765
000130 02 dd 72 bd 96 5e e2 bc 8e 5a a2 bb 7d 42 c0 bb
       -0.0592928 -0.027632993 -0.0049546426 -0.005867301
000140 b5 6c df bd 0f ed 1a 3e 93 d2 c7 3b 2c e7 6d bd
       -0.10909406 0.15129493 0.0060981004 -0.05808179
000150 b1 9d 05 bd 34 22 fb 3d d8 93 8b 3b 92 7c 05 bd
       -0.03262109 0.12262383 0.0042595677 -0.032589503
000160 62 68 02 3d 49 03 85 3d 5a ab 8f bd 92 0d 0c 3d
       0.03183783 0.06494767 -0.070151046 0.03419263
000170 15 7e 7b 3e 0d 6d ad 3d fc 25 28 3e 66 58 87 3d
       0.24559815 0.084680654 0.1642074 0.066086575
000180 44 9d 96 3d 67 85 50 3e f6 4a ea 3c d5 0e b2 3d
       0.07354215 0.20363389 0.028600197 0.08694235
000190 23 48 48 bc 6f 21 9b bd 8f 1f 3c ba db 97 fa bc
       -0.01222423 -0.07574736 -0.00071763335 -0.030589988
0001a0 35 12 8d 3d c1 22 72 3d 4c a1 20 bd 2f 32 35 3e
       0.06888238 0.059115175 -0.039216325 0.17694925
0001b0 02 ea 1c bd 1c 57 f9 3c 17 99 c4 3d dc c5 58 3c
       -0.038309105 0.030437045 0.09599512 0.013230767
0001c0 b2 2b 09 bd e0 fb 8e bd 5d ce 1d 3e 36 c7 93 bd
       -0.033488937 -0.06981635 0.15410753 -0.07215731
0001d0 8c 12 9d bd b0 12 c7 bd 46 ec c5 3d e1 9d b8 bc
       -0.07669553 -0.09720361 0.09664206 -0.02253622
0001e0 57 df 0f bd bc d1 e7 3c bc 61 cb 3d b5 b8 c3 3c
       -0.035125103 0.028298251 0.09930751 0.023891786
0001f0 df 5a 39 bd b6 7e bd bd 5b f6 3d 3e 50 ff 48 3e
       -0.045252677 -0.09252684 0.18551008 0.19628644
000200 28 ca 47 3d 72 4c 39 3d 2b 8e d3 3d ea 69 28 3d
       0.048776776 0.04523892 0.10329851 0.041116633
000210 62 ac 4a 3d b2 e7 be bd 80 83 0d be ac b7 54 bd
       0.049480803 -0.09321536 -0.13819695 -0.051932976
000220 df 7a a6 bd bf fc c0 3d a5 eb 1f 3e e4 30 15 3e
       -0.081289046 0.094232075 0.15617235 0.14569432
000230 47 49 c4 3d 52 75 e8 3d 5e 50 26 bd b4 87 08 be
       0.09584289 0.11350502 -0.040603988 -0.13333017
000240 a3 ff 7c 3e b9 c4 2c bc 58 b7 3b 3d 93 ff 23 bd
       0.24706893 -0.010544949 0.045829147 -0.040038656
000250 26 6e 57 bc 89 70 b6 3d 65 e0 12 bd 12 05 00 3e
       -0.01314882 0.08908183 -0.03585853 0.12501934
000260 5f 71 2a be 3c 21 33 be 58 1b 03 3e 60 2d ea bc
       -0.1664481 -0.17493147 0.128034 -0.02858609
000270 4b 20 c8 3c 41 05 5e bd bf 59 b7 bd 9b 4e ba bd
       0.024429461 -0.05420423 -0.089526646 -0.09097024
000280 2c bb 21 be 7c 52 f2 3b d8 ac 6a bd 66 29 78 bd
       -0.15794057 0.007395087 -0.057293743 -0.060586356
000290 96 5a ed bd 64 64 0c 3c 6f 2a 1d bd a7 7f b1 3b
       -0.115895435 0.008568857 -0.038370546 0.0054168287
0002a0 89 55 9c bd 66 db 72 bd 4d b3 8e bb fd d8 fc bd
       -0.07633502 -0.059291266 -0.0043548704 -0.12346075
0002b0 a5 a8 08 3d 77 16 46 bd a4 23 27 3d 50 f8 5c 3d
       0.033363957 -0.048361268 0.040805474 0.053947747
0002c0 a3 3d ab bd f7 d2 32 bd bc 47 ea bd 72 33 96 3d
       -0.08361366 -0.043658223 -0.114394635 0.07334031
0002d0 04 ce 46 be 51 5a 7f bd 93 e1 8d 3d 97 a3 b0 bd
       -0.19414526 -0.06234199 0.069277905 -0.08624952
0002e0 6a 0f 99 bd 30 f4 4b 3d e3 b2 82 3d b3 55 da 3d
       -0.07473643 0.049793422 0.06381776 0.10660877
0002f0 84 76 ea 3b 23 38 00 3d fe 4b eb 3d 2b 7b 37 3d
       0.0071552414 0.031303536 0.11489104 0.044795197
000300 97 c6 c2 3d 3a b0 88 be dc dd e6 3c 34 04 37 3e
       0.09510534 -0.2669695 0.028181963 0.17872697
000310 53 b9 df 3c 74 90 85 bd 7f 3a 9a 3c 41 03 fa 3d
       0.02731005 -0.06521693 0.018826721 0.12207652
000320 43 f2 2c bd a5 f9 84 3d b9 06 e1 3d 1d 58 03 3c
       -0.042223226 0.064929284 0.1098761 0.008016613
000330 f0 fb 35 be dd 30 08 3d ff d2 f1 3d 8b 18 46 3d
       -0.17771888 0.033249725 0.118078224 0.04836325
000340 2e 9a 83 3c 5f 07 f7 3d 2e 30 2c 3d 8a 14 02 3d
       0.01606473 0.12061953 0.042038135 0.03175787
000350 f7 b9 0d 3c ce 65 c5 bd 89 26 9f 3e 0f dc 21 3d
       0.0086502945 -0.09638558 0.31084087 0.039516505
000360 14 7c cf bc 77 ed 82 bd ee 22 28 3e 0e 80 df bd
       -0.02532772 -0.06392949 0.16419575 -0.10913096
000370 ff 59 6f 3d 49 0f cd 3d 2a a8 33 3c 26 78 70 bd
       0.058435436 0.10012681 0.010965386 -0.058708332
000380 ad b0 57 bd 22 30 85 bc a2 58 97 bd 27 b9 91 3d
       -0.052658726 -0.016258303 -0.07389952 0.07115393
000390 47 da 1e 3d 51 f8 c1 3d 7a ba 0f 3e 77 87 56 bc
       0.038782384 0.09471191 0.14035979 -0.013093821
0003a0 7c 71 8b bd 9c d3 9b 3d d0 b7 56 bd 1d 4e e9 3d
       -0.06808755 0.07608721 -0.05242139 0.11391852
0003b0 69 6f f5 3c fd 68 33 bd da cc c3 3d 19 27 67 3d
       0.029960351 -0.043801297 0.09560557 0.05643377
0003c0 62 12 da bc 17 cc b7 3c 91 3e 36 3e 8b 24 83 3d
       -0.026620094 0.022436185 0.17797305 0.064034544
0003d0 71 b0 4e 3e 87 25 33 bd 76 8d 42 3c 35 46 5d 3d
       0.20184495 -0.04373696 0.011874547 0.054022033
0003e0 b8 05 20 3d bc d1 c7 3d 0c 68 de bc f6 f0 b3 bd
       0.039067954 0.097568005 -0.027149223 -0.08786194
0003f0 d0 63 ec bd 3f de bb bd d8 b5 1e 3d cb 7d 1b 3d
       -0.11542475 -0.091732495 0.03874764 0.037961762

network_body._body_endoder.seq_layers.2.bias f4 [128]
000000 4d 51 dc bb 87 a9 b9 bb 7d 5c 0a bc 30 68 34 bc
       -0.006723559 -0.005665961 -0.0084449025 -0.011011168
000010 16 32 3a bc b9 a1 2e bc 72 76 39 bb 2f c8 0a bc
       -0.0113644805 -0.010658675 -0.0028299359 -0.008470579
000020 c3 d4 07 bc 96 5c ba bb 15 1c 0b bc 08 25 32 bb
       -0.008290472 -0.0056873066 -0.008490582 -0.0027182717
000030 0b be e1 bb 3e b5 09 bc 0f 6c 04 bb 32 86 0c bc
       -0.00688911 -0.008405028 -0.002020601 -0.0085769165
000040 f5 f4 68 bb cf a2 12 bc b4 b1 49 bb 9d c5 e2 bb
       -0.0035546396 -0.008949949 -0.0030776085 -0.00692053
000050 a9 10 0f bc e9 3a 5b bc b7 ca 2d bc c0 4c cc bb
       -0.008731999 -0.0133807445 -0.010607413 -0.0062347353
000060 9d 00 e1 39 a8 dd 44 bb 02 9c 28 bc dd 6d 3b bc
       0.000429158 -0.0030039344 -0.010291101 -0.011439768
000070 13 a8 49 bc 9e 93 1f bc 67 1b b6 bb 7b 80 fd bb
       -0.012308138 -0.0097397845 -0.005557466 -0.0077362633
000080 8f 7e 27 bb 63 56 55 ba e0 14 a7 bb 7a 2b ac 3a
       -0.0025557613 -0.0008138178 -0.005098924 0.0013135516
000090 c4 4b c6 bb aa bf f2 bb b9 a5 45 bb 72 ec 75 bb
       -0.0060515124 -0.007408102 -0.0030158593 -0.0037524966
0000a0 53 70 c9 bb ba c9 4f 3b b7 fd ec bb 22 53 db bb
       -0.0061474233 0.0031705932 -0.0072323936 -0.00669326
0000b0 34 a4 81 bb bf 6b 90 bb 0c 3e e2 bb 6a b1 68 bc
       -0.003956342 -0.0044073756 -0.006904369 -0.014202455
0000c0 1b f4 96 bb fd 01 03 bc 18 57 56 bb bf 3e fa bb
       -0.0046067364 -0.0079960795 -0.003270572 -0.0076368744
0000d0 0a af 13 bc 4f a4 04 bc 0b 89 b5 bb 0a 97 ab bb
       -0.0090139005 -0.008095815 -0.0055400184 -0.005236511
0000e0 dc 1d ec ba 21 73 1a bc 32 e4 68 bc a6 4c 12 3b
       -0.001801427 -0.009426863 -0.014214562 0.0022323518
0000f0 3f 7c 5c bc 94 e2 cd ba 21 5b 82 bb 23 08 14 bc
       -0.013457357 -0.0015707784 -0.0039781486 -0.009035143
000100 78 8e 4d 3a cf ed 0d bc 51 dc 01 bc 6d aa 21 bc
       0.0007841359 -0.008662655 -0.007926063 -0.009867293
000110 64 8f 70 bc 11 8a 3d bb e9 0d 48 bb 27 bf 34 bc
       -0.0146826245 -0.0028921405 -0.003052587 -0.011031902
000120 8b 99 fa bb 22 c1 10 bc dd 77 05 bc 74 0a 2e bb
       -0.0076476983 -0.008835109 -0.008146253 -0.0026556524
000130 f8 af 58 bb 10 d7 e1 bb b8 71 97 b9 e4 02 e7 bb
       -0.003306387 -0.0068920925 -0.0002888569 -0.007049905
000140 0d 60 96 bb e4 62 d8 bb 3a f9 91 bb 14 16 08 bc
       -0.004589087 -0.0066035856 -0.004454759 -0.008306045
000150 11 6f 30 bc 54 e9 1e bc f7 a6 12 bc 6a ca 69 bb
       -0.010768668 -0.009699184 -0.00895094 -0.0035673627
000160 5a 11 f1 bb aa e7 06 bc 11 a6 94 bb 49 f0 7a bb
       -0.007356805 -0.008233944 -0.004536398 -0.0038290194
000170 cb 98 2f bb 3c a0 05 bb c5 fe f9 bb 86 6b 95 ba
       -0.0026793953 -0.0020389697 -0.007629248 -0.0011399842
000180 7f 8c b0 bb b7 1b f2 bb 5e e6 07 bc 0a d2 2d bc
       -0.005387842 -0.007388558 -0.00829467 -0.010609159
000190 35 80 d4 bb 79 12 17 bc 7c 63 56 bc 34 62 4b bb
       -0.00648501 -0.009220713 -0.013085242 -0.0031033875
0001a0 03 2f bf bb c8 0f 46 bb 98 a8 c5 bb f6 a2 ba bb
       -0.0058344617 -0.0030221809 -0.006032061 -0.005695696
0001b0 8a 46 2b bc 4b a0 fe bb 1b 41 0e bb ce 4b ad bb
       -0.01045383 -0.0077705733 -0.0021706286 -0.0052885776
0001c0 16 a5 20 bb 8f ab b8 bb d6 fc 90 bb 21 c3 8a bc
       -0.0024512461 -0.0056356858 -0.0044246716 -0.016938748
0001d0 6c 97 cc bb a0 ce 24 bc d8 20 b0 bb d9 a5 24 3b
       -0.006243637 -0.010059029 -0.005375009 0.0025123267
0001e0 1f 19 8c bb 69 db 06 bc 64 9e 08 bc 2c b4 14 bc
       -0.0042754556 -0.008231022 -0.0083385445 -0.009076159
0001f0 34 90 fe bb a9 00 b3 bb 40 7a 0b bc 83 82 4e bc
       -0.007768655 -0.005462725 -0.008513033 -0.012604359

action_model._continuous_distribution.log_sigma f4 [1, 2]
000000 d6 fa cb 3c b7 16 1f bd
       0.024899881 -0.038840022

action_model._continuous_distribution.mu.weight f4 [2, 128]
000000 d1 fe 92 3b ea f2 24 bb 57 9c 38 bc d9 58 d4 bb
       0.004485943 -0.0025169202 -0.011267743 -0.006480318
000010 50 8b 98 bb 0b 83 cb ba 4f ad f1 bc 14 a2 58 bc
       -0.004655279 -0.0015526725 -0.029501585 -0.013222236
000020 d1 f3 54 ba 01 39 5a bc 6e 41 34 3b a0 d2 ad bb
       -0.00081234897 -0.013319255 0.002750482 -0.0053046495
000030 50 da 03 3c a8 0d 82 bc 7b 6c 25 bb 12 db b2 bb
       0.008047655 -0.015875652 -0.0025241661 -0.005458244
000040 16 43 d4 bc 51 aa 43 bc bd 12 04 3c c8 c4 55 bc
       -0.025910895 -0.011942462 0.008061108 -0.013047405
000050 3a 57 90 bb 73 cc 0c 3c aa 47 49 ba e1 e5 d3 3c
       -0.0044049295 0.008593666 -0.000767822 0.02586645
000060 5a de 95 bc 26 b0 33 3d 15 be e9 3b 91 4f 8c 3b
       -0.018294502 0.04386916 0.0071332552 0.004281946
000070 16 19 cc bc 36 56 73 3b 54 f1 55 3c 28 3f dc 3a
       -0.024914306 0.0037130243 0.013058025 0.001680349
000080 05 0d ce 3c 2f ef c4 bc 21 cb 8a 3c 77 0e db 3c
       0.025152693 -0.024039833 0.016942563 0.026740296
000090 3f d8 9e ba c2 c3 ec 3c b7 f5 c6 3c 6e 16 6c bc
       -0.001211889 0.028901938 0.024287088 -0.0144096445
0000a0 c6 b5 24 bb d8 62 fa ba 17 89 c1 3a 2a e4 90 3c
       -0.002513276 -0.0019102944 0.0014765587 0.017686922
0000b0 85 06 6c bc 6f 74 7b bb ca cb f6 ba 9b 9e ad ba
       -0.014405851 -0.003836896 -0.0018829044 -0.0013246121
0000c0 9a 75 29 3c e9 60 91 3c cf 23 81 bc f3 a2 75 bc
       0.01034298 0.017746406 -0.015764145 -0.014992463
0000d0 41 24 8a bc ea aa 69 ba ae 91 5e bc 2e 0a 3b bc
       -0.01686299 -0.0008913713 -0.013584537 -0.011416001
0000e0 95 1b 34 bc 47 7d 98 bc 9c 7b 99 bb 13 2c 64 3b
       -0.010992904 -0.018614424 -0.004683925 0.003481631
0000f0 c8 65 03 bb e2 55 86 bb c4 ed 43 bc bc 4b cd 3b
       -0.002004968 -0.0040995935 -0.011958543 0.0062651318
000100 ec cb fd bc 4c c1 47 3c 99 3d 80 3a 50 04 31 bb
       -0.030981027 0.012192082 0.0009783983 -0.0027010627
000110 6f 8e 3f 3b b7 c9 40 bb 29 83 35 bb 9e 00 c0 3b
       0.0029229184 -0.0029417106 -0.0027696586 0.0058594486
000120 96 e9 ae b9 4e 31 3e 3b 7b 58 17 bc 11 30 93 bc
       -0.000333619 0.0029021087 -0.009237404 -0.017967256
000130 ec 0e 94 bb 47 bd bb 3c 3a e9 b9 bc 85 ed 0e bb
       -0.0045183804 0.022917403 -0.022694219 -0.0021809053
000140 2e 55 ce bb 1d 0d 18 bc 95 11 3c 3c 42 dd 5d 3c
       -0.0062967753 -0.00928047 0.011478801 0.0135415215
000150 29 69 16 bb ac a4 a3 bb 65 d8 f2 3a a0 dd c1 bc
       -0.0022950864 -0.0049939957 0.0018527625 -0.02366525
000160 14 4a a9 bb db 75 90 b9 69 00 8f bb 22 67 a9 3a
       -0.0051663015 -0.0002755363 -0.0043640626 0.0012924413
000170 1b cf 7c bc ae a9 2c bc 14 dc 43 3c c1 71 8c 3a
       -0.015430237 -0.010538502 0.011954326 0.0010715054
000180 89 66 1b 3b ef 50 29 ba 36 28 e4 3b f8 8e 72 bb
       0.0023712239 -0.00064588984 0.0069628013 -0.0037011486
000190 00 fb a4 b7 a0 b1 ef b9 e6 e3 8d bb 5d 57 90 3c
       -1.9667204e-05 -0.00045717973 -0.004330146 0.017619783
0001a0 b1 5f 23 bc 1c ad 8d bc 1b 22 ed bb 18 b0 7c bb
       -0.009971545 -0.017294459 -0.0072367317 -0.0038557108
0001b0 1f 20 12 3c 37 c9 3f bc c7 15 cc bc e2 a3 4e 3c
       0.008918791 -0.011705688 -0.024912728 0.012612315
0001c0 d7 92 bc 39 53 23 0d bc 1a b9 4b 3c d4 df 4f 3b
       0.00035967559 -0.008614379 0.012434268 0.0031719105
0001d0 c0 e5 cd bb f5 73 d2 38 b9 cc 49 3c c7 40 50 bb
       -0.006283492 0.00010035179 0.012316876 -0.0031776892
0001e0 ec 0e 4a bc 8a e7 ce bb 05 3b b2 3c 67 0f 93 3c
       -0.012332659 -0.0063142227 0.021756658 0.01795168
0001f0 0f 71 90 3c e4 77 37 bb 6b 3e a8 b9 b9 13 af 3a
       0.017632036 -0.0027995044 -0.00032089962 0.0013357318
000200 04 0c 58 b9 fd eb 82 3c a5 33 9a bc 41 85 8d ba
       -0.00020603841 0.015981669 -0.018823454 -0.0010797159
000210 83 4b 76 3b 50 77 86 ba 8b b6 ce bb 54 89 42 bc
       0.003758163 -0.0010258947 -0.006308382 -0.011873562
000220 5d 75 d1 ba 8b 2f b5 bb 33 f6 32 bc 3d 6f 8f bc
       -0.0015980412 -0.005529349 -0.010922956 -0.017509097
000230 d5 e6 0b bc 27 92 ad bc 05 32 f4 3c 33 0e c3 39
       -0.008538921 -0.021187855 0.029809007 0.00037203878
000240 54 42 fb bb b9 ec d2 3b 81 12 a3 3c 7c b1 1a 3b
       -0.007667819 0.006436911 0.019906284 0.0023604324
000250 1d fa 32 3c d1 22 60 3c a3 a3 9e ba 26 28 0d 3c
       0.010923889 0.013680176 -0.0012103211 0.008615529
000260 ca f5 ff 3c a9 f8 d9 3b ce 35 80 3a e3 78 e6 3a
       0.031245131 0.006651957 0.000978166 0.0017583634
000270 a6 a6 1a bc 12 cf 44 ba 6d 02 35 3c 33 37 28 bc
       -0.009439146 -0.00075076625 0.011047942 -0.010267067
000280 f8 a8 36 3d 58 3d 9d 3a 1a 22 55 bc e7 b9 12 bc
       0.044594735 0.0011996431 -0.013008619 -0.008955455
000290 a0 c3 a6 3c cd 27 a9 bc 93 9c d4 3c eb b7 1e 3b
       0.020356953 -0.020648861 0.025953567 0.002421851
0002a0 66 b7 e7 3b 30 7a e8 bb b9 6d 99 3c ad c3 e4 3b
       0.0070714233 -0.007094644 0.018729078 0.006981334
0002b0 60 9b 05 bc 77 0b b5 bc a8 8b 04 3d fa 42 c4 ba
       -0.00815472 -0.022100193 0.03235975 -0.0014973574
0002c0 7a ff 9b 3c 16 a5 35 3c cc 57 95 3c 61 73 25 bb
       0.01904272 0.011086723 0.018230341 -0.0025245773
0002d0 f8 f8 20 3c c2 0b 8d 3a c3 7d c8 3c e8 5c 0a 3c
       0.009824984 0.001076095 0.02447403 0.008445002
0002e0 8c d6 0f 3c ef f9 7a 3c d6 32 89 3b b7 e8 27 3a
       0.008779179 0.015318378 0.0041869683 0.00064052216
0002f0 83 bb 9e 3b 90 2c 73 bb a4 cf 72 3b dc 79 eb bb
       0.0048441305 -0.0037105419 0.0037050033 -0.0071861576
000300 f4 b7 a4 3c 81 c4 27 3b 19 23 29 bc 3d 71 06 bc
       0.020107247 0.0025599303 -0.010323309 -0.008205709
000310 82 7a 48 3b 41 dc 73 bd 4b e3 bf 3c f1 b4 29 bc
       0.0030590598 -0.059536222 0.023423811 -0.010358081
000320 be d9 ab bc 11 62 7b 3c 14 85 f3 ba a7 4c 4e bb
       -0.020977851 0.015343205 -0.0018579089 -0.0031478794
000330 ff 95 99 bb 00 8f b0 bb 18 c6 91 3c 76 35 6d 3a
       -0.0046870704 -0.0053881407 0.017794654 0.0009048799
000340 35 c3 55 3c 6a 40 d8 bb 5e 5b 64 bc 70 9c 1c bc
       0.013047029 -0.0065994756 -0.013937799 -0.009558782
000350 0f a8 2a 3b e4 a1 ee 3c 3a bd c0 3b 42 0d 4b bc
       0.0026040112 0.02912993 0.0058819326 -0.012393298
000360 8b cf c7 3c a9 b0 ec 3b b7 bf dc bc 40 a6 a9 b9
       0.024390956 0.007223208 -0.026946886 -0.00032358058
000370 5b b8 0f 3c 06 52 c7 3a b3 84 d4 3b c4 3b 5a bb
       0.008771981 0.001520694 0.0064855455 -0.0033299783
000380 07 6b e3 bc d1 68 0b 3c 1a 76 83 bb d8 20 85 3b
       -0.027760996 0.008508877 -0.0040118815 0.004062753
000390 91 2a a9 bc 20 76 12 bc 93 a7 7a 3b 36 20 98 3b
       -0.02065018 -0.008939296 0.0038246855 0.0046425117
0003a0 84 47 a6 3c 1a 2a 18 bc a0 c8 27 3d 23 fb 7d bc
       0.020297773 -0.009287382 0.040962815 -0.01550177
0003b0 85 b8 17 39 0b a5 81 bb f5 15 71 bc 6e f5 78 bc
       0.00014469221 -0.0039564422 -0.014714708 -0.015195234
0003c0 27 fb dd bb 5e 3f 85 3b 97 16 13 bd fc 98 8a 37
       -0.0067743245 0.004066392 -0.035910215 1.652212e-05
0003d0 ac e4 59 bc d4 32 a6 bb cb 1d 46 3c e0 96 0b 3b
       -0.0132991485 -0.005071977 0.012092064 0.0021299645
0003e0 2e aa 62 3b 04 97 8c bc d3 12 f9 bb c1 b4 53 3b
       0.0034586298 -0.017161854 -0.007601121 0.0032303783
0003f0 10 aa 78 bc 10 51 04 3d bc a2 16 bc b8 49 07 bb
       -0.015177265 0.03230387 -0.009194072 -0.0020643305

action_model._continuous_distribution.mu.bias f4 [2]
000000 0f c8 5a bb 82 c3 97 3a
       -0.0033383404 0.0011578652

exp_avg f4 [128, 8]
000000 a8 e1 e8 b6 bd 89 0e 37 a1 a8 1f 34 8c 32 d2 b6
       -6.9404086e-06 8.495929e-06 1.4869376e-07 -6.264372e-06
000010 58 5e f2 b6 87 e6 d4 35 15 73 b2 b4 b8 ab 74 35
       -7.223145e-06 1.5862323e-06 -3.3238817e-07 9.1146967e-07
000020 88 0c dc 37 09 af 06 b8 71 dc 16 b5 d8 7b 98 38
       2.6231879e-05 -3.2111104e-05 -5.620014e-07 7.2709925e-05
000030 3a 8e 86 37 4c 2b c9 b6 eb 84 eb b6 f4 3c bd b6
       1.6040274e-05 -5.995307e-06 -7.0190194e-06 -5.639735e-06
000040 89 1f b6 ba 10 f1 de 3a 48 b8 f9 37 d6 34 f8 ba
       -0.0013894896 0.0017009098 2.9768926e-05 -0.0018936645
000050 52 be c4 ba 50 7f a6 39 6c 79 ee 39 cc 72 11 3a
       -0.0015010333 0.00031756843 0.00045485364 0.0005548417
000060 cb 18 81 38 dd 07 9e b8 25 03 b1 b5 1f 79 5c 38
       6.1558174e-05 -7.535492e-05 -1.3188443e-06 5.256489e-05
000070 2f f8 8d 38 81 0a 6c b7 52 db b4 b3 a5 1e 14 b7
       6.769632e-05 -1.4069142e-05 -8.421797e-08 -8.828622e-06
000080 39 48 a3 37 b8 e0 c7 b7 c2 e2 df b4 b5 9d 0c 38
       1.9464745e-05 -2.3827291e-05 -4.1701975e-07 3.3525477e-05
000090 40 0d 82 37 d3 45 95 b6 50 2c b4 b5 ce bb 6d 36
       1.5503378e-05 -4.4486746e-06 -1.3423942e-06 3.5425069e-06
0000a0 90 e9 b0 38 14 90 d8 b8 28 93 f2 b5 24 1b a2 38
       8.4358384e-05 -0.00010326519 -1.8073233e-06 7.729817e-05
0000b0 70 64 bc 38 bc bb a1 b7 80 c4 6a 34 79 62 a0 38
       8.9832465e-05 -1.9280116e-05 2.1864435e-07 7.6477365e-05
0000c0 f4 96 00 bb ed 68 1d 3b 20 51 30 38 68 d1 10 bb
       -0.0019621225 0.002401884 4.2037223e-05 -0.0022097472
0000d0 e8 9a 06 bb 1a 1d eb 39 7c 7e 11 b9 96 48 8e 39
       -0.0020539109 0.00044844375 -0.00013875397 0.0002713843
0000e0 42 35 92 38 14 fa b2 b8 7c 79 c8 b5 52 2a fc b8
       6.9717426e-05 -8.534282e-05 -1.4936518e-06 -0.00012024179
0000f0 89 86 2b 39 e2 a9 85 b7 c0 81 51 b8 b7 41 12 b9
       0.00016357949 -1.5933943e-05 -4.9950322e-05 -0.00013948126
000100 ff 0b 5e b8 0e e8 87 38 08 3b 98 35 a4 4c f5 b8
       -5.2940097e-05 6.480525e-05 1.1342063e-06 -0.00011696786
000110 5b 54 22 b8 d3 fe 4a 37 9f 88 79 37 f1 94 46 37
       -3.8702372e-05 1.2099469e-05 1.4873366e-05 1.1836398e-05
000120 22 da 1f ba cf ad 43 3a b9 2e 5b 37 65 11 a6 ba
       -0.0006097873 0.0007464559 1.3064296e-05 -0.0012669979
000130 ac 09 e1 b9 10 23 12 39 c8 e6 e0 37 04 d3 18 b9
       -0.0004292255 0.00013936707 2.6810347e-05 -0.00014574459
000140 cb c5 f8 ba b2 43 18 3b ad 8d 2a 38 0a b4 f8 ba
       -0.0018979845 0.002323371 4.0663104e-05 -0.0018974554
000150 4c 9a 01 bb 9e 6d e3 39 2a 4e 8d b9 4a e3 1d 39
       -0.0019775806 0.00043378485 -0.00026951852 0.00015057359
000160 5e 6d fe b9 b6 b9 1b 3a 19 6e 2e 37 6c 6c 73 ba
       -0.0004852814 0.0005940454 1.0396842e-05 -0.00092858705
000170 c6 74 c9 b9 04 99 e8 38 4e d9 a0 38 1d 87 c2 37
       -0.0003842471 0.000110911235 7.669871e-05 2.318952e-05
000180 c0 77 39 ba 29 09 63 3a 4c 4e 7e 37 0e 83 a4 ba
       -0.0007075034 0.0008660728 1.515781e-05 -0.0012551264
000190 60 6f 28 ba 0f 8e 29 39 b3 46 54 39 59 da d9 38
       -0.00064252876 0.00016170017 0.00020244233 0.00010388037
0001a0 65 7b 44 ba c4 84 70 3a 3d b4 86 37 8a 70 a6 ba
       -0.0007495194 0.0009175057 1.6057975e-05 -0.0012698334
0001b0 7a 26 2d ba ca 9f 33 39 de d1 8c 38 4a df 04 b8
       -0.000660516 0.00017130296 6.714811e-05 -3.1679207e-05
0001c0 1c 3a 00 35 42 f7 1c b5 cb d1 2f b2 a8 e8 5a 34
       4.7768276e-07 -5.8474336e-07 -1.0234042e-08 2.0387472e-07
0001d0 d0 0f 22 35 53 73 ea b3 ab 58 c4 33 b6 b7 36 b4
       6.0372713e-07 -1.09174515e-07 9.14309e-08 -1.7016905e-07
0001e0 51 56 ce b8 2f 95 fc 38 eb 75 0d 36 a6 2b 09 b9
       -9.838923e-05 0.00012044084 2.1079275e-06 -0.00013081598
0001f0 38 16 ab b8 43 a2 bc 37 14 1a c6 b7 e6 d9 da b8
       -8.158054e-05 2.2486905e-05 -2.3615583e-05 -0.00010435637
000200 58 1a e5 b6 ac 39 0c 37 72 11 1d 34 60 c2 39 b7
       -6.8277986e-06 8.358078e-06 1.4628111e-07 -1.1072116e-05
000210 1c 02 8e b6 30 72 d1 35 7b 1f 08 b7 ac f5 a8 b6
       -4.2321753e-06 1.5604946e-06 -8.113561e-06 -5.03539e-06
000220 6c eb 35 36 a8 b0 5e b6 00 72 79 b3 38 95 9d 38
       2.7108135e-06 -3.3183405e-06 -5.8078513e-08 7.5141375e-05
000230 10 a9 9c b7 b8 4f 26 b5 87 82 4f b7 d8 04 25 b6
       -1.8675375e-05 -6.1955825e-07 -1.2368552e-05 -2.4589735e-06
000240 24 40 09 ba 14 03 28 3a 36 31 3c 37 9c 7c 07 bb
       -0.0005235693 0.000640915 1.1217131e-05 -0.0020673638
000250 20 d2 ba b8 02 f3 fa 38 9e d8 64 39 48 fc 8b b8
       -8.90831e-05 0.00011966193 0.0002182447 -6.6750275e-05
000260 6e 20 8c b7 5b 88 ab 37 d1 22 c0 34 b4 50 e6 b7
       -1.6704402e-05 2.0448284e-05 3.578812e-07 -2.7455717e-05
000270 8b c4 86 b7 a5 1a 80 36 e1 7a 53 36 e6 fb e7 36
       -1.6065567e-05 3.817799e-06 3.1512975e-06 6.9136613e-06
000280 a4 28 5e 39 a2 f9 87 b9 bf 4e 98 b6 54 d9 d8 38
       0.0002118671 -0.00025935197 -4.5391203e-06 0.00010340163
000290 b6 e4 99 39 09 19 4b b8 2f ad d9 b8 8b 8b 19 b9
       0.00029352837 -4.8422287e-05 -0.00010379624 -0.00014643201
0002a0 6c 7b bf 37 ed 65 ea b7 b3 46 03 b5 58 48 75 38
       2.2826447e-05 -2.7942437e-05 -4.8904184e-07 5.8479927e-05
0002b0 0f 40 75 37 9b 0d af b6 d3 0c da b6 5e 5f d5 b6
       1.4618053e-05 -5.2169903e-06 -6.498399e-06 -6.358997e-06
0002c0 60 c2 e4 36 d7 03 0c b7 20 d5 1c b4 0e 45 13 37
       6.8175577e-06 -8.345544e-06 -1.4606167e-07 8.777961e-06
0002d0 34 7a ca 36 d0 21 d1 b5 07 6a 63 36 e5 c0 42 36
       6.0342954e-06 -1.5581554e-06 3.3887352e-06 2.9020532e-06
0002e0 f4 82 ba b9 40 50 e4 39 9a bc ff 36 48 bb d6 38
       -0.00035574252 0.0004354734 7.6215483e-06 0.00010239199
0002f0 06 76 04 ba 4a 82 aa 38 85 e6 26 b9 10 76 e4 b7
       -0.0005052987 8.1305e-05 -0.00015916869 -2.7234695e-05
000300 bf 07 ac b6 2d 96 d2 36 7e e1 eb 33 88 24 b5 b6
       -5.126901e-06 6.2759705e-06 1.0984057e-07 -5.398473e-06
000310 7d 70 cd b6 30 45 9d 35 5b fa 5f 35 7d 95 91 35
       -6.1225714e-06 1.1717548e-06 8.343829e-07 1.0846849e-06
000320 80 8a fa b7 c1 58 19 38 06 c4 2b 35 32 05 19 b7
       -2.9866816e-05 3.65607e-05 6.3987716e-07 -9.12072e-06
000330 40 5b 3a b8 80 0b e5 36 00 4b f9 33 b4 ad a2 36
       -4.443084e-05 6.8260706e-06 1.16086085e-07 4.848198e-06
000340 84 93 14 ba 40 e0 35 3a b4 b8 4b 37 dc 2b f5 ba
       -0.00056677335 0.0006938018 1.2142747e-05 -0.0018705088
000350 d8 61 ad b9 28 d4 07 39 a8 14 01 3a 8c 02 0f 39
       -0.0003307003 0.00012953638 0.00049240375 0.00013638492
000360 e8 ec 98 38 28 33 bb b8 5f af d1 b5 e1 01 e4 38
       7.292052e-05 -8.9263835e-05 -1.5622753e-06 0.00010872237
000370 95 67 77 38 fd cd 8b b7 c5 22 f6 37 c0 0e c0 b4
       5.8985857e-05 -1.6666012e-05 2.9341676e-05 -3.577352e-07
000380 7b 05 35 b7 c1 97 5d 37 81 35 78 34 21 3f 17 b7
       -1.0789717e-05 1.32079595e-05 2.3116264e-07 -9.015e-06
000390 a9 24 57 b7 70 7d 25 36 72 76 51 b5 bb 78 23 36
       -1.2823534e-05 2.465993e-06 -7.803093e-07 2.4359167e-06
0003a0 04 4d e1 39 f6 e5 09 ba 2e 76 1a b7 46 6b 5c 3a
       0.00042972725 -0.0005260402 -9.206631e-06 0.0008408319
0003b0 76 23 af 39 66 f8 cd b8 fc 24 b7 b8 d3 d4 c9 38
       0.00033405022 -9.8214296e-05 -8.733009e-05 9.6240685e-05
0003c0 88 93 05 b9 88 83 23 39 90 27 37 36 61 a6 8d ba
       -0.00012738828 0.0001559389 2.7292153e-06 -0.0010807031
0003d0 30 f5 aa 38 50 3b f4 37 f9 98 ca 39 f8 85 22 38
       8.1519014e-05 2.9114686e-05 0.00038642416 3.8748578e-05
0003e0 b4 6e 4f ba 5c ec 7d 3a 20 36 8e 37 7d f2 7a ba
       -0.00079129194 0.00096864044 1.6952923e-05 -0.0009572877
0003f0 eb a3 45 ba 91 a2 3d 39 5a f2 97 b8 35 da ad 38
       -0.00075393793 0.00018085005 -7.2453826e-05 8.289927e-05

exp_avg_sq f4 [128, 8]
000000 ee ed 28 32 33 23 7d 32 d6 cc 9e 2c c6 cf 4a 32
       9.832986e-09 1.4734542e-08 4.5133714e-12 1.180519e-08
000010 c2 1f 53 32 66 2f 0d 30 b9 79 a8 2e 8b 57 17 30
       1.2289037e-08 5.136286e-10 7.661378e-11 5.5057886e-10
000020 ac 9d 1c 34 9a af 6a 34 90 39 93 2e d1 5f a8 34
       1.4585993e-07 2.1856832e-07 6.695011e-11 3.1362154e-07
000030 2d 10 18 34 d9 e4 02 32 9f b6 03 31 5a b6 a2 31
       1.4161988e-07 7.61903e-09 1.9166817e-09 4.7355515e-09
000040 bf b3 72 39 b1 d7 b5 39 2e 26 e4 33 92 5b 07 3a
       0.00023145879 0.00034683713 1.0624022e-07 0.00051634863
000050 28 5c 61 39 77 d7 4a 37 f3 94 c8 36 1a d2 0a 37
       0.00021492003 1.2090305e-05 5.9778044e-06 8.274359e-06
000060 9c 16 d9 34 d1 a6 22 35 3a 12 4c 2f b1 85 34 35
       4.043585e-07 6.059245e-07 1.8560167e-10 6.724977e-07
000070 e2 a8 e7 34 2e 6f b5 32 f9 f2 f4 31 0a 11 c6 32
       4.314998e-07 2.1121732e-08 7.1289574e-09 2.3057982e-08
000080 f8 1d a1 32 78 6e f1 32 d4 74 17 2d 7b 09 3e 33
       1.8756495e-08 2.8106328e-08 8.609297e-12 4.4246445e-08
000090 4d 94 87 32 e8 a7 86 30 64 af 04 30 25 69 eb 2f
       1.5783508e-08 9.797505e-10 4.8270565e-10 4.282096e-10
0000a0 3e a7 c0 36 ed 57 10 37 f4 19 35 31 5c 9e de 36
       5.7415155e-06 8.603541e-06 2.635372e-09 6.634551e-06
0000b0 f0 4e fc 36 39 03 a1 34 6f ad 86 33 02 d1 47 33
       7.519375e-06 2.9990932e-07 6.2714086e-08 4.652339e-08
0000c0 60 92 7c 39 b2 3c bd 39 42 6d ed 33 bb 0c 97 39
       0.00024087122 0.0003609411 1.10560464e-07 0.0002881045
0000d0 be 0f a7 39 1d 17 53 37 0a 2e 00 36 3c c7 15 36
       0.0003186445 1.25819615e-05 1.9100285e-06 2.23187e-06
0000e0 5c af 0a 38 20 d1 4f 38 84 5e 82 32 ec d0 7f 38
       3.306508e-05 4.954741e-05 1.5176973e-08 6.099131e-05
0000f0 4f e9 13 38 de d0 e7 35 c0 e2 ca 35 8e f6 56 35
       3.5264817e-05 1.727163e-06 1.5116166e-06 8.0079997e-07
000100 2a db d2 34 6c fb 1d 35 7b 36 46 2f e8 e5 88 35
       3.927501e-07 5.8852925e-07 1.802735e-10 1.0199701e-06
000110 3d ea aa 34 e5 39 b0 32 36 d6 a5 32 61 97 f5 31
       3.1835398e-07 2.0515424e-08 1.930594e-08 7.1476483e-09
000120 6f 5f 34 37 92 24 87 37 a8 8e a9 31 d8 3d da 37
       1.0751056e-05 1.6110283e-05 4.9347655e-09 2.6016423e-05
000130 d5 ee 1a 37 b8 bf 16 35 2d 58 9a 35 db 19 22 35
       9.234723e-06 5.615834e-07 1.1499557e-06 6.038733e-07
000140 24 36 50 39 32 00 9c 39 08 ba c3 33 fa bd a4 39
       0.00019856595 0.00029754784 9.114234e-08 0.0003142206
000150 74 6e 6a 39 ee 03 2e 37 62 91 9f 37 7a 3b ce 36
       0.00022357126 1.0372123e-05 1.9021976e-05 6.1462024e-06
000160 da de 3c 37 70 82 8d 37 9b 8b b1 31 60 f5 11 38
       1.125756e-05 1.686925e-05 5.1672493e-09 3.4799217e-05
000170 dc 08 01 37 e3 d9 1d 35 77 c2 15 35 e5 81 2a 34
       7.691062e-06 5.8804125e-07 5.578981e-07 1.5879739e-07
000180 af 97 2b 38 74 90 80 38 c7 4d a1 32 7e 50 c5 38
       4.0910843e-05 6.130422e-05 1.8778236e-08 9.408685e-05
000190 68 49 1d 38 32 69 0f 36 c8 6d 0d 36 6a 1d 5a 35
       3.750008e-05 2.1369892e-06 2.1074538e-06 8.125413e-07
0001a0 20 6f 9b 36 53 ea e8 36 34 1d 12 31 b0 ed 20 37
       4.6322966e-06 6.9414177e-06 2.1262396e-09 9.592084e-06
0001b0 b5 0a 99 36 04 e8 81 34 91 b8 9a 34 8f 48 d4 33
       4.561002e-06 2.4196936e-07 2.8819025e-07 9.8852176e-08
0001c0 5a 07 fd 2d 49 94 3d 2e 45 db 6d 28 fc 6e 3e 2e
       2.8766035e-11 4.310533e-11 1.3203689e-14 4.3299572e-11
0001d0 7e 60 10 2e d8 78 d3 2b 88 38 24 2b 32 64 09 2b
       3.282751e-11 1.5025993e-12 5.8342957e-13 4.8811226e-13
0001e0 78 d8 29 37 b6 82 7e 37 57 a9 9f 31 3d f3 b9 37
       1.01235855e-05 1.5170013e-05 4.6467608e-09 2.2166985e-05
0001f0 1f fb 15 37 61 f3 0d 35 29 40 bc 35 b6 b9 db 34
       8.939561e-06 5.2880756e-07 1.4025765e-06 4.092705e-07
000200 a5 36 68 33 ee fb ad 33 1b 4a da 2d d0 22 ad 33
       5.406641e-08 8.101766e-08 2.481664e-11 8.0622726e-08
000210 b6 73 7c 33 68 13 42 31 db b2 6e 31 12 a5 cc 30
       5.877856e-08 2.8241747e-09 3.4735226e-09 1.4889869e-09
000220 6c 2b 20 35 e6 02 70 35 cc 90 96 2f 17 87 bb 35
       5.966783e-07 8.9411185e-07 2.7387725e-10 1.3971902e-06
000230 8d 5e 10 35 34 dd 05 33 75 33 e7 32 bf c5 55 32
       5.378177e-07 3.116766e-08 2.691534e-08 1.2443194e-08
000240 db 50 54 39 51 13 9f 39 bc 95 c7 33 f4 a0 f7 39
       0.00020248017 0.00030341235 9.293896e-08 0.0004723143
000250 b7 ab 41 39 23 72 31 37 9f 4e 04 37 2c 4c 51 36
       0.00018469883 1.0576597e-05 7.8861185e-06 3.1187765e-06
000260 14 af e3 32 16 97 2a 33 18 08 56 2d 13 fd 39 33
       2.6505894e-08 3.971862e-08 1.2166289e-11 4.330384e-08
000270 11 e7 f7 32 32 4a be 30 2f f7 2e 30 ba 2b 92 30
       2.8859661e-08 1.3845407e-09 6.36521e-10 1.0635326e-09
000280 bf 33 84 37 3c 1a c6 37 d6 8c f8 31 40 d8 30 38
       1.5759722e-05 2.3615656e-05 7.233761e-09 4.216307e-05
000290 7c 73 42 37 c8 fa 5c 35 47 c3 53 35 cf ff 47 35
       1.1590189e-05 8.232132e-07 7.888779e-07 7.450553e-07
0002a0 16 de d4 33 42 7d 1f 34 9a 1a 48 2e 2c 2c a4 34
       9.9124165e-08 1.4853597e-07 4.5498362e-11 3.057952e-07
0002b0 08 be 8f 33 4d e8 b1 31 ce d8 81 31 3a c3 21 31
       6.693523e-08 5.1777875e-09 3.779042e-09 2.3539557e-09
0002c0 c0 10 88 31 4c e4 cb 31 3f d0 ff 2b dd db e8 31
       3.960025e-09 5.934032e-09 1.817664e-12 6.7770842e-09
0002d0 18 70 8e 31 f0 6f 63 2f 80 f8 24 2f 83 a9 40 2f
       4.1454875e-09 2.0685298e-10 1.5003998e-10 1.7522521e-10
0002e0 8a 83 57 38 cf 78 a1 38 4c 97 ca 32 cb 2d f1 38
       5.13825e-05 7.6995806e-05 2.3584697e-08 0.00011500305
0002f0 dd 18 48 38 54 1e 34 36 9b 0b 9d 36 3a a6 c0 35
       4.770687e-05 2.6839743e-06 4.6803157e-06 1.4353493e-06
000300 55 00 bb 30 f8 1b 0c 31 e8 c9 2f 2b 65 bc 07 31
       1.3606135e-09 2.038858e-09 6.245269e-13 1.9752175e-09
000310 ac 8e ca 30 02 4a 9c 2e f1 8c 27 2f 7f 95 b7 2e
       1.4737984e-09 7.107205e-11 1.5238634e-10 8.3484324e-11
000320 bc d4 da 34 ff f4 23 35 90 b5 4d 2f f4 57 80 35
       4.076045e-07 6.107875e-07 1.8709145e-10 9.562341e-07
000330 77 03 c8 34 15 e4 b6 32 6e 7b cc 32 1d e0 3d 31
       3.7255424e-07 2.1291308e-08 2.3804855e-08 2.7630513e-09
000340 79 dc 1f 39 99 8c 6f 39 88 46 96 33 58 b1 98 39
       0.00015245554 0.00022845193 6.997749e-08 0.0002912383
000350 fd e3 26 39 2e 9b 05 37 d9 a4 01 37 4b 61 6f 36
       0.00015915926 7.963548e-06 7.727381e-06 3.5670407e-06
000360 70 48 71 34 7a c7 b4 34 a8 d0 e2 2e 84 8e 04 35
       2.2471227e-07 3.367275e-07 1.0314355e-10 4.938122e-07
000370 a6 2a 55 34 d1 a7 49 32 dd 8b a8 32 d6 ed ed 31
       1.9852686e-07 1.1737897e-08 1.9621377e-08 6.9246466e-09
000380 3b ed ec 31 ec 83 31 32 54 b8 5e 2c c4 6e 2f 32
       6.895474e-09 1.03327515e-08 3.165042e-12 1.0211526e-08
000390 81 7e 07 32 cd 03 c6 2f 42 e8 2c 2f 03 45 f9 2e
       7.886798e-09 3.601869e-10 1.5725823e-10 1.1335468e-10
0003a0 de 8b 19 37 34 16 66 37 f2 56 90 31 84 8d a0 37
       9.152076e-06 1.3714238e-05 4.200836e-09 1.9139385e-05
0003b0 2f 52 12 37 1b 54 00 35 f1 a2 3e 35 8e f5 2d 34
       8.721413e-06 4.7806105e-07 7.1017627e-07 1.6201213e-07
0003c0 f9 5f d3 38 ea 5e 1e 39 53 b3 46 33 83 52 5e 39
       0.0001007914 0.00015103412 4.6263562e-08 0.00021202308
0003d0 31 f7 cc 38 ec a8 b0 36 76 8a 0c 37 87 c6 32 36
       9.773521e-05 5.264874e-06 8.376888e-06 2.6639625e-06
0003e0 37 18 f6 37 61 62 38 38 9f 56 67 32 04 d0 14 38
       2.9336761e-05 4.396064e-05 1.3465665e-08 3.547968e-05
0003f0 f8 a9 1b 38 52 ad cd 35 63 22 8b 34 b3 d1 b0 35
       3.7113175e-05 1.5324133e-06 2.5915787e-07 1.3174052e-06

exp_avg f4 [128]
000000 77 f1 c0 35 ba 4f b6 b6 cb e3 96 39 1a ea 55 b7
       1.437539e-06 -5.433304e-06 0.00028779948 -1.2750295e-05
000010 aa 47 87 b6 90 92 92 b7 f7 12 d5 39 8c 44 72 b7
       -4.0316563e-06 -1.7472805e-05 0.00040640656 -1.4440284e-05
000020 71 f7 37 37 26 70 04 39 ee 1b ce 39 42 cb d2 38
       1.0965262e-05 0.0001263028 0.0003931219 0.0001005144
000030 2d a9 19 39 41 c9 22 39 15 79 d4 b3 80 f3 aa 37
       0.0001465424 0.00015524497 -9.894044e-08 2.0378968e-05
000040 04 d0 bd 35 98 b8 16 b5 ce 6c e3 38 e4 30 68 36
       1.4142138e-06 -5.6147974e-07 0.0001084447 3.4599152e-06
000050 40 0f 38 b8 c6 a4 9e b6 26 87 bd b5 8c 86 9a 38
       -4.388322e-05 -4.727949e-06 -1.4120931e-06 7.3683535e-05
000060 1b 87 8e 35 fc 92 cf 36 38 31 f6 38 0d 66 7d b7
       1.0619145e-06 6.186192e-06 0.00011739362 -1.5103736e-05
000070 19 fa 15 36 a3 a9 ba b8 50 56 dd 37 ce db 2b 39
       2.2348306e-06 -8.9007684e-05 2.6385445e-05 0.00016389714
000080 ea 3e 86 36 3c 38 ee 37 50 33 9c 37 e0 7d 27 b4
       4.0008354e-06 2.8397997e-05 1.8620543e-05 -1.559888e-07
000090 cc 59 2f b9 af ad 0f 39 63 57 b8 b6 b4 e7 f1 38
       -0.00016722752 0.00013702245 -5.4938005e-06 0.000115349336
0000a0 50 dd 0a 39 31 3f 64 36 7d 1b a7 36 47 7d 8b 39
       0.00013243151 3.401143e-06 4.980188e-06 0.00026605485
0000b0 99 20 79 b4 e1 11 98 b8 41 a9 be 36 da 87 81 38
       -2.3201791e-07 -7.251255e-05 5.682145e-06 6.176504e-05
0000c0 8a d6 9c 36 c3 0e 0b b9 90 d8 df b5 de 73 e5 38
       4.674138e-06 -0.00013261572 -1.6677823e-06 0.00010941153
0000d0 dc 33 b9 b5 38 df 67 b8 7f 7a 3d 36 f8 d0 9a b7
       -1.3798667e-06 -5.528258e-05 2.8234497e-06 -1.845554e-05
0000e0 1e 0b 6e b7 32 10 1f 38 d4 29 b0 37 de e7 0b b7
       -1.4188494e-05 3.7923637e-05 2.1000313e-05 -8.339031e-06
0000f0 8f f5 25 37 0d 5a 68 37 96 2d 9b b8 08 8f 26 37
       9.89194e-06 1.3849244e-05 -7.399467e-05 9.927673e-06
000100 20 2f 9b 37 f8 c0 4e 38 f9 4a 21 38 c8 aa 33 b4
       1.8499384e-05 4.9293943e-05 3.8455215e-05 -1.6732804e-07
000110 45 b7 09 39 44 cb 07 b8 2d a5 03 b9 10 0a 03 b7
       0.00013133611 -3.2375814e-05 -0.00012554666 -7.810551e-06
000120 00 80 bc b7 cf 82 b6 b5 92 e2 e7 38 79 fb 91 b4
       -2.2470951e-05 -1.3598127e-06 0.000110571404 -2.7191325e-07
000130 98 2b af b8 a7 9d 0b 38 00 85 76 38 f4 51 16 38
       -8.35277e-05 3.3287008e-05 5.8774836e-05 3.583911e-05
000140 9e c8 44 39 37 14 34 39 c0 20 e2 38 b4 98 4f 39
       0.00018766752 0.00017173668 0.0001078262 0.00019797945
000150 36 ee 2d 39 5c 82 a3 b7 93 d9 c3 b8 dd c9 f6 b8
       0.00016587306 -1.9491818e-05 -9.338851e-05 -0.00011767794
000160 e0 3c b2 38 d0 18 3f b7 66 4a 55 b6 e2 77 2d 37
       8.49904e-05 -1.1390264e-05 -3.178278e-06 1.0339516e-05
000170 44 20 b6 b5 e8 61 38 35 ec ca a9 b6 f6 7f 32 b6
       -1.3569447e-06 6.8687814e-07 -5.0602157e-06 -2.659855e-06
000180 88 5b 7e 36 60 a2 cc b7 1c fa a3 38 40 8a b1 36
       3.7902228e-06 -2.4394307e-05 7.819032e-05 5.2911055e-06
000190 d8 42 4f 38 c2 b5 52 38 ca bb 50 b6 ca be 3e 39
       4.94149e-05 5.0237177e-05 -3.1103723e-06 0.00018190886
0001a0 90 f7 ce b7 b8 d5 03 37 87 23 40 b8 34 27 f7 37
       -2.4672394e-05 7.857969e-06 -4.5809455e-05 2.946295e-05
0001b0 55 16 01 38 ac 4a 4a b8 ba d7 b4 38 ff 1f 78 38
       3.0776795e-05 -4.8230097e-05 8.623251e-05 5.9157606e-05
0001c0 00 f8 ad b6 e4 66 09 39 1a 12 e6 37 62 52 56 b7
       -5.184673e-06 0.00013103668 2.7426566e-05 -1.2774575e-05
0001d0 da 6f 11 39 ce df 92 37 08 c4 05 b8 55 8b 1e b9
       0.00013869946 1.7508773e-05 -3.189224e-05 -0.0001511996
0001e0 b8 cf ed b6 f2 a9 82 b6 cc 35 02 39 b7 70 78 b6
       -7.087332e-06 -3.894086e-06 0.00012417807 -3.7020488e-06
0001f0 d8 94 f1 38 e4 fe 8b 36 c8 2b 58 b8 44 de f6 b7
       0.000115195 4.172196e-06 -5.1539188e-05 -2.9428986e-05
