GameAI3/Config/results/dwarf_2/Dwarf/Dwarf-12672.onnx (onnx, 73485 bytes, 7 tensors)

network_body._body_endoder.seq_layers.0.weight f4 [128, 8]
0	0x3f66e3a4	0.901911
1	0xbd6ec1e9	-0.058290396
2	0xbf34a1bf	-0.70559305
3	0xbe372415	-0.17884858
4	0xbe8d15bc	-0.27555645
5	0xbdc5d8cc	-0.09660491
6	0x3d1280aa	0.035767235
7	0xbd07055f	-0.032964107
8	0xbe5d57b4	-0.21615487
9	0x3e31e15d	0.17371126
10	0x3f2c3daa	0.6728159
11	0x3e1807e3	0.14846759
12	0x3e2829a7	0.16422139
13	0xbec16b50	-0.37777185
14	0x3d1230f5	0.03569122
15	0x3dff56f8	0.1246776
16	0xbeac4ec8	-0.33653855
17	0xbab0fff3	-0.0013504013
18	0x3eb4a34a	0.3528083
19	0x3f2195e5	0.63119346
20	0x3e59afe2	0.212585
21	0xbe9b6939	-0.30353716
22	0x3ea560fc	0.32300556
23	0x3ec10a86	0.3770334
24	0xbf233b32	-0.637622
25	0x3ef46a11	0.47737172
26	0x3ea76bb3	0.32699355
27	0xbc71a10c	-0.014747869
28	0xbf34a62d	-0.70566064
29	0x3dc5e2e0	0.096624136
30	0xbe78be2d	-0.24291296
31	0xbe92db15	-0.2868277
32	0x3edbcd9a	0.429303
33	0x3f0557da	0.52087176
34	0xbea6b3d7	-0.32559082
35	0x3f0490da	0.51783526
36	0xbe862dcb	-0.26206812
37	0x3e49cb93	0.19706564
38	0x3e85d7c2	0.26141173
39	0x3ee6f04d	0.4510521
40	0xbc7cc7b2	-0.01542847
41	0x3f009073	0.5022041
42	0x3e2baac7	0.16764365
43	0x3e516264	0.2044769
44	0xbf1caece	-0.6120423
45	0xbf4208e8	-0.7579484
46	0x3eef62c9	0.46755055
47	0xbe0c472f	-0.1369903
48	0xbdfdd5e4	-0.12394312
49	0xbea65a38	-0.32490706
50	0x3e4a7eef	0.19774984
51	0x3f8b7c3a	1.0897286
52	0xbde43313	-0.11142554
53	0xbdd0c724	-0.10194233
54	0xbf228f77	-0.6350016
55	0xbea85dd7	-0.32884094
56	0x3eef3455	0.46719614
57	0x3ec3802b	0.38183722
58	0xbebd0cba	-0.36923772
59	0xbeb2d73b	-0.34929833
60	0xbe032993	-0.12808828
61	0xbda192e4	-0.07889345
62	0x3f2865f3	0.6578056
63	0xbc3c0838	-0.011476569
64	0xbec5c0ed	-0.38623753
65	0x3ef50e13	0.478623
66	0xbeb23acf	-0.34810492
67	0xbe86fd66	-0.26365203
68	0xbd5f8c09	-0.054576907
69	0xbebef15e	-0.37293524
70	0x3f0a144d	0.53937227
71	0xbea4081a	-0.3203743
72	0x3ea53c24	0.32272446
73	0x3d8e7691	0.069562085
74	0x3f20ca03	0.62808245
75	0xbd0dd705	-0.034628887
76	0xbe7b42a7	-0.24537145
77	0xbe955956	-0.2916972
78	0x3e43a703	0.19106679
79	0xbb9d788e	-0.004805631
80	0x3e9cfcc3	0.30661592
81	0xbe297dd2	-0.16551903
82	0x3e8c2d8d	0.27378502
83	0xbf0a9053	-0.5412647
84	0xbdf19ab2	-0.11797084
85	0xbec4ea1f	-0.3845987
86	0xbbf2e622	-0.007412688
87	0x3ee14bcd	0.44003144
88	0xbf00a9c1	-0.50259024
89	0x3f4124ed	0.7544697
90	0xbe1b1489	-0.15144552
91	0x3e87ea5a	0.26545984
92	0x3d47c5b1	0.048772518
93	0xbe1945d6	-0.14968047
94	0xbbd12de7	-0.006383646
95	0xbd35ff3e	-0.04443287
96	0xbe6d97cd	-0.23202439
97	0x3e076bfa	0.13224784
98	0x3e691f94	0.22765952
99	0x3ea07217	0.31337044
100	0x3d479088	0.04872182
101	0x3e238465	0.15968473
102	0x3e6fd49c	0.23420948
103	0xbe233837	-0.15939413
104	0xbe07f4cc	-0.13276976
105	0xbf37cd76	-0.71797884
106	0x3dfa52cc	0.122228235
107	0x3cfac604	0.030612
108	0x3e35212a	0.17688432
109	0xbe845c93	-0.2585188
110	0x3f3283ef	0.69732565
111	0x3f66bce6	0.90131986
112	0x3ece4f43	0.40294847
113	0xbf266c15	-0.6500867
114	0xbdd9ad07	-0.106287055
115	0x3edfb47f	0.43692395
116	0xbf28e92d	-0.659808
117	0x3f25600f	0.645997
118	0x3dc2da83	0.09514334
119	0x3e3f4b9f	0.18681191
120	0x3def366d	0.11680303
121	0xbe19de65	-0.15026243
122	0x3ec36cb0	0.3816886
123	0x3e384007	0.17993174
124	0x3d337160	0.043809295
125	0x3f09b734	0.5379517
126	0xbe837510	-0.2567525
127	0x3d297ee3	0.041380774
128	0xbdcf80b6	-0.101319715
129	0x3c334aad	0.010943097
130	0xbeec476f	-0.4614825
131	0xbee19370	-0.44057798
132	0x3f05885f	0.5216121
133	0x3e8c7a53	0.27437076
134	0xbea27987	-0.31733343
135	0xbe876a03	-0.26448068
136	0xbd0fbaea	-0.035090365
137	0x3ef7c582	0.48392874
138	0x3d406b8d	0.04697757
139	0x3f27744b	0.65411824
140	0xbf15f742	-0.5858041
141	0xbd643dfa	-0.055723168
142	0x3dac5446	0.084145114
143	0xbd9c6e35	-0.07638208
144	0xbf15a768	-0.58458567
145	0x3c1fca43	0.009752813
146	0x3f8b8a4b	1.0901579
147	0xbed6eb7f	-0.41976544
148	0x3d673d6c	0.05645506
149	0x3e6eb984	0.23312956
150	0xbe71d3af	-0.23615907
151	0x3f10cf08	0.56565905
152	0x3e37e75b	0.17959349
153	0x3e5cbeae	0.21557114
154	0x3cafa8ab	0.021442732
155	0x3e0f1667	0.1397339
156	0xbe319454	-0.17341739
157	0xbc0e7f99	-0.008697414
158	0x3db924d6	0.09040229
159	0x3e460b43	0.19340234
160	0x3f498c7c	0.7872999
161	0x3e6dfc49	0.2324077
162	0xbf1a00be	-0.6015738
163	0xbea6f767	-0.32610628
164	0xbe28b500	-0.16475296
165	0xbe8092c6	-0.2511198
166	0x3e0b6fa4	0.13616806
167	0x3e89c18a	0.2690547
168	0x3ef0a005	0.46997085
169	0xbe46f3bc	-0.19428915
170	0x3e6da186	0.23206148
171	0xbedad54f	-0.42740867
172	0xbef41f0f	-0.47679946
173	0xbef82258	-0.48463702
174	0xbe0afa20	-0.13571978
175	0xbe79d07c	-0.24395937
176	0x3e52ccf5	0.20585997
177	0xbe858a64	-0.26082146
178	0x3e9417c5	0.28924385
179	0x3e4be48b	0.19911401
180	0xbe2c537a	-0.16828719
181	0x3cb51cba	0.022108424
182	0x3d91c4cf	0.071176164
183	0x3f60b101	0.87770087
184	0x3f286c14	0.65789914
185	0x3eb2a5b5	0.3489205
186	0x3ebdf31c	0.3709954
187	0x3da1452e	0.07874523
188	0x3ed017ae	0.40643066
189	0x3f009d50	0.5024004
190	0xbeaa5752	-0.33269745
191	0xbe36a4e9	-0.17836346
192	0x3e0cb74b	0.13741796
193	0xbc3dba52	-0.011580067
194	0xbdd4a973	-0.103838824
195	0x3e370cfb	0.17876045
196	0x3f079d9d	0.52974874
197	0xbe12c660	-0.14333487
198	0x3ecd4b33	0.40096435
199	0x3efb8c25	0.4913036
200	0xbe1404ef	-0.14455007
201	0x3f057602	0.5213319
202	0xbe88646c	-0.26639116
203	0xbdcb5849	-0.099289484
204	0xbd849abf	-0.06474828
205	0xbebd8789	-0.37017468
206	0x3ed40f2e	0.4141783
207	0xbe4598a7	-0.19296513
208	0xbe12b0e3	-0.1432529
209	0xbe3a6c3b	-0.18205349
210	0x3f1ecfb9	0.6203571
211	0x3d380a0b	0.044931453
212	0xbd5fbcdc	-0.05462347
213	0x3e08a8d8	0.13345659
214	0x3dfaee9b	0.12252542
215	0x3edc0a7e	0.42976755
216	0x3e2cb470	0.16865706
217	0x3f519aaf	0.81876653
218	0x3ef2b540	0.47403908
219	0x3cb4fdf3	0.022093749
220	0x3d1c87b9	0.038215373
221	0x3c21f95b	0.009886111
222	0x3f1df207	0.6169743
223	0xbe96bb86	-0.29439944
224	0xbeb9d56f	-0.3629565
225	0xbdccd988	-0.10002428
226	0xbdffe8ee	-0.124956
227	0x3e337503	0.17525105
228	0x3e814c90	0.25253725
229	0x3e5df25e	0.21674487
230	0x3e05354a	0.1300861
231	0x3ee9424e	0.455584
232	0xbd2504ce	-0.040287785
233	0x3db0b28d	0.08627806
234	0xbda1112e	-0.07864605
235	0x3dbb691b	0.09150907
236	0xbddac63d	-0.10682342
237	0xbeb8cc54	-0.3609339
238	0xbea551c7	-0.32288954
239	0x3e319822	0.1734319
240	0x3ef23c2e	0.47311538
241	0x3da502df	0.08057188
242	0x3d9da4c5	0.07697443
243	0xbe600db9	-0.21880235
244	0xbdeeffac	-0.11669859
245	0x3ec70aab	0.38875327
246	0x3eeee8f4	0.46662104
247	0x3e11fe04	0.14257056
248	0xbf02a393	-0.51030844
249	0xbeb53cdc	-0.35397995
250	0xbdb5ef32	-0.088835135
251	0x3da0d1eb	0.07852539
252	0x3e1082d3	0.14112405
253	0xbdc0a392	-0.094061986
254	0x3e90417d	0.28174964
255	0x3eecf3a8	0.46279645

network_body._body_endoder.seq_layers.0.bias f4 [128]
0	0xbb209c04	-0.0024507055
1	0xbaa84d20	-0.0012840368
2	0x3bafff6e	0.0053710258
3	0xbc7cb3a6	-0.015423691
4	0xbd913ac8	-0.0709129
5	0x3bd37d2b	0.00645413
6	0xbbe5184f	-0.006991423
7	0xbbbe61fa	-0.0058100196
8	0xbcc12cdd	-0.023580963
9	0x3c13dcfc	0.009024855
10	0xb9cdef56	-0.00039278966
11	0xbd159d32	-0.036526866
12	0x39dec5e7	0.00042490588
13	0x3c9472db	0.018121174
14	0x398c3202	0.0002674014
15	0xbc72d968	-0.0148223415
16	0x3a9316b2	0.0011221974
17	0xbc6079ee	-0.013700945
18	0xbc24dd4e	-0.010062529
19	0xbca4476d	-0.02005359
20	0xbc3a5c74	-0.011374582
21	0xbc561a53	-0.0130678
22	0xbc2b2e17	-0.010448
23	0x3c9f2ccd	0.019430542
24	0xbc95ee12	-0.018301997
25	0xbd1a8e4c	-0.03773336
26	0xbca580e1	-0.020203056
27	0xbc4ab333	-0.012371826
28	0x3c34a55a	0.011025751
29	0xbc95a68d	-0.018267894
30	0xbbca8f65	-0.0061816447
31	0xba9daf68	-0.0012030425
32	0xbc6081c2	-0.013702812
33	0xbc5abe1a	-0.013350988
34	0xba9f6b24	-0.0012162668
35	0x3c5fad34	0.013652135
36	0xbcc5d717	-0.024150414
37	0xbc986659	-0.01860349
38	0xbca37f99	-0.019958304
39	0xbc4ed970	-0.012625083
40	0x3c6fdd4d	0.014640165
41	0xbb3178f1	-0.0027080143
42	0xbc952558	-0.018206283
43	0xbd145c98	-0.036221117
44	0xbc2db306	-0.010601765
45	0xbc94c831	-0.018161865
46	0x3b5d16fe	0.0033735628
47	0xbc548c96	-0.012972971
48	0x3b834516	0.0040060384
49	0xbb2bc18c	-0.0026207892
50	0xbbe3b210	-0.006948717
51	0x3b4897e3	0.003060811
52	0xbd2c1094	-0.042007998
53	0xbb7cd57f	-0.0038579402
54	0x3b12eabd	0.0022417747
55	0xbc034954	-0.008013088
56	0x3cf6e750	0.030139595
57	0x3d1cf49f	0.038319226
58	0xbbf779ed	-0.0075523765
59	0xbc262977	-0.010141722
60	0x3b91566f	0.0044353525
61	0xbb86202a	-0.0040931897
62	0xbcbf262a	-0.023333628
63	0xbbe28cfc	-0.0069137793
64	0xbc21037e	-0.009827493
65	0xbc17b750	-0.009260014
66	0x3b524ef0	0.0032090507
67	0x3b786d31	0.003790688
68	0xbb3d1bda	-0.0028855712
69	0xbd9560f2	-0.072938815
70	0xbbd99205	-0.0066397213
71	0xbb5e9306	-0.0033962145
72	0xbccbaf64	-0.024863906
73	0xbcd8f922	-0.026485983
74	0x3c162a21	0.009165318
75	0x3b6d0e07	0.003617169
76	0xbc494767	-0.01228509
77	0xb9d12b6e	-0.00039895944
78	0xbcd1c553	-0.025606787
79	0xbc2cd83f	-0.010549604
80	0x3a8f904c	0.0010953038
81	0xbbd5119c	-0.0065023433
82	0xbc7759b0	-0.015097067
83	0x3be6b620	0.007040754
84	0xbb85f63a	-0.0040881904
85	0x3ad50e18	0.0016254811
86	0x3b732678	0.0037101787
87	0xbc5db265	-0.013531302
88	0xbb18c77c	-0.0023312261
89	0xbc28616b	-0.0102771325
90	0x3afddce8	0.0019368203
91	0xbc0fc151	-0.008774118
92	0x3bcc967d	0.0062435255
93	0xbbfc714b	-0.0077039353
94	0x3a4d734a	0.0007837309
95	0xbc1461dc	-0.009056535
96	0xbc7a1cd8	-0.015265666
97	0xbc22c9f9	-0.009935849
98	0x3c39bf4d	0.011337114
99	0xbc31d933	-0.010855007
100	0xbcd86daf	-0.026419489
101	0xbc8e52d7	-0.017373485
102	0x3c6cc80a	0.01445199
103	0xbb9d536f	-0.004801206
104	0xbb4a669a	-0.003088391
105	0xb9b312d8	-0.0003415558
106	0x3c19eeda	0.009395326
107	0xbc1b0c8f	-0.009463443
108	0xbd3a4c37	-0.04548284
109	0xbbcb1987	-0.0061981115
110	0xbbbc5601	-0.005747557
111	0xbc857bbe	-0.016294356
112	0xbc32bb91	-0.010908977
113	0xbd28764c	-0.04112844
114	0xbd71b608	-0.05901149
115	0xbcb23e9a	-0.021758366
116	0xbc1179f5	-0.0088791745
117	0xbb481197	-0.0030528062
118	0xbc744e86	-0.0149113
119	0x3c01f0d9	0.007930958
120	0xbb9b4ab8	-0.004739132
121	0xbc86cb96	-0.0164545
122	0xbd1cd4b8	-0.038288802
123	0x3c7c2e35	0.015391876
124	0x3c8b39bd	0.016995305
125	0x3c5d9ebd	0.013526616
126	0x3aeae010	0.0017919559
127	0x39f84a17	0.00047357447

network_body._body_endoder.seq_layers.2.weight f4 [128, 128]
0	0x3d0c7ae7	0.034296896
1	0x3cbe0f31	0.023200603
2	0x3c1ad8c1	0.009451092
3	0xbd890f6f	-0.06692397
4	0x3d6e9b25	0.058253426
5	0xbd8352d1	-0.0641228
6	0xbdd1f621	-0.102520235
7	0x3ca65bdc	0.020307474
8	0x3cbfaae4	0.023396917
9	0x3e1e6311	0.15467478
10	0x3d9f7ac0	0.077870846
11	0x3d3c4a6d	0.045969415
12	0x3da5cb0d	0.080953695
13	0x3c54e19b	0.012993242
14	0xb9ffa18a	-0.00048757746
15	0x3e1a8eef	0.15093587
16	0x3e1465b7	0.14491926
17	0x3d53fe73	0.051756334
18	0x3d2eb4e5	0.042652983
19	0xbdc5452e	-0.096323356
20	0x3d782519	0.060582254
21	0x3e5ff7c3	0.21871857
22	0x3d9948d5	0.07484595
23	0x3dc6c5c0	0.097056866
24	0x3d00b98b	0.031426948
25	0xbd89c4fa	-0.067270234
26	0xbd5df933	-0.054192733
27	0x3d83ad69	0.0642956
28	0x3e1281e5	0.14307363
29	0x3c660633	0.014039564
30	0x3d00fae8	0.031489283
31	0x3e11f934	0.1425522
32	0xbd87a566	-0.06623344
33	0x3d21de72	0.03951878
34	0xbdeaca6b	-0.114643894
35	0xbc42adb8	-0.011882238
36	0xbc019374	-0.007908691
37	0x3b77c8ce	0.0037808898
38	0x3ac78fa4	0.0015225303
39	0x3d3be787	0.0458751
40	0x3e899e7f	0.26878735
41	0xbca0eea0	-0.019645035
42	0x3d572c49	0.052532468
43	0x3d449244	0.047991052
44	0xbd9ac9bd	-0.0755801
45	0x3d609c4c	0.054836556
46	0xbd89d235	-0.06729547
47	0x3e402e36	0.18767628
48	0x3d901450	0.07035124
49	0xbd9db3e9	-0.07700331
50	0xbcb000c2	-0.021484736
51	0xbd7ff5e9	-0.062490378
52	0xbe15ec1a	-0.14640847
53	0x3df45429	0.11930115
54	0xbe4dc8fa	-0.20096198
55	0x3d1271c7	0.035753038
56	0x3e5ecb2a	0.21757188
57	0x3ce4e963	0.027943319
58	0xbd502d93	-0.050824713
59	0xbd6d9c7f	-0.058010574
60	0x3c650d3b	0.013980205
61	0xbdc6f992	-0.097155705
62	0x3dde3be0	0.10851264
63	0x3c9f5e6a	0.0194542
64	0xbd154819	-0.03644571
65	0x3cbc8774	0.023013808
66	0x3d3d150d	0.046162654
67	0xbc846e37	-0.016165836
68	0x3e1dd158	0.1541189
69	0xbda6b954	-0.08140817
70	0x3d475f7e	0.048675053
71	0xbc5a8ee6	-0.013339734
72	0xbc6cc057	-0.014450154
73	0x3dd75174	0.10513583
74	0x3e11900d	0.14215107
75	0xbd7f7ccc	-0.062374875
76	0xbcffa585	-0.031206856
77	0xbe186a80	-0.14884377
78	0xbe705800	-0.2347107
79	0xbd844067	-0.06457596
80	0xbd689f6f	-0.056792673
81	0x3d8a9c51	0.06768096
82	0x3db35fa9	0.0875848
83	0xbdc00414	-0.09375778
84	0x3daf5556	0.085611984
85	0xbd6af769	-0.057364855
86	0x3cd80830	0.026371092
87	0xbc9d31d3	-0.019188797
88	0xbdf16271	-0.11786354
89	0xbdaef1d4	-0.08542219
90	0x3d3d94a2	0.046284325
91	0x3db9cc1c	0.09072134
92	0xbb1af488	-0.0023644287
93	0x3d823537	0.06357806
94	0x3dade3c6	0.0849071
95	0xbd910974	-0.07081881
96	0xbc753269	-0.014965632
97	0x3d681c6a	0.056667723
98	0x3d88128e	0.06644164
99	0x3b6b8c2d	0.0035941706
100	0x3e243bbb	0.1603841
101	0xbd745dd8	-0.05965981
102	0xbd085c3d	-0.03329109
103	0xbcdcb2f5	-0.026940802
104	0xbd5a986f	-0.05336803
105	0x3d4d8a9a	0.05018101
106	0xbddb6039	-0.107117124
107	0x3d937151	0.07199348
108	0x3d8f256a	0.06989558
109	0xbcc8d83e	-0.024517175
110	0x37f8fb66	2.968097e-05
111	0x3dd04fcb	0.10171469
112	0x3e0f3d83	0.13988309
113	0x3da9ef99	0.08297653
114	0xbc03cd03	-0.008044484
115	0xbe31974e	-0.17342874
116	0x3caeacce	0.021322634
117	0xbc683ab9	-0.014174157
118	0xbd842c4c	-0.064537615
119	0xbdf39e62	-0.118954435
120	0xbd3f2b0f	-0.046671923
121	0xbce471d3	-0.027886307
122	0x3da8c729	0.08241112
123	0xbe2ea41b	-0.17054789
124	0x3d731072	0.059341855
125	0x3d574f63	0.052565943
126	0x3ddb89df	0.10719656
127	0x3c9c71cb	0.01909723
128	0xbe1e2c16	-0.15446505
129	0x3d0a3874	0.033745244
130	0x3c9998f9	0.0187497
131	0x3db35787	0.08756929
132	0xbccaf7e9	-0.024776416
133	0x3cbf1f58	0.023330376
134	0xbc6e82c4	-0.014557544
135	0xbd0e6bbc	-0.034770712
136	0x3d59d317	0.053179827
137	0xbdc3a9c5	-0.09553865
138	0x3d1052d4	0.03523524
139	0x3c5aeb12	0.013361709
140	0x3df95f5f	0.12176394
141	0xbd1927db	-0.037391525
142	0x3d0f6479	0.035007928
143	0x3dbdc51a	0.0926611
144	0xbc346f68	-0.011012889
145	0xbd80af8f	-0.06283485
146	0x3cc1a238	0.023636922
147	0xbc54fdac	-0.012999933
148	0xbe09b2ab	-0.13447063
149	0xbda41c9a	-0.08013268
150	0xbd7bb9f6	-0.061456643
151	0xbd0bc8f0	-0.034127176
152	0xbdb0ac08	-0.08626562
153	0x3df7c8fc	0.120988816
154	0x3d4d8821	0.05017865
155	0x3d54a7cb	0.051917832
156	0x3d0521d7	0.032502975
157	0x3da2ca28	0.079487145
158	0x3d400fdc	0.046890125
159	0x3d4ee3ab	0.05051009
160	0xbda0f370	-0.07858932
161	0x3dba6e2b	0.09103044
162	0x3e1ca073	0.15295582
163	0xbdb479c7	-0.0881229
164	0x3bc4a2ea	0.006000866
165	0xbde87b57	-0.1135165
166	0xbd40bb39	-0.04705355
167	0xbd183dd5	-0.037168343
168	0xbc55fdb5	-0.013060977
169	0xbe0c82e8	-0.13721812
170	0x3c6b12a2	0.014347704
171	0xbe14674f	-0.14492534
172	0xbdba4562	-0.09095265
173	0x3dba7f73	0.0910634
174	0x3e32cc40	0.17460728
175	0xbcc79142	-0.024361257
176	0x3c22d923	0.009939465
177	0xbd955888	-0.072922766
178	0x3e43098b	0.19046609
179	0x3c03703e	0.008022366
180	0x3d4a379f	0.04936945
181	0x3d90c9ad	0.070697166
182	0x3d8d0d1a	0.068872645
183	0x3cae9633	0.021311855
184	0xbe2e9e60	-0.17052603
185	0x3e0862ca	0.13318935
186	0xbd96f2b0	-0.07370508
187	0x3d0e9d8d	0.03481822
188	0x3d3f01aa	0.046632446
189	0x3aa5fc61	0.0012663716
190	0xbb872eea	-0.0041254656
191	0xbe2ce8fd	-0.16885753
192	0xbd4088c2	-0.047005422
193	0x3cdbc7b4	0.026828624
194	0x3d5a2a15	0.05326279
195	0xbd6a4075	-0.057190377
196	0xbdece5fd	-0.11567304
197	0x3dc693bb	0.09696146
198	0xbcd6e069	-0.026230054
199	0x3dbc145b	0.0918357
200	0x3d4a31c0	0.04936385
201	0xbd0a8f0a	-0.03382782
202	0x3d70f17b	0.058824044
203	0x3d948f91	0.072539456
204	0xbd2fc269	-0.042910013
205	0xbdc004a3	-0.093758844
206	0xbdadc28c	-0.084843725
207	0x3d9700b0	0.07373178
208	0x3dd506aa	0.10401662
209	0x3e454f58	0.19268548
210	0x3abf62b1	0.0014601556
211	0x3c8e6f3d	0.017387027
212	0x3d343c8d	0.04400306
213	0x3cbda31f	0.023149071
214	0x3d06cf00	0.032912254
215	0x3bbfa9cb	0.0058490983
216	0xbc9f42eb	-0.019441089
217	0xbca832bc	-0.020532005
218	0x3d729e8c	0.059233233
219	0xbdf34118	-0.1187765
220	0x3d5903e6	0.052982233
221	0x3d39e845	0.045387525
222	0xbd92b1d6	-0.07162826
223	0x3d09d6de	0.03365218
224	0xbe02dbc7	-0.12779151
225	0x3df64ae1	0.12026001
226	0xbd355e39	-0.04427931
227	0xbd4d50a1	-0.05012572
228	0xbe0ce2fe	-0.13758466
229	0xbe06d585	-0.13167389
230	0x3cba3eb0	0.02273497
231	0xbdcaa747	-0.09895187
232	0xbd8f3756	-0.06992976
233	0xbd8199b5	-0.063281454
234	0x3de91e24	0.11382702
235	0xbdd75cfa	-0.10515781
236	0xbdc9783a	-0.098373845
237	0x3d5e3dac	0.054258034
238	0xbe742463	-0.23842005
239	0xbda90b2a	-0.082540825
240	0xbdc23b0d	-0.09483919
241	0xbbe05cfe	-0.006847023
242	0x3e01d192	0.12677601
243	0x3dd45dc1	0.10369445
244	0xbd923319	-0.07138652
245	0xbc568d3a	-0.0130951945
246	0xbe1270be	-0.1430082
247	0xbba78cc2	-0.005113215
248	0xbd0c4a58	-0.034250587
249	0x3dc829c2	0.0977359
250	0x3d174fa9	0.036941204
251	0xbd8420f5	-0.064515986
252	0x3cd7dfb1	0.026351782
253	0xbd1f4685	-0.038885612
254	0x3d067185	0.032823104
255	0x3c0b7808	0.008512504

network_body._body_endoder.seq_layers.2.bias f4 [128]
0	0xbc609ece	-0.013709737
1	0xbc4263c5	-0.011864607
2	0xbc85e051	-0.016342314
3	0xbc0634e2	-0.008191319
4	0xbc2b21cf	-0.010445072
5	0xbc72fd5e	-0.014830915
6	0xb9ae47d0	-0.0003324137
7	0xbc2c1375	-0.010502686
8	0xbc4c94ca	-0.012486646
9	0xbc80673e	-0.01567423
10	0xbc12d2a3	-0.0089613525
11	0xbbdf072b	-0.0068062744
12	0xbba4a8fa	-0.0050250264
13	0xbb839c79	-0.0040164557
14	0xbb6e48f0	-0.0036359392
15	0xbbcf904a	-0.0063343393
16	0xbb75ccf1	-0.0037506188
17	0xbba241a9	-0.004951675
18	0xbc4bb038	-0.012432151
19	0xbc6e0289	-0.014526972
20	0xbc151a8d	-0.0091005685
21	0xbc66249d	-0.014046815
22	0xbc3bf996	-0.01147308
23	0xbc24bc93	-0.010054725
24	0xbbe791a4	-0.0070669223
25	0xbb2d94c5	-0.0026486379
26	0xbc559cfc	-0.013037916
27	0xbc2c914c	-0.010532688
28	0xbc29c9c7	-0.010363049
29	0xbc3444d7	-0.011002741
30	0xbbb89046	-0.005632433
31	0xbc2936fc	-0.010328051
32	0xbbea740c	-0.007154947
33	0xbbb46655	-0.005505363
34	0xbbb22c67	-0.005437422
35	0xbc530400	-0.012879372
36	0xbc2e57ee	-0.010641081
37	0xbc0ec97b	-0.008715029
38	0xbc5c14b5	-0.013432671
39	0xbc5e6198	-0.013573073
40	0xbc30c19f	-0.01078835
41	0xbbdc0a48	-0.006715093
42	0xbc092c19	-0.00837233
43	0xbc0995c9	-0.008397528
44	0xbc022393	-0.007943052
45	0xbc25a07d	-0.010109064
46	0xbc45e55e	-0.012078611
47	0xbc50a354	-0.012734253
48	0xbc74c310	-0.014939085
49	0xbbba585f	-0.005686804
50	0xbc325255	-0.010883887
51	0xbc60ae4a	-0.013713429
52	0xbc4d757d	-0.012540218
53	0xbb792bca	-0.0038020485
54	0xbae7431b	-0.00176439
55	0xbc4dcb1c	-0.012560632
56	0xbc862d2d	-0.016378963
57	0xbab93f9e	-0.0014133339
58	0xbc2a02e0	-0.010376662
59	0xbc7bfbe4	-0.01537988
60	0xbc48075c	-0.012208786
61	0xbc7a98ca	-0.015295217
62	0xbc357097	-0.011074207
63	0xbc06d28d	-0.00822891
64	0xbc3df32f	-0.011593624
65	0x3bcbcb02	0.006219269
66	0xbcc3f877	-0.023922188
67	0xbc568990	-0.013094321
68	0xbc057a6c	-0.008146863
69	0xbc2df5a9	-0.010617652
70	0xbbe53950	-0.0069953576
71	0xbc896971	-0.016773911
72	0xbc78c1fa	-0.015182966
73	0xbc576b7f	-0.013148188
74	0xbc852f04	-0.01625777
75	0xbc540c61	-0.0129424045
76	0xbc884ffa	-0.016639698
77	0xbb85af88	-0.004079763
78	0xbc0ea7e7	-0.008707023
79	0xbc1fba66	-0.009749031
80	0xbc28c0cc	-0.010299873
81	0xbb8b68c0	-0.0042544305
82	0xbc0519a2	-0.008123787
83	0xbc667521	-0.014066012
84	0xbc2cb003	-0.010540011
85	0xbc1a59cb	-0.009420822
86	0xbbd1761b	-0.006392253
87	0xbc4a39fa	-0.012342924
88	0xbc113e0f	-0.008864894
89	0xbbc4746a	-0.005995323
90	0xbc00622e	-0.007835908
91	0xbc29d214	-0.010365028
92	0xbc4e3846	-0.012586659
93	0xbc91b66f	-0.017787186
94	0xbc0f5918	-0.008749269
95	0xbc4291b0	-0.011875555
96	0xbc5a713e	-0.013332663
97	0xbba1c065	-0.0049362653
98	0xbb8318ff	-0.0040007825
99	0xbc02367a	-0.007947559
100	0xbb99ad62	-0.0046898583
101	0xbb96cd0f	-0.0046020816
102	0xbbd2d21e	-0.0064337393
103	0xb8c05740	-9.171525e-05
104	0xbc061174	-0.008182872
105	0xbc0db73d	-0.008649644
106	0xbbc1eb1e	-0.0059179207
107	0xbc2397eb	-0.009984951
108	0xbc1b53c3	-0.00948042
109	0xbba5050c	-0.005036002
110	0xbbd01e16	-0.006351243
111	0xbc10b6e2	-0.008832665
112	0xbc1b142c	-0.009465259
113	0xbc529d6d	-0.012854916
114	0xbc1db74d	-0.009626222
115	0xbc9bc8cb	-0.019016644
116	0xbbf4ec61	-0.0074744676
117	0xbc381e88	-0.011237748
118	0xbb7c785b	-0.0038523886
119	0xbae2a4a5	-0.00172915
120	0xbc2aa996	-0.010416409
121	0xbc42612e	-0.01186399
122	0xbbf9f578	-0.007628139
123	0xbbe3bbbc	-0.00694987
124	0xbc60dd15	-0.013724585
125	0xbc57977e	-0.013158677
126	0xbc0b3a5b	-0.0084978
127	0xbc212e51	-0.009837703

action_model._continuous_distribution.log_sigma f4 [1, 2]
0	0xbcb6d0e0	-0.022316396
1	0x3caf5dee	0.021407094

action_model._continuous_distribution.mu.weight f4 [2, 128]
0	0xbb67fbb1	-0.0035397823
1	0x3c027f83	0.0079649715
2	0x3a2eae82	0.0006663577
3	0xbcb7688e	-0.022388723
4	0x3c3b2f8c	0.01142491
5	0x3a83787e	0.0010030416
6	0x3a85a078	0.0010194918
7	0x3c1178af	0.008878871
8	0xbbb9c4af	-0.0056691985
9	0xbb8309ab	-0.0039989552
10	0xbb96a78f	-0.0045976113
11	0xbc476c91	-0.01217188
12	0x3a2531fc	0.0006301699
13	0x3c1c3955	0.009535153
14	0x3ad7b7c3	0.0016457964
15	0xbb94518b	-0.0045263222
16	0x3b33d466	0.0027439832
17	0xbc8207c8	-0.015872851
18	0xbc229781	-0.009923817
19	0x3cbf31e3	0.023339218
20	0xbc76b66c	-0.015058141
21	0xbbc59fd0	-0.006031014
22	0xbcad636b	-0.02116557
23	0x3bf6ee6b	0.007535746
24	0x3b827431	0.0039811363
25	0x3c403ee1	0.0117337415
26	0x3c9aebbc	0.018911235
27	0x3b3de32a	0.0028974512
28	0x3b87255c	0.0041243266
29	0x3a2855cb	0.00064214756
30	0xbb10c0ee	-0.0022087651
31	0x3cf24d84	0.029577978
32	0x3c604796	0.013688942
33	0x3c7d4810	0.015459076
34	0x3c0342b7	0.0080115115
35	0x3a9b7244	0.0011859615
36	0x3c1a57cd	0.009420347
37	0x3b8448ef	0.0040370147
38	0xbbd16ebb	-0.006391374
39	0xb9481979	-0.00019082976
40	0x3a3e298b	0.0007254115
41	0x3c49b5ea	0.012311438
42	0x3b4239c3	0.002963648
43	0xbcf81861	-0.030285062
44	0x3c5a0093	0.013305801
45	0xbc6144c3	-0.013749304
46	0xbb84d726	-0.004053968
47	0xbb9444b7	-0.004524793
48	0x3bcd75e3	0.0062701567
49	0x3d1af3d5	0.037830193
50	0xbc0885b4	-0.008332659
51	0x3ba71f84	0.0051001925
52	0x3c00406d	0.00782786
53	0xbd3b2ac2	-0.045695074
54	0xbc158bc1	-0.009127558
55	0x3c71df0a	0.014762649
56	0xba78546c	-0.0009473029
57	0xbb2680d0	-0.0025406368
58	0xbc005dde	-0.00783488
59	0x3b799fec	0.0038089706
60	0xbbb8abce	-0.005635715
61	0xbb632b85	-0.003466339
62	0x3c4bbcf7	0.012435189
63	0x3bda9a85	0.006671252
64	0x3bd8b37e	0.006613194
65	0xbd3f24f6	-0.046666108
66	0x39edcad2	0.00045355276
67	0x395f79a4	0.00021312252
68	0xbba8275e	-0.005131646
69	0x3a91018d	0.0011063084
70	0x3c45a5cf	0.012063458
71	0x3b91c31e	0.0044483086
72	0x3adec6af	0.0016996468
73	0xbc7ab1b8	-0.0153011605
74	0xb8d1de51	-0.00010007306
75	0x3b7c051a	0.003845519
76	0x3a52d343	0.00080423447
77	0xbc205048	-0.009784766
78	0x3c528361	0.012848706
79	0xbc407e0a	-0.0117488
80	0xbc8be161	-0.017075242
81	0x3baab538	0.0052095912
82	0xbc0d01c8	-0.008606382
83	0xb86e3dd4	-5.6801204e-05
84	0xbc1b777d	-0.009488937
85	0xbcb98dd3	-0.022650635
86	0x3cb38904	0.02191592
87	0x3b81f869	0.0039663804
88	0x39001711	0.00012215624
89	0x3a36765e	0.0006960387
90	0x3be53402	0.006994725
91	0x3cc10ba3	0.02356512
92	0xbcaee530	-0.02134952
93	0xb9b96302	-0.00035359716
94	0xbaff4813	-0.0019476436
95	0xbb6f7d07	-0.0036543028
96	0x3a90d0e6	0.0011048585
97	0xbca24576	-0.019808512
98	0x3b57d2df	0.0032932085
99	0xbb8a88c7	-0.004227731
100	0xbb554225	-0.0032540646
101	0xbc8a434c	-0.016877793
102	0xbcb6023e	-0.022217866
103	0xbcd0b11f	-0.025475083
104	0x3c5ce729	0.013482847
105	0xbc683363	-0.014172408
106	0x3d14cf50	0.03633052
107	0xbc8110e2	-0.01575512
108	0xbc436a00	-0.011927128
109	0xbab26fa6	-0.0013613596
110	0xbca6f792	-0.020381723
111	0x3c57e55d	0.013177243
112	0x3c221e9e	0.009894995
113	0xbb0a1bb5	-0.0021073644
114	0x3c8581f1	0.016297312
115	0x3be90c61	0.0071120714
116	0xbcf0ed3e	-0.02941
117	0xbcd45524	-0.025919504
118	0xbc33eab2	-0.010981249
119	0xbc4fb846	-0.012678212
120	0x3ccb9baf	0.02485451
121	0xba64fee5	-0.0008735492
122	0x3c1fb529	0.009747782
123	0x3bde4404	0.0067830104
124	0x3916cd4e	0.00014381597
125	0xbc08800f	-0.008331313
126	0x3b4c962f	0.0031217446
127	0x3b5af350	0.0033409186
128	0x3acc2c4e	0.0015577169
129	0x3b9b11d2	0.004732349
130	0xb9cb8ab7	-0.00038822528
131	0xbb15d74b	-0.002286392
132	0x3b8cce84	0.0042970795
133	0xba445324	-0.00074891956
134	0xbd45c5c1	-0.048284296
135	0xbc838ef6	-0.01605938
136	0xbc9ef66a	-0.019404609
137	0xbb2e6706	-0.00266117
138	0x3c05dfc9	0.00817103
139	0xbc630ae5	-0.013857578
140	0xbc8b0296	-0.016969007
141	0xbba14f12	-0.004922756
142	0x3b355902	0.002767146
143	0x3ac2d48b	0.0014864368
144	0x3a17d1c9	0.00057914533
145	0xbc1dd83d	-0.009634075
146	0xbb8e29fb	-0.0043385006
147	0x3b9dff7a	0.004821715
148	0x3c225cd8	0.009909831
149	0xbd09e532	-0.033665843
150	0x3c5cee41	0.0134845385
151	0x3bdd4de6	0.006753671
152	0x3b36316b	0.0027800451
153	0x3b6f9195	0.003655528
154	0xbbb2347d	-0.005438386
155	0xbc9ce71f	-0.019153176
156	0x3b0c9e71	0.0021456743
157	0xbb7a8721	-0.0038227516
158	0xbaad743c	-0.0013233493
159	0x3c6a3f40	0.014297307
160	0xbc7a8a5e	-0.015291778
161	0xbb6e552a	-0.003636668
162	0xbc90f9ba	-0.017697204
163	0xbb02d53a	-0.0019963519
164	0x3bd31f5c	0.0064429473
165	0xb9740249	-0.00023270505
166	0x3abcc2de	0.0014401337
167	0xbbaf33f5	-0.00534677
168	0xbc8d01be	-0.017212745
169	0xbc9ff93c	-0.019528024
170	0xbc085aa0	-0.008322388
171	0x3d07c341	0.033145193
172	0x39924adc	0.00027903065
173	0x3c15b24a	0.009136746
174	0xbd224af3	-0.03962226
175	0x3c0bea8d	0.008539808
176	0xbba206af	-0.0049446444
177	0xbc714cc4	-0.014727775
178	0x3bea5937	0.0071517485
179	0xbbc4d3a1	-0.0060066734
180	0x3afc02ee	0.0019226947
181	0xbcdd4411	-0.027009996
182	0x3bd837f6	0.006598468
183	0x3a46be40	0.000758145
184	0x3a1e75cc	0.0006044775
185	0xbd2fbaae	-0.04290264
186	0xbbd54c70	-0.006509356
187	0xbb0bcb89	-0.0021331033
188	0x3c0687a8	0.008211054
189	0xbc149b0a	-0.009070167
190	0x3c1dd7c3	0.009633961
191	0xbc8f5dd9	-0.017500805
192	0x3b23f8b0	0.0025020055
193	0xbbd2df6a	-0.0064353244
194	0xba791791	-0.0009502108
195	0x3b97fb77	0.0046381312
196	0xbc398ae5	-0.011324619
197	0xba5c7dc4	-0.00084110745
198	0x3ca12cd7	0.019674702
199	0x3ac45001	0.0014977456
200	0x39a3a1a4	0.00031210214
201	0xbca77b1f	-0.02044445
202	0xbb44fdff	-0.003005862
203	0x3bfe67dc	0.007763846
204	0x3aed8c03	0.0018123392
205	0xbc93b2b3	-0.018029546
206	0xbb934031	-0.004493736
207	0x3bf09f5c	0.007343216
208	0x3b1d74f5	0.002402601
209	0xbcd0cbea	-0.025487859
210	0x3c425190	0.011860266
211	0x3b9e170b	0.0048245243
212	0x3c0145ff	0.0078902235
213	0x3c7c2a9e	0.01539102
214	0xbc4e23c5	-0.01258177
215	0x3be057e3	0.0068464144
216	0x3c237107	0.009975678
217	0xbad5b2a3	-0.0016303848
218	0x3c802daa	0.015646774
219	0x3cd80eb3	0.026374197
220	0xbc99223a	-0.018693078
221	0x399831ce	0.00029028807
222	0x3a7632b2	0.00093917095
223	0x3b85994c	0.0040771123
224	0x3b6e96c2	0.0036405777
225	0xbc790b38	-0.015200429
226	0x3b808308	0.00392187
227	0x3c69ae6d	0.014262778
228	0xbc992e29	-0.018698769
229	0xbc9373fd	-0.017999643
230	0x3c0fe388	0.008782275
231	0xbc11b1f4	-0.008892525
232	0xbc130dfe	-0.008975504
233	0xbb85d7ea	-0.004084577
234	0x3b002943	0.0019555844
235	0x3c99cd66	0.0187747
236	0xbc910caa	-0.017706234
237	0xbc866367	-0.01640482
238	0x3b876003	0.0041313185
239	0x3b4b1ce8	0.0030992571
240	0xbc2b5648	-0.010457583
241	0x3c336a8d	0.010950697
242	0x3c1f0a8e	0.009707106
243	0xbb2da2b4	-0.0026494684
244	0x3c859344	0.016305573
245	0xbc274c41	-0.010211051
246	0xbc8314ca	-0.016001124
247	0xbba822b1	-0.0051310887
248	0xbd2461a4	-0.04013218
249	0x3ae65f97	0.0017576095
250	0x3cfb24a2	0.030657116
251	0x3c340ab1	0.010988877
252	0xbaf60c71	-0.0018772018
253	0xbcdb9741	-0.026805522
254	0x3adbee34	0.0016779364
255	0x3c9c7333	0.0190979

action_model._continuous_distribution.mu.bias f4 [2]
0	0xb922182e	-0.00015458532
1	0xbb8cde0b	-0.0042989305
