GameAI3/Config/results/dwarf_2/Dwarf/Dwarf-51200.pt (torch, 555487 bytes, 36 tensors)

network_body._body_endoder.seq_layers.0.weight f4 [128, 44]
0	0xbdc3e839	-0.09565777
1	0xbe71d608	-0.23616803
2	0xbea5a4c0	-0.32352257
3	0x3e0cf97c	0.13767046
4	0xbdefad54	-0.117029816
5	0xbd21067d	-0.03931283
6	0xbde1470d	-0.1099988
7	0xbe976ba2	-0.29574305
8	0xbec2e1f1	-0.38063005
9	0x3dd41a1d	0.10356543
10	0xbe04eb59	-0.12980403
11	0xbd752055	-0.059845287
12	0xbd647499	-0.05577526
13	0x3db296c6	0.08720164
14	0xbe3e07dd	-0.18557687
15	0xbd4aba4b	-0.04949407
16	0xbdd31005	-0.1030579
17	0x3d8f39d6	0.06993453
18	0x3dd7c3d8	0.10535401
19	0xbe4dfc56	-0.2011579
20	0x3c4d7d08	0.012542017
21	0x3d853555	0.06504313
22	0x3cb16df1	0.02165887
23	0x3d9c395a	0.076281264
24	0xbe104c88	-0.14091694
25	0x3e54a5dd	0.20766397
26	0x3c4493af	0.011998101
27	0xbe240321	-0.16016819
28	0xbbfac152	-0.00765244
29	0x3e56e89c	0.20987171
30	0x3d021e5d	0.031767238
31	0x3d33bd9a	0.04388199
32	0xbe9edc4a	-0.31027442
33	0xbdb89582	-0.09012891
34	0x3e623c5f	0.22093342
35	0x3e3b983b	0.1831979
36	0x3c3c05a0	0.0114759505
37	0xbe44fbdd	-0.19236703
38	0xbd56bce9	-0.052426253
39	0x3e33a2d3	0.17542581
40	0xbea013fc	-0.31265247
41	0x3dc58ba9	0.09645779
42	0xbe9a068b	-0.30083117
43	0xbe529984	-0.20566374
44	0xbcfd8886	-0.030948889
45	0x3ca7daa1	0.020489993
46	0xbe3f01ed	-0.18653078
47	0x3dc7f909	0.097642966
48	0x3e293122	0.16522649
49	0xbd70322f	-0.05864161
50	0xbda65373	-0.081213854
51	0xbea6aeee	-0.32555336
52	0x3df49460	0.11942363
53	0x3e0ea744	0.13930994
54	0xbcc93827	-0.024562908
55	0xbdb01b4d	-0.08598957
56	0x3bec40af	0.0072098593
57	0x3d9b9010	0.07595837
58	0xbe345e4e	-0.176141
59	0xbe971a3b	-0.295122
60	0xbd964466	-0.07337265
61	0x3e452c42	0.19255164
62	0x3ec179ce	0.37788242
63	0xbd569aa8	-0.052393585
64	0x3d237a44	0.039911523
65	0x3e8dff0e	0.27733654
66	0xbd802a37	-0.06258052
67	0x3e28ae60	0.16472769
68	0x3da36b77	0.07979482
69	0x3dbc3b42	0.0919099
70	0xbdaef82c	-0.08543429
71	0x3d760673	0.060064744
72	0xbd2e7783	-0.042594444
73	0xbdbf337b	-0.09335991
74	0xbd8cba85	-0.06871513
75	0xbe2fcc68	-0.17167819
76	0xbd4764cc	-0.04868011
77	0xbdfb2554	-0.12262979
78	0xbda61f25	-0.08111409
79	0x3d8039bd	0.06261013
80	0xbd791203	-0.060808193
81	0xbe6562b8	-0.2240094
82	0x3d87ab1f	0.06624436
83	0x3e227bfe	0.15867612
84	0x3d890ad4	0.066915184
85	0x3eb35c49	0.35031345
86	0x3de1a8a8	0.11018497
87	0xbe044a44	-0.12918955
88	0xbe98c0ec	-0.29834688
89	0x3eb72d9f	0.35776994
90	0xbcbb9ceb	-0.022901973
91	0xbe62c0c7	-0.22143851
92	0x3e7cd27b	0.24689667
93	0x3d371677	0.04469916
94	0xbd6392f3	-0.055560064
95	0xbd6f5a74	-0.058435872
96	0x3de0dbfb	0.10979458
97	0x3dfa1aab	0.12212118
98	0x3daa56f3	0.083173655
99	0xbda67a5c	-0.08128807
100	0x3df4345d	0.1192405
101	0x3d2e979c	0.042625055
102	0xbda4c2b5	-0.0804495
103	0x3e3a4fd3	0.18194513
104	0x3d56b4a6	0.052418374
105	0x3d3183ad	0.043338466
106	0x3d3dc8ab	0.04633395
107	0xbd6ec78a	-0.058295764
108	0xbe88e775	-0.26739088
109	0x3e37280c	0.1788637
110	0xbed9cd8f	-0.4253964
111	0xbdc1afa6	-0.094573304
112	0x3da6d784	0.08146575
113	0x3dac78c6	0.08421473
114	0x3e10ba1e	0.14133498
115	0x3d906973	0.07051363
116	0x3c967ddc	0.018370561
117	0x3d278f10	0.04090792
118	0xbe1287bb	-0.1430959
119	0xbe2b86a1	-0.16750576
120	0x3da9fd07	0.08300214
121	0x3de638d5	0.112413086
122	0x3d1cfc4a	0.03832654
123	0xbd00210a	-0.03128151
124	0xbd2fbcf8	-0.042904824
125	0xbe3634ee	-0.17793629
126	0x3dba6f8c	0.09103307
127	0xbdb7c74a	-0.08973558
128	0x3e90a417	0.2825019
129	0x3ca3e6c1	0.020007493
130	0x3d7714aa	0.06032244
131	0x3e1aa101	0.1510048
132	0xbde47336	-0.11154787
133	0x3d6cd859	0.057823513
134	0xbd91de9f	-0.0712254
135	0x3dfd5635	0.12369958
136	0xbe159b42	-0.14610007
137	0x3e0c8d46	0.13725767
138	0x3e2d0691	0.16897036
139	0x3de9220b	0.11383446
140	0x3eb12e3d	0.3460559
141	0x3d51dd53	0.05123646
142	0xbe07474e	-0.13210794
143	0xbd987ab5	-0.074452795
144	0xbe0977d2	-0.13424614
145	0xbdbc9d84	-0.09209731
146	0x3de37664	0.111065656
147	0x3e972a9d	0.295247
148	0x3e0ad627	0.13558255
149	0xbe057374	-0.13032323
150	0xbe821f22	-0.25414377
151	0x3d094eac	0.033522293
152	0x3eb84485	0.35989776
153	0x3dc093a1	0.09403158
154	0x3d107e88	0.03527692
155	0x3d451aeb	0.048121374
156	0xbe6d6cb0	-0.23185992
157	0xbe7f973b	-0.24960034
158	0xbdeecaf9	-0.11659808
159	0xbeb06a5b	-0.34456143
160	0xbdc15ff6	-0.09442131
161	0xbec1ec34	-0.3787552
162	0x3e112703	0.14175038
163	0x3d98cdec	0.074611515
164	0x3e2ff5a2	0.17183545
165	0xbde1d6a5	-0.11027268
166	0xbbbcb1e2	-0.00575851
167	0xbd960428	-0.073250115
168	0xbef404f1	-0.4766002
169	0xbe448cbf	-0.19194315
170	0x3e56d19e	0.209784
171	0xbd48cac3	-0.049021494
172	0xbe1e30b0	-0.1544826
173	0x3c27f86d	0.0102521
174	0xbd810351	-0.06299461
175	0x3c8c2f05	0.017112264
176	0x3e444712	0.19167736
177	0xbe06450d	-0.13112278
178	0xbeb4ec51	-0.35336545
179	0x3d2dd924	0.04244341
180	0xbc382730	-0.011239812
181	0x3ee5477d	0.44781104
182	0xbc96ea04	-0.018422134
183	0xbe2360c8	-0.15954888
184	0x3d8c76f5	0.06858627
185	0xbd7be901	-0.061501507
186	0xbdc3677a	-0.09541221
187	0xbe45b727	-0.19308148
188	0x3e483bd7	0.19554077
189	0xbe0fd369	-0.1404549
190	0xbe66f91b	-0.22555964
191	0x3d0180ba	0.031616904
192	0xbda75ce2	-0.08172013
193	0xbeb105bb	-0.34574685
194	0x3dca45da	0.098766044
195	0x3e2fb1bd	0.17157646
196	0xbe68eb64	-0.22746044
197	0xbe08f889	-0.13376059
198	0x3ca1b7e6	0.01974101
199	0x3e1e14ca	0.15437618
200	0x3d3b0ef9	0.045668576
201	0x3e097c8d	0.13426419
202	0x3e53b564	0.20674664
203	0xbe8e83e3	-0.27834997
204	0xbe95791c	-0.29193962
205	0xbe377ef6	-0.17919526
206	0xbe17a6ea	-0.14809766
207	0x3d25dea7	0.04049554
208	0xbe41e2f0	-0.18934226
209	0x3e2004fc	0.15626901
210	0x3e942942	0.28937727
211	0x3ddc9a96	0.107716724
212	0x3e539259	0.20661296
213	0x3e342c3f	0.17595004
214	0xbd8ac830	-0.06776464
215	0x3de9fa14	0.11424652
216	0xbdc9a6a7	-0.098462395
217	0xbd8dd328	-0.069250405
218	0xbd507330	-0.0508911
219	0xbd828417	-0.063728504
220	0x3d9b85e1	0.07593895
221	0x3dac7b61	0.0842197
222	0xbd385466	-0.045002364
223	0x3dc23494	0.09482685
224	0xbda44e56	-0.08022754
225	0xbda35abc	-0.079762906
226	0xbde9f320	-0.114233255
227	0x3e29eb12	0.16593578
228	0xbe025001	-0.12725832
229	0xbdc9f68c	-0.09861478
230	0xbe5d909c	-0.21637195
231	0x3e15d4d9	0.14631976
232	0x3eb89dd7	0.36057922
233	0xbe0ea531	-0.13930203
234	0xbd6c0421	-0.057621125
235	0xbe514dbb	-0.20439808
236	0xbdaa2a1c	-0.08308813
237	0xbdf09b00	-0.11748314
238	0x3e21101e	0.15728804
239	0x3e6d14a9	0.23152412
240	0x3cc5e170	0.024155349
241	0xbddbd219	-0.10733432
242	0x3d9f0add	0.07765744
243	0xbc10d33c	-0.008839425
244	0xbe21f061	-0.15814354
245	0x3d3097e8	0.04311362
246	0x3e0098b4	0.12558252
247	0x3dc1eb52	0.09468712
248	0x3d03c118	0.03216657
249	0x3cc5f1e5	0.024163196
250	0x3e19688b	0.14981286
251	0x3dad129f	0.08450817
252	0xbe8fb50a	-0.2806781
253	0xbd85e109	-0.06537063
254	0xb7b84168	-2.1964966e-05
255	0x3e3b8cd4	0.1831544

network_body._body_endoder.seq_layers.0.bias f4 [128]
0	0xbd26abb1	-0.04069108
1	0xbda54d2f	-0.08071362
2	0xbd0727d9	-0.032996986
3	0xbc36fbaf	-0.0111684045
4	0xbd837f49	-0.06420762
5	0xbd1fbe79	-0.03900001
6	0xbd16abf3	-0.036785077
7	0xbd9443d4	-0.072395
8	0xb9f6a903	-0.000470467
9	0xbcc45338	-0.023965463
10	0xbc3bbcb6	-0.011458566
11	0x3d7bb614	0.06145294
12	0xbbbd1010	-0.005769737
13	0x3d2474a1	0.04015029
14	0xbb4e8406	-0.0031511798
15	0xbd17052b	-0.036870163
16	0xbcf626db	-0.030047825
17	0xbce4c290	-0.027924806
18	0x3cccc686	0.024997007
19	0x3d15046d	0.036381174
20	0xbd324278	-0.04352042
21	0xbcc5fbd7	-0.024167938
22	0xbb7b116c	-0.0038309945
23	0x3c659a51	0.014013843
24	0xbd4cf27f	-0.05003595
25	0x3b13b2e1	0.002253704
26	0xbcd46af6	-0.02592991
27	0xbce14ca1	-0.02750236
28	0xbc0ef20f	-0.008724703
29	0x3cc8b1f6	0.02449892
30	0xbd28bb7c	-0.041194424
31	0x3c9a2581	0.018816711
32	0xbc6f4228	-0.014603175
33	0xbc96195e	-0.018322643
34	0xbcef4256	-0.029206436
35	0xbd1f787e	-0.03893327
36	0xbb0989c2	-0.002098665
37	0xbd1391df	-0.036027785
38	0x3bd930da	0.006628138
39	0x3c108e46	0.008822983
40	0xbd490569	-0.049077425
41	0xba2d9c50	-0.00066227186
42	0xbd0fefd6	-0.035140835
43	0xbc975aca	-0.018475909
44	0x3cbcb964	0.02303762
45	0x3c6b7a78	0.014372461
46	0xbc4d2490	-0.012520924
47	0x3cc55413	0.024087941
48	0x3c39cff9	0.011341088
49	0xbd754550	-0.059880555
50	0x3d0421ed	0.032258917
51	0x3ce32bc9	0.02773084
52	0xba40805d	-0.00073433464
53	0xbd34b372	-0.044116445
54	0x3bd5565c	0.006510539
55	0xbceed2c7	-0.02915324
56	0x3d246aa6	0.04014077
57	0xbc82f935	-0.015987972
58	0xba58201d	-0.00082445313
59	0x3d1b5188	0.03791955
60	0xbcaf6c32	-0.021413896
61	0x3cb9a3fc	0.022661202
62	0x3cf1a82b	0.029499134
63	0x3c35aa4b	0.011087964
64	0x388124cd	6.158054e-05
65	0xbd1283c7	-0.035770204
66	0xbcc102de	-0.023560937
67	0xbc95f3c0	-0.018304706
68	0xbd328b8e	-0.04359012
69	0xbd081264	-0.033220664
70	0x3d476df3	0.04868884
71	0xbc0c00a7	-0.008545077
72	0xbce3708b	-0.027763626
73	0xbcd761d5	-0.026291767
74	0xbc69bfdb	-0.014266933
75	0x3b8fac1d	0.004384531
76	0xbd1f85f1	-0.038946096
77	0xbca2ff04	-0.019896992
78	0xbccd6fcb	-0.025077721
79	0xbd77ffb8	-0.060546607
80	0xbccdc55c	-0.025118522
81	0x3be21cea	0.0069004195
82	0x3cbf608f	0.023361472
83	0xbd5d6a1c	-0.054056272
84	0xbd018ce9	-0.031628523
85	0xbc499cc6	-0.012305444
86	0xbd1af420	-0.037830472
87	0x3ca6d75e	0.020366367
88	0xbd8ee677	-0.069775514
89	0xbd3552ff	-0.044268604
90	0xbce80550	-0.028322846
91	0xbc4c3374	-0.012463439
92	0xbd8a9095	-0.06765858
93	0xbd1ff82c	-0.039055035
94	0xbcaae981	-0.020863296
95	0x3c9e9014	0.019355811
96	0xbd390ad0	-0.045176327
97	0xbc051bf9	-0.008124345
98	0xbc97f581	-0.018549683
99	0x3d2cd68c	0.042196795
100	0x3c1772fe	0.009243725
101	0xbd9eef96	-0.07760541
102	0x3cb37a2b	0.02190884
103	0xbd7efea6	-0.06225457
104	0x3d3be6ec	0.04587452
105	0xbd898e2e	-0.06716572
106	0xbcad432e	-0.021150198
107	0xbc0f4227	-0.008743799
108	0xbc7c1704	-0.015386347
109	0xbb2dffa9	-0.002655009
110	0xbca22160	-0.019791305
111	0xbcc5bf4b	-0.024139067
112	0x3b7bf473	0.0038445264
113	0xbb99a47d	-0.004688798
114	0xbd289039	-0.041153166
115	0xbc5ab2d0	-0.013348296
116	0xbd8da2cb	-0.06915816
117	0xbc9a250c	-0.018816493
118	0xbb0b6702	-0.0021271114
119	0xbd1364cb	-0.035984796
120	0x3bd5a28b	0.006519621
121	0x3ab5e558	0.0013877554
122	0xbd19b18a	-0.03752283
123	0x3d170954	0.03687413
124	0xbc9fc466	-0.01950283
125	0xbd194176	-0.037415944
126	0xbbf7da05	-0.0075638318
127	0x3ba2eb97	0.004971932

network_body._body_endoder.seq_layers.2.weight f4 [128, 128]
0	0xbb475d7d	-0.0030420714
1	0x3a604a34	0.0008555979
2	0xbd033925	-0.03203692
3	0x3d5e5054	0.054275826
4	0xbd6595b3	-0.056050967
5	0x3cc9e3ca	0.024644751
6	0x3e8890c9	0.26672962
7	0xbdb7e6dc	-0.0897958
8	0xbd989654	-0.07450548
9	0xbd3378c8	-0.043816358
10	0xbdc56324	-0.0963805
11	0x3de6772d	0.112532
12	0x3bb8d4d9	0.005640608
13	0xbd853fac	-0.06506285
14	0x3e208fbc	0.1567983
15	0x3c0635e9	0.008191564
16	0xbd512b9b	-0.051066976
17	0x3d7ddad6	0.061976276
18	0xbe3a9b5d	-0.18223329
19	0x3cc36a52	0.023854408
20	0x3d1fa0f4	0.038971856
21	0x3d9a42c9	0.075322695
22	0xbd98f8f5	-0.0746936
23	0x3c6dd947	0.014517135
24	0xbd7ee547	-0.062230375
25	0x3d87a427	0.066231064
26	0x3c6601bd	0.0140385
27	0xbd2ac93f	-0.04169583
28	0xbde5896e	-0.11207853
29	0xbdc0e5ff	-0.09418868
30	0x3d49245f	0.04910695
31	0xbdc0ee09	-0.094204016
32	0xbdb4c791	-0.08827127
33	0xbdcc591b	-0.09977933
34	0xbce1b7b4	-0.027553417
35	0xbd0cd2d6	-0.034380756
36	0x3d4128c5	0.04715802
37	0x3bef1267	0.007295895
38	0xbd04ec77	-0.032452073
39	0x3dc3e7cb	0.095656954
40	0xbda365e2	-0.07978417
41	0x3e802d60	0.25034618
42	0x3d323a8b	0.043512862
43	0xbdc6b3f6	-0.097022936
44	0xbe39cb21	-0.18143894
45	0x3d57c7cf	0.052680787
46	0x39ad45a2	0.00033049012
47	0xbd81f3e5	-0.06345347
48	0xbe151386	-0.14558229
49	0xbd508176	-0.050904714
50	0xbd87be6b	-0.06628116
51	0xbdc4cc16	-0.09609239
52	0x3db7f489	0.08982188
53	0xbcef3cc8	-0.029203787
54	0x3dc84857	0.09779423
55	0xbdebabb3	-0.115073584
56	0xbcf9fe84	-0.03051687
57	0xbbabc934	-0.005242491
58	0x3dde2f3c	0.10848853
59	0xbc88a1d6	-0.016678732
60	0x3d6d6a9c	0.057963
61	0xbca8458f	-0.02054098
62	0x3d8a0275	0.0673875
63	0xbcbc71fd	-0.023003573
64	0x3e34f0a4	0.17669922
65	0x3d978c52	0.07399811
66	0xbdc080bb	-0.093995534
67	0xbc61a1b4	-0.013771463
68	0x3d8e5d28	0.06951362
69	0x3db42131	0.08795393
70	0x3e952c47	0.29135343
71	0xbdc52e7f	-0.09628009
72	0x3d7d00de	0.061768405
73	0x3e0b058f	0.13576339
74	0x3ce5b04e	0.02803817
75	0xbdd5e5d0	-0.10444224
76	0xbe280713	-0.16408949
77	0x3da79584	0.08182815
78	0x3d8ef877	0.06980985
79	0xbe46db05	-0.19419487
80	0x3e29993b	0.16562359
81	0x3c85bd33	0.016325569
82	0x3e80d04d	0.2515892
83	0xbd6e362c	-0.05815713
84	0xbd06263d	-0.03275131
85	0x3dcd8e3b	0.10036894
86	0xbd309383	-0.04310943
87	0xbe1b184d	-0.15145989
88	0xbdea9c18	-0.11455554
89	0xbe1c5fdc	-0.15270942
90	0x3cac4810	0.021030456
91	0xbcc1c1d5	-0.023651997
92	0xbcdc52b3	-0.026894903
93	0x3d81b2a0	0.06332898
94	0x3de9c81f	0.11415123
95	0xbc897745	-0.016780505
96	0xbd8ff15c	-0.070284575
97	0x3c976ece	0.018485453
98	0xbd1e7c8b	-0.038692992
99	0xbde98b70	-0.11403549
100	0xbd9db189	-0.07699878
101	0xbbf77d45	-0.007552775
102	0x3ce22599	0.027605819
103	0xbdc1e1a8	-0.09466869
104	0xbd82b1c4	-0.06381562
105	0xbdd92ea8	-0.10604602
106	0x3c9f84c3	0.019472485
107	0xbd5b153c	-0.053487048
108	0xbbcacf4b	-0.006189262
109	0x3acc7c37	0.0015600984
110	0xbd99b91d	-0.07506011
111	0x3e4110c7	0.18854056
112	0x3d9b3d88	0.075800955
113	0x3ca6735a	0.020318676
114	0xbd5769c4	-0.0525911
115	0xbe229c1e	-0.15879866
116	0xbd4700d1	-0.048584763
117	0x3d81046d	0.06299672
118	0x3dd51d8d	0.10406027
119	0x3e5e9419	0.21736182
120	0xbe39e602	-0.18154147
121	0xbd969642	-0.07352878
122	0xbb4df9ef	-0.003142949
123	0xbd35116a	-0.04420606
124	0xbdbb79d5	-0.09154097
125	0x3decda3e	0.11565064
126	0x3e7b2ac2	0.2452803
127	0x3d00bfa2	0.031432755
128	0x3e03d1d1	0.12873007
129	0xbca4afaa	-0.020103294
130	0x3ce64d90	0.028113157
131	0xbdad1c2a	-0.084526375
132	0xbe03f1cf	-0.12885211
133	0x3c9d7551	0.01922098
134	0x3b13dbc6	0.0022561415
135	0xbd876545	-0.066111125
136	0x3dcec5fe	0.10096358
137	0xbc95a273	-0.018265938
138	0xbe37975e	-0.17928836
139	0xbd37d160	-0.04487741
140	0x3defa1f6	0.117008135
141	0x3dd7f9fd	0.10545728
142	0x3ddc1061	0.107453115
143	0xbd8287c4	-0.063735515
144	0x3da884a3	0.082284234
145	0xbdbd81d4	-0.092532784
146	0x3d78debd	0.060759295
147	0xbd959fb0	-0.073058486
148	0xbdce907f	-0.10086154
149	0xbd9a38ee	-0.0753039
150	0xbda512c8	-0.08060223
151	0x3d98a0a1	0.074525125
152	0xbd053ded	-0.03252976
153	0x3d8df76f	0.0693196
154	0xbda7d267	-0.08194428
155	0x3e416011	0.18884303
156	0xbe5f642f	-0.21815561
157	0xbcdd0948	-0.026981965
158	0xbe055821	-0.130219
159	0xbe5cb3be	-0.21552941
160	0xbe01b874	-0.1266802
161	0x3dc74f83	0.097319625
162	0xbd9b5c8c	-0.07586011
163	0x3dddcc61	0.10829998
164	0xbe27c7dc	-0.16384834
165	0x3e17dcdf	0.1483035
166	0xbdacfeef	-0.08447062
167	0xbd98230e	-0.07428561
168	0x3e985bf3	0.29757652
169	0xbe0f0a8b	-0.13968866
170	0x3d04f477	0.032459702
171	0xbd5bdb5e	-0.053676
172	0x3e31e25c	0.17371505
173	0xbc5c76cf	-0.013456061
174	0x3c6ded0a	0.014521847
175	0x3d978d19	0.07399959
176	0xbdcd7f78	-0.10034078
177	0x3de732c3	0.11288979
178	0x3ce9b5c2	0.028529052
179	0xbd5ff3ac	-0.054675743
180	0x3b651b98	0.0034959074
181	0x3e0927e0	0.13394117
182	0x3d4fef57	0.05076536
183	0x3cf193d0	0.029489428
184	0x3e21a212	0.15784481
185	0xbe03b472	-0.12861803
186	0xbceceb08	-0.028920665
187	0x3dae5497	0.08512228
188	0xbe5c0d9a	-0.21489564
189	0xbbaf9efe	-0.0053595295
190	0xbdd70cda	-0.10500498
191	0x3de609c7	0.11232334
192	0xbb337f44	-0.0027389089
193	0x3da5571b	0.08073255
194	0xbc155ecd	-0.009116841
195	0xbd67d262	-0.05659712
196	0xbcc14ebc	-0.023597114
197	0xbd8e4253	-0.06946244
198	0x3dcf067a	0.10108657
199	0xbc1e4636	-0.009660294
200	0xbddba669	-0.107250996
201	0xbd7a51c4	-0.061113134
202	0x3d911803	0.07084658
203	0x3d52abdc	0.05143343
204	0x3cce8949	0.025211947
205	0xbcc6567b	-0.024211159
206	0x3e1c39d9	0.15256442
207	0x3c86262f	0.01637563
208	0xbd2fb299	-0.042894933
209	0xbd5284de	-0.051396243
210	0xbdbd3528	-0.092386544
211	0x3d3f5f33	0.04672165
212	0xbd8122aa	-0.0630544
213	0xbd10ae09	-0.035322223
214	0x3dcf1a8d	0.10112486
215	0xbcc06cfe	-0.023489472
216	0xbd3a55f7	-0.04549214
217	0xbd9ca903	-0.07649424
218	0xbd08476c	-0.03327124
219	0x3e0d7e02	0.138176
220	0x3cff9b7a	0.031202067
221	0x3e049bee	0.12950107
222	0xbe144374	-0.14478856
223	0xbdf3805c	-0.11889717
224	0x3d0763f0	0.033054292
225	0x3e32c7f5	0.1745909
226	0x3d332b75	0.043742616
227	0x3cc36c60	0.023855388
228	0x3d53be76	0.05169531
229	0x3e183e5f	0.14867543
230	0x3e05a206	0.13050088
231	0xbdc7711c	-0.09738371
232	0x3d9a6841	0.07539416
233	0xbdb56b1f	-0.08858322
234	0xbda32b2b	-0.07967218
235	0x3dda0930	0.106462836
236	0xbe0d58a4	-0.13803345
237	0xbdd1e3a8	-0.102485
238	0x3d975353	0.0738894
239	0x3d4598b4	0.048241332
240	0x3de052ee	0.109533176
241	0xbd3a90a2	-0.04554809
242	0xbd4812ba	-0.048845984
243	0x3cc6e7c5	0.024280438
244	0x3cc34eec	0.023841344
245	0xbdd53337	-0.10410159
246	0xbdbab810	-0.091171384
247	0x3c1ed5f8	0.009694569
248	0xbda671dc	-0.08127186
249	0xbdf57e05	-0.11986927
250	0xbcfa96a9	-0.030589418
251	0x3e094764	0.1340614
252	0xbe4a3844	-0.19748026
253	0x3d2e6af7	0.04258248
254	0x3dcf4d04	0.101221114
255	0x3d4e84d5	0.050419647

network_body._body_endoder.seq_layers.2.bias f4 [128]
0	0x3bf79155	0.0075551667
1	0xbd544470	-0.05182308
2	0xbd9391e7	-0.07205563
3	0xbda643de	-0.081184134
4	0xbcdf964e	-0.02729335
5	0xbd341f88	-0.043975383
6	0x3c9c2d63	0.01906461
7	0xbd81df85	-0.06341461
8	0x3ae56ea0	0.0017504282
9	0xbccbb1e6	-0.024865102
10	0x3c7687f6	0.015047064
11	0xbd97310c	-0.07382402
12	0xbccd29c3	-0.025044328
13	0x3cabeab9	0.020985948
14	0xbb84242e	-0.0040326333
15	0xbda971b7	-0.082736425
16	0xbb115505	-0.002217592
17	0xbc26a7c3	-0.010171833
18	0xbd29572f	-0.04134291
19	0xbd899d08	-0.067194045
20	0xbc278d90	-0.010226622
21	0xbd56e014	-0.05245979
22	0xbd25a40d	-0.040439654
23	0xbc55c56c	-0.013047557
24	0x3c488dd4	0.012240846
25	0xbc1a19af	-0.0094055375
26	0xba14442d	-0.0005655911
27	0xbd2bde17	-0.04195985
28	0xbd8c2cac	-0.06844458
29	0xbc307a82	-0.010771396
30	0xbb49891a	-0.0030751885
31	0xbc97eaa1	-0.018544497
32	0x3b56c7f3	0.0032772988
33	0x3b962b9e	0.0045828363
34	0xbd7e494f	-0.06208163
35	0xbccaac78	-0.024740443
36	0xbc8ce903	-0.017200952
37	0xbc634f23	-0.013873848
38	0xbcdb59e1	-0.026776256
39	0xbb4add8b	-0.0030954804
40	0xbd0ea21f	-0.03482258
41	0xbca23b44	-0.01980365
42	0xbccc24f7	-0.02491997
43	0x3bb624e3	0.0055585965
44	0xbc62c0de	-0.013839928
45	0xbc502d47	-0.012706107
46	0xbb1f2ffc	-0.0024290076
47	0x3be57619	0.0070026037
48	0x3c7914e5	0.015202736
49	0xbd5414eb	-0.05177776
50	0x3c076c80	0.0082656145
51	0xbc0f275c	-0.008737411
52	0xbd1b38c2	-0.037895925
53	0xbc6f2029	-0.01459507
54	0xbcdcefc8	-0.026969805
55	0x3b6a1037	0.0035715231
56	0xbc43cf09	-0.0119512165
57	0xbd868eac	-0.06570181
58	0xbbea92d9	-0.007158619
59	0xbcc360ac	-0.023849808
60	0xbbdf75a9	-0.006819446
61	0xbb8a7c07	-0.004226211
62	0xbcc35d76	-0.023848277
63	0x3c296820	0.010339767
64	0xbcd90add	-0.026494438
65	0xbc08f85c	-0.008359995
66	0xbc2fbeb7	-0.010726622
67	0xbd06158c	-0.032735392
68	0x39beb07f	0.00036371124
69	0xbc69499e	-0.014238743
70	0x3ca59e33	0.020217037
71	0xbcc43db6	-0.023955207
72	0x3c377082	0.011196258
73	0xbcdd1b80	-0.026990652
74	0x3a834658	0.0010015471
75	0x3c9b4613	0.018954312
76	0xbc2cfd5d	-0.010558453
77	0xbcb092a0	-0.021554291
78	0xbc1f8999	-0.009737396
79	0xbb1dd429	-0.0024082756
80	0xbcc47802	-0.023983005
81	0xbd726ea0	-0.05918753
82	0xbcdd8310	-0.027040035
83	0x381f004c	3.790883e-05
84	0xbc920396	-0.017823976
85	0x3cc8c4d0	0.02450791
86	0xbcb7802a	-0.02239998
87	0xbc73a1b6	-0.014870098
88	0xbd858d7d	-0.065211274
89	0xbc673399	-0.014111423
90	0xbd57505b	-0.052566867
91	0xbb8bd3f9	-0.0042672125
92	0xbccbe573	-0.024889683
93	0xbadb62a0	-0.0016737767
94	0xbcc6d796	-0.024272721
95	0xbc24b87f	-0.010053753
96	0xbc291b6d	-0.01032148
97	0xbc88523b	-0.016640773
98	0xbd0b270d	-0.03397279
99	0xbcbcc14c	-0.02304139
100	0x3b934f26	0.004495519
101	0xbd103c77	-0.035213914
102	0x3c910d55	0.017706553
103	0x3c8344e1	0.016024055
104	0xbcd97625	-0.026545594
105	0xbd8f3017	-0.06991594
106	0xbd9e9e6c	-0.0774506
107	0xbc64cd95	-0.01396503
108	0xbd24f504	-0.040272728
109	0xbbc8a496	-0.006123136
110	0xbbb57a9e	-0.0055382987
111	0xbbbde77c	-0.0057954174
112	0xbbcb50c9	-0.0062046987
113	0xbc832379	-0.016008126
114	0x3b36c858	0.002789041
115	0xbcc80c9a	-0.024420071
116	0x3c164d72	0.009173738
117	0xbda26616	-0.079296276
118	0xbc42b098	-0.011882924
119	0x3c8d4302	0.017243866
120	0xbbe6aea1	-0.0070398604
121	0x392c9464	0.00016458478
122	0xbbb7c5cd	-0.0056082965
123	0xbd84e238	-0.0648846
124	0xbc889849	-0.016674178
125	0xbcdf9156	-0.027290981
126	0xbc9dba98	-0.019254014
127	0x3c64aa34	0.013956595

action_model._continuous_distribution.log_sigma f4 [1, 2]
0	0xbc507d12	-0.012725132
1	0xbdc542a6	-0.09631853

action_model._continuous_distribution.mu.weight f4 [2, 128]
0	0x3ced8e55	0.028998533
1	0xbc704dfd	-0.014667031
2	0xbbd018d5	-0.0063506165
3	0x3b757968	0.0037456397
4	0xbb53f413	-0.0032341524
5	0xbc37499f	-0.011186986
6	0xbcdc7eb0	-0.026915878
7	0xbb8e4241	-0.004341394
8	0xbcff4027	-0.03115852
9	0xbc791e7b	-0.015205021
10	0x3cf65005	0.030067453
11	0xbb3357de	-0.0027365605
12	0x3c15d79a	0.009145642
13	0x3d377391	0.044787947
14	0x3c8c4fd8	0.017127916
15	0xbc056bbb	-0.008143361
16	0x3d04ef74	0.032454923
17	0x3c3187a2	0.01083556
18	0xbbf85c19	-0.0075793383
19	0xbc1def91	-0.009639637
20	0x3cfa5b20	0.03056103
21	0xbcd229dd	-0.025654728
22	0x3c90ad62	0.0176608
23	0x3ce626a3	0.028094595
24	0x3d336a8b	0.04380278
25	0xbd0634da	-0.032765247
26	0xbc97c3a5	-0.018525908
27	0xbcadc08e	-0.021209981
28	0xbb763df3	-0.0037573546
29	0x3c6ba70d	0.01438309
30	0x3cdd8aa1	0.027043642
31	0xbd4693a4	-0.048480645
32	0x3cf06ff7	0.029350264
33	0x3d453c3d	0.04815315
34	0xbc11a864	-0.008890245
35	0xbb35839f	-0.002769686
36	0x3d47ea4e	0.048807435
37	0xbc71db23	-0.014761719
38	0xbc4dcc28	-0.012560882
39	0xbd175c99	-0.036953542
40	0xbcc5b9fc	-0.024136536
41	0xbd10cc15	-0.035350878
42	0x3cb7d55c	0.022440605
43	0x3cc63e35	0.024199584
44	0x3c194213	0.009354132
45	0x3c438fbe	0.011936126
46	0x3bf6a672	0.007527166
47	0xbcb732da	-0.022363115
48	0x3d2bc9a3	0.041940343
49	0xbc078cfe	-0.008273361
50	0xbcf6700e	-0.030082729
51	0x3c4e25b5	0.012582232
52	0xbb972105	-0.0046120905
53	0xbd1f281d	-0.038856614
54	0x3c00c28a	0.007858882
55	0xbda969dd	-0.08272145
56	0x3c94e15b	0.018173864
57	0x39d9898d	0.0004149195
58	0xbc2e6e24	-0.010646377
59	0xbcdc3b2e	-0.026883688
60	0xbbaa0a42	-0.005189211
61	0xbd0ea581	-0.034825806
62	0x3cb03eba	0.021514285
63	0x3cef2cc9	0.02919616
64	0x3c87f797	0.016597552
65	0x3afad8c9	0.0019138093
66	0xbd066202	-0.03280831
67	0x3c293046	0.010326451
68	0x3d305eea	0.043059267
69	0x3ce1b614	0.027552642
70	0x3d81b01d	0.06332419
71	0x3c0c084c	0.0085469
72	0x3ccb2170	0.024796218
73	0x3c2706eb	0.0101945205
74	0xbcff394d	-0.031155253
75	0xbc6ad949	-0.014334031
76	0xbce91e61	-0.028456869
77	0xbcfa291c	-0.03053718
78	0xbd330ac7	-0.04371145
79	0xbd1b39f1	-0.037897054
80	0xbb9cdd66	-0.004787135
81	0x3b38752f	0.0028146019
82	0xbb23f93b	-0.002502038
83	0x3d157555	0.03648885
84	0xbbc4d75e	-0.006007119
85	0xbd2c84d1	-0.04211885
86	0x3c93eac7	0.018056286
87	0xbc671a2d	-0.014105362
88	0xbb72697c	-0.0036989143
89	0xbc4d9044	-0.012546603
90	0xbb9f8731	-0.004868411
91	0xbbff4125	-0.0077897483
92	0xb9cbba32	-0.00038857904
93	0x3d43f4fe	0.047841065
94	0x3c98f656	0.01867215
95	0x3c9438dd	0.01809352
96	0xbb9fbaa3	-0.0048745438
97	0xbbe38eca	-0.006944512
98	0xbc402182	-0.011726739
99	0xbd111633	-0.03542156
100	0x3b76ced7	0.0037659907
101	0xbcc2bb3f	-0.023770927
102	0xbca446e5	-0.020053336
103	0x3d85b35b	0.0652835
104	0xbcb73ab6	-0.022366863
105	0xbadfc1f4	-0.0017071352
106	0x3b8313c1	0.0040001576
107	0x3be2b5d0	0.0069186464
108	0xbc815cf3	-0.015791392
109	0x3d17f985	0.037103195
110	0xbb24a5f5	-0.0025123332
111	0x3ac7c1c1	0.0015240238
112	0xbc6e0d1d	-0.014529494
113	0xbd378a6e	-0.04480975
114	0x3c2eb527	0.010663307
115	0xbc6fb127	-0.014629639
116	0x3cf8a463	0.030351823
117	0xbb061176	-0.0020457185
118	0x3cb57f4d	0.022155428
119	0xbcb1ab1f	-0.021688042
120	0x3cc7062a	0.024294931
121	0x3ceba1ec	0.028763734
122	0xbcc84b42	-0.024449948
123	0x3b2433d4	0.0025055306
124	0xbd5635bb	-0.052297335
125	0xbc795bf4	-0.015219677
126	0x3d339238	0.043840617
127	0xbd11c755	-0.03559049
128	0xbcd5e965	-0.026112268
129	0xbb183c3e	-0.0023229267
130	0x3c136c8f	0.00899805
131	0x3bd1c4bc	0.0064016264
132	0x3cf3a290	0.029740602
133	0x3c0f8487	0.008759624
134	0xbd8c98b0	-0.0686506
135	0x3b9b4f35	0.004739667
136	0x3c020944	0.007936779
137	0x3bced59e	0.0063120862
138	0x3d07947f	0.0331006
139	0x3c005e23	0.007834944
140	0x3b4f5710	0.0031637587
141	0xbd344578	-0.044011563
142	0xbd6a8628	-0.057256848
143	0x3c07d988	0.00829161
144	0xbcefe1d8	-0.029282495
145	0x3d0c7b7b	0.034297448
146	0x3ce993c4	0.028512843
147	0x3c21685c	0.009851541
148	0x3d2ca9c5	0.042154092
149	0x3c843e27	0.016142918
150	0xbc241acb	-0.010016154
151	0x3c6ada95	0.014334341
152	0xbcc37079	-0.023857342
153	0x3cfef051	0.031120451
154	0xbc70bb07	-0.014693028
155	0x3c3f7760	0.011686176
156	0x3c277a4d	0.01022203
157	0xbcc92ed7	-0.024558468
158	0xbca8be56	-0.020598572
159	0xbd11083f	-0.035408255
160	0xbd1b7345	-0.037951726
161	0xbca71eee	-0.02040049
162	0x3c9357b7	0.017986162
163	0x3cdba5d4	0.026812471
164	0xbc7da24d	-0.01548059
165	0x3b8c8577	0.004288371
166	0x3b136a44	0.002249376
167	0xbc99d690	-0.01877907
168	0x3be9422b	0.0071184835
169	0x3d0483a6	0.032352112
170	0xbb396d13	-0.0028293773
171	0xbcaa012a	-0.020752508
172	0xbb95c7b7	-0.004570927
173	0xbb116243	-0.0022183813
174	0x3c6e39af	0.01454012
175	0x3c677d49	0.014128991
176	0xbcfed511	-0.031107457
177	0x3c37e8d6	0.011224946
178	0x3b4d5275	0.0031329666
179	0xbcaf88ef	-0.0214276
180	0x3d16a076	0.03677412
181	0xbc1bffee	-0.009521468
182	0xbcf9d897	-0.030498786
183	0xbd375134	-0.044755176
184	0x3c87ad28	0.01656206
185	0x3b627326	0.0034553497
186	0x3c425742	0.011861624
187	0x3b4edc2d	0.003156434
188	0x3d27eeda	0.04099927
189	0x3b5f27cf	0.0034050827
190	0xbba46b29	-0.0050176573
191	0x3c28ec47	0.010310239
192	0x3c40f0a6	0.011776125
193	0x3b6f781c	0.0036540097
194	0xbd09f2bf	-0.033678766
195	0x3a30ab60	0.0006739404
196	0x3c35cec0	0.011096656
197	0x3c6b1d6c	0.014350276
198	0xbca466f0	-0.020068616
199	0x3c912d96	0.017721932
200	0xbd1786ed	-0.03699391
201	0x3b86578e	0.004099793
202	0x3b4d6c1c	0.0031344956
203	0xbceb5c07	-0.028730405
204	0xb99f733c	-0.000304127
205	0x3b7da26d	0.003870155
206	0x3cd8100f	0.026374845
207	0xbcf9f279	-0.030511128
208	0x3c63bfec	0.013900738
209	0xbb8a7cbc	-0.0042262953
210	0x3be3b2e7	0.006948817
211	0xbc721367	-0.014775134
212	0x3cbe29bb	0.023213258
213	0xbd1e1c01	-0.038600925
214	0xbc3edbe3	-0.011649105
215	0x3cd49d49	0.025953906
216	0x3af13dea	0.0018405293
217	0xbc977866	-0.018490028
218	0xba250342	-0.0006294736
219	0x3cac8e75	0.021064023
220	0x3d01a31b	0.03164969
221	0xbcedb1e2	-0.029015485
222	0xbba5dea0	-0.0050619394
223	0x3bb97fe9	0.005661
224	0x3d083896	0.03325709
225	0x3d50a541	0.05093885
226	0x3d0aa1dc	0.033845767
227	0xbc6b8f39	-0.014377409
228	0xbd26efd4	-0.04075606
229	0x3d2e6ced	0.04258435
230	0x3c8dd59a	0.017313767
231	0x3c33205e	0.01093301
232	0x3bb2b1ad	0.0054533095
233	0x3bb01920	0.005374089
234	0xbb95e41f	-0.0045743133
235	0x3cf485e8	0.029849008
236	0x3c5ad56e	0.01335655
237	0xbc2990aa	-0.010349432
238	0xbcb5b2d1	-0.022179993
239	0x3cb16b7d	0.0216577
240	0xbd2c873b	-0.042121153
241	0x3cc28fe6	0.023750257
242	0xbca55d20	-0.020186007
243	0x3cc21b53	0.02369467
244	0xbd0fc203	-0.035097133
245	0x3c03e210	0.008049503
246	0xbc7c44c0	-0.015397251
247	0x3b6a4761	0.0035748112
248	0x3c46c651	0.012132243
249	0xbbefe775	-0.007321293
250	0x3d17189e	0.03688871
251	0x3bb001c4	0.005371304
252	0xbd0be981	-0.034158234
253	0x3d20b47e	0.03923463
254	0x3cd4b36c	0.025964461
255	0xbcaf76de	-0.021418985

action_model._continuous_distribution.mu.bias f4 [2]
0	0x3c9c8c6d	0.019109929
1	0xbcd853eb	-0.026407203

exp_avg f4 [128, 44]
0	0x380de7ba	3.3832832e-05
1	0x00000000	0.0
2	0xb7be82b4	-2.2710628e-05
3	0xb7ab0e18	-2.0391351e-05
4	0x38428cd3	4.6384357e-05
5	0x00000000	0.0
6	0xb813e672	-3.526215e-05
7	0xb7d9c984	-2.5962254e-05
8	0x37f99e22	2.975675e-05
9	0x00000000	0.0
10	0xb79c5165	-1.8634551e-05
11	0xb78fd470	-1.7145852e-05
12	0x3786dece	1.6077796e-05
13	0x00000000	0.0
14	0xb6a64846	-4.9555993e-06
15	0x36d046e8	6.2071376e-06
16	0x381880d4	3.6359605e-05
17	0x00000000	0.0
18	0xb7d3b4ed	-2.523741e-05
19	0xb73a9c24	-1.1122818e-05
20	0x369cea0f	4.6764103e-06
21	0x00000000	0.0
22	0x36d848f0	6.4457927e-06
23	0x3542c4c0	7.255694e-07
24	0xb76973e0	-1.39148615e-05
25	0x00000000	0.0
26	0x37d206ad	2.503706e-05
27	0x37bb112c	2.2300133e-05
28	0x378051ce	1.5296882e-05
29	0x00000000	0.0
30	0xb68c1448	-4.174686e-06
31	0xb6a72f6c	-4.9825085e-06
32	0xb8136699	-3.5143083e-05
33	0x00000000	0.0
34	0x38420cf8	4.6265282e-05
35	0x380ea545	3.4009357e-05
36	0xb86151a4	-5.3720214e-05
37	0x39398cc4	0.00017695414
38	0x359a68c6	1.1504387e-06
39	0x37f1df2f	2.8833367e-05
40	0xb7f230f8	-2.8871451e-05
41	0x00000000	0.0
42	0xb8115c2e	-3.4656543e-05
43	0xb6e019dc	-6.6787306e-06
44	0xb81b6efd	-3.7058246e-05
45	0x00000000	0.0
46	0x3774a560	1.4582038e-05
47	0x372d25d7	1.0320414e-05
48	0xb7c1bd93	-2.309567e-05
49	0x00000000	0.0
50	0x35264980	6.1946776e-07
51	0xb5f8ded0	-1.8542287e-06
52	0xb8338494	-4.28004e-05
53	0x00000000	0.0
54	0x37aa7dd9	2.0324182e-05
55	0x3785c6ee	1.594747e-05
56	0xb6caf061	-6.048053e-06
57	0x00000000	0.0
58	0xb789cf30	-1.6428152e-05
59	0xb76ad985	-1.3998132e-05
60	0xb823ce14	-3.9054154e-05
61	0x00000000	0.0
62	0x378b10dd	1.6577944e-05
63	0x36d484e5	6.3335633e-06
64	0xb7814248	-1.5408863e-05
65	0x00000000	0.0
66	0xb6ed2406	-7.067344e-06
67	0xb6f06a6e	-7.1649474e-06
68	0xb5804568	-9.556943e-07
69	0x00000000	0.0
70	0xb7b486f3	-2.1520513e-05
71	0xb7a03d57	-1.910205e-05
72	0xb7c7802f	-2.3782339e-05
73	0x00000000	0.0
74	0x35af4e78	1.3061353e-06
75	0xb6841578	-3.936406e-06
76	0x3753365d	1.25892375e-05
77	0x00000000	0.0
78	0xb813133c	-3.5065445e-05
79	0xb7f6fcad	-2.9443147e-05
80	0x38e3aabc	0.00010856005
81	0xb9bb7bcb	-0.00035759652
82	0xb61c04bb	-2.3248565e-06
83	0x3873f894	5.816722e-05
84	0x38e2b4c2	0.000108101885
85	0x00000000	0.0
86	0x3874175b	5.8195885e-05
87	0x36870fb3	4.025141e-06
88	0x37189682	9.094949e-06
89	0x00000000	0.0
90	0xb6d57574	-6.361568e-06
91	0xb6505364	-3.1042955e-06
92	0xb78cd782	-1.6789654e-05
93	0x00000000	0.0
94	0x37a3c562	1.9523028e-05
95	0x375c533c	1.3132401e-05
96	0x374d2bc4	1.2229142e-05
97	0x00000000	0.0
98	0xb71f5002	-9.495767e-06
99	0xb6fe5221	-7.579351e-06
100	0xb72acfc4	-1.0181164e-05
101	0x00000000	0.0
102	0x3758ab89	1.2914542e-05
103	0x35dade50	1.6306967e-06
104	0x37d4e9f7	2.5381318e-05
105	0x00000000	0.0
106	0xb7bdfc15	-2.264794e-05
107	0xb783be02	-1.5704896e-05
108	0xb647b848	-2.9760577e-06
109	0x00000000	0.0
110	0x36bf93a8	5.709433e-06
111	0x36b15ca8	5.2857977e-06
112	0x378c9990	1.6760809e-05
113	0x00000000	0.0
114	0xb76b575b	-1.4027431e-05
115	0xb72f3de0	-1.0445219e-05
116	0x34591b34	2.0219596e-07
117	0x00000000	0.0
118	0x3629dd58	2.5311801e-06
119	0x369ee108	4.734964e-06
120	0xb7715d50	-1.4386445e-05
121	0x00000000	0.0
122	0x378f9c8b	1.7119824e-05
123	0x37702066	1.4312658e-05
124	0xb75d7f20	-1.3202225e-05
125	0x38366700	4.3488108e-05
126	0x3497ca38	2.8273075e-07
127	0x38e8c12d	0.00011098604
128	0x38596260	5.182845e-05
129	0x00000000	0.0
130	0x35aa9c5b	1.2711492e-06
131	0x3715e105	8.9334835e-06
132	0x3a8f6c94	0.0010942393
133	0x00000000	0.0
134	0xb8979394	-7.22773e-05
135	0x38e16de8	0.00010749308
136	0x3a019def	0.00049444934
137	0x00000000	0.0
138	0x3a0a48ca	0.00052751286
139	0x3a23350c	0.0006225861
140	0x3aa9b86c	0.0012948639
141	0x00000000	0.0
142	0xb98f1440	-0.00027290173
143	0xb917b294	-0.00014467008
144	0x38e9db28	0.00011151127
145	0x00000000	0.0
146	0x3a6eab52	0.0009104508
147	0x3a722bec	0.0009238112
148	0x3a8c30de	0.0010695716
149	0x00000000	0.0
150	0xb847b04f	-4.7609497e-05
151	0x388a7938	6.6029315e-05
152	0x38df7314	0.000106549036
153	0x00000000	0.0
154	0x3a6ff854	0.000915413
155	0x3a5e6739	0.00084840093
156	0x3a632ef8	0.00086663617
157	0x00000000	0.0
158	0x3922defc	0.00015532592
159	0x3957ed70	0.0002059245
160	0x3a075045	0.00051618024
161	0x00000000	0.0
162	0x3a049672	0.00050578185
163	0x3a45d9aa	0.0007547388
164	0x3a555b92	0.000813895
165	0x00000000	0.0
166	0x395a2c98	0.00020806713
167	0x3993c9d5	0.00028188401
168	0xbba1bed0	-0.0049360767
169	0x3c853278	0.016259417
170	0x38ddaf91	0.00010570803
171	0xbb272890	-0.0025506355
172	0xbb9a0e87	-0.004701439
173	0x00000000	0.0
174	0xbae2578e	-0.0017268525
175	0x364889e0	2.9882576e-06
176	0xb9f87fe7	-0.0004739754
177	0x00000000	0.0
178	0xb860dacd	-5.3609536e-05
179	0xb921a580	-0.0001541581
180	0x384011da	4.5792993e-05
181	0x00000000	0.0
182	0xba164ebc	-0.0005733778
183	0xba11f738	-0.00055681495
184	0xba3ea7aa	-0.00072729087
185	0x00000000	0.0
186	0x39516824	0.00019970589
187	0x38b67f39	8.702133e-05
188	0x3946b372	0.000189496
189	0x00000000	0.0
190	0xba3bfa7c	-0.0007170809
191	0xba299b8f	-0.00064700184
192	0xba24da69	-0.0006288649
193	0x00000000	0.0
194	0x38d4664a	0.000101280006
195	0x351a4920	5.747588e-07
196	0x37dd9373	2.6413914e-05
197	0x00000000	0.0
198	0xba113a3b	-0.0005539988
199	0xba1359e0	-0.00056209974
200	0xb9d67c3a	-0.00040909817
201	0x00000000	0.0
202	0xb8f87c14	-0.00011848673
203	0xb9097fd0	-0.00013112952
204	0xb9796ec5	-0.00023787755
205	0x00000000	0.0
206	0xb997e3dc	-0.00028970733
207	0xb9ea9c72	-0.0004474852
208	0xba19321a	-0.00058439525
209	0x00000000	0.0
210	0x386e47a4	5.6810342e-05
211	0xb760075c	-1.3353154e-05
212	0x3b270048	0.0025482345
213	0xbc098678	-0.008393876
214	0xb864e3a9	-5.457146e-05
215	0x3ad124ef	0.0015956442
216	0x3b24e3da	0.0025160224
217	0x00000000	0.0
218	0x3ae900bd	0.0017776709
219	0xb96dfa82	-0.00022695403
220	0x3a56564e	0.00081763125
221	0x00000000	0.0
222	0xb9226947	-0.00015488743
223	0xb820534d	-3.8224553e-05
224	0x3a2e65aa	0.00066527224
225	0x00000000	0.0
226	0xb629ad87	-2.5283969e-06
227	0x38f19c58	0.00011520897
228	0x3a53ddea	0.0008082079
229	0x00000000	0.0
230	0xb91887b9	-0.0001454641
231	0xb862e914	-5.409967e-05
232	0x39e545f6	0.0004373041
233	0x00000000	0.0
234	0x396c640c	0.00022543984
235	0x39d5c0e2	0.00040770235
236	0x3a2157de	0.0006154756
237	0x00000000	0.0
238	0x384641fd	4.7268335e-05
239	0x38bfb298	9.1408554e-05
240	0x39ef9eaa	0.00045703846
241	0x00000000	0.0
242	0x3957b29e	0.00020570538
243	0x39963d2f	0.00028655815
244	0x3a141400	0.0005648732
245	0x00000000	0.0
246	0x38cd3fdf	9.787059e-05
247	0x3907a8c1	0.00012937469
248	0x39e8de92	0.00044416316
249	0x00000000	0.0
250	0x396532d5	0.00021858078
251	0x399f0e1c	0.00030337356
252	0x39c2b089	0.00037134092
253	0x00000000	0.0
254	0x3998c772	0.00029140298
255	0x39940255	0.00028230497

exp_avg_sq f4 [128, 44]
0	0x33a37fe7	7.613544e-08
1	0x00000000	0.0
2	0x32641bea	1.3277694e-08
3	0x328fd517	1.6744293e-08
4	0x3392cf73	6.8363896e-08
5	0x00000000	0.0
6	0x32ba74f3	2.1706432e-08
7	0x32f358c6	2.8329293e-08
8	0x33acbb89	8.0434866e-08
9	0x00000000	0.0
10	0x3208ec08	7.969909e-09
11	0x323f66e7	1.11410605e-08
12	0x33438550	4.5523223e-08
13	0x00000000	0.0
14	0x333a56ea	4.3385548e-08
15	0x334d3a9c	4.7783587e-08
16	0x33abb798	7.9962035e-08
17	0x00000000	0.0
18	0x3232d211	1.0408727e-08
19	0x3264a28b	1.3308305e-08
20	0x332a42f2	3.9642096e-08
21	0x00000000	0.0
22	0x335840a1	5.03502e-08
23	0x3368daac	5.421559e-08
24	0x339fd978	7.443572e-08
25	0x00000000	0.0
26	0x328147d2	1.5050237e-08
27	0x329d0a4f	1.8281893e-08
28	0x333436a0	4.1959197e-08
29	0x00000000	0.0
30	0x334d42dc	4.779109e-08
31	0x335ce10e	5.1427428e-08
32	0x339ad786	7.210387e-08
33	0x00000000	0.0
34	0x3294aef3	1.7309025e-08
35	0x32b3d8e9	2.0936982e-08
36	0x360af086	2.0703606e-06
37	0x37bc71ad	2.246428e-05
38	0x30827fdc	9.495085e-10
39	0x351231bc	5.446161e-07
40	0x35d14927	1.5593004e-06
41	0x00000000	0.0
42	0x34da3fb6	4.065202e-07
43	0x33eae0f8	1.0937396e-07
44	0x33316d13	4.1310226e-08
45	0x00000000	0.0
46	0x31bc1295	5.4736327e-09
47	0x31f5aded	7.1502115e-09
48	0x333539c4	4.2194884e-08
49	0x00000000	0.0
50	0x31abadf2	4.9965303e-09
51	0x31e6f79d	6.7220314e-09
52	0x332d4cf2	4.0349683e-08
53	0x00000000	0.0
54	0x31e049be	6.5276415e-09
55	0x320e6e5d	8.2905816e-09
56	0x332e7332	4.06173e-08
57	0x00000000	0.0
58	0x31e13667	6.5545467e-09
59	0x320f93e2	8.35732e-09
60	0x3320524e	3.732776e-08
61	0x00000000	0.0
62	0x3237db8f	1.0701924e-08
63	0x32530ddb	1.2284967e-08
64	0x331ebbaa	3.695792e-08
65	0x00000000	0.0
66	0x3223adbe	9.527353e-09
67	0x324948aa	1.1716262e-08
68	0x33183947	3.544235e-08
69	0x00000000	0.0
70	0x323fb297	1.115827e-08
71	0x3269e169	1.3613637e-08
72	0x33158f22	3.4821944e-08
73	0x00000000	0.0
74	0x32533703	1.2294325e-08
75	0x327d25b5	1.4735112e-08
76	0x3309b888	3.206563e-08
77	0x00000000	0.0
78	0x326b2f37	1.3689536e-08
79	0x32951bf8	1.7358602e-08
80	0x3593b036	1.1003638e-06
81	0x37484f71	1.1939425e-05
82	0x300ab782	5.046489e-10
83	0x34cdafa9	3.8312035e-07
84	0x35791633	9.279203e-07
85	0x00000000	0.0
86	0x33c8070d	9.314508e-08
87	0x33980e1e	7.0806195e-08
88	0x32c77705	2.3220773e-08
89	0x00000000	0.0
90	0x3205460b	7.757545e-09
91	0x3220fcd1	9.3707095e-09
92	0x32d3fdc1	2.4679027e-08
93	0x00000000	0.0
94	0x31de4b9e	6.469647e-09
95	0x3216e790	8.7838e-09
96	0x32c4e1b1	2.2920036e-08
97	0x00000000	0.0
98	0x31e1093a	6.549411e-09
99	0x32100b85	8.384522e-09
100	0x32cac4aa	2.3605327e-08
101	0x00000000	0.0
102	0x320e5bd6	8.286369e-09
103	0x3222cf8d	9.476833e-09
104	0x32c92879	2.3417885e-08
105	0x00000000	0.0
106	0x31fd9f5a	7.3813853e-09
107	0x32186905	8.871443e-09
108	0x32c836bb	2.3307953e-08
109	0x00000000	0.0
110	0x320e2808	8.27459e-09
111	0x32260b36	9.665021e-09
112	0x32d07dd2	2.4271603e-08
113	0x00000000	0.0
114	0x31ec7bc6	6.8825754e-09
115	0x3216733f	8.757353e-09
116	0x32ca24c1	2.3532609e-08
117	0x00000000	0.0
118	0x32009eef	7.486718e-09
119	0x321a9b0a	8.999232e-09
120	0x32d961f0	2.5306662e-08
121	0x00000000	0.0
122	0x31d7ec76	6.284206e-09
123	0x32124646	8.514297e-09
124	0x3543b5af	7.2907545e-07
125	0x3704b877	7.910762e-06
126	0x2fb7d213	3.3436773e-10
127	0x34c8de51	3.741466e-07
128	0x353c46c0	7.013841e-07
129	0x00000000	0.0
130	0x33bea10c	8.876859e-08
131	0x336dd26b	5.5372237e-08
132	0x37a4be2e	1.9638883e-05
133	0x00000000	0.0
134	0x36ef5750	7.1329196e-06
135	0x370eada2	8.504287e-06
136	0x378a8910	1.6514707e-05
137	0x00000000	0.0
138	0x372912ce	1.0077563e-05
139	0x374862e2	1.1943952e-05
140	0x37c53132	2.3507138e-05
141	0x00000000	0.0
142	0x3652314b	3.132113e-06
143	0x369885e5	4.5455404e-06
144	0x3768af78	1.3869132e-05
145	0x00000000	0.0
146	0x374f00bd	1.2338333e-05
147	0x37671eef	1.3775875e-05
148	0x37d640bc	2.5540932e-05
149	0x00000000	0.0
150	0x35a797db	1.2486665e-06
151	0x36325e23	2.6578862e-06
152	0x37820617	1.5500043e-05
153	0x00000000	0.0
154	0x37307713	1.0518142e-05
155	0x375441fd	1.2651549e-05
156	0x37d001dd	2.47964e-05
157	0x00000000	0.0
158	0x35dfd9b7	1.6678158e-06
159	0x3633ab93	2.6772948e-06
160	0x3791f0c8	1.739747e-05
161	0x00000000	0.0
162	0x371edbfa	9.468751e-06
163	0x3738d0ac	1.101584e-05
164	0x37c5922f	2.3552302e-05
165	0x00000000	0.0
166	0x363fc296	2.8574482e-06
167	0x3688614d	4.064443e-06
168	0x3a23511a	0.00062300416
169	0x3bdd81aa	0.006759842
170	0x34996547	2.857216e-07
171	0x39929638	0.00027959212
172	0x3a14cde6	0.0005676433
173	0x00000000	0.0
174	0x38ad5560	8.265185e-05
175	0x38066f4d	3.2051747e-05
176	0x36a2d7b4	4.8530874e-06
177	0x00000000	0.0
178	0x35ba5870	1.3883819e-06
179	0x35ea13a9	1.744008e-06
180	0x368dd21d	4.226588e-06
181	0x00000000	0.0
182	0x360d9210	2.1095657e-06
183	0x362c270e	2.565273e-06
184	0x36b94389	5.5212918e-06
185	0x00000000	0.0
186	0x35374fc3	6.828888e-07
187	0x35821c11	9.693923e-07
188	0x3668d37e	3.4693799e-06
189	0x00000000	0.0
190	0x36448d41	2.9288497e-06
191	0x36570c66	3.2044713e-06
192	0x36c41a98	5.844351e-06
193	0x00000000	0.0
194	0x34f21ed3	4.509844e-07
195	0x3541119c	7.192373e-07
196	0x365c33cc	3.2812704e-06
197	0x00000000	0.0
198	0x3645ce02	2.94752e-06
199	0x3660e16f	3.350982e-06
200	0x36c3a852	5.831048e-06
201	0x00000000	0.0
202	0x34e8c8eb	4.3359555e-07
203	0x3532c89c	6.660209e-07
204	0x368c7fa4	4.1871845e-06
205	0x00000000	0.0
206	0x361a5fd9	2.300358e-06
207	0x3632dc45	2.665228e-06
208	0x36b4802a	5.3793383e-06
209	0x00000000	0.0
210	0x355f51cc	8.3193004e-07
211	0x3592d3f9	1.093954e-06
212	0x391ad62b	0.00014766368
213	0x3ad20141	0.0016022102
214	0x33916e39	6.772138e-08
215	0x3873667a	5.8031153e-05
216	0x3908c1b7	0.00013042135
217	0x00000000	0.0
218	0x37c17584	2.3062115e-05
219	0x36e38f99	6.781844e-06
220	0x3677316a	3.683463e-06
221	0x00000000	0.0
222	0x35b2e73f	1.3329335e-06
223	0x35d19f36	1.561805e-06
224	0x366b65d4	3.5077e-06
225	0x00000000	0.0
226	0x35c496e5	1.4647054e-06
227	0x35e7d390	1.7272414e-06
228	0x368971c1	4.096161e-06
229	0x00000000	0.0
230	0x3578060d	9.2396004e-07
231	0x359b395f	1.1565097e-06
232	0x366a2ab5	3.4893576e-06
233	0x00000000	0.0
234	0x35def7cb	1.6612406e-06
235	0x35f9eee9	1.8621478e-06
236	0x3690ab43	4.311472e-06
237	0x00000000	0.0
238	0x3531584b	6.606612e-07
239	0x3579468a	9.2862376e-07
240	0x3675dd76	3.6636752e-06
241	0x00000000	0.0
242	0x35bef6d4	1.422794e-06
243	0x35dd6fb9	1.6498299e-06
244	0x368f73e8	4.2752254e-06
245	0x00000000	0.0
246	0x354751ba	7.4252205e-07
247	0x3588aa2c	1.0182316e-06
248	0x366fe70e	3.5748267e-06
249	0x00000000	0.0
250	0x35b5c3e6	1.3542565e-06
251	0x35d4cd86	1.5855046e-06
252	0x36897073	4.096009e-06
253	0x00000000	0.0
254	0x358e0839	1.0582218e-06
255	0x35ad493a	1.2910816e-06

exp_avg f4 [128]
0	0x373a9984	1.1122207e-05
1	0xb7bc8b4a	-2.2476208e-05
2	0x36376f10	2.7333772e-06
3	0x3a85f35b	0.001021962
4	0xba0a4da0	-0.0005275849
5	0x3a2dbbfc	0.0006627438
6	0x39ecc37e	0.0004515908
7	0xb6414a0d	-2.8802344e-06
8	0x37c1948e	2.3076569e-05
9	0xb7b0088a	-2.0984811e-05
10	0x3984471b	0.0002522998
11	0x3b694eb0	0.003559988
12	0x36131b94	2.192076e-06
13	0x39f3857e	0.0004644803
14	0x3a520d84	0.0008012878
15	0xb90983da	-0.00013114457
16	0xb77df80c	-1.5137728e-05
17	0x3a86e032	0.0010290204
18	0xbb09b086	-0.0021009757
19	0x3a868be2	0.0010265077
20	0x39905ab5	0.00027533402
21	0x3b016bb1	0.0019748027
22	0xba15651e	-0.00056989666
23	0xb86e913a	-5.6878875e-05
24	0xba5fe7c0	-0.00085413083
25	0xb837d06c	-4.3824708e-05
26	0x3abe44cf	0.0014516356
27	0x38977be0	7.2233146e-05
28	0xba8dce63	-0.0010818954
29	0xb9c4fcc0	-0.00037572347
30	0x37181a6c	9.066058e-06
31	0x39191bb2	0.00014601534
32	0x3a664a68	0.0008784891
33	0xb65ebe51	-3.3191357e-06
34	0x39a42d6a	0.00031314354
35	0xb6af865c	-5.231048e-06
36	0xb63e2365	-2.8332809e-06
37	0xb8011993	-3.0779815e-05
38	0xb9903782	-0.00027507177
39	0x388e6bbb	6.791154e-05
40	0x37cef5e0	2.4671608e-05
41	0x39bf70b7	0.00036514338
42	0x384715e8	4.74657e-05
43	0xba8365f1	-0.0010024888
44	0x39aac176	0.00032569066
45	0x399b917f	0.00029672307
46	0xbab88f9d	-0.0014080886
47	0x3a7bcb73	0.00096052064
48	0xb9f925c6	-0.00047521124
49	0xb758ad3f	-1.291494e-05
50	0x3a426ae6	0.0007416442
51	0x3a36d47a	0.00069744105
52	0x3a276849	0.0006386084
53	0x386a0cb9	5.5801796e-05
54	0x36925218	4.360696e-06
55	0x3a95e358	0.0011435552
56	0x3a212a1f	0.0006147939
57	0x3aac104f	0.0013127419
58	0x39ac1d35	0.00032828157
59	0x37b94dc2	2.2089927e-05
60	0x3b0ff5ec	0.002196665
61	0xb9808e25	-0.00024519968
62	0x3a5a6fb7	0.0008332687
63	0xb89d84b2	-7.51106e-05
64	0xb83d6ab0	-4.5160472e-05
65	0xba69996f	-0.0008911108
66	0xb9618aca	-0.00021509375
67	0xb53c0d4c	-7.0054807e-07
68	0x386b56ec	5.610932e-05
69	0x35494de3	7.4991675e-07
70	0x3b51867c	0.0031971028
71	0x37c2c723	2.3219332e-05
72	0x377459e0	1.4564459e-05
73	0x3aed0e80	0.0018085986
74	0x3a774d4e	0.00094338215
75	0x3a860295	0.0010224158
76	0xb7f056e4	-2.8650691e-05
77	0x3a7120c0	0.00091983005
78	0xb810e0c3	-3.45416e-05
79	0x3668fc9b	3.471773e-06
80	0x38aeb5c5	8.330824e-05
81	0x3b36214c	0.0027790843
82	0x3b31805c	0.0027084565
83	0x36a60c50	4.948619e-06
84	0xb94ddcbd	-0.00019632555
85	0x39b169ed	0.00033838992
86	0xba90e022	-0.0011053125
87	0xb9dabb42	-0.00041719718
88	0x37a17d70	1.9251107e-05
89	0xba14aaa4	-0.00056711794
90	0x3a0f63ba	0.00054698775
91	0xb853134a	-5.0324285e-05
92	0x3abc18fb	0.0014350706
93	0xb8d611a5	-0.00010207602
94	0x392015e2	0.00015266941
95	0x3a920154	0.0011139312
96	0x383a1164	4.4362052e-05
97	0x38cf4654	9.883629e-05
98	0xb821b9a0	-3.8558268e-05
99	0xbb10294d	-0.0021997273
100	0xba309ac8	-0.00067369314
101	0x384d25f8	4.891117e-05
102	0x399729d0	0.00028832117
103	0xba87e629	-0.0010368276
104	0xba153cb3	-0.0005692944
105	0x394ee218	0.00019729917
106	0x383ed6c4	4.5499546e-05
107	0x3758b6ec	1.2917193e-05
108	0xb9be76b2	-0.0003632806
109	0xb989e487	-0.00026300942
110	0xb890ead8	-6.910198e-05
111	0x3a1f21ec	0.00060704234
112	0x3b2450fb	0.0025072682
113	0x3ac86b05	0.0015290683
114	0x389ea96c	7.5655844e-05
115	0xb9b44362	-0.0003438248
116	0x3782f512	1.5611327e-05
117	0x39035f06	0.00012528533
118	0x398bb45e	0.0002664653
119	0x39da0eee	0.00041591324
120	0xba13fba6	-0.00056451035
121	0xba0291f9	-0.0004980858
122	0xb7071bc8	-8.053095e-06
123	0x393bc426	0.0001790678
124	0xb97c8b6b	-0.0002408453
125	0x38b0ef92	8.4369574e-05
126	0x3a06e583	0.0005145894
127	0x3ad5cf68	0.0016312422

exp_avg_sq f4 [128]
0	0x33be94eb	8.8746525e-08
1	0x334a9538	4.7167504e-08
2	0x330639f1	3.1252004e-08
3	0x37e00509	2.6705226e-05
4	0x36d46338	6.329643e-06
5	0x36a8cede	5.0308727e-06
6	0x3790788d	1.7222274e-05
7	0x36c535a0	5.8773003e-06
8	0x342f8a33	1.6348422e-07
9	0x3276272a	1.43279895e-08
10	0x373ff0c2	1.1440543e-05
11	0x395077c4	0.00019881042
12	0x33375e7a	4.2693934e-08
13	0x37f9aa17	2.9762317e-05
14	0x36b867b6	5.495701e-06
15	0x3669a85f	3.481771e-06
16	0x37a72b5c	1.9928142e-05
17	0x37a9ff3f	2.0265228e-05
18	0x38bc8b07	8.9904344e-05
19	0x37854733	1.588799e-05
20	0x3727e29e	1.0006739e-05
21	0x389a09b6	7.345101e-05
22	0x3800cb3d	3.070686e-05
23	0x35d5474b	1.5890486e-06
24	0x37d03743	2.4821265e-05
25	0x336d575d	5.526032e-08
26	0x3861c913	5.3831445e-05
27	0x33115efd	3.3846835e-08
28	0x388eb530	6.8048364e-05
29	0x37dbdb71	2.620902e-05
30	0x368a87cf	4.1285307e-06
31	0x38020a48	3.100399e-05
32	0x379fe253	1.9059667e-05
33	0x3202d8c7	7.616285e-09
34	0x379a74b9	1.8412584e-05
35	0x31fd269b	7.367658e-09
36	0x32062fe8	7.810719e-09
37	0x335b2cd8	5.1030696e-08
38	0x3782cef6	1.5593581e-05
39	0x3804d406	3.1668715e-05
40	0x3212ab11	8.5372145e-09
41	0x37b21234	2.122773e-05
42	0x3292b224	1.7077646e-08
43	0x37c20715	2.31299e-05
44	0x3785dd6c	1.5957943e-05
45	0x36d9dde0	6.4929336e-06
46	0x3926b9a8	0.00015900156
47	0x375ec4f9	1.3278092e-05
48	0x37b8d177	2.2032049e-05
49	0x3201b451	7.5497875e-09
50	0x37a46ff9	1.9602465e-05
51	0x381c32c3	3.7240574e-05
52	0x37e06651	2.6750526e-05
53	0x34b6a500	3.4020195e-07
54	0x30a8417b	1.224222e-09
55	0x37989bfa	1.8192444e-05
56	0x3700ceea	7.6775705e-06
57	0x372f9c84	1.04672545e-05
58	0x37f1e805	2.8837481e-05
59	0x3685c8ff	3.987108e-06
60	0x384f525b	4.9429345e-05
61	0x365e9612	3.316793e-06
62	0x385a050a	5.1979943e-05
63	0x35d848a2	1.6114393e-06
64	0x35b826b7	1.3720336e-06
65	0x3786b528	1.6058402e-05
66	0x36a0db87	4.793928e-06
67	0x332b81d8	3.9932132e-08
68	0x33223f6b	3.7776243e-08
69	0x2eb9cf39	8.449636e-11
70	0x3992366a	0.00027887832
71	0x34465a76	1.8473096e-07
72	0x32028ddc	7.599251e-09
73	0x3803b0bc	3.139743e-05
74	0x37154d13	8.899037e-06
75	0x381c0f7a	3.7207712e-05
76	0x32a86d9e	1.9607622e-08
77	0x37445a9d	1.1703608e-05
78	0x33c4002e	9.126994e-08
79	0x31aa8ab2	4.963419e-09
80	0x33adc0b8	8.0909956e-08
81	0x3906fd4b	0.00012873595
82	0x38c9d96c	9.624925e-05
83	0x2fc6c1b0	3.6153613e-10
84	0x3810c32c	3.4514043e-05
85	0x379835d9	1.8144887e-05
86	0x3833d96d	4.287942e-05
87	0x3781da68	1.5479702e-05
88	0x36583e68	3.2222833e-06
89	0x37bcf4a2	2.2525262e-05
90	0x381c80d9	3.7313297e-05
91	0x334d0ae5	4.774019e-08
92	0x37edf4c7	2.8366585e-05
93	0x343075e7	1.643417e-07
94	0x37a68ed1	1.9855246e-05
95	0x3796a084	1.795614e-05
96	0x332e8020	4.062906e-08
97	0x377d5eda	1.51020595e-05
98	0x34bf94ae	3.56847e-07
99	0x386538d7	5.465079e-05
100	0x36c7155e	5.9331496e-06
101	0x32a77375	1.9493863e-08
102	0x373247f7	1.0626382e-05
103	0x370cc675	8.390857e-06
104	0x36c1aa75	5.771692e-06
105	0x367f7f23	3.8071964e-06
106	0x36d75fc7	6.4186493e-06
107	0x326241a5	1.3169857e-08
108	0x362c7a0b	2.5701036e-06
109	0x36a4b620	4.908783e-06
110	0x348c6302	2.614907e-07
111	0x37c9645b	2.4007799e-05
112	0x38b2ba66	8.522421e-05
113	0x3789bec6	1.6420508e-05
114	0x340104d0	1.2015812e-07
115	0x3700e023	7.68158e-06
116	0x32b08d9a	2.055349e-08
117	0x383b079b	4.4591357e-05
118	0x36675517	3.4471211e-06
119	0x3831b5c5	4.2369375e-05
120	0x37ac17dd	2.051511e-05
121	0x373bdb12	1.1197075e-05
122	0x339fdeb6	7.444525e-08
123	0x358cebeb	1.0499474e-06
124	0x3671b7f7	3.601888e-06
125	0x338696df	6.2673045e-08
126	0x36e6304c	6.8601566e-06
127	0x38a16701	7.696264e-05
