GameAI3/Config/results/dwarf_2/Dwarf/Dwarf-499970.onnx (onnx, 96564 bytes, 7 tensors)

network_body._body_endoder.seq_layers.0.weight f4 [128, 53]
0	0xbda50045	-0.08056692
1	0xbe0d68db	-0.1380953
2	0x3e327160	0.17426062
3	0x3d9548ab	0.07289251
4	0xbc01c51f	-0.0079205325
5	0x3d630c4e	0.055431657
6	0x3d010754	0.03150113
7	0x3e3c85b0	0.18410373
8	0x3e81eab0	0.25374365
9	0xbdf565dc	-0.11982319
10	0x3d37f496	0.04491099
11	0x3e522d97	0.20525204
12	0x3ca4b0e0	0.020103872
13	0xbda9f22c	-0.08298144
14	0xbef361bf	-0.47535512
15	0x3da8c592	0.082408085
16	0xbd788cb2	-0.060681053
17	0x3ec27ea3	0.3798724
18	0x3e1509a6	0.14554462
19	0xbc72c9f1	-0.014818654
20	0x3dcaa6b1	0.09895075
21	0x3d003bde	0.031307094
22	0x3e1f1d92	0.15538624
23	0xbce92d1a	-0.028463889
24	0x3c53690a	0.012903461
25	0x3dd6350b	0.10459336
26	0xbd849293	-0.06473269
27	0xbdf6b28b	-0.12045773
28	0xbcb8558c	-0.02250173
29	0x3e5c12a6	0.21491489
30	0x3e11bca2	0.14232114
31	0x3db59627	0.0886653
32	0xbea5a0b8	-0.3234918
33	0x3e671792	0.22567585
34	0xba95f36b	-0.0011440342
35	0xbcb62c1c	-0.02223783
36	0xbe59868a	-0.21242729
37	0x3e3ef3ea	0.18647733
38	0xbda92024	-0.082580835
39	0x3c9aaee8	0.01888223
40	0xbe08b785	-0.13351257
41	0x3e6b4b23	0.22977881
42	0x3e92fb33	0.28707275
43	0xbdee2634	-0.116283804
44	0x3e088ad8	0.13334215
45	0xbcdac23e	-0.02670395
46	0xba5ae2aa	-0.00083498156
47	0xbde0f98a	-0.10985096
48	0x3e77a2e8	0.24183238
49	0xbd131f93	-0.035918783
50	0xbd43fbfe	-0.04784774
51	0xbddfa450	-0.10920012
52	0x3b97750a	0.0046221064
53	0xbe021e28	-0.12706816
54	0xbbfc2848	-0.0076952316
55	0x3be2aeb9	0.006917801
56	0x3d275944	0.040856615
57	0xbda049bf	-0.07826566
58	0x3c9b184c	0.018932484
59	0x3ea2fb95	0.31832567
60	0x3cba97f0	0.022777528
61	0xbe225046	-0.15850934
62	0x3dffe9ba	0.12495752
63	0x3cd3fb62	0.025876705
64	0x3de92830	0.11384618
65	0x3d857338	0.06516117
66	0x3e641e87	0.2227727
67	0x3e5cafad	0.2155139
68	0x3ea983b0	0.33108282
69	0x3b0f9f29	0.0021914935
70	0xbe4c034a	-0.1992313
71	0xbea25b2a	-0.31710178
72	0xbdad919c	-0.084750384
73	0x3df554e6	0.11979084
74	0xbda52ca2	-0.08065154
75	0xbe82ab39	-0.25521258
76	0x3cb5baa0	0.022183716
77	0x3bfcbd7e	0.007713019
78	0xbe36e17a	-0.1785945
79	0xbc559f6e	-0.013038499
80	0xbe085280	-0.13312721
81	0x3e26b761	0.16280891
82	0xbea17f4e	-0.31542438
83	0x3da58a74	0.080830485
84	0x3dae10b9	0.08499283
85	0x3c1bb629	0.00950388
86	0xbe0490a6	-0.12945804
87	0xbcb1ca75	-0.021702984
88	0x3e3dafe9	0.18524136
89	0x3d8975fa	0.06711955
90	0x3c8378d9	0.016048836
91	0xbd73a7e0	-0.05948627
92	0xbdc8c7da	-0.09803744
93	0xbe8b9fbf	-0.27270314
94	0xbd1a04fc	-0.03760241
95	0x3e4f2349	0.20228304
96	0xbc3897f8	-0.011266701
97	0xbd5ac01b	-0.053405862
98	0x3c7d67f8	0.015466683
99	0xbd09f9b3	-0.033685397
100	0xbd31ea92	-0.043436594
101	0xbe415dfa	-0.18883505
102	0x3bb1d703	0.0054272427
103	0xbd10e821	-0.035377625
104	0xbe2068bf	-0.15664957
105	0xbe2e0705	-0.16994865
106	0x3e1803b7	0.14845167
107	0x3ca3e234	0.020005323
108	0x3d6ec992	0.0582977
109	0xbcf438fa	-0.029812325
110	0x3e65ded0	0.22448277
111	0xbe313579	-0.17305554
112	0x3eb6ef58	0.3572948
113	0x3dddc541	0.10828639
114	0x3b97b6fc	0.0046299677
115	0x3cb9e912	0.022694144
116	0x3d7447f6	0.05963894
117	0x3e36f629	0.1786734
118	0x3dea470c	0.11439332
119	0xbdd43286	-0.10361199
120	0xbe2adf63	-0.16686778
121	0x3e9b6a2b	0.30354437
122	0x3dc764af	0.09736001
123	0xbc639603	-0.013890746
124	0x3e22b8d4	0.15890819
125	0x3e70c3ba	0.23512164
126	0x3e53feae	0.20702621
127	0xbda174e7	-0.078836255
128	0x3d8d2efb	0.068937264
129	0x3d424c18	0.04743585
130	0x3d8e4abb	0.069478475
131	0xbe4abccd	-0.19798584
132	0x3eae66d0	0.34062815
133	0x3e841756	0.25799054
134	0xbbb77231	-0.0055983295
135	0x3dd8e8f8	0.1059131
136	0xbd99a22b	-0.07501634
137	0x3e66a704	0.22524649
138	0x3de13b1f	0.109976046
139	0xbd7f5c39	-0.06234381
140	0xbb8d79d6	-0.0043175025
141	0x3c885042	0.016639832
142	0xbd7a9b49	-0.061183248
143	0x3e05d6af	0.13070177
144	0x3e237be6	0.15965232
145	0x3d9c29fc	0.076251954
146	0x3d29426c	0.04132311
147	0x3e4221f5	0.18958266
148	0xbc3f6a76	-0.011683097
149	0xbe4a3739	-0.19747628
150	0x3d0abe3b	0.033872824
151	0x3c946cb2	0.018118236
152	0xbcfc98e1	-0.030834617
153	0xbe045eff	-0.12926863
154	0xbe0129a3	-0.1261354
155	0x3e013419	0.1261753
156	0xbe3d747d	-0.18501468
157	0x3efa0331	0.4883056
158	0x3e2e6649	0.17031206
159	0xbd91aee9	-0.071134396
160	0xbe187772	-0.14889315
161	0xbd885ae6	-0.066579625
162	0xbe1f084e	-0.15530512
163	0xbcc315fe	-0.023814198
164	0x3def57b4	0.1168665
165	0xbd58bdfb	-0.052915554
166	0xbda5a273	-0.08087625
167	0x3dcc4023	0.099731706
168	0xbe0b3026	-0.13592586
169	0xbe267f33	-0.1625946
170	0xbd5f41ea	-0.05450622
171	0x3e0cb695	0.13741525
172	0x3e1ffe0c	0.15624255
173	0x3d944396	0.072394535
174	0xbd977971	-0.0739621
175	0x3e36f690	0.17867494
176	0xbd3ebb98	-0.046565622
177	0x3d735efa	0.05941675
178	0x3e8d57ec	0.27606142
179	0x3cf91ec0	0.03041017
180	0xbdcbe6f8	-0.09956163
181	0xbe801525	-0.25016132
182	0x3b8a1612	0.004214057
183	0x3e288f13	0.16460828
184	0x3e2fac9c	0.17155689
185	0xbdbb4169	-0.09143335
186	0xbe6a1c0a	-0.22862259
187	0xbe3553b2	-0.17707708
188	0xbc0c5eb2	-0.008567499
189	0x3d9a2bbd	0.07527874
190	0x3e803e24	0.2504741
191	0xbecb3c69	-0.39694527
192	0x3e11ed3a	0.14250651
193	0xbefd1ca4	-0.49435914
194	0x3e9a86a3	0.30180845
195	0x3dcd3eba	0.1002173
196	0x3e14ed08	0.14543545
197	0xbd6c8b99	-0.05775032
198	0x3d67189e	0.05641996
199	0xbe484936	-0.19559178
200	0x3e02c1ee	0.12769291
201	0xbdfcae08	-0.12337881
202	0x3dc2b3f9	0.09506983
203	0xbe9b59fc	-0.3034209
204	0x3e893edc	0.2680577
205	0x3e6dbe9d	0.23217244
206	0x3e0aba8f	0.13547729
207	0xbcdd3b55	-0.02700583
208	0x3e869441	0.26284984
209	0xbdd4ede9	-0.1039694
210	0xbe175829	-0.14779724
211	0x3e2db10a	0.16962066
212	0xbd00ad9b	-0.031415563
213	0x3e18976e	0.14901516
214	0x3ca90add	0.020635063
215	0x3dddef72	0.10836686
216	0xbe2b34d3	-0.1671937
217	0x3d5f35db	0.05449472
218	0x3e24676e	0.1605508
219	0x3d9d4dbc	0.07680842
220	0x3d649520	0.05580628
221	0x3e04478b	0.12917916
222	0xbe279182	-0.163641
223	0xbbb9c583	-0.005669297
224	0xbe4ca85e	-0.19986102
225	0xbe28c130	-0.16479945
226	0x3e58d234	0.21173936
227	0xbdd4e18e	-0.10394584
228	0x3e51ecdb	0.2050051
229	0xbda10fc0	-0.07864332
230	0xbe77abfd	-0.24186702
231	0x3d7a576f	0.06111854
232	0xbe63c003	-0.22241215
233	0x3d6a5a86	0.057215236
234	0x3d73bab2	0.05950422
235	0x3d96c326	0.0736144
236	0x3d49b12f	0.04924124
237	0xbdb7b2fc	-0.089696854
238	0x3cd8fbb6	0.026487213
239	0xbb623427	-0.0034515949
240	0xbd9c22a7	-0.07623797
241	0x3d94c3fc	0.072639436
242	0xbce37123	-0.027763909
243	0x3dc88a70	0.0979203
244	0x3d971b4e	0.07378255
245	0x3cb04b96	0.021520417
246	0x3c9b6bdd	0.018972332
247	0xbd22221c	-0.03958331
248	0x3d60d3dd	0.05488955
249	0x3dd09088	0.10183817
250	0x3e5dbe4f	0.21654628
251	0xbc51199d	-0.012762454
252	0xbedf1d7a	-0.43577176
253	0x3c8201aa	0.015869934
254	0x3d5e0374	0.054202512
255	0xbc76cd68	-0.015063621

network_body._body_endoder.seq_layers.0.bias f4 [128]
0	0x3c882d63	0.016623205
1	0xbc177522	-0.009244235
2	0x3c1fec68	0.0097609535
3	0xbbd4e650	-0.006497182
4	0x3c1ae6af	0.009454413
5	0x3c52ecc7	0.012873835
6	0x3adbe0ed	0.0016775407
7	0x3c071eb0	0.008247063
8	0x3c587725	0.013212
9	0xbc82abf4	-0.015951134
10	0x3bda59dc	0.006663544
11	0x3b1e217a	0.002412884
12	0xbcaa69a2	-0.020802323
13	0xbc4f8502	-0.012665989
14	0x3c03793c	0.00802451
15	0xbb9f6ed1	-0.0048655053
16	0xbc8ab5a1	-0.01693231
17	0x3b96d86b	0.0046034358
18	0xbb199a8f	-0.0023438071
19	0xbb52a7c9	-0.0032143465
20	0x3c239537	0.009984306
21	0x3c5a1046	0.013309544
22	0x3ce40941	0.027836444
23	0xbb9277a9	-0.004469831
24	0xbc6407ff	-0.013917922
25	0x3c0c92e0	0.00857994
26	0x3c1411e9	0.009037473
27	0x3c307423	0.010769877
28	0xbb5847a0	-0.0033001676
29	0xbc1c11cd	-0.009525728
30	0xbc720640	-0.014771998
31	0x3cb3a529	0.02192934
32	0xbbddd718	-0.006770026
33	0xbbcaf68c	-0.0061939415
34	0xbc877b12	-0.016538177
35	0xbcc62674	-0.024188258
36	0xbd14bcfb	-0.03631304
37	0xbcb3b2a9	-0.021935778
38	0x3bb77261	0.005598352
39	0x3c1aa1fb	0.009438033
40	0xb9ed0ba8	-0.00045212847
41	0x3d16acc3	0.036785852
42	0xbb97300a	-0.004613881
43	0x3c804b13	0.015660798
44	0x3d5a80ec	0.053345606
45	0x3c40f1f4	0.011776436
46	0x3c3f0644	0.011659209
47	0x3bdd7438	0.006758239
48	0x3bb0fbea	0.0054011242
49	0x3ce26eb1	0.027640672
50	0x3c26b5e4	0.010175202
51	0x3d05eb5e	0.032695167
52	0x3c665225	0.014057671
53	0xbbcf95a4	-0.006334977
54	0x3cc61a99	0.024182605
55	0x3d056a1b	0.032571893
56	0x3cb5b68b	0.02218177
57	0x3beffa44	0.007323535
58	0x3b4c66fd	0.0031189315
59	0xbb9738e7	-0.0046149376
60	0x3c216a26	0.009851968
61	0xbbd8ed05	-0.006620052
62	0xbb441665	-0.0029920575
63	0x3b98910f	0.004655964
64	0xbc058f53	-0.008151847
65	0xbc4990ab	-0.012302558
66	0x3a6a184b	0.00089300115
67	0x3c0b6420	0.008507758
68	0xbbc92eec	-0.0061396267
69	0x398fdace	0.00027438108
70	0x3c53a3a9	0.012917438
71	0xbc4c6721	-0.01247576
72	0x3c2e1f39	0.010627561
73	0xbc70d94b	-0.014700244
74	0xbd02272a	-0.03177563
75	0xbc8d1bb2	-0.01722512
76	0xbc2a6d72	-0.01040207
77	0xbc1a0414	-0.009400386
78	0x3990f3e0	0.0002764752
79	0x3b8d506a	0.0043125646
80	0xbbae1a53	-0.0053131967
81	0x3c382acd	0.011240673
82	0xbc09171c	-0.008367326
83	0x3bc8ab10	0.006123908
84	0x3c812266	0.015763473
85	0xbbc2d658	-0.005945962
86	0xbc89f34c	-0.016839646
87	0xbc2a9f17	-0.010413907
88	0xbc12bd00	-0.008956194
89	0x3b0d3108	0.0021544117
90	0xbadb6344	-0.0016737957
91	0xbcaefcfa	-0.021360863
92	0xbbfcaed8	-0.0077112727
93	0x3bd6e960	0.006558582
94	0xbc24f54d	-0.01006825
95	0xbbfddd94	-0.0077473614
96	0xbbb61677	-0.0055568772
97	0xbc94e2a6	-0.01817448
98	0xbc970af1	-0.018437834
99	0xbcb40529	-0.021975117
100	0x3c025f12	0.007957237
101	0x3c802fec	0.01564785
102	0x3cccaaf6	0.024983864
103	0x3a94e5be	0.0011359972
104	0x3c26334f	0.010144069
105	0x3b87e141	0.0041467254
106	0x3c92937b	0.01789259
107	0x3c457618	0.0120520815
108	0x3c30db5b	0.010794486
109	0x3aa91062	0.0012898559
110	0xbc7043d6	-0.014664611
111	0xbbd84d3e	-0.006601005
112	0xbc107de5	-0.008819078
113	0x3c2e92fa	0.010655159
114	0xbc00c837	-0.007860235
115	0xbc2a572a	-0.010396758
116	0x3bbf9fd8	0.0058479123
117	0xba793de8	-0.0009507821
118	0xbb8dc5b1	-0.004326545
119	0x3c04814c	0.008087467
120	0xbb4a986d	-0.0030913607
121	0x3c8be152	0.017075215
122	0xbaebc1d5	-0.0017986844
123	0x3cbca79f	0.023029147
124	0x3c761d43	0.015021625
125	0x3bb9961c	0.0056636464
126	0x3baa5125	0.0051976615
127	0xbc07f3e9	-0.008297899

network_body._body_endoder.seq_layers.2.weight f4 [128, 128]
0	0x3c6e6bf1	0.014552102
1	0xbd82ccad	-0.06386695
2	0x3cd46d46	0.025931012
3	0x3d04c0f1	0.032410566
4	0x3dce774c	0.10081348
5	0xbb05b8fb	-0.0020404446
6	0x3da72a13	0.08162322
7	0x3b099c99	0.002099788
8	0x3df395ec	0.1189383
9	0x3dfc06ae	0.123059615
10	0xbc9ced15	-0.019156018
11	0xbdcc9d10	-0.09990895
12	0xbe03a069	-0.1285416
13	0xbbf2354e	-0.0073916083
14	0xbe1ba509	-0.15199675
15	0x3de60800	0.11231995
16	0x3d8eb76b	0.06968578
17	0x3b8c8d8e	0.0042893356
18	0x3ddc72f1	0.10764111
19	0x3bee420f	0.0072710584
20	0x3e0960f1	0.13415886
21	0x3d97c17f	0.07409953
22	0x3e0ef514	0.13960677
23	0x3b07a5d9	0.0020698218
24	0xbd39f419	-0.045398805
25	0xbd6a7211	-0.05723769
26	0xbe36eba9	-0.17863335
27	0x3d1505fd	0.036382664
28	0x3da78665	0.081799306
29	0xbdff8155	-0.1247584
30	0x3e5925aa	0.21205774
31	0xbd95253e	-0.07282494
32	0x3db29187	0.087191634
33	0x3ceda3fe	0.029008862
34	0xbd026355	-0.03183301
35	0xbd36a198	-0.0445877
36	0x3dba0080	0.090821266
37	0x3cc2a583	0.023760563
38	0xbe2cda49	-0.16880144
39	0x3cf52d87	0.029928936
40	0xbe003e24	-0.12523705
41	0x3d7a2dcd	0.061078835
42	0xbad9ced7	-0.0016617429
43	0xbab75456	-0.0013986926
44	0x3d87703e	0.066132054
45	0x3d6d7f95	0.057983
46	0xbe46284c	-0.1935131
47	0xbd50c4d6	-0.050968967
48	0xbcf1ae98	-0.029502198
49	0xbcd948f9	-0.026524054
50	0x3ddba82e	0.10725437
51	0x3e1fca7d	0.15604587
52	0x3d8b47e9	0.06800825
53	0xbd2535c9	-0.040334497
54	0xbca2d995	-0.019879142
55	0xbb08760f	-0.0020822322
56	0xbc8b56eb	-0.01700922
57	0x3d48f7f2	0.049064584
58	0xbd3baa70	-0.04581684
59	0x3dabefc8	0.08395344
60	0x3d7e8bab	0.062144917
61	0xbd81cc1c	-0.06337759
62	0xbdbc8da5	-0.09206704
63	0xbe44f5fc	-0.1923446
64	0xbd42cbc4	-0.047557607
65	0xbdb7bf2f	-0.08972012
66	0xbc96e0b4	-0.018417694
67	0x3e0534aa	0.13008371
68	0x3d084555	0.033269245
69	0xbd7b07a3	-0.06128658
70	0x3d94dd6f	0.072687976
71	0xbde106a2	-0.10987593
72	0x3db187d1	0.08668483
73	0xbe0e714c	-0.13910407
74	0xbd93fa6c	-0.072254986
75	0xbe0fc9cd	-0.14041825
76	0x3e0cd761	0.13754036
77	0xbb0b869c	-0.002128995
78	0xbd6a857d	-0.05725621
79	0x3d1741b9	0.036927912
80	0x3cc956a1	0.02457744
81	0xbce4e6b1	-0.027942033
82	0xbdc79a93	-0.097462796
83	0x3e0af5ba	0.135703
84	0xbdf07b75	-0.117422976
85	0xbdd71937	-0.10502856
86	0x3d52d590	0.0514732
87	0x3e1ffdd5	0.15624173
88	0xbd3a8c93	-0.04554422
89	0xbe38eb6f	-0.18058561
90	0x3db748bd	0.089494206
91	0x3c5737e0	0.01313588
92	0x3da4b847	0.080429606
93	0x3cab4bc7	0.020910157
94	0x3e27894a	0.16360965
95	0xbd187626	-0.03722205
96	0x3bde7613	0.006788978
97	0xbd5f85f6	-0.054571114
98	0x3cac9ea4	0.02107174
99	0x3c1f07ba	0.009706432
100	0xbc9377be	-0.018001433
101	0x3cdea996	0.027180474
102	0xbe33a399	-0.17542876
103	0x3c8f09f9	0.01746081
104	0x3e153172	0.14569643
105	0x3db22fa7	0.08700495
106	0x3aa8f4e3	0.0012890365
107	0xbc8db99b	-0.017300418
108	0xbe00ea97	-0.12589489
109	0xbd34381b	-0.04399882
110	0xbccebe50	-0.025237232
111	0xbdd263ac	-0.10272917
112	0xbde4e72b	-0.11176904
113	0xbe125e31	-0.14293744
114	0xbe6e7f46	-0.23290738
115	0x3e0e2ae4	0.13883549
116	0x3e11ed17	0.14250599
117	0xbd0e3b67	-0.03472462
118	0xbdbb19a0	-0.09135747
119	0xbdfa5680	-0.1222353
120	0x3e177ff2	0.14794901
121	0xbdb5ddaf	-0.088801734
122	0x3c152edb	0.0091054095
123	0xbd18074e	-0.03711634
124	0x3d1d3a98	0.038385957
125	0xbdeb3b62	-0.11485936
126	0xbd8dc0d8	-0.06921548
127	0xbd38102d	-0.0449373
128	0xbcfb4abf	-0.03067529
129	0xbd1b5917	-0.03792676
130	0x3e66ac5f	0.22526692
131	0xbdd29028	-0.10281402
132	0x3d19bf36	0.03753587
133	0x3deaea5b	0.11470481
134	0x3ca1119f	0.019661723
135	0x3b5fce38	0.0034150016
136	0x3c7ffca6	0.015624201
137	0x3dd3d020	0.10342431
138	0xbd286d50	-0.041119874
139	0xbcdf2db6	-0.027243476
140	0xbdd78374	-0.105231196
141	0xbe25c275	-0.1618746
142	0x3d4b7388	0.049670726
143	0xbc38bdce	-0.011275722
144	0x3e695ebb	0.22790043
145	0x3e14f515	0.14546616
146	0xbbc76ff9	-0.006086346
147	0xbb25d193	-0.0025301918
148	0xbd19b4b7	-0.03752586
149	0xbc8e42d6	-0.017365854
150	0x3e3b57d0	0.18295217
151	0xbb82e678	-0.003994759
152	0xbda3aa6a	-0.07991488
153	0x3d98e7ff	0.07466125
154	0xbca1263f	-0.019671557
155	0xbd863382	-0.06552793
156	0xbd95b90c	-0.073106855
157	0xbdd33fa2	-0.10314871
158	0x3bc7ec09	0.0061011356
159	0x3d8dec1e	0.069298014
160	0x3caa55da	0.02079289
161	0xbdbc491f	-0.09193634
162	0xbc7a654a	-0.015282938
163	0xbd3bb908	-0.045830756
164	0xbdb20a59	-0.0869338
165	0xbdba43b3	-0.09094944
166	0xbdbca325	-0.09210805
167	0xbde95bc2	-0.113944545
168	0x3d78069a	0.06055317
169	0xbd6b65cb	-0.057470124
170	0x3e081acf	0.13291477
171	0xbd2476d5	-0.04015239
172	0xbe2996ba	-0.16561404
173	0xbd81008a	-0.06298931
174	0xbcecc181	-0.028900864
175	0x3e2dd59d	0.16976018
176	0x3dd42dea	0.1036032
177	0x3d0ce688	0.03439954
178	0xbd0c6a10	-0.034280837
179	0x3d39088b	0.045174163
180	0x3d49008d	0.04907279
181	0xbd6f7f67	-0.05847111
182	0x3e1c961f	0.15291642
183	0x3dba634e	0.09100972
184	0x3ca395d6	0.019968908
185	0xbc41f5f4	-0.011838425
186	0x3e81657b	0.25272736
187	0x3d75c73f	0.06000447
188	0xbde37434	-0.11106148
189	0x3dc21437	0.09476512
190	0xbe425034	-0.18975908
191	0x3cdd820b	0.027039548
192	0xbc934233	-0.017975902
193	0xbc4872d0	-0.012234405
194	0xbcb9908a	-0.02265193
195	0xbdecb55e	-0.115580305
196	0xbd47d69c	-0.04878865
197	0x3c68c3e1	0.014206857
198	0xbd096b33	-0.0335495
199	0xbddbaf3f	-0.10726785
200	0xbd955e04	-0.07293323
201	0xbe206128	-0.15662062
202	0x3c8b3098	0.016990945
203	0xbd9913cb	-0.07474478
204	0x3e4fc45f	0.20289753
205	0x3cf3148f	0.029672889
206	0xbdd7ebe5	-0.1054304
207	0xbdbbfbed	-0.091789104
208	0xbe8146ff	-0.25249478
209	0x3c960ada	0.018315721
210	0xbd04b269	-0.032396708
211	0x3ea7c506	0.32767504
212	0xbe0cdbf1	-0.13755776
213	0x3b9f03f5	0.0048527666
214	0x3c228297	0.00991883
215	0x3d9a3cb3	0.07531109
216	0xbcd49c28	-0.025953367
217	0x3e290a39	0.16507806
218	0x3d3166ca	0.043310918
219	0x3d26b442	0.04069925
220	0x3c22fca5	0.00994793
221	0x3d4bd202	0.049760826
222	0x3e06ab6a	0.13151327
223	0x3de5b52c	0.112161964
224	0xbdfee131	-0.124452956
225	0x3dc6f762	0.09715153
226	0x3c92a014	0.017898597
227	0xbc3a2756	-0.0113619175
228	0x3d4a016d	0.049317766
229	0xbc548972	-0.012972223
230	0x3e61da06	0.22055826
231	0xbdb33301	-0.087499626
232	0x3deee89f	0.11665463
233	0xbda25a49	-0.07927377
234	0x3daa2c2c	0.08309206
235	0x3db38bb8	0.087668836
236	0x3d62ed3f	0.055402037
237	0x3cb9ce39	0.022681342
238	0xbd9240bb	-0.071412526
239	0xbcb9ae31	-0.022666069
240	0x3db111cc	0.086459726
241	0x3d524c6a	0.051342405
242	0x3d8d0708	0.06886107
243	0xbd62b5fe	-0.055349343
244	0x3c85e28f	0.016343383
245	0xbd7ad5e6	-0.061239146
246	0x3d469024	0.048477307
247	0xbd048eca	-0.032362737
248	0xbb9003af	-0.0043949704
249	0xbe159a5b	-0.14609663
250	0xbd853783	-0.06504729
251	0xbd4ad730	-0.049521625
252	0x3de32022	0.11090113
253	0xbe1b8fb4	-0.15191537
254	0xbca1b1c2	-0.019738082
255	0x3d34b50b	0.04411797

network_body._body_endoder.seq_layers.2.bias f4 [128]
0	0xbc43da86	-0.0119539555
1	0x3aff8c96	0.0019496854
2	0x3c414258	0.011795603
3	0x3c3a1004	0.0113563575
4	0xbc0395ae	-0.008031292
5	0xbc4e7dbd	-0.0126032205
6	0xbc0ec1df	-0.008713215
7	0x3b6fa473	0.0036566525
8	0xbc8ab7e8	-0.016933396
9	0x3c113571	0.008862839
10	0xbace3f15	-0.0015735353
11	0xbc445f52	-0.011985617
12	0xbcbb1272	-0.022835944
13	0x3aadb49a	0.0013252676
14	0x3c133be9	0.008986452
15	0xbc4ea071	-0.012611494
16	0x3cae379f	0.021266757
17	0x3c10cbb8	0.008837633
18	0xbc2b2b18	-0.010447286
19	0xbb835e2a	-0.004009028
20	0xbbd7a7e0	-0.0065812916
21	0x3b793c55	0.0038030345
22	0xbb1d9f2b	-0.002405117
23	0x3c1247d4	0.008928258
24	0x3bdf3d67	0.0068127397
25	0xbb1a6b7d	-0.0023562603
26	0x3b927b50	0.0044702664
27	0xbbf9edaa	-0.0076272087
28	0x3caabadb	0.020841053
29	0xbb3fa69b	-0.0029243592
30	0x3b3823f2	0.0028097597
31	0xbb95e14f	-0.004573978
32	0xbbffef7c	-0.007810531
33	0x3cc0e962	0.023548786
34	0x3b0846e9	0.002079422
35	0x3c83731b	0.016046098
36	0xba49e251	-0.0007701265
37	0x3c535241	0.012898029
38	0xbc7c3284	-0.015392903
39	0xbaec861f	-0.0018045342
40	0x3b293e67	0.0025824548
41	0x3bf289e7	0.007401693
42	0x3bdab134	0.0066739563
43	0xbc160ffa	-0.009159083
44	0x3b8b0bf4	0.0042433683
45	0x3ba3a007	0.004993442
46	0x3c1ba4f8	0.009499781
47	0xbc1e2bf0	-0.00965403
48	0xbbfd5b5e	-0.007731839
49	0xbc945634	-0.018107511
50	0x3b1357e9	0.0022482818
51	0x3a91f96a	0.0011136953
52	0x3c987f2f	0.018615333
53	0x3b994bd1	0.0046782275
54	0xbbc24047	-0.0059280726
55	0x3b4a87ff	0.0030903814
56	0x3c73ba94	0.014876027
57	0x3ba25aae	0.0049546575
58	0x3b88e959	0.004178208
59	0x3bab0c12	0.0052199448
60	0xba14b37e	-0.00056724984
61	0x3b525886	0.003209622
62	0x3b57c2bf	0.0032922474
63	0xbb3af15b	-0.0028525207
64	0xbc4478d4	-0.011991698
65	0xbbef9ed7	-0.0073126364
66	0x3c03db91	0.008047954
67	0xbc8d8887	-0.017277015
68	0x39a80f4f	0.00032054863
69	0x3b622817	0.0034508759
70	0x3baf0573	0.005341226
71	0x3c72a85c	0.014810648
72	0xba50e2e9	-0.00079683826
73	0x3b417223	0.0029517494
74	0xbc5989c2	-0.013277473
75	0xbad3fcd1	-0.0016173368
76	0x3c356bab	0.011073033
77	0x3aa1064b	0.0012285201
78	0x3c59d289	0.013294824
79	0xbc846df4	-0.016165711
80	0xbbf14967	-0.0073634866
81	0xbb7b2e1a	-0.003832704
82	0x3c4fb97d	0.012678501
83	0x3c85c9e7	0.016331626
84	0xbc4457f3	-0.011983859
85	0xbc3fbf58	-0.011703335
86	0x3b4e0fe6	0.0031442582
87	0xbc285972	-0.010275232
88	0x3c91f8d2	0.017818842
89	0x3b37f7d7	0.0028071308
90	0x3bb1e675	0.005429084
91	0xbbfe9842	-0.0077696154
92	0xbcbc8815	-0.023014108
93	0x3befc443	0.0073170974
94	0x399a1450	0.00029388303
95	0x3b8c5fe5	0.0042838925
96	0x3bee5dfb	0.007274387
97	0xbc64d828	-0.013967551
98	0xbc40cc21	-0.011767418
99	0xbb88f42b	-0.0041794977
100	0x3c3cda27	0.011526621
101	0xbc3cc233	-0.01152091
102	0xbc9130d3	-0.017723477
103	0x3c034e39	0.008014255
104	0x3a78cdac	0.0009491097
105	0x3ac1ff1b	0.0014800759
106	0x3c2c7202	0.010525228
107	0xbbb45caf	-0.005504213
108	0x3bc40bff	0.0059828754
109	0xbc86ecc2	-0.016470317
110	0x3c2a9d94	0.010413546
111	0x3bdfb6d7	0.006827216
112	0x3a75c646	0.00093755533
113	0xbb2b2bcd	-0.0026118637
114	0xbbfa2940	-0.007634312
115	0x3b0ab3ed	0.0021164373
116	0x3aea6a42	0.001788445
117	0xbc0e4ed2	-0.008685784
118	0x3c0e1da6	0.008674061
119	0xbc59d27e	-0.013294814
120	0x39906175	0.00027538431
121	0xbc78c4cc	-0.015183639
122	0xbc8d23fd	-0.017229075
123	0x3bacd122	0.005273954
124	0xbafe66c8	-0.0019409293
125	0xba32f870	-0.0006827181
126	0xbc456a66	-0.012049293
127	0xbc8b220e	-0.016984012

action_model._continuous_distribution.log_sigma f4 [1, 2]
0	0x3c044718	0.008073591
1	0x3d2c219b	0.042024236

action_model._continuous_distribution.mu.weight f4 [2, 128]
0	0xbca22773	-0.019794201
1	0x3d0e2c46	0.03471019
2	0xbd06a2a0	-0.032869935
3	0xbd4747d2	-0.048652478
4	0x3c103ff3	0.008804309
5	0xbc01f21f	-0.007931261
6	0x3cfb1c44	0.030653127
7	0xbcaeb082	-0.0213244
8	0xbaa0e130	-0.0012274142
9	0xbd32a8d6	-0.043618046
10	0xbd12b907	-0.035820987
11	0xbce2943b	-0.027658572
12	0xbb9f1c7e	-0.0048556915
13	0xbcff4764	-0.031161971
14	0x3cdb05cc	0.026736163
15	0x3c87e07f	0.01658654
16	0xbc7b108c	-0.015323769
17	0x3cf89715	0.030345479
18	0x3c0aead7	0.008478842
19	0x3d028d2d	0.031872917
20	0x3c809402	0.015695576
21	0xbd2fcbc3	-0.04291893
22	0x3bf7f7f5	0.0075674006
23	0x3cba7029	0.02275856
24	0xbd00b9ae	-0.031427078
25	0x3b37c3a9	0.0028040207
26	0xbcb4df33	-0.022079086
27	0xbb2a15c8	-0.0025952924
28	0xbd370746	-0.04468467
29	0x3cab3015	0.02089695
30	0x3cae4205	0.021271715
31	0xbbcbd3b3	-0.006220305
32	0x3c906fde	0.017631467
33	0x3c289290	0.0102888495
34	0xbc86bbd6	-0.016446989
35	0x3c1f2790	0.009714022
36	0x3b5c94f5	0.0033658121
37	0xbd579e4e	-0.052641205
38	0x3c2881e9	0.010284879
39	0x3cfbfdc4	0.030760653
40	0x3c6fdba2	0.014639767
41	0x3c59524e	0.013264252
42	0xbc4029fa	-0.011728758
43	0xbc8349ca	-0.016026396
44	0xbc161a7b	-0.009161587
45	0x3c7a593f	0.015280067
46	0xbaaa26f7	-0.0012981583
47	0x3c166231	0.009178684
48	0x3bdc07ab	0.0067147813
49	0x3b955634	0.0045573954
50	0x3d16ac94	0.036785677
51	0xbd263dfb	-0.040586453
52	0xbd6f6dd7	-0.05845436
53	0xbcf1e6ad	-0.02952894
54	0xbb079fd3	-0.0020694628
55	0xbc34758a	-0.011014352
56	0xbd08139c	-0.033221826
57	0xbbf0e8b4	-0.007351959
58	0x3cb8b8fe	0.022549149
59	0x3c47e0ad	0.012199563
60	0x3bc24eb4	0.0059297923
61	0x3c0b22ad	0.008492154
62	0x3c6f9754	0.014623482
63	0x3c4e425b	0.012589063
64	0x3b637025	0.0034704295
65	0x3b43cfac	0.002987842
66	0xbd0dc334	-0.03460999
67	0x3b885ea6	0.0041616736
68	0xbcaa38b4	-0.020778991
69	0xbbc8df7d	-0.0061301575
70	0x3d2154bf	0.03938746
71	0xbce7c5bf	-0.028292535
72	0x3b10c87d	0.0022092157
73	0xbcc2e739	-0.023791896
74	0x39b95f0d	0.00035356768
75	0x3c90a898	0.017658517
76	0x3ca48ffd	0.02008819
77	0x3cb65082	0.022255186
78	0xbb408238	-0.0029374491
79	0x3cc39a3b	0.023877254
80	0x3d30c0d8	0.04315266
81	0xbc036ef2	-0.008022057
82	0xbd4d1583	-0.050069343
83	0xbd4be42b	-0.049778145
84	0x3c704f1f	0.014667301
85	0x3a300275	0.00067142333
86	0xbb7bc4fa	-0.0038416968
87	0x3ae29f0d	0.0017289832
88	0xbc5132e0	-0.012768477
89	0x3d1226dc	0.03568159
90	0x3ada4114	0.0016651475
91	0x3d036d4a	0.032086648
92	0x3b70f597	0.0036767477
93	0x3cc347d1	0.023837956
94	0x3c5e4265	0.013565634
95	0x3b9cb06f	0.0047817747
96	0x3b70b1a3	0.0036726973
97	0xbc566742	-0.013086142
98	0xbae54efd	-0.0017494854
99	0x3c7d674c	0.015466522
100	0xbcd249b4	-0.02566991
101	0x3c01c5e9	0.007920721
102	0x3c17aeed	0.009258014
103	0x3c2bebe4	0.010493252
104	0x3d07e31c	0.033175573
105	0x3c67c113	0.014145154
106	0x3c719c9b	0.01474681
107	0xbc499dc3	-0.01230568
108	0xbcbb65e9	-0.022875743
109	0x3d4287d7	0.04749283
110	0xbccd195d	-0.025036508
111	0x3bc7f4db	0.006102187
112	0x3c8b1643	0.016978389
113	0xbd1b4414	-0.03790672
114	0x3b495511	0.003072087
115	0xbc01129e	-0.007877974
116	0xbc8614f9	-0.016367422
117	0x3cfdddee	0.030989613
118	0x3b7f6fbf	0.0038976518
119	0xbc2ef2cf	-0.010678007
120	0xbc8817e6	-0.016612958
121	0xbbea480e	-0.007149703
122	0x3ab112a2	0.0013509581
123	0x3becb2b3	0.007223451
124	0x3c6ecbb8	0.0145749375
125	0xbd0b0c6d	-0.033947397
126	0x3cc71606	0.024302494
127	0x3a0f2f41	0.00054620585
128	0xbcafd44b	-0.021463534
129	0xbc7c1d2d	-0.015387815
130	0x3bbaa217	0.005695592
131	0x3822df2c	3.8831655e-05
132	0xbcb8412d	-0.022492016
133	0xbba5ccaa	-0.0050597982
134	0x3b852932	0.0040637488
135	0x3c94044f	0.01806846
136	0xbc84088a	-0.016117353
137	0xbc05d3f5	-0.00816821
138	0xbd2f6f30	-0.042830646
139	0xbcbeaedb	-0.023276737
140	0xbc4a017c	-0.012329455
141	0xbb32b2d9	-0.0027267246
142	0x3c9bd034	0.019020177
143	0xbcd1a7a2	-0.025592629
144	0x3d2d0413	0.042240214
145	0x3c7c971f	0.015416889
146	0xbc674b57	-0.0141170835
147	0xbbbac12b	-0.005699297
148	0xbbddf7c5	-0.006773921
149	0x3c880523	0.016604012
150	0xbc1790fd	-0.0092508765
151	0xbccb05f0	-0.024783105
152	0x3b52cdf9	0.0032166226
153	0x3b8dff83	0.004333438
154	0x3c8c9b19	0.0171638
155	0xbbdd2584	-0.006748857
156	0xbb20a198	-0.002451038
157	0xbc68094d	-0.014162374
158	0xbbeb3272	-0.0071776444
159	0x3c0409f8	0.008059017
160	0xbd0f8d12	-0.035046645
161	0x3d24a2fb	0.040194493
162	0x3cafad99	0.021445083
163	0x3d40a1ca	0.047029294
164	0x3adeb3a5	0.0016990794
165	0x3c636431	0.013878868
166	0xbc8e5542	-0.017374638
167	0x3cbe97d2	0.023265753
168	0x3c17ce1c	0.009265449
169	0x3d13d560	0.036092162
170	0xbd08aca6	-0.033367775
171	0xbd0d5323	-0.034503113
172	0xbc917ac0	-0.017758727
173	0xbd3a5d05	-0.045498867
174	0xbd4904f5	-0.049076993
175	0xbd5e2763	-0.05423678
176	0xbca60be7	-0.020269347
177	0x3b144682	0.0022625034
178	0xbbd6e9d8	-0.006558638
179	0x3c0fb2b2	0.008770632
180	0x3c62746c	0.013821702
181	0xbd08c268	-0.033388525
182	0xbce4f7df	-0.027950225
183	0x3c6f75e9	0.014615514
184	0x3c65dce7	0.014029718
185	0x3c98a505	0.018633375
186	0xbd6743a1	-0.05646098
187	0x3cf72e10	0.030173331
188	0x3c94bc88	0.018156305
189	0x3c904822	0.01761252
190	0xbcf14691	-0.029452594
191	0xbacc5d41	-0.0015591757
192	0x3b8b3277	0.0042479592
193	0x3c35ec4d	0.011103702
194	0x3aded70b	0.0017001344
195	0xbb1b4a7c	-0.002369552
196	0xbbc65381	-0.006052435
197	0x3d0603bf	0.032718416
198	0x3d0057e1	0.031333808
199	0x3c1e7840	0.0096722245
200	0xbcaa3918	-0.020779178
201	0x3b63ad47	0.0034740733
202	0xbd02d04e	-0.031936936
203	0xbd7b74c9	-0.061390672
204	0xbb0752e2	-0.0020648767
205	0xbce23fe0	-0.027618349
206	0x3caf9c52	0.021436844
207	0x3c86d473	0.016458726
208	0x3cae10ba	0.02124821
209	0x3c510be8	0.012759186
210	0xbc391f64	-0.011298988
211	0xbb23a5a8	-0.0024970565
212	0xbbffeedf	-0.007810458
213	0xbc812fd6	-0.01576988
214	0x3c9f2418	0.01942639
215	0xbcd32d5c	-0.025778465
216	0xbbb11806	-0.005404475
217	0xbc3abc05	-0.011397366
218	0x3cc00a08	0.023442283
219	0x3cc33767	0.023830129
220	0xbb71063d	-0.00367774
221	0x3bd2f416	0.0064377887
222	0x3c987d82	0.018614534
223	0x3cd08f26	0.025458883
224	0x3cbfb97b	0.023403874
225	0x3c178877	0.009248844
226	0xbcbc62cc	-0.022996329
227	0xbc859287	-0.016305221
228	0x3d0125a3	0.031530034
229	0xbd04a4c2	-0.032383688
230	0xbb997c68	-0.00468402
231	0x3d1ca3e4	0.038242236
232	0xbc07c946	-0.008287733
233	0x3cbcf70d	0.023067022
234	0x3d0b0180	0.033936977
235	0x3bafbbb0	0.0053629503
236	0x3c13617b	0.008995409
237	0xbce74aad	-0.02823385
238	0xbc0b5c90	-0.008505955
239	0x3d3e680b	0.04648594
240	0x3ccaadf3	0.024741149
241	0xbbb0b772	-0.005392962
242	0x3c3e5ef0	0.011619315
243	0x3c94e096	0.018173497
244	0xbc625fae	-0.013816757
245	0xbd084836	-0.03327199
246	0xbd6d6415	-0.057956774
247	0xbbeeb074	-0.0072842184
248	0xbd34cb86	-0.044139408
249	0xbb8387d1	-0.0040139933
250	0x3b8fb05e	0.0043850383
251	0x3c9725e9	0.018450694
252	0xbce37e64	-0.027770229
253	0xbaa3c8ae	-0.001249572
254	0xbc9df9ac	-0.019284092
255	0xbbb2a95a	-0.005452317

action_model._continuous_distribution.mu.bias f4 [2]
0	0xbb631a35	-0.0034653072
1	0x3c4ecd07	0.0126221245
