GameAI3/Config/results/dwarf_2/Dwarf/Dwarf-20992.onnx (onnx, 96564 bytes, 7 tensors)

network_body._body_endoder.seq_layers.0.weight f4 [128, 53]
-0.093973935 -0.0023970583 -0.093107074 0.07913066 0.03466383 0.09591214 -0.14900947 0.032921888
0.18910663 0.04350454 -0.16920142 0.09380499 0.3230463 0.33932516 -0.092613615 -0.1666252
0.22470531 0.062225677 0.29627058 -0.16481102 -0.00251831 0.14896831 -0.09823119 0.03037951
-0.048252784 0.2677365 -0.077956766 -0.00572671 0.009179116 -0.06268037 0.0723442 -0.018820345
0.15014575 0.056070924 -0.1448616 -0.0261682 0.07771927 0.08943499 -0.2794748 -0.05658419
-0.06174162 -0.02147153 0.016398741 -0.20735507 0.35955182 -0.16668232 -0.23581964 -0.05154132
0.16145788 -0.10737291 -0.016510263 -0.057330746 0.22422378 -0.012055028 -0.019622853 0.056145605
-0.14906359 -0.14581475 0.16312504 0.115269914 0.17725359 -0.17977475 0.057376537 0.17061353
0.025281768 -0.008976836 0.0063090115 0.048945278 -0.10897146 -0.049464438 -0.047096316 -0.10978871
0.070134975 -0.12319251 0.07770032 -0.18456607 0.08534186 -0.08387881 0.018516896 -0.11859679
-0.05185433 -0.19359049 0.008961422 0.08666669 -0.15245728 0.0723703 0.037914462 0.05022073
-0.038432743 -0.08558335 -0.14198449 -0.23331803 -0.09799777 0.17379221 -0.046816893 -0.25717288
0.009083256 -0.116166875 0.23455422 -0.2602525 -0.06621365 0.05598527 0.016731145 0.12585913
-0.14466296 0.07274907 -0.030095052 0.15232092 0.07732523 -0.08316159 -0.14733376 -0.13283104
0.10247513 -0.07092639 -0.06566646 0.05693745 -0.03028895 -0.32799643 -0.07539752 0.09544115
0.006238009 -0.07422126 0.032874584 0.14805484 -0.013353762 0.029120652 0.030456182 0.05403487
0.04491085 -0.082740374 -0.16341536 0.18703154 -0.10350467 0.025359165 0.044087447 0.06334466
-0.0111493105 0.09399158 -0.14677186 0.2951356 -0.008975546 -0.19448788 0.049265064 -0.21459629
-0.10175342 0.13584298 -0.12372471 0.033370845 0.035920613 0.14955634 -0.026085136 0.08536329
-0.10761912 0.021628499 0.010533924 0.12374408 0.065105155 -0.0051120683 -0.2540854 0.47186878
0.013907713 0.026224807 -0.03034872 -0.14178184 -0.0016013255 -0.08490098 0.18714961 -0.054010317
-0.19695008 -0.2578605 0.0065491535 -0.041973736 -0.18316528 0.1007295 0.11921606 0.06520232
0.16079943 0.18205829 -0.047709167 0.1850612 0.14387931 -0.11219102 0.2562007 0.43385723
0.067875355 0.13722065 -0.09939544 0.07135311 0.025741527 0.19356282 0.06469909 -0.06261603
-0.0983233 -0.21220386 0.10817656 0.0018809593 0.24432461 0.055774737 0.25730813 -0.03016403
0.01711521 -0.04666523 -0.08047684 0.16598466 0.07075995 0.05533687 -0.06262748 0.2110209
-0.031069698 -0.038362965 -0.112601906 0.13419494 0.2203793 0.23877813 -0.039428987 -0.26491028
-0.056281872 0.10700173 -0.0176084 -0.08831995 0.07688917 -0.07155745 -0.13877623 -0.005707677
-0.102555975 0.14470708 0.0051837238 0.06302655 0.10983818 0.13084714 -0.0004981341 -0.19753104
0.17826028 0.0091463635 -0.027926683 0.12485527 0.29870304 -0.052295912 -0.06627795 -0.1441579
-0.086205654 -0.13622579 0.19633827 0.10144659 -0.16881995 -0.050302535 -0.14684492 -0.24397184
0.053622 -0.007975605 -0.32655957 -0.023787316 -0.0067596454 0.13630623 -0.1477884 0.049064137
00000000: 6875 c0bd f717 1dbb ecae bebd 410f a23d
00000010: a9fb 0d3d 966d c43d f095 18be 1ad9 063d
00000020: 2ba5 413e d131 323d 2343 2dbe d51c c03d
00000030: 5366 a53e 07bc ad3e 35ac bdbd cc9f 2abe
00000040: 2619 663e 5ae0 7e3d c7b0 973e 38c4 28be
00000050: 3b0a 25bb 268b 183e 6f2d c9bd 73de f83c
00000060: b6a4 45bd c214 893e cca7 9fbd 20a7 bbbb
00000070: 0164 163c 915e 80bd 3229 943d 202d 9abc
00000080: cfbf 193e a0aa 653d 9956 14be b15e d6bc
00000090: 482b 9f3d b129 b73d 5217 8fbe d3c4 67bd
000000a0: c8e4 7cbd 10e5 afbc a756 863c e354 54be
000000b0: 2d17 b83e c5ae 2abe b47a 71be fe1c 53bd
000000c0: 3755 253e 54e6 dbbd 8840 87bc a5d3 6abd
000000d0: eb9a 653e 7482 45bc 1bc0 a0bc eff8 653d
000000e0: 20a4 18be 7650 15be 400a 273e a212 ec3d
000000f0: f781 353e df16 38be a903 6b3d 50b5 2e3e
00000100: b61b cf3c 9413 13bc d3bb ce3b d87a 483d
00000110: 6e2c dfbd 399b 4abd 11e8 40bd e7d8 e0bd
00000120: eda2 8f3d 5b4c fcbd 5821 9f3d e3fe 3cbe
00000130: b7c7 ae3d a7c8 abbd bfb0 973c e0e2 f2bd
00000140: 3565 54bd 963c 46be eed2 123c 4e7e b13d
00000150: c31d 1cbe e136 943d 324c 1b3d 41b4 4d3d
00000160: a76b 1dbd 5346 afbd 6264 11be ecea 6ebe
00000170: 0eb3 c8bd 96f6 313e 12c3 3fbd 2aac 83be
00000180: f0d1 143c e6e8 edbd fb2e 703e d13f 85be
00000190: 069b 87bd cf50 653d c10f 893c 37e1 003e
000001a0: 8722 14be 77fd 943d e689 f6bc 04fa 1b3e
000001b0: b15c 9e3d a050 aabd a9de 16be dc04 08be
000001c0: 7bde d13d db41 91bd 237c 86bd 3e37 693d
000001d0: 8820 f8bc 26ef a7be 046a 9abd a676 c33d
000001e0: 3668 cc3b 5101 98bd 80a7 063d b09b 173e
000001f0: bdc9 5abc 6f8e ee3c 3e7f f93c ab53 5d3d
00000200: 70f4 373d c973 a9bd 5b56 27be 3285 3f3e
00000210: 42fa d3bd 06be cf3c 0a95 343d d8ba 813d
00000220: 99ab 36bc a87e c03d 5d4b 16be 031c 973e
00000230: 2b0e 13bc d527 47be 2aca 493d 21bf 5bbe
00000240: 1964 d0bd 6c1a 0b3e 6163 fdbd deaf 083d
00000250: 7e21 133d 4c25 193e 7fb0 d5bc f3d2 ae3d
00000260: 6a67 dcbd 402e b13c 7b96 2c3c 896d fd3d
00000270: da55 853d 2383 a7bb 7b17 82be c998 f13e
00000280: 2ddd 633c 68d5 d63c e19d f8bc 422f 11be
00000290: 91e3 d1ba 91e0 adbd 26a4 3f3e ec39 5dbd
000002a0: 48ad 49be 4b06 84be 489a d63b a7ec 2bbd
000002b0: ae8f 3bbe 454b ce3d 8d27 f43d cb88 853d
000002c0: 9ba8 243e 7d6d 3a3e b06a 43bd af80 3d3e
000002d0: 1955 133e 68c4 e5bd bd2c 833e 8922 de3e
000002e0: 3c02 8b3d 9283 0c3e d68f cbbd 9421 923d
000002f0: e5df d23c 5535 463e f580 843d d53c 80bd
00000300: ba5d c9bd f84b 59be ac8b dd3d 858a f63a
00000310: 3b30 7a3e 0d74 643d e4bd 833e 8e1a f7bc
00000320: 3235 8c3c 0a24 3fbd 0bd1 a4bd e2f7 293e
00000330: 98ea 903d eaa8 623d d642 80bd dd15 583e
00000340: e185 febc 7c22 1dbd d49b e6bd 666a 093e
00000350: 1cab 613e 4182 743e 4a80 21bd 52a2 87be
00000360: d287 66bd b923 db3d 7e3f 90bc 17e1 b4bd
00000370: 1278 9d3d b68c 92bd 5b1b 0ebe 7707 bbbb
00000380: de08 d2bd 182e 143e 3adc a93b 1014 813d
00000390: d7f2 e03d cbfc 053e 3795 02ba 9445 4abe
000003a0: dd89 363e a1da 153c 80c6 e4bc 1fb4 ff3d
000003b0: 9bef 983e 3d34 56bd bcbc 87bd 219e 13be
000003c0: 978c b0bd c67e 0bbe e60c 493e 3bc3 cf3d
000003d0: 23df 2cbe 080a 4ebd 845e 16be c1d3 79be
000003e0: bea2 5b3d 1dac 02bc d132 a7be 9edd c2bc
000003f0: 0480 ddbb dc93 0b3e d855 17be 7af7 483d

network_body._body_endoder.seq_layers.0.bias f4 [128]
-0.0019516243 0.0022196567 -0.0035307773 0.007801029 0.00032775063 0.0006534895 0.00089256285 0.001101826
-0.0015283872 -0.0019200753 -0.000958439 -0.0019643921 -0.0055529843 -0.0007114517 -0.0030375598 -0.001969242
-0.001333411 -0.0011971104 -0.00045944803 0.0014788051 -0.0026230663 -0.004668679 -0.0017059216 -0.0024267745
0.0017773998 0.002679855 -0.002855417 -0.00058439176 -0.00062279863 -0.0036918824 0.0062418156 0.00012759218
-0.0012223725 -0.0012607947 -0.0026953588 0.0004993663 -0.0036034905 -0.0030699554 0.0056862137 -0.007426897
0.0007499832 -0.00030031096 -0.001099351 0.0016658866 -0.0020356828 -0.00067974743 0.005384435 -0.0010669371
-0.001246364 0.011222483 -0.00067203684 6.883594e-05 0.0046684155 0.00094721705 -0.0046279896 -0.00040043175
-0.0023446698 0.0006523845 -0.0011486069 -0.0009921773 0.005611987 -0.0001939596 0.0014469854 0.00048168242
-0.0027094742 -0.0030552887 -0.001595841 -0.0020733404 -0.0030237816 -0.0024526692 0.0007191997 -0.0009078277
-0.00035980568 -0.0021333776 -0.0013137637 0.00030100043 0.002498607 -0.0024130577 0.0017443353 -0.0028775886
-0.0016497931 0.005798038 -0.0011017842 -0.004841214 -0.003284347 -0.0003428617 -0.0006055077 -0.00074696244
-0.0030719407 -0.00182153 -0.0006235673 -0.008040308 -0.0014231824 -0.0010285011 -0.00053570006 -0.0027477113
-0.0003486322 -0.0027138528 -0.007067468 -0.0008667764 0.00022491896 -0.0049734977 0.00012188265 0.0011317885
-0.0035295936 -0.0007403909 -0.0061134957 -0.0012220264 -0.002894615 0.004513086 0.00056175597 0.00066131394
0.0024403632 -0.005005694 -0.0025326975 -0.0011016959 -0.0019178644 0.0017981848 0.0062040607 -0.00042146625
0.0009988787 -0.0018020112 -0.0016169994 -0.0044433847 -0.0039422386 -0.0006163478 -0.002343323 0.0038777592
00000000: a5cd ffba a977 113b 9d64 67bb c69f ff3b
00000010: f2d5 ab39 f04e 2b3a e1fa 693a 256b 903a
00000020: 2a54 c8ba 09ab fbba c13f 7bba 08bd 00bb
00000030: cff5 b5bb b780 3aba cc11 47bb 660e 01bb
00000040: d9c5 aeba 5ce8 9cba 12e2 f0b9 77d4 c13a
00000050: c0e7 2bbb b8fb 98bb 3b99 dfba 850a 1fbb
00000060: a4f7 e83a 82a0 2f3b f321 3bbb de31 19ba
00000070: 4f43 23ba 82f3 71bb 2588 cc3b 44ca 0539
00000080: 0438 a0ba 4041 a5ba 9ea4 30bb e8e7 023a
00000090: 8a28 6cbb 4e31 49bb 6b53 ba3b 545d f3bb
000000a0: 859a 443a 0e73 9db9 1918 90ba e159 da3a
000000b0: 1769 05bb 1431 32ba ea6f b03b 78d8 8bba
000000c0: 095d a3ba 81de 373c a12b 30ba 045c 9038
000000d0: 82f9 983b a94e 783a 64a6 97bb 0af1 d1b9
000000e0: 08a9 19bb c804 2b3a da8c 96ba f20b 82ba
000000f0: c2e4 b73b a261 4bb9 c6a8 bd3a 528a fc39
00000100: 6f91 31bb 3d3b 48bb 8a2b d1ba e1e0 07bb
00000110: a32a 46bb f6bc 20bb ad88 3c3a 49fb 6dba
00000120: 4da4 bcb9 23d0 0bbb 9832 acba 98cf 9d39
00000130: abbf 233b 6424 1ebb 2ea2 e43a ed95 3cbb
00000140: df3d d8ba 78fd bd3b be69 90ba 0ca3 9ebb
00000150: 333e 57bb 1ec2 b3b9 efba 1eba cdcf 43ba
00000160: 9d52 49bb 68c0 eeba e576 23ba 7fbb 03bc
00000170: 148a baba c5ce 86ba 396e 0cba f212 34bb
00000180: 9fc8 b6b9 e5da 31bb 3896 e7bb 6138 63ba
00000190: 39d8 6b39 b9f8 a2bb 409b ff38 8558 943a
000001a0: c150 67bb cb16 42ba b853 c8bb 672c a0ba
000001b0: 95b3 3dbb 82e2 933b ce42 133a 075c 2d3a
000001c0: 80ee 1f3b ce06 a4bb 9dfb 25bb c866 90ba
000001d0: da60 fbba 12b1 eb3a 6f4b cb3b 3ef8 dcb9
000001e0: cfec 823a 7631 ecba 7ff1 d3ba d099 91bb
000001f0: e52d 81bb 6792 21ba 7092 19bb 0122 7e3b

network_body._body_endoder.seq_layers.2.weight f4 [128, 128]
0.17085789 0.024481986 0.04058389 0.06206216 -0.11387495 0.0651786 -0.04191171 0.12951496
0.06672123 0.018895494 -0.052959844 0.014390482 -0.016899796 0.09830257 -0.013214959 -0.0126446765
-0.064948484 -0.06656119 0.079970546 0.023420427 -0.15277728 -0.02617373 0.12823923 0.014981547
-0.05751824 -0.21034352 -0.122373566 0.07323603 0.091636255 0.08128436 0.042380635 0.15039815
0.026635624 0.12846722 -0.04091962 -0.006104929 0.06985419 0.14933786 0.015569623 -0.06302258
0.017604178 -0.0958128 -0.15245129 -0.117733754 -0.009147849 -0.08307322 -0.039631978 -0.0635928
0.041094035 -0.052927844 -0.06413749 0.010786902 0.12168605 -0.03566064 -0.0016801233 -0.103998244
0.06603757 0.006439585 -0.20048335 -0.0021129155 -0.12680365 -0.053461146 -0.017902588 0.0066320403
-0.108989514 -0.10230725 -0.017155478 -0.079284675 0.07471229 0.13541979 -0.0076939813 0.027005127
0.078012474 0.07077976 -0.021258252 -0.0005461549 -0.018059976 -0.13856009 -0.043108184 -0.019698111
0.17964566 0.12423751 0.03048759 -0.035996415 0.015514016 -0.008191709 0.10018121 0.04464189
-0.15179554 0.113797784 -0.03290799 0.04319868 -0.072494425 0.06504489 -0.045582596 0.06186988
0.013440621 0.007708478 -0.083912015 -0.038121283 0.03287877 0.18124431 -0.021407226 0.07220541
-0.033865232 0.26345927 -0.00489571 0.050061304 -0.010615546 -0.042616054 -0.047988705 -0.045341417
-0.10243917 -0.032261055 -0.1395851 0.057951212 0.0637057 0.042590722 0.11098181 0.0029200583
-0.030930536 0.19212057 -0.018856086 0.0787322 -0.026860844 -0.14060383 -0.058509443 0.03203125
0.09657919 -0.07959965 -0.18517956 -0.08598899 0.0068881367 -0.25470623 0.21205258 0.025544705
0.046691578 0.018962748 0.0298173 -0.095854655 -0.08750862 -0.08042412 0.14301619 -0.041819718
-0.07172326 -0.0563491 -0.041571278 -0.015868694 0.07298783 0.0065950286 0.06548586 0.121477686
-0.059655987 0.08378391 0.0011269514 -0.018226378 -0.028014714 -0.019042866 0.0442649 0.10936922
0.157991 -0.027335733 -0.025424907 0.019481955 0.0060949675 0.01002405 -0.040587533 -0.0017701716
0.007382672 -0.052368548 -0.029847488 -0.0910591 0.025881248 0.0065704435 -0.13835898 0.19827308
-0.030876359 -0.16553204 0.047147185 0.104427785 0.0062146545 0.12525325 -0.004310273 0.17075835
0.113301836 0.13426602 -0.05709776 0.0046855006 -0.032482766 -0.066822596 -0.032341715 -0.0062561976
0.18088828 0.015570598 -0.20183963 -0.04822859 0.14666529 -0.10279179 -0.093954936 0.008166141
0.2389338 0.02889769 -0.034367584 0.2612566 0.021871181 -0.112263516 0.047891814 -0.074989386
-0.027702255 -0.2051656 0.040573407 0.057298854 -0.12729925 0.15158704 -0.12955682 -0.03585545
0.028788975 -0.050024282 -0.067918435 0.009936062 0.10040347 -0.012216128 0.031356413 0.1627914
-0.0034414865 0.025136832 1.3506757e-05 0.019018818 -0.066215694 0.04750913 -0.057482753 -0.06636426
0.0024421727 0.10524916 -0.064593546 -0.0070947125 -0.02769674 -0.17066127 -0.1649899 -0.088746846
-0.0234197 -0.0013720624 0.05832489 0.046914417 0.101994425 0.14207514 -0.1479117 0.053001348
-0.12790228 -0.022096356 -0.09870101 0.12313207 -0.014975654 0.19312078 0.036618236 -0.07075001
00000000: 5ff5 2e3e 728e c83c 4b3b 263d e434 7e3d
00000010: 4537 e9bd 5c7c 853d 9dab 2bbd 929f 043e
00000020: 24a5 883d b9ca 9a3c 6cec 58bd 0ec6 6b3c
00000030: 7171 8abc dc52 c93d 8e83 58bc 9e2b 4fbc
00000040: b603 85bd 3c51 88bd 99c7 a33d 32dc bf3c
00000050: a671 1cbe 4a6a d6bc 2551 033e 2a75 753c
00000060: 3f98 6bbd 4b64 57be fe9e fabd c6fc 953d
00000070: caab bb3d 6a78 a63d 5197 2d3d f901 1a3e
00000080: f432 da3c e98c 033e 559b 27bd db0b c8bb
00000090: b70f 8f3d 06ec 183e bb17 7f3c fc11 81bd
000000a0: a336 903c 8039 c4bd 311c 1cbe 651e f1bd
000000b0: dce0 15bc 4b22 aabd 2455 22bd f13c 82bd
000000c0: 3852 283d deca 58bd 845a 83bd 8cbb 303c
000000d0: 8936 f93d e410 12bd 9537 dcba 08fd d4bd
000000e0: b53e 873d 2703 d33b 824b 4dbe d778 0abb
000000f0: d1d8 01be 13fa 5abd 73a8 92bc 9651 d93b
00000100: e535 dfbd 7786 d1bd a589 8cbc 0160 a2bd
00000110: c202 993d 7cab 0a3e cb1d fcbb db39 dd3c
00000120: 01c5 9f3d fbf4 903d c925 aebc d62b 0fba
00000130: 84f2 93bc b2e2 0dbe 3592 30bd ef5d a1bc
00000140: 08f5 373e 3c70 fe3d 1cc1 f93c fa70 13bd
00000150: 802e 7e3c 8536 06bc ce2b cd3d 6ada 363d
00000160: 4a70 1bbe d00e e93d 87ca 06bd 19f1 303d
00000170: f577 94bd 4136 853d d1b4 3abd 456b 7d3d
00000180: 0d36 5c3c 6697 fc3b 10da abbd 1025 1cbd
00000190: e4ab 063d 1c98 393e 355e afbc 6ee0 933d
000001a0: 45b6 0abd 22e4 863e 316c a0bb 150d 4d3d
000001b0: d4ec 2dbc 2c8e 2ebd ce8f 44bd ecb7 39bd
000001c0: a1cb d1bd 2b24 04bd 65ef 0ebe 405e 6d3d
000001d0: 2278 823d 9c73 2e3d 6e4a e33d 735e 3f3b
000001e0: 0962 fdbc 41bb 443e 1478 9abc 593e a13d
000001f0: 460b dcbc 73fa 0fbe 99a7 6fbd 3333 033d
00000200: 4fcb c53d 2405 a3bd b69f 3dbe ff1a b0bd
00000210: e1b5 e13b db68 82be 5024 593e 2143 d13c
00000220: ab3f 3f3d c457 9b3c 6943 f43c 724f c4bd
00000230: b837 b3bd 67b5 a4bd d672 123e 274b 2bbd
00000240: a5e3 92bd 50ce 66bd a546 2abd 10ff 81bc
00000250: a57a 953d 1c1b d83b 731d 863d 4bc9 f83d
00000260: d659 74bd e696 ab3d 37b6 933a 7c4f 95bc
00000270: 1d7f e5bc c9ff 9bbc 1d4f 353d f8fc df3d
00000280: 65c8 213e 30ef dfbc e547 d0bc 9f98 9f3c
00000290: 4bb8 c73b ea3b 243c 1d3f 26bd 1a05 e8ba
000002a0: 57ea f13b 6780 56bd b882 f4bc 327d babd
000002b0: e904 d43c e04c d73b faad 0dbe 1908 4b3e
000002c0: 6bf0 fcbc 3b81 29be 681d 413d 3cde d53d
000002d0: 4da4 cb3b 6342 003e 313d 8dbb 47db 2e3e
000002e0: cb0a e83d 087d 093e 57df 69bd d488 993b
000002f0: a60c 05bd 49da 88bd bf78 04bd ca00 cdbb
00000300: c73a 393e d21b 7f3c 0caf 4ebe 588b 45bd
00000310: 6d2f 163e 8184 d2bd 726b c0bd 47cb 053c
00000320: 10ab 743e d9ba ec3c 06c5 0cbd 6dc3 853e
00000330: 312b b33c 6aea e5bd 352a 443d 0994 99bd
00000340: d7ef e2bc ee16 52be 4d30 263d 34b2 6a3d
00000350: bc5a 02be a239 1b3e 8baa 04be 2add 12bd
00000360: dbd6 eb3c 43e6 4cbd d218 8bbd ddca 223c
00000370: 56a0 cd3d 2826 48bc 956f 003d cab2 263e
00000380: 908a 61bb c2eb cd3c 149b 6237 5acd 9b3c
00000390: 189c 87bd ef98 423d 0973 6bbd fce9 87bd
000003a0: dc0c 203b df8c d73d 9f49 84bd c37a e8bb
000003b0: 46e4 e2bc d4c1 2ebe 1df3 28be e8c0 b5bd
000003c0: acda bfbc c6d6 b3ba 14e6 6e3d 5529 403d
000003d0: 74e2 d03d 257c 113e 2a76 17be f117 593d
000003e0: d1f8 02be 6b03 b5bc c123 cabd ab2c fc3d
000003f0: 725c 75bc 74c1 453e 01fd 153d 62e5 90bd

network_body._body_endoder.seq_layers.2.bias f4 [128]
-0.00034821697 -0.00058769714 -0.0038138283 -0.00083463296 -0.00097206765 -0.0016519817 -0.00023606254 -0.0008096757
-0.0004932896 -0.00038082563 0.00074115186 -0.0021957168 -0.0004724369 -0.008123603 0.0004054184 -5.3794705e-05
-0.0022252316 -0.0011000014 -0.0014352944 -0.0024953024 0.0032224632 -0.0031194806 -0.001448654 -0.0016353927
-0.0015105216 -0.0007535863 -0.0014548223 -0.0010536503 -0.0008271204 -0.0018112565 -0.00129318 0.0031426519
-0.001321848 -0.0025619664 -0.001639201 -0.0043596867 0.002758585 -0.0013984446 -0.00041087557 -0.00044033382
-0.00036228396 5.8572503e-05 -0.00053648424 -0.0012281375 -0.002369853 -0.000623687 -0.0003289542 -0.0038704374
-0.002276121 0.00018452472 0.0039441893 -0.001440743 -0.0011370893 -0.0004263002 -0.0023859155 0.0038960963
-0.00041796474 0.0019828372 -0.00040930285 -0.00033954938 -0.0009049354 -0.0008011995 -0.00040333136 -0.0014576893
-0.0059223184 -0.0029171521 -0.0006426049 0.005183698 -0.0051497607 -0.0053821094 -0.0001170666 0.0005795385
-0.00046578003 -0.0007894137 -0.0018881876 0.00061640213 -0.0017464532 -0.004952665 -3.4378256e-05 -0.0007486995
-0.001761574 1.3816862e-05 -0.00061165035 -0.0006515716 -0.000520461 -0.0011168135 -0.002315252 -0.0012430175
-0.00021902008 -0.0040930654 0.0012050204 -0.0005800735 -0.0032014374 -0.00039074698 -0.0008286431 -0.00079190196
-0.00017715353 0.005192152 -0.0030278831 -0.0067936736 -0.001436721 -0.0022351376 0.0024948868 0.0015074941
-0.000613268 -0.0012002853 -0.0013197445 -0.00087119814 -0.0012935504 -0.002158084 -0.000803009 -0.006528181
-0.00062138843 -0.00031640602 0.0016694643 -0.0015206237 -0.00044222176 -0.0006961075 -0.00047099657 -0.0006792783
0.005470366 -0.00014839141 -2.1882315e-05 0.0012526282 -0.00094379426 -0.00025651432 0.00090027985 -0.0010464683
00000000: e490 b6b9 b00f 1aba 6cf1 79bb 45cb 5aba
00000010: 5bd2 7eba 4f87 d8ba 8e87 77b9 6b40 54ba
00000020: 1b50 01ba 8da9 c7b9 dc49 423a 04e6 0fbb
00000030: 68b1 f7b9 dc18 05bc 568e d439 a0a1 61b8
00000040: 31d5 11bb ec2d 90ba 7d20 bcba 3a88 23bb
00000050: f62f 533b 3370 4cbb c3e0 bdba ac5a d6ba
00000060: b2fc c5ba 528c 45ba bcaf beba a31a 8aba
00000070: 1cd3 58ba af67 edba ec7f a9ba f3f4 4d3b
00000080: dc41 adba aae6 27bb 75da d6ba b4db 8ebb
00000090: 60c9 343b 044c b7ba c96a d7b9 9bdc e6b9
000000a0: eef0 bdb9 bfab 7538 d9a2 0cba 75f9 a0ba
000000b0: 894f 1bbb ed7e 23ba 7c77 acb9 2aa7 7dbb
000000c0: f92a 15bb fa7c 4139 423e 813b 50d7 bcba
000000d0: 630a 95ba 0b81 dfb9 055d 1cbb a655 7f3b
000000e0: 4722 dbb9 7df2 013b b397 d6b9 8c05 b2b9
000000f0: 3039 6dba 9707 52ba 3876 d3b9 f00f bfba
00000100: 0210 c2bb b12d 3fbb 7c74 28ba 03dc a93b
00000110: 53bf a8bb 685c b0bb a781 f5b8 2cec 173a
00000120: f033 f4b9 a8f0 4eba 107d f7ba 0c96 213a
00000130: 3fe9 e4ba f749 a2bb 5f31 10b8 5f44 44ba
00000140: 9de4 e6ba f8ce 6737 2957 20ba 3bce 2aba
00000150: 8c6f 08ba 0b62 92ba 7cbb 17bb bfec a2ba
00000160: c1a8 65b9 1f1f 86bb c6f1 9d3a 1310 18ba
00000170: 35cf 51bb 2cdd ccb9 4c39 59ba a497 4fba
00000180: 4ac2 39b9 ee22 aa3b 736f 46bb 779d debb
00000190: 5b50 bcba 637b 12bb 4181 233b 1c97 c53a
000001a0: b8c3 20ba e452 9dba 47fb acba 1e61 64ba
000001b0: 598c a9ba a46e 0dbb 0681 52ba 5aea d5bb
000001c0: ace4 22ba 4ce3 a5b9 edd1 da3a aa4f c7ba
000001d0: 00da e7b9 fc7a 36ba 17f0 f6b9 9811 32ba
000001e0: c240 b33b 8499 1bb9 ea8f b7b7 3a2f a43a
000001f0: f668 77ba c57c 86b9 c200 6c3a a629 89ba

action_model._continuous_distribution.log_sigma f4 [1, 2]
0.0004128429 -0.0013546493
00000000: d672 d839 7d8e b1ba

action_model._continuous_distribution.mu.weight f4 [2, 128]
0.0015753948 0.0023878496 -0.000564323 -0.0005067522 0.0065126736 -0.0032473733 -0.029028825 -0.002302946
0.002114901 -0.012984018 -0.01761769 -0.003196315 -0.015787402 0.012262798 0.009779781 0.023673622
-0.0013307133 -0.017512148 -0.0036241491 0.0023727953 -0.00974428 0.017850421 -0.0222641 -0.025217978
0.03384147 -0.0069589135 -0.0022772197 -0.014409754 -0.0076641776 -0.03141202 0.018130781 0.0056658066
0.019778887 0.0013958743 -0.027687984 -0.005893421 -0.0072974158 -0.017064188 -0.00578969 0.0037099351
-0.01662837 -0.00884475 -0.009654607 -0.019889131 -0.0019600966 -0.01709191 0.0072967308 -0.0046598543
-0.025726473 0.00799597 0.005585448 0.020719348 0.007832806 -0.023680136 -0.0043825153 -0.0048152893
-0.023439465 -0.03527586 -0.012017848 0.0217223 0.00925473 0.0076935627 -0.009595282 0.011594779
-0.0012742453 0.035935167 0.014558178 0.018112756 0.01132153 -0.022003587 -0.010082695 0.022637235
-0.010794947 -0.016347706 -0.0025911597 0.021930542 0.0036388945 -0.018667812 -0.015540599 0.009168325
0.014057463 0.009702807 0.014173365 -0.004161498 -0.017686184 -0.011163541 -0.004711352 0.015002877
0.010690445 -0.004119571 0.014111412 0.006800956 0.0031863556 0.015267281 -0.006161678 0.017737908
0.016699819 -0.00807088 -0.0037657826 0.020180458 -0.010345284 0.0011275185 -0.006988149 -0.022891548
-0.010765995 -0.0064768167 0.004395351 0.0053842235 -0.038784947 0.00033835077 0.0033682582 -0.00034045457
0.0051078456 -0.010654078 -0.012934427 0.01662577 -0.010556387 -0.019283094 0.0047619687 -0.035968732
0.009740006 0.023742804 0.036074813 -0.0097629735 -0.016353002 0.015774691 -0.0126590375 -0.0004366342
0.024038682 0.01611244 0.016375352 -0.013654898 0.013624658 0.012709016 -0.013637578 0.0194869
-0.009136085 0.0014618975 -0.007902004 -0.008339208 0.0193981 0.018073317 0.03062456 -0.007827811
0.017469142 0.007020661 0.007268404 -0.013816391 -0.006392677 0.00509265 -0.011427443 -0.005131656
-0.019058125 -0.017092494 0.0068157786 -0.008084089 0.015413895 0.0070623313 0.013969399 0.012512026
0.01053458 0.00882559 -0.0053001638 -0.0111208735 0.0010137667 -0.0005344338 0.015195393 -0.025494577
0.033540472 0.007871594 0.019933015 -0.00011759573 0.01561217 0.017903816 0.02258833 0.0048795845
-0.006549322 0.04108574 0.005169639 0.016295392 0.021696841 0.024980944 0.0065336316 0.018157877
0.0062938267 -0.039640833 0.023329377 -0.021719558 -0.00219095 -0.013588054 0.038272977 0.0029893194
-0.0015991688 0.017600209 -0.013314918 0.018185673 0.008117809 0.01292298 -0.020951146 0.015538966
0.023627887 0.008840605 0.013295556 0.017693896 -0.0035713883 0.008414749 -0.01684825 -0.016361404
0.010038123 -0.016304445 -0.007204534 0.030422999 -0.022757357 0.014528803 0.0025154636 -0.013071741
0.019237299 -0.0008595902 -0.018504994 -0.0073511405 -0.00025913806 -0.02519607 0.013446924 -0.019171553
0.0052241003 -0.0032286004 -0.005972757 -0.016413016 0.0028785586 0.011682525 -0.02960534 0.028666666
-0.01695359 -0.0023341097 -0.02634703 -0.030835966 -0.0011056584 -0.013860172 0.0065651233 0.0003645802
-0.016475266 0.028731663 -0.009453129 -0.012819857 0.018208303 0.02094188 0.016734272 0.009177399
0.0007416855 -0.00498348 -0.00965656 -0.011116181 0.004868707 -0.014940033 -0.017463345 0.015491271
00000000: 7a7d ce3a 787d 1c3b 13ef 13ba 91d7 04ba
00000010: 4468 d53b e2d1 54bb dccd edbc 06ed 16bb
00000020: 279a 0a3b ebba 54bc f952 90bc 4479 51bb
00000030: 9554 81bc e7e9 483c 603b 203c 2fef c13c
00000040: 546b aeba a375 8fbc 2283 6dbb e680 1b3b
00000050: 79a6 1fbc 0c3b 923c 3463 b6bc ef95 cebc
00000060: 5a9d 0a3d 9907 e4bb 683d 15bb e416 6cbc
00000070: c823 fbbb e4a9 00bd 0187 943c 3ba8 b93b
00000080: 5507 a23c c5f5 b63a e9d1 e2bc 991d c1bb
00000090: 291f efbb 32ca 8bbc 71b7 bdbb 6222 733b
000000a0: 3838 88bc 92e9 10bc 5b2e 1ebc 88ee a2bc
000000b0: f774 00bb 5504 8cbc 6a19 ef3b b1b1 98bb
000000c0: 53c0 d2bc 8701 033c 2206 b73b 9fbb a93c
000000d0: 2b55 003c d8fc c1bc 349b 8fbb 93c9 9dbb
000000e0: 1f04 c0bc 6c7d 10bd 82e6 44bc f7f2 b13c
000000f0: 27a1 173c 481a fc3b 8835 1dbc 07f8 3d3c
00000100: 9404 a7ba c130 133d 6d85 6e3c 3461 943c
00000110: f07d 393c de40 b4bc e331 25bc b971 b93c
00000120: 4add 30bc a0eb 85bc 72d0 29bb aea7 b33c
00000130: 857a 6e3b 3ded 98bc ff9d 7ebc be36 163c
00000140: 4651 663c 86f8 1e3c 6737 683c 2d5d 88bb
00000150: 9ee2 90bc 49e7 36bc af61 9abb a1ce 753c
00000160: fa26 2f3c 77fd 86bb 8d33 673c 8eda de3b
00000170: 2dd2 503b 9e23 7a3c e7e7 c9bb 174f 913c
00000180: 0fce 883c b93b 04bc 59cb 76bb 7d51 a53c
00000190: 447f 29bc 3ec9 933a d8fc e4bb 0e87 bbbc
000001a0: db63 30bc 7a3b d4bb e006 903b 246e b03b
000001b0: f7dc 1ebd ac64 b139 ffbd 5c3b 0a7f b2b9
000001c0: b75f a73b 718e 2ebc ebea 53bc c432 883c
000001d0: b2f4 2cbc 94f7 9dbc 4a0a 9c3b f353 13bd
000001e0: 8c94 1f3c 4580 c23c 2fc3 133d e1f4 1fbc
000001f0: bbf6 85bc ed39 813c da67 4fbc 0dec e4b9
00000200: c5ec c43c 3cfe 833c 9a25 863c cbb8 5fbc
00000210: f539 5f3c 7a39 503c 2670 5fbc fea2 9f3c
00000220: 85af 15bc 249d bf3a 6877 01bc 2ca1 08bc
00000230: c4e8 9e3c 7e0e 943c 5be0 fa3c 3840 00bc
00000240: 721b 8f3c 930d e63b cb2b ee3b 255e 62bc
00000250: a979 d1bb 3fe0 a63b 2b3a 3bbc 7327 a8bb
00000260: c91f 9cbc 8f05 8cbc e556 df3b 2073 04bc
00000270: 908a 7c3c 216b e73b e8df 643c 3eff 4c3c
00000280: 3b99 2c3c 3599 103c ffac adbb 5334 36bc
00000290: 5ee0 843a 3f19 0cba 19f6 783c 01da d0bc
000002a0: bc61 093d dcf7 003c 904a a33c ba9d f6b8
000002b0: 30ca 7f3c 06ab 923c 290b b93c ece4 9f3b
000002c0: b29b d6bb 8549 283d 1366 a93b ea7d 853c
000002d0: 93bd b13c d6a4 cc3c 1318 d63b d4bf 943c
000002e0: 723c ce3b 6d5e 22bd 401d bf3c 37ed b1bc
000002f0: 0b96 0fbb 6ea0 5ebc 20c4 1c3d 75e8 433b
00000300: 339b d1ba 502e 903c d026 5abc 1ffa 943c
00000310: 8f00 053c e8ba 533c bda1 abbc 2697 7e3c
00000320: 458f c13c 2fd8 103c 9bd5 593c caf2 903c
00000330: f40d 6abb 04de 093c 5705 8abc 5a08 86bc
00000340: f076 243c e690 85bc 0314 ecbb a739 f93c
00000350: a36d babc 370a 6e3c 7ada 243b db2a 56bc
00000360: 8a97 9d3c 1f56 61ba c997 97bc d6e1 f0bb
00000370: ecdc 87b9 fd67 cebc 7d50 5c3c a90d 9dbc
00000380: ee2e ab3b ed96 53bb 1eb7 c3bb 9774 86bc
00000390: 33a6 3c3b 1068 3f3c e686 f2bc 5bd6 ea3c
000003a0: 41e2 8abc ddf7 18bb bad5 d7bc b59b fcbc
000003b0: bdeb 90ba c615 63bc 3f20 d73b 2025 bf39
000003c0: 23f7 86bc aa5e eb3c 4ce1 1abc 610a 52bc
000003d0: 9429 953c 4e8e ab3c 5016 893c cd5c 163c
000003e0: ac6d 423a 764c a3bb 8c36 1ebc a420 36bc
000003f0: ad89 9f3b 0ac7 74bc 4a0f 8fbc 1acf 7d3c

action_model._continuous_distribution.mu.bias f4 [2]
0.00060618436 5.1389285e-05
00000000: 58e8 1e3a d38a 5738
