GameAI3/Config/results/dwarf_2/Dwarf/Dwarf-10496.onnx (onnx, 73485 bytes, 7 tensors)

network_body._body_endoder.seq_layers.0.weight f4 [128, 8]
00000000: a8b7 023e c09b 1f3f 053a 8b3e acf3 fd3e
00000010: 8ed4 323e b9dd 1a3f 1a01 e5bd 5fd9 a43e
00000020: 7c0c 7c3e 3df2 96be b149 4dbf 99d5 3f3d
00000030: 4f5b 163e 5841 80be f3e1 113e cff4 c1be
00000040: 2fba e03d ab4c 72bf 19c7 95be a8ac a4be
00000050: 447a f33e dcb5 533e f369 3abe 4ecc cc3d
00000060: 6392 e5be e814 bdbe 5d87 1f3f fbde 18bc
00000070: fa57 0abe cc53 65bf 32af 1c3e 5aa3 4f3e
00000080: 0b33 acbe ff60 73bc 2c98 3cbe f174 51be
00000090: 8e47 67be afef 393f a8ee 0dbe 80d4 2abf
000000a0: 40fd 203e 2b66 4abe 05b7 c0be 374f 96be
000000b0: 3acb ef3b 9307 a8be 59b6 013c 9b94 2fbf
000000c0: 041e 3f3e 601d 80be 3e4f 0f3e bf16 91bd
000000d0: 6727 da3e 1a24 063e 381a 48be 1c5a 323e
000000e0: 8c33 a03e 82fc 5bbf 87ee 96bb 3d05 c53e
000000f0: 203e d83e 2300 a4be 95c4 193f be5a f93e
00000100: 6b3b 163f 6635 2ebf 064d acbe 16f7 393f
00000110: cab4 3f3c eac7 2bbe 2042 fd3e 7a66 3fbe
00000120: 7738 21bd c9fb 3a3d 2777 c33e 7e9c 3e3f
00000130: fdca 6f3d 7295 ddbd 1965 a73e f8b5 b93d
00000140: d809 a73e 5b82 be3e c15b dabe 8925 c33d
00000150: 9b59 3a3f e398 5bbd 5e1a 7b3f a1ce c43e
00000160: 2fc5 153f 82b0 8b3e 42ea 5ebe 4049 5c3e
00000170: bf3a 48be 9a21 04bf 06cb 923e 1149 08bf
00000180: cbc8 af3d 7bf8 ac3e 8e83 2ebf 2b12 343f
00000190: 4722 653e b87b 1c3d 4c97 e0be 63e0 013e
000001a0: 92e8 5cbd c08b 6a3d f357 a13d dd38 823e
000001b0: 2184 d1bd ce82 923e 5c26 7dbe bdaa b23d
000001c0: 5553 46be 5f3d 3c3d c62f 4dbe b9d0 15be
000001d0: 618a 2d3d 375d 93be 4cbb 43be 3131 843e
000001e0: 8c32 7fbe dfaf ecbe 1020 143e 8e33 693f
000001f0: 75f4 90be d1d6 933e 2336 81be e6af 993e
00000200: e245 82be 5caf c1be d78f 88be c7cb 36be
00000210: a572 723e 61b5 873e 8096 1b3c 86e7 803e
00000220: cd7d 1abf bc5d 333f 3295 1f3f 346a 15bf
00000230: 7015 2b3e 123b 9fbd 29b3 53be f9bd 5ebe
00000240: 16d9 f0bc 2895 c23d ac42 86bd b2c5 a1be
00000250: cb8d 143e ceac 4abe bbe8 953e e39c 1dbe
00000260: 2a46 6f3d ac4b 76be b3e6 d83d b883 673d
00000270: 48a4 d7be f0c8 ec3e 94fd 39bf f917 583e
00000280: 952a 27be ca5c e4be 846a 18be 685e 713d
00000290: e981 e13e b4be 8e3e 3a52 ebbd 9ef9 d3be
000002a0: 8d71 a63d 0e9e 623e 98cf 00bf ee8c 593f
000002b0: b405 5e3d 3a6d f53d 2d07 843e 7fde 47be
000002c0: bc96 19be 3f05 6bbe 49cf 1dbf c3ae 03bf
000002d0: c077 b03e c204 623e ea10 8c3e 28de f83c
000002e0: 5b14 773d 22eb e03e 041e 68bc 3da9 2a3f
000002f0: 242b 50bf 60fd 803b 8d76 183e 5be7 3e3f
00000300: cdeb 32bf 6789 94be b05f a0bd f850 c73c
00000310: fedb 3e3e 2daa 0fbe 6c5d 6fbe a12a 83bc
00000320: 4b61 90be 425b 08be 0adf 35bf 7425 8c3e
00000330: 7643 eebd c8fb 1c3e e0d4 0b3f a74a d1bd
00000340: bb8c d9bd 3914 90be 3020 e63c 51c6 09bd
00000350: 1b33 913e c8fc 353d 91c7 05be 08ae 72be
00000360: 6618 64be 5946 2dbd d6b8 d9be 4b89 3abe
00000370: 5d2f 83be abb1 9a3e b9cb 8bbe 16f3 20be
00000380: fd3e 213d ca30 6bbc a19b 533e 6a95 073e
00000390: 9914 89bd 6645 843f fe60 50be e28e 90be
000003a0: 29d2 e83e c71c 203f da59 ac3e d94d 9e3e
000003b0: e2df 793e 8195 023f 2528 56be a230 8fbe
000003c0: 5433 bb3e 62ad 163f 5458 b13e 6af5 043e
000003d0: 16b8 04be 2bac 7abe 1c71 d33e 4b8f ddbc
000003e0: 691b 06bf f653 083e 73b5 e03d d08c 013e
000003f0: 95f7 4a3e 8641 03be f7b1 f73d e0bf 333e
0.12765372 0.6234703 0.27192703 0.4959997 0.17463896 0.6049457 -0.11181851 0.3219709
0.24614137 -0.29481688 -0.8019057 0.046834562 0.14683269 -0.25049853 0.14246349 -0.37882087
0.10973012 -0.94648236 -0.29253462 -0.32162976 0.4755422 0.20674843 -0.18204479 0.099999055
-0.44838247 -0.36930013 0.6231592 -0.009330506 -0.13510123 -0.8958099 0.15301207 0.20277157
-0.33632693 -0.014854669 -0.18417424 -0.20454766 -0.2258589 0.72631353 -0.13860571 -0.667305
0.15721607 -0.19765536 -0.37639633 -0.2935731 0.0073179277 -0.3281828 0.00791701 -0.6858613
0.18663794 -0.2502241 0.13995072 -0.070844166 0.42608187 0.13099709 -0.19541252 0.17417186
0.31289327 -0.8593217 -0.0046060714 0.3848056 0.42234898 -0.32031354 0.60065585 0.48702043
0.58684415 -0.6805023 -0.33652514 0.7264265 0.011700818 -0.1677548 0.49464512 -0.18691435
-0.03936049 0.045650277 0.38176844 0.7445754 0.058543194 -0.1081952 0.3269432 0.09067911
0.32624698 0.37208828 -0.42648128 0.09528644 0.7279298 -0.0536126 0.9808711 0.38438895
0.58504003 0.27283102 -0.2176905 0.21512318 -0.1955366 -0.5161377 0.2867052 -0.5323649
0.0858322 0.33783326 -0.68169487 0.7034022 0.22376357 0.038203925 -0.4386543 0.12683253
-0.053932734 0.057262182 0.07878103 0.25434008 -0.1023028 0.2861542 -0.24721664 0.08723972
-0.19367726 0.045956966 -0.20037755 -0.14630403 0.042368297 -0.28782055 -0.19114417 0.2581878
-0.24921626 -0.4622793 0.14465356 0.9109429 -0.28311506 0.2887483 -0.25236616 0.30017012
-0.2544394 -0.378291 -0.2667224 -0.17851172 0.23676546 0.2650557 0.009496331 0.25176638
-0.60348207 0.700649 0.6233703 -0.5836518 0.16707397 -0.07774939 -0.20673813 -0.21752156
-0.02940039 0.095011055 -0.065556854 -0.31596142 0.14507215 -0.19792482 0.29279122 -0.15391879
0.058416523 -0.24052304 0.105908774 0.0565221 -0.42117524 0.46247053 -0.72652555 0.21102895
-0.16324838 -0.44602042 -0.14884382 0.058927923 0.44044426 0.2787987 -0.11490293 -0.4140138
0.08127127 0.22130606 -0.5031676 0.84980667 0.054204658 0.11983724 0.25786725 -0.1951847
-0.14998907 -0.2295122 -0.6164442 -0.5143854 0.34466362 0.22072127 0.27356654 0.03037937
0.060322147 0.43929392 -0.0141673125 0.6666449 -0.8131583 0.0039364547 0.14888974 0.7457177
-0.69891053 -0.2901108 -0.07830751 0.024330601 0.18638608 -0.1402976 -0.23375481 -0.016011538
-0.2819923 -0.13316062 -0.71043456 0.27372324 -0.11633961 0.15330422 0.54621696 -0.10219317
-0.10622545 -0.2814043 0.02809152 -0.033636395 0.28359303 0.044430524 -0.1306441 -0.236992
-0.22274932 -0.042303417 -0.4252383 -0.18216436 -0.25622073 0.30213675 -0.27303866 -0.1571773
0.03936671 -0.014354894 0.20664836 0.1324059 -0.06693382 1.0333679 -0.203495 -0.2823401
0.4547284 0.6254391 0.336623 0.30918768 0.24401811 0.51009375 -0.20913751 -0.2796679
0.36562598 0.5885831 0.34637702 0.12984243 -0.12960848 -0.2447974 0.41297233 -0.027045866
-0.52385575 0.13313279 0.10972109 0.12651372 0.19821008 -0.12817964 0.12094491 0.17553663

network_body._body_endoder.seq_layers.0.bias f4 [128]
00000000: c291 ebbb fb7f 86bc cfe5 093c 6a07 49bc
00000010: 7172 87bc 09db a53c df2c 4c3d fb08 d3bc
00000020: 5e94 a03c c199 243c 6b91 40bc 26b4 ae3b
00000030: 58d6 57bb ae51 20bc a4a8 9f3b 44a4 e93b
00000040: fd1e 953b ab9a a3bc 12f0 f73b 0b76 3bbc
00000050: a6a9 b43b 04cd d3bb ff35 b1bc a38d 0a37
00000060: 89db 2dbc e5b7 59bb bd7e a83b 6f29 03bc
00000070: 1211 9ebb 9c6c f4bc 2faf 873b 0f6b 98bc
00000080: 0a92 c8bb e3ec 95bc 0eac 1fbc 61d8 093d
00000090: 76b9 603c e615 d73b af9a 14bc f01d 303c
000000a0: 29fe c63c 01a6 d63b ceef 75bc cb14 4dbb
000000b0: 72de 963b 68e9 03bc d947 483d 93d3 99bb
000000c0: 283d 0bbd 3cdd 82bb dffd eabb 5790 e6b9
000000d0: ac13 9dbb 74d1 ebba c763 d6bb 51c0 1b3c
000000e0: 8e74 cbbc cdaf 6ebc ac80 58bb 8f49 5c3c
000000f0: 3832 b739 1bf5 23ba 4026 a5ba 4c99 9abc
00000100: 191e d93c 6409 06bd b5f9 34ba 2efc 22bc
00000110: 77e1 0abb 55c7 633c 9c76 f0bb cf17 7abc
00000120: 1d7c 90bc bf34 09bc 6fa2 ad3c b2e7 adbc
00000130: 02c9 95bc 290f 0cbc 78ee 25bd 7cf9 06bb
00000140: 41d5 80bb 4814 c6bb bd06 51bc 5c5d 8abc
00000150: d4ac 9fbc cf22 123a 654a 86bc 05d3 e13b
00000160: 07c0 1e3c b1ce b33b 416a 1e3d a8cf 0abd
00000170: 135b 7ebc 4c2c aa3c 44bc 42bd 7cd2 47bc
00000180: 4b3c 5cbc f41e b9bb 96a0 31bc 1dfb 29bb
00000190: de67 59bc aec2 20bd e8e1 0b3d ffe1 31bd
000001a0: d7fb e8bb 2a9f 33bb 8c4f aabc b417 4cbd
000001b0: bbbd 55bc e01e 2e3c b55f 96bc c545 8db9
000001c0: 68e6 fe3a 6856 69bb 8b02 7ebc 0713 a0bc
000001d0: 01e3 de3b ce40 4bbb 36dc e2bc 8f3a a2bc
000001e0: c329 15bb b9ba 55bc 9cff 97bc cc1c 48bc
000001f0: 6914 44bc f90a 8cbc 5829 b2ba 64e5 a1bb
-0.0071890065 -0.016418448 0.008416607 -0.012269834 -0.016534062 0.020246046 0.04984748 -0.025761118
0.019601997 0.010046423 -0.01175342 0.005331534 -0.0032934155 -0.009785099 0.0048723985 0.0071301777
0.004550813 -0.019971212 0.0075664604 -0.011441718 0.0055133877 -0.0064636488 -0.021632193 8.258418e-06
-0.010611423 -0.0033221182 0.0051420615 -0.008005484 -0.0048238123 -0.029836945 0.0041407566 -0.018605737
-0.006120925 -0.018301433 -0.009745611 0.03365362 0.013716092 0.00656389 -0.009070083 0.010749325
0.024291115 0.006550551 -0.015010787 -0.003129291 0.0046041543 -0.008051254 0.048896644 -0.004694411
-0.03399387 -0.0039936583 -0.007171377 -0.0004397656 -0.004793605 -0.0017991499 -0.006542656 0.009506301
-0.024835851 -0.014568281 -0.0033035679 0.013445272 0.00034941896 -0.000625448 -0.00125999 -0.018871926
0.02650361 -0.0327238 -0.00069036643 -0.00994782 -0.0021191516 0.013902505 -0.007338358 -0.0152644655
-0.017637307 -0.008374392 0.021195618 -0.021228645 -0.018284325 -0.008548536 -0.040510625 -0.0020595482
-0.003931672 -0.006044898 -0.012757954 -0.01689022 -0.01949159 0.0005574645 -0.016392896 0.0068916106
0.009689338 0.005487286 0.03867555 -0.033889443 -0.0155246435 0.020773076 -0.047542825 -0.0121961795
-0.013442109 -0.005649442 -0.010841509 -0.0025937029 -0.013269393 -0.03924816 0.034150988 -0.043428417
-0.0071101 -0.0027408102 -0.020789884 -0.049827293 -0.013045724 0.010627478 -0.018356184 -0.00026945598
0.0019447329 -0.003560448 -0.015503536 -0.019540323 0.0068019633 -0.0031013968 -0.027692895 -0.019803314
-0.0022760488 -0.013045006 -0.018554501 -0.012213897 -0.011967757 -0.017095076 -0.0013592644 -0.0049406756

network_body._body_endoder.seq_layers.2.weight f4 [128, 128]
00000000: bfd6 c43d 0e92 723d 8e08 96bc e17b bebd
00000010: 5aae 543d 512d 04be 6c27 9ebd fbb3 8bbd
00000020: 9589 31bd 9492 18be 0b45 9dbd 5675 fbbc
00000030: 7045 fe3b 95a8 0cbd 9dcb 803d 42ec 83bd
00000040: 5fa7 e43c 82ed d93c 7da0 ec3d 0584 5f3e
00000050: 1ae0 f23c 227c 9b3b 63cb 94bd b626 4a3d
00000060: cf58 153e fd26 473e 4276 c73b 2d5c 20be
00000070: 049d 00bb 5925 13be 30ba 863b bb46 6abd
00000080: 6d23 dc3d ba35 383d 8d2b 1fbd 2460 fabd
00000090: 8f96 c6bd c436 9cbd f363 6cbd 3a00 edbd
000000a0: cc02 1dbd 7ab0 013e c01d 3ebd c878 d83d
000000b0: bf7c 1a3c 41bd ccbc 821c b73d 5ee7 733d
000000c0: 330f d2bd 38df 84bd aee9 13bd 6821 44be
000000d0: 9ef9 893d bbee 113e fe45 6dbd ab93 2e3e
000000e0: 3031 a63b 0e45 f83c 1f07 0f3d 140f 53bd
000000f0: cf08 af3d 56fc 21be bb16 dcbc 8a0f 0fbe
00000100: 853a 1d3d b079 34bd 88fa 0cbe 675a b1bd
00000110: 800a 2ebe ee35 a23c ef67 85bd b083 92bd
00000120: 8f87 fc3b e721 d0bd 9f01 2b3d 3a96 bebc
00000130: 5caa 06bc d257 51bd ab7b ffbd 8ccf 2abe
00000140: c16c 95be 034e 713d 653e 39bd a3d2 5eb9
00000150: e445 d03d cad4 123d 480f 053e 3447 383d
00000160: a736 f73d ca13 49bd e7d4 3b3e cbd5 643d
00000170: 9dfa 30bc f804 49bd 2883 133d d852 1fbc
00000180: 4ff9 273e 0ab6 39bd eea9 2e3d 6427 b43d
00000190: ed0b f33b f09f 433d 19aa f63b 83c7 83bd
000001a0: dc49 d03b fbe5 683c 5883 3cbd 9e97 20be
000001b0: ce85 dcbb bdc6 12bd d6db e3ba 7df5 6b3e
000001c0: 2977 c0bd 0fdf 373e c39c e5bb ecae d1bd
000001d0: 0047 dc3d 70de 023d b642 7fbd 0402 893a
000001e0: d8c4 d8bc 39d3 703e 34b3 83bc 6fba 30bd
000001f0: 4ad8 a6bd e9ca c4bd 978c 713c 4ccc 98bd
00000200: 1ba5 fbbd d91c 1fbe aff8 be3b b3d3 9e3d
00000210: af2f e13d 3380 b3bd b909 8b3e caf0 083e
00000220: 524f 7b3d 70d2 60bb 0685 34be 779b 873d
00000230: 641c 98b9 b755 d4bd a5e7 d43c 520c 593d
00000240: 0456 a63c 8e49 053d dcc3 6e3d 529f a43d
00000250: e02e 01bd fcf8 133c 82b1 93bd 7f5f 713c
00000260: 2357 d3bc 8411 22bc 7e49 bb3c 56bc 673c
00000270: 0eef cabd 5b96 80be 72b1 febd 4460 53ba
00000280: 6f7e 01be 3b72 2fbe 0161 09be c5b7 533d
00000290: 2e11 2cbd c5df 07bd 5bbf fbbc 4c2f ab3d
000002a0: 20f3 33bc 34c2 933b 9363 4f3e 4358 793d
000002b0: 3364 c5bb 7817 eb3b f1a3 0e3e bf13 04be
000002c0: 4633 b1bb 712f 163e 9347 12bc 2803 a03d
000002d0: 0842 8d3b 0e0f a1bd 8860 f83d 5c7d be3d
000002e0: 5195 8b3d 14d6 d13c 56ea 7e3d db8a e3bd
000002f0: bc18 1e3e 8930 61bd 9ff2 3dbd 751e 3b3d
00000300: 1d5f 0fbc c182 d4ba 480f 493d 87a9 bbbd
00000310: 6e74 34bd 1dd7 3b3d bdd5 39be e6ea 92bd
00000320: a01a 3e3d 2bdb a13d 610f 8dbd be11 f03c
00000330: dd30 6fbe 3783 69bd e560 aa3d 4da3 ddbd
00000340: c5fc c33d 1089 663d 72d3 3f3d e4ce 38bd
00000350: 17ad a53c 319c 0bbe fb81 32bd a796 c9bd
00000360: 2721 383c 4665 b4bc db58 093e bc2b 9cba
00000370: 5064 19be bca4 02be dcc0 43bb 6047 63be
00000380: 5d2b bdbb 95ca 943d f0bb 37be fc19 cabd
00000390: 9331 cdbd 7d60 4abd 22b4 073e 335e 7fbd
000003a0: 28d9 b83b 7b35 2b3d 6b0f c0bc 5c22 803d
000003b0: d53c 32be 56f4 43bd d1f0 3e3c 21db 2dbe
000003c0: 4acd 793d e0c1 2ebd 677e 3b3d bc18 743c
000003d0: 078a 7a3c b2a1 a0bb 5488 bcbc 653f bc3c
000003e0: b84f 00bd fa0f 27bc ef3e 61bd e69b 61bc
000003f0: c294 1cbc a4ad ea3d 99e3 a83d 0615 a33d
0.09611272 0.05922132 -0.018314626 -0.09300972 0.051924087 -0.12907912 -0.07722363 -0.06821438
-0.0433441 -0.14899665 -0.076791845 -0.030695599 0.0077597424 -0.03434046 0.06288836 -0.06441547
0.02791184 0.02660251 0.11554048 0.21827705 0.029647876 0.0047450224 -0.072653554 0.049353324
0.14584659 0.19448467 0.0060870955 -0.15660162 -0.0019624839 -0.14369716 0.0041115507 -0.05719636
0.107489444 0.044973113 -0.038859893 -0.122253686 -0.096966855 -0.07627633 -0.057712507 -0.11572309
-0.038332745 0.12664977 -0.04641509 0.10569912 0.009429156 -0.024992587 0.08940984 0.05954682
-0.10256805 -0.06487888 -0.036111526 -0.19153368 0.06737064 0.14251225 -0.057928078 0.17048518
0.0050717816 0.030306365 0.0349189 -0.05152805 0.08546602 -0.15818915 -0.026866307 -0.13970771
0.038385887 -0.044061363 -0.13767445 -0.08659821 -0.16996193 0.019801106 -0.065139644 -0.07154024
0.0077065895 -0.10162716 0.041749593 -0.023264993 -0.008219328 -0.051109143 -0.1247476 -0.16680735
-0.29184535 0.05891229 -0.04522552 -0.00021250038 0.101695806 0.035847463 0.1299411 0.04498978
0.12070971 -0.049091138 0.18342935 0.05586795 -0.010801938 -0.049077004 0.036013752 -0.009724341
0.16403697 -0.04533962 0.042642526 0.08796576 0.007417193 0.04775995 0.0075276014 -0.06434538
0.006356461 0.014214988 -0.046023697 -0.15682837 -0.006729818 -0.035834063 -0.0017384242 0.23042865
-0.09397728 0.17956184 -0.007007213 -0.10238442 0.1075573 0.031950414 -0.06231948 0.0010452871
-0.02646105 0.23518075 -0.016076662 -0.043146547 -0.081467226 -0.096090145 0.014742992 -0.074608415
-0.12287351 -0.15538348 0.0058279852 0.07755222 0.10995423 -0.087646864 0.27155855 0.13373104
0.061354943 -0.0034305118 -0.1762887 0.066214494 -0.00029012852 -0.10367911 0.025989363 0.052990265
0.020304687 0.03254085 0.058292255 0.080382004 -0.031538844 0.0090315305 -0.07211591 0.014732241
-0.025798386 -0.009891871 0.022862192 0.014144024 -0.09908877 -0.25114712 -0.12436189 -0.0008063356
-0.12645887 -0.17133419 -0.1341591 0.05168893 -0.04200857 -0.033172388 -0.030730894 0.083586305
-0.0109832585 0.004509235 0.20252828 0.06087519 -0.0060239076 0.0071744286 0.13929726 -0.12898158
-0.0054077236 0.14666535 -0.008928197 0.07813102 0.00431085 -0.078641996 0.12127787 0.09301254
0.06815589 0.025614776 0.0622352 -0.11110469 0.15439123 -0.054977927 -0.04637396 0.045683343
-0.008750704 -0.0016213284 0.04908684 -0.09163194 -0.04405635 0.045859445 -0.18147941 -0.071737096
0.04641211 0.07903131 -0.06887699 0.029305335 -0.23358484 -0.0570099 0.083192624 -0.10822163
0.09569696 0.056283057 0.04683251 -0.04511918 0.020224137 -0.13633801 -0.04358099 -0.09843188
0.011238373 -0.022020947 0.13412802 -0.0011914889 -0.14979672 -0.12758154 -0.0029869592 -0.22195196
-0.0057729916 0.07265202 -0.17942786 -0.098682374 -0.10019221 -0.049408425 0.13252309 -0.062345695
0.0056411214 0.04179905 -0.023444852 0.062565535 -0.17406018 -0.04784044 0.011654095 -0.16978122
0.060986795 -0.042665362 0.045774844 0.014898475 0.015291697 -0.004902088 -0.023014225 0.022979448
-0.031326026 -0.01019668 -0.05499166 -0.013770079 -0.009556951 0.114589006 0.08246536 0.07962994

network_body._body_endoder.seq_layers.2.bias f4 [128]
00000000: f6ea cf3b 12dc 3dbc f481 4cbc 846a 92bb
00000010: b63a c5bb 42c1 7b3a 7659 043b 0acf 4abc
00000020: f420 40bc 2e44 3238 be09 63bc 8cd0 afbb
00000030: b88e 9a37 778e 07bc a1d0 8b3a 2812 19ba
00000040: 683e 843b ec43 dabc 21c0 04bb 4937 043b
00000050: 1229 37bc a368 6b3b 9c46 2f3c fb21 d73b
00000060: ad90 08bc 0d4f 26bc 0a6f 06bc e257 ddbc
00000070: ba50 77bc a060 b53b 6be7 8fbc 17fb a1bc
00000080: aa96 b0bc 9f83 ab3b b3d0 93bc 069b 963b
00000090: 9b1c 0abd 8a30 8fbb 44d6 65bb 8aec 313c
000000a0: 259c 06bc abde 1ebb 9259 6dbc 7cb8 ee3b
000000b0: b8e5 acbb 0ba2 acbc a81d 3dbc 7054 9cbb
000000c0: fefa 70bc 3e65 53ba 0a26 99bc eb49 8abc
000000d0: c6aa 6cbc 66aa 51bc 3a7b d73b 4c25 1339
000000e0: 64d7 9f3b 756d a8bb b098 ab3b b4ea 56bc
000000f0: 60f2 d5bb 1a96 89bb 4936 e7bb 511f 0bbc
00000100: 293d 0abc ce63 14bc 792a cd3b 2a97 0abc
00000110: 1344 1dbc be22 d3bb 74f4 8abc 51b3 a3bc
00000120: 3a1e 80bc 4897 d3ba 9adc 9bbc 9361 8ebc
00000130: fef7 9bbb c70a a5bb 420b 993b a0cc 363a
00000140: 8a80 14bc 0177 26bb d3af 46bc d8c8 1bbb
00000150: a5b6 81bb ef88 82bc 507f 6e3a ee01 a8bc
00000160: 05db b7bc 8815 79bc 3ce7 6439 6757 8bba
00000170: f1fd cabb 465d 7d3b 88da 12bc 8b47 2abc
00000180: afa7 a0bb cc00 73bb 1835 9536 5754 2ebc
00000190: ccd5 51bc 059e 01bb e270 7eba 610d 74bc
000001a0: c5de 05bc 268c 83bb 2c13 e9bb 23ec 84bc
000001b0: 4ccd 16bc c65e 2cbb 4a55 35bc 4dc3 cc39
000001c0: 6ed8 0938 5dff 33bc 5bff 2ebb 51a3 7ebb
000001d0: 1256 03bc ac7d 5cbc 6103 20bc 4414 96ba
000001e0: 2c01 d6bb 74dc 1c3b fa4e a4bb 0cd6 85bc
000001f0: b33b 87bc a983 423b de91 e63a 1241 cdbb
0.006345148 -0.011588113 -0.012482155 -0.004468264 -0.006018962 0.0009603688 0.0020194924 -0.0123784635
-0.011726607 4.2502004e-05 -0.013857303 -0.005365437 1.842469e-05 -0.008273712 0.0010667035 -0.00058391923
0.0040357597 -0.026643716 -0.002025612 0.0020174554 -0.0111792255 0.0035920523 0.010697987 0.00656533
-0.008335275 -0.010150683 -0.008205185 -0.027019445 -0.01509493 0.0055352002 -0.017566403 -0.01977305
-0.021556217 0.0052341963 -0.018043851 0.004596117 -0.033718687 -0.0043698 -0.003507034 0.010859618
-0.008215939 -0.0024241607 -0.014486687 0.007285176 -0.005276408 -0.021073362 -0.011542715 -0.004770808
-0.014708279 -0.00080640975 -0.018694896 -0.01688095 -0.014445012 -0.012796974 0.006575969 0.00014032907
0.0048779715 -0.0051400014 0.0052367076 -0.013117481 -0.0065291375 -0.0041988017 -0.007056032 -0.008491353
-0.008437433 -0.009056998 0.0062611667 -0.008458892 -0.00959875 -0.0064433506 -0.016962267 -0.019982966
-0.015639413 -0.0016143108 -0.01902609 -0.017380511 -0.0047597876 -0.005036685 0.0046705315 0.00069732405
-0.009063849 -0.0025400522 -0.012126881 -0.0023770835 -0.0039585405 -0.015934436 0.00090979505 -0.020508733
-0.022443304 -0.015202887 0.00021829916 -0.0010630906 -0.006194823 0.0038660332 -0.008963235 -0.010393034
-0.004902802 -0.0037079332 4.446727e-06 -0.010640225 -0.012807321 -0.0019778025 -0.0009706152 -0.014895768
-0.008170788 -0.0040145097 -0.007112881 -0.01622588 -0.00920422 -0.0026301607 -0.011067698 0.00039055423
3.286491e-05 -0.010986176 -0.0026702497 -0.0038854668 -0.008016126 -0.013457697 -0.009766431 -0.0011450131
-0.0065309014 0.0023935111 -0.0050142976 -0.016337417 -0.016507959 0.0029680526 0.0017591079 -0.0062638605

action_model._continuous_distribution.log_sigma f4 [1, 2]
00000000: 7f3f 323c 34ca 46bd
0.010879396 -0.04853268

action_model._continuous_distribution.mu.weight f4 [2, 128]
00000000: db81 9f3c 8426 043c 62e0 21bc 6e04 c33c
00000010: 1f49 993c b40e 5d3c 8daf 9fbb 0d3c 583c
00000020: 240a 803c ae8d 17bb 1228 5a3c 3634 2f3d
00000030: 4f1f 95bc 95c0 263d cb95 373d f801 773c
00000040: 8407 64bc 5a1f c239 5987 ce39 e913 b13b
00000050: 59d0 ac38 7b26 c93a ce15 2dbd e07d d63c
00000060: 1281 1f3b eaa4 013c d9ec c7bc 97e3 a33b
00000070: bedf f3bb 19d4 d53c 60f3 6f3b 668e 923a
00000080: 4b1d 6dbb 9db1 cbbc a3b5 0c3c d8fd 7dbc
00000090: 1d2d 273b 83d2 ef3c cf60 053b 38f8 2fbd
000000a0: 1b2f 013b d20a e2ba cdec 4e3b aadb febc
000000b0: e002 8839 5730 ab3a de9d 7ebc 8f70 d83b
000000c0: f3e0 553c d84d f33c 00ac 0bbc efa3 383c
000000d0: c4eb 80bc add4 ffbb 7c3a 83bb 3a6b 263c
000000e0: c71d 0d3d e2b2 b73c 062b 9dba 177b d33a
000000f0: 2af2 ba3b d5db c2bc 47b3 293b cfd5 e8ba
00000100: 7619 d23c 77f5 a13c 98b7 d23c 4c6a 5e3b
00000110: 8538 a93c e253 c53b 7a51 20bd 0e88 e93b
00000120: 4fc6 cdbb 1ab0 903c 6c7d 4cbb f4cb 673c
00000130: f7e7 083c 1976 eb3c fe0f 3c3d 31c6 923c
00000140: dbd2 363c 96a4 3dbc 6164 d0bc f218 f1bb
00000150: 9dc9 ee38 cbb5 43bc 5cdd ed3c da5d c2bb
00000160: d98b 5abc a40a 733b 570c b63c 1b66 9e3c
00000170: 325f cc3c 5a9c 923a eb12 3dbc 9a7e 75bc
00000180: 975d a83b 1017 49ba 09d6 913c 2970 4fba
00000190: 58fb 2abb d7a7 113b 687b d63c 67b2 8e3c
000001a0: 7b86 35bc 80e2 213c db29 4838 d668 14bd
000001b0: 39f6 8a3b c48d 5ebb 00af 4d3c 2c71 4cb8
000001c0: 9567 213b 4571 4b3c 66fe be3c f195 6dbc
000001d0: 0363 9a3c 94de ca3a cf6d d6bb 5aec 0b3c
000001e0: b08e a43b 3253 65bc f07d a23c d51e 37bc
000001f0: b2de 10bc 3048 133c c279 f2bb b27e e33b
00000200: e791 07bd 02b3 70bb 0d42 d6bc ccc7 db3b
00000210: 9a1a c13c 2d6c 8a3c 8f89 f3bc 1e34 ad3b
00000220: 03c6 d8bc 4975 973b 788a d53a 990a d6bb
00000230: d1a9 db3b aedd 17bd 69b2 5bbc e188 293c
00000240: 5672 24bc 00fc 33bb ab2d 893c 312a 38bc
00000250: c36e cebc d077 d53c f8ef aa3b 8249 00bd
00000260: 2872 b139 020e fb3b d764 0abd 6ee3 5bbb
00000270: bc19 2dbc 1c49 e4bc ac8c 8c3b 3fc6 c1bb
00000280: 4cc9 003b 03ec 24bb e3ba edbb 88b4 ba3a
00000290: 8818 9839 154f 8bbd f060 0939 f972 87bc
000002a0: f3da aabc 4f9a cbbc 2339 8d3a 9f7a 6abc
000002b0: c1e9 1c3c 395e e5bb 0c34 f4bb 9799 b339
000002c0: 981f 83bc 8f59 833c 2247 b2bb 3fdf 353c
000002d0: 86e3 70bb e1b0 33bc 8bc3 a2bb 4861 693c
000002e0: 0133 7cbc 60ed 12bc ad07 8cbc c93f 92ba
000002f0: eee2 9c3b c97a 20bd 67b0 1f3c c176 6dbc
00000300: b867 1d39 cda1 1abd 3453 33bd 0230 0bbc
00000310: ece2 8cbc f174 0a3b d6fd 98bb f5a6 cdbb
00000320: 54e9 07bc c55a 12bd ed95 dcbb 114a 493c
00000330: 9d2b ba3c 5196 80bb 6360 a2bc f67b 0cbd
00000340: b190 8238 e92d c33c beaa e8bb a810 28bd
00000350: 02a0 c33c d8e5 86bc 5f8f 3ebd 952d 1f3c
00000360: e7aa 243c 38f2 e63a bf23 2bbd c2e6 20bd
00000370: b860 cab9 8ed3 b83a 8824 b1ba ce7b c6bc
00000380: 2dd3 fdbc 305b 0bbd 4a74 95bd 2a0c d5bb
00000390: 2d87 113d f6d7 8aba 4d58 a23c 93ef 0a3d
000003a0: 5033 783a a39f ddbc dd49 12bc e873 b53c
000003b0: 68a6 2bbb 83ab 0c3c 6e85 e639 a3df d73c
000003c0: a644 18bd 1a74 46bb 9bc2 babb 65a8 5ebd
000003d0: f845 f03b 86d2 98bc 06f7 2d3c 0b0e ca3c
000003e0: 3629 ea3b c788 6e3c 4dd5 71bc cd76 32bb
000003f0: 94f3 f339 fd9d 20bd 8935 d7bc 31d7 3b3c
0.0194711 0.008065823 -0.009880157 0.023805823 0.018711625 0.013492275 -0.004873222 0.013197911
0.015629835 -0.002312522 0.013315218 0.0427744 -0.018203406 0.040711004 0.044820588 0.015076153
-0.0139178075 0.00037025922 0.00039392224 0.005403985 8.240407e-05 0.0015346551 -0.042257123 0.026183069
0.0024338407 0.007912854 -0.02440493 0.005001496 -0.0074424436 0.026102113 0.0036613569 0.0011181354
-0.003618079 -0.024864966 0.008588227 -0.015502416 0.0025509067 0.029275184 0.0020351892 -0.04296133
0.0019711915 -0.0017245656 0.003157425 -0.031110603 0.00025942083 0.0013060671 -0.015540568 0.006605215
0.01305412 0.029700205 -0.008524895 0.011269554 -0.015737422 -0.0078073354 -0.0040047746 0.010157401
0.034452226 0.022424165 -0.0011990971 0.0016134706 0.0057051377 -0.023786465 0.002589421 -0.0017763915
0.025646906 0.019770367 0.02572231 0.003393787 0.020656833 0.0060219625 -0.039140202 0.0071268147
-0.0062797437 0.017662097 -0.0031202687 0.014147747 0.008356086 0.028742837 0.04591369 0.01791677
0.01115867 -0.011574885 -0.02543849 -0.00735771 0.00011386278 -0.011945198 0.029036216 -0.005931598
-0.013339006 0.00370852 0.022222681 0.019335797 0.024947736 0.0011185512 -0.011540155 -0.014983797
0.00513811 -0.0007670978 0.017802255 -0.00079131365 -0.0026089754 0.0022225284 0.026181892 0.017419053
-0.011079426 0.009880662 4.7722697e-05 -0.03623279 0.004240778 -0.003395901 0.01255393 -4.874279e-05
0.002462839 0.012417142 0.023314666 -0.014501081 0.01884604 0.001547771 -0.006543852 0.008540237
0.0050218925 -0.013996886 0.019835442 -0.0111767845 -0.008842157 0.008989379 -0.0073997686 0.0069425935
-0.033098128 -0.003672779 -0.026154542 0.0067071673 0.023572255 0.016897285 -0.029728679 0.005285754
-0.026461607 0.004622136 0.0016291877 -0.006532025 0.0067035933 -0.037076645 -0.0134092355 0.010347576
-0.010037025 -0.0027463436 0.016745409 -0.011240528 -0.0251993 0.026058108 0.005216595 -0.031320103
0.00033845124 0.007661582 -0.033787575 -0.0033552307 -0.010565218 -0.027866893 0.0042892303 -0.0059135254
0.0019651232 -0.0025165088 -0.0072549446 0.0014244476 0.00029009976 -0.06802193 0.0001310145 -0.016534315
-0.020856356 -0.024853854 0.0010774474 -0.014311462 0.009577216 -0.0069997576 -0.0074524935 0.00034255974
-0.016006276 0.016033916 -0.0054406086 0.011100589 -0.0036756708 -0.010967464 -0.004967158 0.014244385
-0.01539302 -0.008967727 -0.017093504 -0.0011157925 0.0047877943 -0.039179597 0.009746647 -0.014493645
0.00015011325 -0.03775196 -0.04378052 -0.008495333 -0.017198049 0.0021126831 -0.0046689315 -0.0062760063
-0.008295376 -0.035731096 -0.0067317397 0.012285725 0.022725875 -0.003924169 -0.019821351 -0.034297906
6.225834e-05 0.023825603 -0.007100432 -0.04103151 0.023880009 -0.01646702 -0.046523448 0.009715457
0.010050512 0.0017619794 -0.041782137 -0.039282568 -0.00038600503 0.0014101134 -0.0013514915 -0.024228957
-0.030984486 -0.03402251 -0.07297571 -0.006501694 0.035529304 -0.0010592926 0.019817496 0.033919882
0.00094680954 -0.02705366 -0.008928743 0.022149995 -0.0026191715 0.008585813 0.0004396843 0.026351755
-0.037174843 -0.0030281604 -0.0056994683 -0.054359812 0.0073325597 -0.018655073 0.010617977 0.0246649
0.007146026 0.014558977 -0.0147603275 -0.0027231455 0.00046530052 -0.03921317 -0.026270645 0.01146488

action_model._continuous_distribution.mu.bias f4 [2]
00000000: 543c a73a 756e dd3b
0.0012759068 0.0067575523
