GameAI3/Config/results/dwarf_2/Dwarf/Dwarf-5440.pt (torch, 555487 bytes, 36 tensors)

network_body._body_endoder.seq_layers.0.weight f4 [128, 44]
-0.21894728 0.13691245 -0.09297015 0.3469205 0.15015998 0.23367508 0.076986305 0.18936354
0.18383324 -0.14887466 0.03961764 0.17094643 0.08629817 0.2575581 0.13633525 0.23817268
0.26538548 0.09710083 -0.21103546 -0.05128164 0.3580854 0.17666578 0.016793706 0.2592676
-0.20446451 -0.2110245 0.056585755 0.043452963 -0.020611914 0.12649567 0.012103825 -0.004528834
0.09945087 -0.24186021 0.26311162 0.2559853 0.21185479 0.1755794 -0.2274226 0.18335314
0.6414862 -0.12220792 0.058586095 0.021382906 0.0975916 -0.07627463 -0.0028187502 -0.15978055
-0.061139964 0.06439693 0.0072820485 -0.07570342 -0.06355377 0.05927817 0.066420905 -0.15920775
0.15281448 -0.01491071 -0.21830924 0.12341584 -0.18894379 -0.016339809 -0.038201302 0.049654376
0.1036576 -0.2721422 0.08222276 0.1924138 -0.03944057 -0.1372061 0.205445 0.12685202
0.12603863 -0.0490423 0.23168442 0.01626915 0.15496977 -0.011113953 -0.10656933 -0.11491991
-0.028082518 0.3969764 0.017415395 -0.14373946 0.056958627 0.0045017484 -0.0723826 0.04571353
0.089738645 0.12507224 -0.18195492 0.18247883 -0.31852016 -0.18784906 0.18442404 -0.020094275
-0.20178653 0.2054547 0.17227526 0.16781574 0.056293298 0.013729216 0.0835482 -0.13534643
-0.1264775 0.2984829 -0.10664886 -0.14643918 0.123828925 -0.16231018 -0.0045550778 0.03167313
0.3308739 -0.35047996 -0.22985983 -0.15629937 -0.10851381 0.10343375 0.13882652 -0.24519734
0.055240575 -0.04110457 0.04124011 0.057919465 -0.06255902 -0.17644846 -0.22814158 -0.0968317
0.037403062 -0.09811534 -0.10785562 0.14453721 -0.2293119 0.27818382 -0.021814456 0.11549047
0.14884023 0.11284669 -0.0149697075 0.08638663 -0.07770735 -0.1081747 -0.2277004 -0.07729475
0.05896476 -0.061669074 0.15312774 0.07892117 0.20390937 -0.03664555 0.046362847 -0.025795683
0.06152467 0.0080513405 -0.15027943 0.02238689 -0.086252116 -0.010187292 0.12805136 -0.16406417
-0.0037877446 -0.26833376 -0.12873968 0.09449851 -0.08962543 -0.014480669 0.1088083 0.17492893
-0.037921175 0.22722086 -0.091865696 0.11188464 -0.19133693 0.015766334 0.027163427 -0.1821027
-0.047519926 0.09852134 -0.0007337872 -0.10682759 -0.13090949 0.18914275 0.20597441 -0.04736032
0.037042573 0.071023636 -0.1276509 0.22226338 0.065100215 0.14138338 -0.119210206 -0.18425293
0.021379383 -0.043506976 -0.26966107 0.090289354 -0.10872882 -0.050207067 0.014766291 0.04464359
-0.21590991 -0.09539706 0.18396103 -0.287169 0.06945855 0.21174246 -0.14060509 0.09972611
-0.1569236 -0.050941132 0.17191693 -0.1755209 -0.30393013 -0.1796026 -0.19856337 -0.14492723
0.20651427 0.16091633 -0.004924217 -0.14859538 0.014714863 0.1526408 0.0015002276 0.029211799
-0.052243423 0.1865629 0.26608968 0.11310403 0.08575887 0.23465352 -0.06516587 0.12181163
-0.33164456 0.10547487 0.057593808 -0.054114763 0.015336527 -0.13239029 0.16752072 0.15588626
-0.2856426 -0.13261496 -0.10792589 0.04714785 -0.13709745 0.04633961 0.15408376 0.011265647
-0.26367876 -0.09502249 -0.027258372 0.12443612 0.030618645 -0.013385849 -0.08284376 -0.0117665585
00000000: b733 60be c732 0c3e 2267 bebd 909f b13e
00000010: 8ac3 193e 8548 6f3e ffaa 9d3d 84e8 413e
00000020: c83e 3c3e 9972 18be 1b46 223d 950c 2f3e
00000030: 18bd b03d a8de 833e 789b 0b3e 8ae3 733e
00000040: 9be0 873e cddc c63d ae19 58be b20c 52bd
00000050: f856 b73e e0e7 343e f492 893c b9be 843e
00000060: 255f 51be ce16 58be 77c6 673d bcfb 313d
00000070: 51da a8bc 1588 013e 1f4f 463c 9d66 94bb
00000080: e6ac cb3d 34aa 77be 91b6 863e 8110 833e
00000090: 76f0 583e 16cb 333e 78e1 68be edc0 3b3e
000000a0: 7138 243f 2548 fabd f9f7 6f3d 342b af3c
000000b0: 1bde c73d e035 9cbd c8ba 38bb 839d 23be
000000c0: e66d 7abd 8ae2 833d 409e ee3b 650a 9bbd
000000d0: 7b28 82bd abcd 723d af07 883d 5b07 23be
000000e0: 667b 1c3e 0d4c 74bc 758c 5fbe 72c1 fc3d
000000f0: 7b7a 41be 10db 85bc f878 1cbd 6362 4b3d
00000100: 704a d43d 3956 8bbe 6864 a83d 2008 453e
00000110: 6f8c 21bd c27f 0cbe 2d60 523e 7fe5 013e
00000120: 4510 013e 94e0 48bd ae3e 6d3e e146 853c
00000130: 65b0 1e3e 4c17 36bc 0541 dabd 215b ebbd
00000140: 4f0d e6bc 7e40 cb3e bbaa 8e3c 7030 13be
00000150: 734d 693d 6783 933b 543d 94bd 1c3e 3b3d
00000160: e5c8 b73d f012 003e 6452 3abe bbdb 3a3e
00000170: 1315 a3be 815b 40be a8d9 3c3e c09c a4bc
00000180: 21a1 4ebe b862 523e ed68 303e e4d7 2b3e
00000190: cd93 663d 81f0 603c 521b ab3d 4198 0abe
000001a0: 5183 01be c0d2 983e b86a dabd 27f4 15be
000001b0: 059a fd3d a434 26be c342 95bb afbb 013d
000001c0: 4e68 a93e 1c72 b3be 6060 6bbe f10c 20be
000001d0: 7d3c debd 13d5 d33d 8a28 0e3e 0315 7bbe
000001e0: f143 623d 445d 28bd 64eb 283d f63c 6d3d
000001f0: f21e 80bd e8ae 34be f29d 69be b34f c6bd
00000200: f433 193d b2f0 c8bd 68e3 dcbd 9001 143e
00000210: bdd0 6abe 1c6e 8e3e 3bb4 b2bc 4486 ec3d
00000220: 9369 183e 2a1c e73d 8143 75bc 79eb b03d
00000230: 0825 9fbd b28a ddbd 4b2a 69be b64c 9ebd
00000240: 0885 713d b698 7cbd 85cd 1c3e 6ca1 a13d
00000250: 9ecd 503e a519 16bd f8e6 3d3d 7851 d3bc
00000260: 4b01 7c3d c5e9 033c dae2 19be b664 b73c
00000270: f3a4 b0bd 99e8 26bc e51f 033e 7000 28be
00000280: cf3b 78bb 0b63 89be 56d4 03be 6f88 c13d
00000290: 8a8d b7bd 5440 6dbc e3d6 de3d 9220 333e
000002a0: 3c53 1bbd 96ac 683e 1524 bcbd c623 e53d
000002b0: d4ed 43be 6628 813c d685 de3c 2179 3abe
000002c0: 41a4 42bd 8ec5 c93d a05b 40ba 6cc8 dabd
000002d0: 230d 06be a3ae 413e f5ea 523e e5fc 41bd
000002e0: f4b9 173d d774 913d ebb6 02be 0399 633e
000002f0: 4353 853d cec6 103e 7b24 f4bd cdac 3cbe
00000300: d123 af3c 5f34 32bd 0411 8abe a0e9 b83d
00000310: 37ad debd eda5 4dbd 50ee 713c 32dc 363d
00000320: 7d17 5dbe 895f c3bd 4860 3c3e d107 93be
00000330: 4940 8e3d 04d3 583e c8fa 0fbe 343d cc3d
00000340: 95b0 20be a6a7 50bd fe0a 303e c0bb 33be
00000350: bb9c 9bbe bee9 37be 3254 4bbe ce67 14be
00000360: 7a78 533e 40c7 243e 535b a1bb 6329 18be
00000370: 9c16 713c df4d 1c3e 49a3 c43a 954d ef3c
00000380: 33fd 55bd 580a 3f3e e83c 883e 16a3 e73d
00000390: 59a2 af3d 0349 703e af75 85bd 6078 f93d
000003a0: 51cd a9be 3503 d83d 7ce7 6b3d 71a7 5dbd
000003b0: 0e46 7b3c 5291 07be 8d8a 2b3e a6a0 1f3e
000003c0: bf3f 92be 37cc 07be 4008 ddbd 1b1e 413d
000003d0: 4663 0cbe 9ace 3d3d 22c8 1d3e 8c93 383c
000003e0: e700 87be 279b c2bd f34c dfbc 5dd8 fe3d
000003f0: f4d3 fa3c 5250 5bbc fda9 a9bd 86c8 40bc

network_body._body_endoder.seq_layers.0.bias f4 [128]
-0.00068833545 -0.007267061 -0.010886562 -0.000521088 -0.0031339547 0.0076246248 -0.0011136475 0.0036827386
-0.0037334745 0.016598852 -0.0065315547 -0.011160278 -0.007300511 -3.5049634e-06 -0.012851389 0.008001362
-0.005847702 -0.0073613846 -0.0022541005 0.00086639496 0.0085676415 -0.021224678 -0.0041927216 -0.024742484
-0.005506783 -0.004402273 0.018267175 0.00019337992 0.00958177 0.005265995 -0.008029159 -0.017498603
-0.0067952 -0.0060624206 0.00081190345 0.017329242 5.191534e-05 -0.0047152545 -0.006095377 -0.013434784
-0.010354627 -0.008657186 0.0073547717 0.028237546 0.009649434 0.00079588284 -0.007836341 0.0013007723
-0.007849606 -0.0018066311 -0.012143915 -0.012116289 0.0055901287 -0.008523198 -7.922516e-05 0.014609328
-0.0017301134 0.0017284689 -0.0023652676 0.01980958 0.008268508 0.0016736011 0.00048282076 -0.0035089457
0.004875254 0.002429722 0.013259186 -0.012693681 -0.012141234 -0.0017993713 -0.0043640663 0.011830526
-0.012916765 -0.0032047608 -0.002903242 -0.015036266 0.0028942935 0.0046676765 -0.0025752669 0.002221388
-0.021752957 0.0032347722 -0.011535948 -0.0024405832 0.0011353104 -0.007290218 -0.006418385 -0.001047335
-0.0067035453 0.009627707 -0.00074112415 0.0010445955 -0.0004884831 0.0060938555 -0.008443869 0.012610845
-0.0074427407 0.003133034 -0.014896783 -0.013541603 0.0072694453 0.008925395 -0.008925051 -0.009524037
-0.0014188575 0.0009377987 -0.014159601 -0.0004884319 -0.01204508 -0.0032324537 -0.00714484 -0.0070578507
-0.003459629 0.011929076 -0.0021208776 -0.008667823 -0.004630429 -0.011003062 -0.008995216 -0.0064893253
0.002826712 -0.0044858586 0.0018308744 -0.002074935 -0.0051745246 0.017301913 0.0063773794 -0.0037772495
00000000: 6971 34ba 8720 eebb 8d5d 32bc a099 08ba
00000010: 0963 4dbb fdd7 f93b cff7 91ba 1a5a 713b
00000020: 4fad 74bb 51fa 873c a706 d6bb 99d9 36bc
00000030: 2039 efbb d036 6bb6 a28e 52bc 2518 033c
00000040: 149e bfbb c537 f1bb 88b9 13bb c81e 633a
00000050: 4b5f 0c3c 60df adbc 1963 89bb c0b0 cabc
00000060: 3e72 b4bb f140 90bb 0ba5 953c 07c6 4a39
00000070: dbfc 1c3c 5e8e ac3b bc8c 03bc 3b59 8fbc
00000080: 45aa debb 45a7 c6bb ebd5 543a 0ef6 8d3c
00000090: acbf 5938 6c82 9abb babb c7bb 911d 5cbc
000000a0: 74a6 29bc dfd6 0dbc 4c00 f13b 6d52 e73c
000000b0: a918 1e3c cba2 503a ff63 00bc ad7e aa3a
000000c0: a29b 00bc 7bcc ecba 45f7 46bc 6683 46bc
000000d0: 662d b73b e2a4 0bbc af25 a6b8 f65b 6f3c
000000e0: f9c4 e2ba cb8d e23a 9b02 1bbb b347 a23c
000000f0: a378 073c bc5c db3a 1b23 fd39 57f6 65bb
00000100: 98c0 9f3b f93b 1f3b 0f3d 593c 28f9 4fbc
00000110: 07ec 46bc e2d8 ebba 7100 8fbb d3d4 413c
00000120: d7a0 53bc f706 52bb 5144 3ebb ac5a 76bc
00000130: 30ae 3d3b 4ff3 983b cfc5 28bb b594 113b
00000140: 4233 b2bc 79fe 533b 4601 3dbc 31f2 1fbb
00000150: b2ce 943a c8e2 eebb 5151 d2bb bb46 89ba
00000160: 6aa9 dbbb 88bd 1d3c 0048 42ba cfea 883a
00000170: 8c0d 00ba f7ae c73b 2758 0abc b89d 4e3c
00000180: 3ce2 f3bb 9753 4d3b a311 74bc 9add 5dbc
00000190: 8734 ee3b d23b 123c 613a 12bc b50a 1cbc
000001a0: f5f8 b9ba 9bd6 753a acfd 67bc 1c0a 00ba
000001b0: ba58 45bc 93d7 53bb 431f eabb 8b45 e7bb
000001c0: f1ba 62bb 2c72 433c 6cfe 0abb 7c03 0ebc
000001d0: dbba 97bb 3046 34bc ac60 13bc 68a4 d4bb
000001e0: 5c40 393b 1cfe 92bb f3f9 ef3a a2fb 07bb
000001f0: 0f8f a9bb bebc 8d3c 56f9 d03b bb8b 77bb

network_body._body_endoder.seq_layers.2.weight f4 [128, 128]
0.020562178 0.03421751 -0.011565032 -0.073271565 0.15111585 0.10131786 0.19621164 0.09437904
-0.11544139 0.015585561 -0.06000459 0.14442404 0.041768946 0.04890414 0.009591445 -0.09174217
0.07001024 0.02229028 0.03926711 0.0342725 0.020557836 -0.02319828 0.24561208 -0.053686183
-0.11277984 0.12692878 -0.002709034 0.06871086 -0.012226187 0.0033763056 0.07982848 -0.040405683
0.09260863 -0.051814925 0.005670571 -0.12708539 -0.04560011 0.15078826 0.032878917 0.061235067
-0.028022382 0.0018052766 -0.07988191 -0.019014606 -0.04603215 0.14929777 0.018223915 -0.020703357
0.006124525 -0.053205155 -0.10719282 -0.009621599 -0.03068264 0.023846015 -0.08522779 -0.013751071
-0.06335475 -0.15208885 -0.0641968 -0.04075626 0.05776656 0.118237115 0.007103565 0.084433615
0.104456596 0.09931497 -0.07598745 -0.04982855 -0.11063754 0.06007391 -0.0050515654 0.15086435
-0.18336873 0.098391235 -0.12872228 0.1130707 -0.02251021 0.047595814 0.11906127 -0.0084893005
0.027527915 0.08922187 0.206499 0.060352683 0.043616008 -0.031098835 0.08283114 0.16657104
0.03778538 -0.11466639 -0.04545701 0.17057008 0.021016186 -0.051965673 0.008797526 0.12319198
-0.05533767 -0.016284648 0.0060531646 0.0835063 -0.12420137 0.060329735 0.031985965 0.19864385
-0.07147863 0.07227891 0.083110206 0.0161605 -0.13970584 0.14468843 -0.027734919 0.090896755
0.15478432 -0.08349385 -0.028402796 0.051817942 -0.039483383 -0.07421144 0.052659422 0.0015624972
-0.017332405 0.052609537 -0.009781778 0.12977715 -0.11877176 -0.059114005 -0.035188355 0.05362052
-0.06328074 -0.08670245 0.08960494 -0.02602878 0.07742124 -0.010257481 0.12319847 0.011097184
0.07715764 0.13127509 0.18562628 -0.06384803 -0.14148995 0.05805019 0.18639421 -0.20439817
0.097594455 -0.19730428 0.015737588 0.0038977598 0.010709275 0.0138901705 -0.060369268 -0.015608789
0.0011314901 0.19539167 -0.022891957 0.14278768 -0.18075407 -0.16427904 0.062008604 -0.02892271
-0.08237532 0.02776029 -0.15979278 0.07247795 -0.038037807 -0.034494724 0.039241336 -0.092391625
0.03589777 -0.06969336 -0.16229925 -0.06504055 0.044842027 -0.057420176 -0.07879354 0.06942752
0.09536352 -0.18191957 -0.006679082 0.057529733 0.0054474827 -0.030730762 -0.076902285 -0.007098114
-0.060491636 -0.056391377 0.21048109 -0.046501383 -0.1241959 -0.016707566 0.029064467 -0.06887615
-0.038760524 0.12516706 -0.055055488 0.07062937 0.17167298 0.024375292 0.0852086 -0.003303713
-0.13105851 0.07972886 -0.017435497 -0.033258174 0.19369958 0.04042111 0.09703741 0.11837383
-0.07377856 -0.16797832 0.0702013 -0.061968487 0.0014692016 0.029874582 -0.04771063 -0.056567207
0.045495037 0.2095033 -0.002125937 0.04855473 -0.13983254 -0.056249972 -0.08658638 -0.038565427
0.079477265 0.021733783 -0.08216577 0.023583474 0.09252588 -0.16205041 0.04879963 0.079008825
-0.024424816 -0.15382801 -0.06602019 0.04053854 0.080758855 0.04805916 -0.06510696 0.11591259
0.006699495 -0.04440522 0.115089625 -0.061011683 -0.16993444 -0.05397988 -0.065321185 -0.0757682
-0.05674908 -0.12668228 -0.20430009 -0.020858496 -0.028093923 0.021647213 0.05646919 -0.06608179
00000000: 0372 a83c a927 0c3d 437b 3dbc 670f 96bd
00000010: 1dbe 1a3e bd7f cf3d b4eb 483e cc49 c13d
00000020: 896c ecbd 955a 7f3c 5fc7 75bd e5e3 133e
00000030: ea15 2b3d b54f 483d 7025 1d3c 52e3 bbbd
00000040: 8761 8f3d 1b9a b63c 8dd6 203d 5261 0c3d
00000050: e868 a83c 520a bebc bc81 7b3e 0be6 5bbd
00000060: 1ef9 e6bd 9ef9 013e 0c8a 31bb 48b8 8c3d
00000070: 5850 48bc 0245 5d3b 1d7d a33d 6e80 25bd
00000080: 98a9 bd3d e33b 54bd 32d0 b93b ac22 02be
00000090: 2ec7 3abd 3d68 1a3e 0bac 063d 9fd1 7a3d
000000a0: 328f e5bc 089f ec3a 2099 a3bd 85c4 9bbc
000000b0: 358c 3cbd 84e1 183e 524a 953c 169a a9bc
000000c0: 3db0 c83b a6ed 59bd e987 dbbd e9a3 1dbc
000000d0: 295a fbbc b858 c33c e88b aebd 2c4c 61bc
000000e0: 23c0 81bd 2ebd 1bbe 9d79 83bd 09f0 26bd
000000f0: a19c 6c3d 4d26 f23d 06c5 e83b 88eb ac3d
00000100: 57ed d53d a665 cb3d 4f9f 9bbd 0619 4cbd
00000110: ef95 e2bd 0f10 763d 9a87 a5bb 2f7c 1a3e
00000120: 03c5 3bbe 5881 c93d c6cf 03be 9c91 e73d
00000130: 5567 b8bc d4f3 423d 65d6 f33d b516 0bbc
00000140: 3982 e13c f5b9 b63d 7974 533e 6034 773d
00000150: b3a6 323d fcc2 febc 5fa3 a93d 9991 2a3e
00000160: d8c4 1a3d 36d6 eabd 2131 3abd eca9 2e3e
00000170: 232a ac3c f5d9 54bd 8023 103c 144c fc3d
00000180: c1a9 62bd 6267 85bc a059 c63b 5a05 ab3d
00000190: 4a5d febd 501c 773d b703 033d 4b69 4b3e
000001a0: 6363 92bd f706 943d af35 aa3d 0663 843c
000001b0: 0c0f 0fbe 3429 143e 5734 e3bc 1428 ba3d
000001c0: c87f 1e3e d3fe aabd fbac e8bc 0d3f 543d
000001d0: 54b9 21bd 2bfc 97bd 68b1 573d b5cc cc3a
000001e0: b0fc 8dbc 197d 573d c043 20bc 4de4 043e
000001f0: 9c3e f3bd 8721 72bd aa21 10bd 31a1 5b3d
00000200: 5599 81bd 0e91 b1bd cb82 b73d 4f3a d5bc
00000210: 078f 9e3d fe0e 28bc 7b4f fc3d f7d0 353c
00000220: d304 9e3d fa6c 063e d114 3e3e c2c2 82bd
00000230: bee2 10be 09c6 6d3d 20de 3e3e c14d 51be
00000240: 9adf c73d 220a 4abe 1dec 803c 8f71 7f3b
00000250: f475 2f3c 9993 633c c445 77bd 02bc 7fbc
00000260: 824e 943a c114 483e ea87 bbbc ef36 123e
00000270: 9817 39be c438 28be bcfc 7d3d 52ef ecbc
00000280: 64b4 a8bd 8c69 e33c b8a0 23be 526f 943d
00000290: 88cd 1bbd 574a 0dbd 86bb 203d d237 bdbd
000002a0: 8a09 133d 64bb 8ebd c631 26be fb33 85bd
000002b0: 46ac 373d 6b31 6bbd 825e a1bd 0430 8e3d
000002c0: f34d c33d 2049 3abe 33dc dabb 4ca4 6b3d
000002d0: cc80 b23b 14bf fbbc f27e 9dbd 4c97 e8bb
000002e0: 14c6 77bd a5fa 66bd 5b88 573e 3c78 3ebd
000002f0: 6c5a febd 4ede 88bc 9b18 ee3c f00e 8dbd
00000300: 5bc3 1ebd cb2b 003e dd81 61bd 22a6 903d
00000310: 0bcb 2f3e b1ae c73c d981 ae3d 1b83 58bb
00000320: 3434 06be e248 a33d e3d4 8ebc b939 08bd
00000330: 2f59 463e 9b90 253d 8dbb c63d fb6d f23d
00000340: 3719 97bd 8202 2cbe b3c5 8f3d abd2 7dbd
00000350: 3a92 c03a 8abb f43c 396c 43bd 04b3 67bd
00000360: 0159 3a3d 0888 563e 4e53 0bbb 53e1 463d
00000370: 4330 0fbe 5f66 66bd 3354 b1bd c8f6 1dbd
00000380: fac4 a23d 0c0b b23c 8746 a8bd 2132 c13c
00000390: 357e bd3d 8bf0 25be 1fe2 473d 61cf a13d
000003a0: 8d16 c8bc 1785 1dbe 9835 87bd bd0b 263d
000003b0: e664 a53d afd9 443d cc56 85bd 9463 ed3d
000003c0: 7087 db3b 3fe2 35bd 1cb4 eb3d 63e7 79bd
000003d0: 4b03 2ebe 021a 5dbd 1dc7 85bd 5c2c 9bbd
000003e0: b971 68bd 00b9 01be 0b34 51be 70df aabc
000003f0: 3a25 e6bc 7f55 b13c 3d4c 673d e455 87bd

network_body._body_endoder.seq_layers.2.bias f4 [128]
-0.0022549909 -0.009167769 -0.0012068042 0.0048512947 -0.0039046137 -0.008815801 -0.012460334 -0.0025486103
-0.013719161 -0.0060155964 -0.0010132316 -0.023657113 -0.010234843 -0.001537709 -0.0020050146 -0.0065076556
-0.0025908262 -0.008802766 -0.0075241528 -0.012704406 -0.0070104282 -0.006706607 -0.0009796683 -0.00069354207
-0.0031211467 -0.0030951872 -0.0056386422 -0.0062883026 0.008251272 -0.002929563 -0.0038814999 -0.0054381313
-0.007934415 -0.008672557 -0.000944719 -0.00039253946 0.00018900228 -0.0032902032 -0.0071327672 -0.007502183
-0.008372237 -0.0059907003 -0.0070337784 -0.006025995 -3.2593234e-05 -0.0020913538 -0.00979129 -0.007930348
-0.014161197 0.00082175876 -0.00032348398 -0.0053062737 -0.008041028 -0.0041837688 0.0020743655 -0.002519581
-0.0031089934 -0.0066727195 -0.010125605 -0.013441034 -0.013816332 0.004325855 -0.011711097 -0.005205058
-0.004466916 -0.007754193 -0.008164227 -0.009431498 -0.0056591486 0.0026598682 0.009191558 -0.0053804484
0.0046337233 0.01346795 -0.003447784 -0.008826425 -0.016646339 -0.009568105 -0.0072277426 0.0012003237
0.001703766 -0.0050675087 -0.013234741 -0.007838263 -0.00508429 -0.0142931 -0.003718163 -0.008777464
-0.010806639 -0.012006222 -0.0077855224 0.0022718548 0.0020674723 -0.00307861 -0.0042216806 -0.0042839185
0.013521418 0.0022260502 -0.019925982 -0.011124506 -0.007859495 -0.0046878196 -0.010471882 -0.004780882
0.0023474796 -0.0074967826 -0.01663277 -0.02150205 0.004187843 -0.0060892557 0.0073403055 -0.00707293
-0.0069447965 -0.0012521597 -0.0140087595 0.0011468632 -0.011071487 1.2025812e-05 -0.008180158 -0.0039993054
-0.011303108 0.0054697343 -0.013393779 -0.009255792 -0.011082878 0.0011166275 -0.002777489 -0.006603118
00000000: 78c8 13bb 6934 16bc a12d 9eba 9cf7 9e3b
00000010: 8ce4 7fbb 2670 10bc 6e26 4cbc 9606 27bb
00000020: 55c6 60bc 7b1e c5bb 69ce 84ba 90cc c1bc
00000030: 0bb0 27bc f48c c9ba 9066 03bb 2c3e d5bb
00000040: daca 29bb 7a39 10bc 2b8d f6bb 2426 50bc
00000050: bcb7 e5bb 19c3 dbbb 3768 80ba d2ce 35ba
00000060: 278c 4cbb a0d8 4abb 5cc4 b8bb 1b0e cebb
00000070: 5830 073c e9fd 3fbb c360 7ebb 5a32 b2bb
00000080: 59ff 01bc 5717 0ebc 05a7 77ba c1cd cdb9
00000090: ea2e 4639 73a0 57bb fdb9 e9bb dfd4 f5bb
000000a0: b52b 09bc a34d c4bb 9c7b e6bb b675 c5bb
000000b0: b8b4 08b8 180f 09bb a66b 20bc 4aee 01bc
000000c0: 5d04 68bc 4c6b 573a 4999 a9b9 40e0 adbb
000000d0: 84be 03bc ff17 89bb 14f2 073b 8e1f 25bb
000000e0: 41c0 4bbb d4a6 dabb dee5 25bc c837 5cbc
000000f0: e65d 62bc e7bf 8d3b e7df 3fbc 318f aabb
00000100: 355f 92bb e316 febb 40c3 05bc 9286 1abc
00000110: 6170 b9bb 2f51 2e3b 3098 163c 794e b0bb
00000120: 7dd6 973b ada8 5c3c 38f4 61bb b69c 10bc
00000130: e75d 88bc 8bc3 1cbc b3d6 ecbb 2e54 9d3a
00000140: e750 df3a 580d a6bb 87d6 58bc 0f6c 00bc
00000150: 1e9a a6bb 9b2d 6abc 6cac 73bb 5acf 0fbc
00000160: 540e 31bc bfb5 44bc b21d ffbb 66e3 143b
00000170: 6e7e 073b 81c2 49bb 0656 8abb 1d60 8cbb
00000180: f088 5d3c ede2 113b d03b a3bc 8f43 36bc
00000190: 1cc5 00bc 489c 99bb 4292 2bbc f2a8 9cbb
000001a0: 2cd8 193b 92a7 f5bb 7241 88bc 1125 b0bc
000001b0: 2c3a 893b 6188 c7bb f286 f03b 0ac4 e7bb
000001c0: 2d91 e3bb 821f a4ba ff84 65bc 5852 963a
000001d0: 2f65 35bc 78c2 4937 1206 06bc 9b0c 83bb
000001e0: ac30 39bc 753b b33b 9571 5bbc 9ba5 17bc
000001f0: f694 35bc cd5b 923a 8806 36bb f85e d8bb

action_model._continuous_distribution.log_sigma f4 [1, 2]
-0.014456402 -0.004187908
00000000: 8bda 6cbc b83a 89bb

action_model._continuous_distribution.mu.weight f4 [2, 128]
-0.025315626 0.0072247945 -0.0014347325 -0.016118051 0.01605936 0.019756263 -0.010241204 0.02532048
0.0097695 -0.01943524 -0.015873946 -0.00033867915 0.0013146455 -0.0053490084 -0.017654333 0.002629203
-0.0199061 0.014923911 0.004199475 0.009446402 0.006732734 0.019816024 -0.0022464686 -0.010778091
-0.014014705 0.01187946 0.029225456 0.009621992 -0.010231662 0.012427278 0.008773017 -0.03560298
-0.0031624006 0.024412476 -0.000646491 0.022068458 0.02765562 -0.01942422 0.008757812 -0.00813296
-0.006288227 0.022442656 0.0022841732 0.008153505 0.017055178 -0.0036060144 -0.007827204 0.0050943047
-0.013920972 -0.0046641263 -0.010817921 0.014739031 -0.018396897 0.021355221 0.029749347 0.020934876
0.0105452025 0.0021403008 0.0017862449 -0.0012856631 -0.014459429 0.0023305567 -0.014247228 0.012571577
-0.014483123 0.00067055016 0.0059992615 -0.00042525303 0.006240921 -0.04238063 -0.03280365 -0.0027585167
0.008859108 0.011608851 -0.0036833095 -0.016399607 -0.007352369 -0.011320695 0.0084973965 -0.004620115
0.03859177 0.0041851187 0.001997082 0.024375034 -0.005882622 0.00041424105 -0.020543793 -0.0029039795
-0.0012762116 -0.002142047 -8.508485e-06 -0.0028336735 0.003947161 -0.01103397 -0.021821143 0.010625786
-0.010177843 -0.03269636 0.0030577553 0.0002456676 0.018464787 0.01824753 0.007196878 -0.006412704
-0.016324118 0.0014611536 0.0036849424 0.003931321 -0.030196799 0.0010938866 -0.021988276 -0.0056013158
-0.025494618 0.01058046 0.0012839931 -0.0001546645 0.0019747207 0.010310754 0.0015041457 0.022178661
-0.011717957 0.01849445 -0.019039024 -0.007819648 -0.025163548 -0.01495474 0.014163061 -0.017628897
-0.01073373 0.010553659 -0.014398611 0.01003444 0.0011104911 0.02701116 -0.0029890076 -0.027037134
-0.013943856 -0.0028699543 0.004633875 0.001494089 0.0010716137 -0.010077624 -0.019972943 0.017669043
0.00074367865 0.0002320962 0.01011673 -0.0080630295 -0.00815234 -0.010979493 -0.027228672 0.054916523
0.06076453 -0.0121789705 0.02163554 -0.004734211 0.016421746 -0.004254505 0.0011461673 -0.0058403653
0.010014952 0.004087351 0.017082492 -0.0066774962 -0.011155617 -0.003906464 0.0011733071 0.01242674
-0.014184429 0.017853532 0.025731567 0.019476162 -0.00077429373 0.0054270793 -0.029049128 0.009814973
-0.009939955 -0.003243021 0.0002973808 0.0014395302 0.0069376444 0.013836931 -0.02180464 -0.005061877
-0.0054011266 0.003266199 -0.011131743 0.0045725256 -0.003505435 0.010678796 -0.028184589 0.018347744
-0.008410897 0.012932518 0.024187798 0.010818604 0.00732961 -0.021206675 0.01098611 0.014672589
-0.0071920874 -0.029211544 0.014211067 0.0018118392 -0.002294522 0.036420107 0.012379678 0.023451354
-0.018843958 0.01988771 -0.0025339099 0.026804587 0.008146085 -0.01151007 -0.008275829 -0.0035658362
0.005895957 0.00021719017 -0.0012000552 0.014550172 -0.021202883 -0.0010256399 0.010074204 0.012463619
-0.020193594 -0.002359892 -0.0017871525 0.004423421 0.011718828 0.022332825 0.016071076 -0.011983708
0.0050945757 0.0037331944 -0.008993382 -0.029111803 -0.028360542 0.01208306 -0.0039462293 0.020555004
-0.01351578 0.023082292 0.0023095757 -0.0174957 0.012342694 0.0075624106 0.0139358835 0.008692079
-0.010229511 -0.012517867 0.009377189 0.014759059 -0.00271184 0.011933797 -0.0028138123 -0.0016791535
00000000: b762 cfbc f8bd ec3b a20d bcba 010a 84bc
00000010: eb8e 833c e3d7 a13c b9ca 27bc e56c cf3c
00000020: 4110 203c a736 9fbc 140a 82bc bf90 b1b9
00000030: 2f50 ac3a bc46 afbb d29f 90bc b54e 2c3b
00000040: 1e12 a3bc 6b83 743c c09b 893b 15c5 1a3c
00000050: 449e dc3b 3755 a23c 7d39 13bb 9796 30bc
00000060: ef9d 65bc 11a2 423c 396a ef3c 8fa5 1d3c
00000070: b3a2 27bc c89b 4b3c b3bc 0f3c 6ed4 11bd
00000080: 4740 4fbb acfc c73c 4779 29ba e9c8 b43c
00000090: 0a8e e23c 8b1f 9fbc ed7c 0f3c 1b40 05bc
000000a0: 790d cebb a9d9 b73c 11b2 153b 4796 053c
000000b0: 4db7 8b3c e252 6cbb ac3d 00bc 20ee a63b
000000c0: ca14 64bc 87d5 98bb a63d 31bc fa7b 713c
000000d0: 17b5 96bc 25f1 ae3c e7b4 f33c 9e7f ab3c
000000e0: c9c5 2c3c 4a44 0c3b 6f20 ea3a b283 a8ba
000000f0: 3ee7 6cbc 41bc 183b 356d 69bc 04f9 4d3c
00000100: 9f4a 6dbc dcc7 2f3a 7495 c43b 7ff4 deb9
00000110: a480 cc3b 5097 2dbd 1f5d 06bd 3bc8 34bb
00000120: cb25 113c 0d33 3e3c ae63 71bb 7858 86bc
00000130: 24ec f0bb 707a 39bc aa38 0b3c 5564 97bb
00000140: 6712 1e3d 5223 893b 7ae1 023b 27ae c73c
00000150: 03c3 c0bb 7e2e d939 754b a8bc b150 3ebb
00000160: 8e46 a7ba 9661 0cbb aabf 0eb7 27b5 39bb
00000170: 3057 813b d3c7 34bc 41c2 b2bc c717 2e3c
00000180: f8c0 26bc 9eec 05bd 9f64 483b f2cc 8039
00000190: 7743 973c d87b 953c cad3 eb3b a921 d2bb
000001a0: 28ba 85bc 2e84 bf3a 137f 713b 50d2 803b
000001b0: 475f f7bc be60 8f3a c220 b4bc 3e8b b7bb
000001c0: 17da d0bc aa59 2d3c a94b a83a 702d 22b9
000001d0: 516a 013b 70ee 283c c126 c53a 06b0 b53c
000001e0: adfc 3fbc ac81 973c baf7 9bbc fb1d 00bc
000001f0: c923 cebc ba04 75bc 2f0c 683c 7a6a 90bc
00000200: 87dc 2fbc 41e9 2c3c 27e8 6bbc 7e67 243c
00000210: e68d 913a 8246 dd3c 3ae3 43bb fb7c ddbc
00000220: c574 64bc d815 3cbb c3d7 973b 4fd5 c33a
00000230: 6475 8c3a 9e1c 25bc 4c9e a3bc abbe 903c
00000240: 6ef3 423a d95e 7339 a4c0 253c cc1a 04bc
00000250: 6491 05bc 55e3 33bc aa0e dfbc 26f0 603d
00000260: 3ae4 783d 4e8a 47bc 043d b13c 7121 9bbb
00000270: e686 863c 6069 8bbb fe3a 963a 8960 bfbb
00000280: c115 243c 2fef 853b 95f0 8b3c e6ce dabb
00000290: 0dc6 36bc cc01 80bb a7c9 993a 8699 4b3c
000002a0: cf65 68bc 9241 923c 02cb d23c 798c 9f3c
000002b0: f9f9 4aba a4d5 b13b 70f8 edbc fbce 203c
000002c0: 31db 22bc dd88 54bb c6e9 9b39 9eae bc3a
000002d0: 2e55 e33b 4cb4 623c a59f b2bc 1ade a5bb
000002e0: effb b0bb ba0d 563b ea61 36bc 20d5 953b
000002f0: 71bb 65bb 1ef6 2e3c 5ee3 e6bc 024e 963c
00000300: dccd 09bc e9e2 533c 7d25 c63c 8440 313c
00000310: 3a2d f03b 9fb9 adbc 16ff 333c 4c65 703c
00000320: 9aab ebbb 0c4d efbc 89d5 683c 3c7b ed3a
00000330: b15f 16bb 402d 153d 22d4 4a3c 0e1d c03c
00000340: a55e 9abc 8deb a23c f40f 26bb 4b95 db3c
00000350: 2877 053c bc94 3cbc 5897 07bc ceb0 69bb
00000360: df32 c13b 8bbd 6339 2c4b 9dba d863 6e3c
00000370: abb1 adbc c46e 86ba 460e 253c 3534 4c3c
00000380: 096d a5bc 6ba8 1abb e33e eaba 58f2 903b
00000390: 5400 403c 54f3 b63c 7da7 833c 5057 44bc
000003a0: 66f0 a63b 9ca8 743b fa58 13bc e07b eebc
000003b0: 5e54 e8bc 07f8 453c 5f4f 81bb f862 a83c
000003c0: 4a71 5dbc 1317 bd3c 405c 173b 2453 8fbc
000003d0: 0339 4a3c 19ce f73b 5553 643c 3969 0e3c
000003e0: ae99 27bc bd17 4dbc c8a2 193c fbcf 713c
000003f0: 20b9 31bb f985 433c f067 38bb 0b17 dcba

action_model._continuous_distribution.mu.bias f4 [2]
0.0012855378 -0.0053991335
00000000: 7e7f a83a 37eb b0bb

exp_avg f4 [128, 44]
-0.0005738311 0.0 2.6223059e-05 -3.2446307e-05 -0.0006615074 0.0 0.00011389951 5.8522415e-05
-0.00038088002 0.0 -0.00016672803 -0.00020726325 -0.00067662785 0.0 0.0001290198 2.203332e-05
-0.0003482179 0.0 -0.00019939014 -0.00026218352 -0.0007186101 0.0 0.00017100219 -4.386598e-05
-0.00019238697 0.0 -0.00035522107 -0.0003743423 -0.000105855026 0.0 -0.00044175296 -0.00042244612
-0.00036170165 0.0 -0.00018590635 -0.00025806596 0.0026449468 -0.008712443 -5.6642577e-05 0.00023646108
0.0019767382 0.0 -0.00021787932 -0.00036672808 -0.00030601543 0.0 0.00013147025 9.791288e-05
-0.00031068712 0.0 0.0001361419 0.00017698547 -0.0002235853 0.0 4.9040078e-05 3.8897406e-07
-0.00036918675 0.0 0.00019464146 0.00016466023 -8.645242e-05 0.0 -8.809279e-05 -0.00025710958
-1.2858072e-07 0.0 -0.00017441661 -0.00024040067 0.0004994032 0.0 -0.00067394844 -0.00049326604
0.00033808028 0.0 -0.00051262556 -0.00044810664 -0.00032349263 0.0 0.00014894744 2.6805705e-05
0.0008430529 -0.0027770142 -1.8054323e-05 0.0002076641 0.00059624907 0.0 -0.00038193626 0.00013635377
5.896084e-05 0.0 -2.2081645e-06 5.911562e-06 6.354234e-05 0.0 -6.7896735e-06 -3.2525481e-06
3.694403e-05 0.0 1.9808636e-05 2.4783809e-05 7.0598515e-05 0.0 -1.3845853e-05 -3.0216486e-06
3.1998876e-05 0.0 2.4753794e-05 3.386689e-05 6.028192e-05 0.0 -3.529252e-06 1.8533454e-05
1.4554633e-05 0.0 4.2198037e-05 4.1668474e-05 -7.433722e-06 0.0 6.4186395e-05 6.0547867e-05
5.639245e-05 0.0 3.6021513e-07 1.3696235e-05 -0.0002741154 0.00090293493 5.870288e-06 -3.3643893e-05
-0.00020355707 0.0 1.7422773e-05 3.1020692e-05 -4.903737e-05 0.0 -2.0636975e-05 -3.3892367e-05
1.5166585e-05 0.0 -8.484093e-05 -7.5570315e-05 -9.16799e-06 0.0 -6.0506365e-05 -5.9095495e-05
-6.551427e-05 0.0 -4.1600765e-06 -2.4256811e-05 -3.093213e-05 0.0 -3.874222e-05 -1.724042e-05
-6.0124636e-05 0.0 -9.549724e-06 -2.6411017e-05 -0.00018339681 0.0 0.00011372244 5.677629e-05
-3.7856345e-05 0.0 -3.1818003e-05 -3.8546237e-05 -5.152392e-05 0.0 -1.8150431e-05 -2.337601e-05
0.00033652718 -0.0011085188 -7.2068615e-06 5.0408205e-05 0.00025373083 0.0 8.836707e-05 -4.589576e-05
3.5664456e-05 0.0 -8.821855e-07 3.6728406e-06 3.5018056e-05 0.0 -2.3578448e-07 2.316225e-06
2.0600426e-05 0.0 1.41818455e-05 1.5942765e-05 4.104065e-05 0.0 -6.258374e-06 1.3020463e-06
2.0469084e-05 0.0 1.4313189e-05 1.3876515e-05 4.5200104e-05 0.0 -1.0417829e-05 3.048609e-06
2.984611e-05 0.0 4.9361634e-06 1.1901296e-05 5.4479387e-06 0.0 2.9334333e-05 2.79647e-05
2.3701836e-05 0.0 1.1080434e-05 1.4739809e-05 -0.00016799837 0.00055338594 3.597751e-06 -1.5786476e-05
-0.00012653632 0.0 1.1864463e-06 2.4669669e-05 0.0002994861 0.0 4.412648e-05 6.476366e-05
0.0005030785 0.0 -0.00015946597 -4.1358275e-05 0.00011016021 0.0 0.00023345233 0.00022454002
0.0003950466 0.0 -5.143405e-05 5.2519303e-05 0.00018257674 0.0 0.00016103574 5.9957478e-05
0.00089150737 0.0 -0.00054789486 -0.00028189193 0.0005259033 0.0 -0.00018229084 -5.3296673e-05
0.0002069872 0.0 0.00013662531 0.00014281497 0.00016950883 0.0 0.00017410368 0.00016683752
00000000: 276d 16ba 0000 0000 97f9 db37 f516 08b8
00000010: 0369 2dba 0000 0000 55dd ee38 f775 7538
00000020: dab0 c7b9 0000 0000 b7d3 2eb9 ce54 59b9
00000030: ba5f 31ba 0000 0000 7d49 0739 32d4 b837
00000040: 0491 b6b9 0000 0000 6213 51b9 ad75 89b9
00000050: 1c61 3cba 0000 0000 0d4f 3339 bdfc 37b8
00000060: 7cbb 49b9 0000 0000 f73c bab9 5f43 c4b9
00000070: 7cfe ddb8 0000 0000 149b e7b9 c27b ddb9
00000080: c6a2 bdb9 0000 0000 dbef 42b9 074d 87b9
00000090: d856 2d3b a2be 0ebc 8193 6db8 8af2 7739
000000a0: 2a8c 013b 0000 0000 8976 64b9 6945 c0b9
000000b0: b270 a0b9 0000 0000 47db 0939 9456 cd38
000000c0: b8e3 a2b9 0000 0000 50c1 0e39 2d95 3939
000000d0: 3972 6ab9 0000 0000 62b0 4d38 30d4 d034
000000e0: 688f c1b9 0000 0000 ab18 4c39 a5a8 2c39
000000f0: ca4d b5b8 0000 0000 75be b8b8 aacc 86b9
00000100: 0010 0ab4 0000 0000 9ae3 36b9 1014 7cb9
00000110: 62ea 023a 0000 0000 eaab 30ba 864e 01ba
00000120: 5e40 b139 0000 0000 b861 06ba dbef eab9
00000130: 729a a9b9 0000 0000 c62e 1c39 d0dc e037
00000140: 5300 5d3a 91fe 35bb 5d73 97b7 68c0 5939
00000150: 994d 1c3a 0000 0000 9e3e c8b9 30fa 0e39
00000160: b84c 7738 0000 0000 fa2f 14b6 ee5b c636
00000170: 0942 8538 0000 0000 dad2 e3b6 5a46 5ab6
00000180: 5af4 1a38 0000 0000 b92a a637 d3e6 cf37
00000190: 4a0e 9438 0000 0000 7c4b 68b7 87c7 4ab6
000001a0: 8836 0638 0000 0000 5ea6 cf37 4c0c 0e38
000001b0: 38d7 7c38 0000 0000 16d8 6cb6 4a78 9b37
000001c0: ac2f 7437 0000 0000 ccfd 3038 2fc5 2e38
000001d0: 306f f9b6 0000 0000 cf9b 8638 c7f4 7d38
000001e0: ef86 6c38 0000 0000 9763 c134 e2c8 6537
000001f0: 25b7 8fb9 f0b2 6c3a 64f9 c436 db1c 0db8
00000200: ef71 55b9 0000 0000 1f27 9237 371c 0238
00000210: 7aad 4db8 0000 0000 911d adb7 a727 0eb8
00000220: fd73 7e37 0000 0000 a1ec b1b8 817b 9eb8
00000230: 38d0 19b7 0000 0000 37c8 7db8 4edd 77b8
00000240: b564 89b8 0000 0000 c996 8bb6 1b7b cbb7
00000250: 1fbd 01b8 0000 0000 247f 22b8 859f 90b7
00000260: 562e 7cb8 0000 0000 c137 20b7 3a8d ddb7
00000270: 354e 40b9 0000 0000 457e ee38 1423 6e38
00000280: f1c7 1eb8 0000 0000 5274 05b8 b5ac 21b8
00000290: 631b 58b8 0000 0000 c141 98b7 9917 c4b7
000002a0: ea6f b039 b84b 91ba 78d2 f1b6 666d 5338
000002b0: 2d07 8539 0000 0000 b651 b938 3280 40b8
000002c0: 6b96 1538 0000 0000 53cf 6cb5 ec7a 7636
000002d0: 5ae0 1238 0000 0000 f22b 7db4 7170 1b36
000002e0: 14cf ac37 0000 0000 90ee 6d37 d4bc 8537
000002f0: 1023 2c38 0000 0000 06ff d1b6 f8c1 ae35
00000300: 06b5 ab37 0000 0000 ae22 7037 2ecf 6837
00000310: 3e95 3d38 0000 0000 3cc8 2eb7 b496 4c36
00000320: 085e fa37 0000 0000 52a1 a536 adab 4737
00000330: 70cd b636 0000 0000 0013 f637 bc95 ea37
00000340: 4ed3 c637 0000 0000 1ae6 3937 ff4a 7737
00000350: b828 30b9 1a11 113a e470 7136 336d 84b7
00000360: d6ae 04b9 0000 0000 fc3d 9f35 b6f1 ce37
00000370: 5804 9d39 0000 0000 7214 3938 bad1 8738
00000380: 07e1 033a 0000 0000 5236 27b9 1c78 2db8
00000390: d005 e738 0000 0000 e2ca 7439 8172 6b39
000003a0: 421e cf39 0000 0000 e4ba 57b8 2c48 5c38
000003b0: 1272 3f39 0000 0000 b4db 2839 da7a 7b38
000003c0: 0cb4 693a 0000 0000 9aa0 0fba e5ca 93b9
000003d0: c6dc 093a 0000 0000 5325 3fb9 de8a 5fb8
000003e0: b40a 5939 0000 0000 1443 0f39 9ac0 1539
000003f0: 2ebe 3139 0000 0000 9a8f 3639 1bf1 2e39

exp_avg_sq f4 [128, 44]
3.888939e-06 0.0 1.2391483e-06 1.8411804e-06 3.9398055e-06 0.0 1.2596262e-06 1.8093464e-06
4.0729064e-06 0.0 1.1787323e-06 1.9015539e-06 4.0179802e-06 0.0 1.0397055e-06 1.8934945e-06
4.138771e-06 0.0 1.0087349e-06 1.6832386e-06 4.1813287e-06 0.0 9.5058584e-07 1.9009175e-06
3.8687313e-06 0.0 1.2146537e-06 1.9774277e-06 3.6646693e-06 0.0 1.5367082e-06 2.2792715e-06
4.0157765e-06 0.0 1.2576262e-06 1.9625552e-06 0.00012041045 0.0013065028 5.5222543e-08 4.247211e-06
0.00038491932 0.0 6.9381244e-06 1.13631495e-05 9.116985e-06 0.0 2.2534703e-06 3.2805854e-06
9.061706e-06 0.0 2.1504568e-06 3.1133063e-06 8.764389e-06 0.0 2.3629977e-06 3.4224274e-06
9.643811e-06 0.0 1.634993e-06 2.8329405e-06 8.968797e-06 0.0 2.0894315e-06 3.4219188e-06
9.575726e-06 0.0 1.8546366e-06 3.221784e-06 8.773074e-06 0.0 2.408241e-06 3.724374e-06
8.705591e-06 0.0 2.856558e-06 4.301907e-06 8.667817e-06 0.0 2.4833112e-06 3.832752e-06
0.00026302916 0.0028539726 1.2063012e-07 2.7230424e-05 0.0011071146 0.0 1.5996664e-05 2.2293729e-05
1.4721638e-08 0.0 4.767431e-09 6.438376e-09 1.6716307e-08 0.0 2.9063585e-09 5.1513966e-09
1.4914713e-08 0.0 5.0317843e-09 7.099874e-09 1.6240449e-08 0.0 3.3758243e-09 5.671051e-09
1.4345183e-08 0.0 4.9460467e-09 7.2739894e-09 1.5830453e-08 0.0 3.8288133e-09 6.477043e-09
1.5241458e-08 0.0 5.1103193e-09 8.004866e-09 1.4912658e-08 0.0 4.8012136e-09 7.1857733e-09
1.4824086e-08 0.0 5.039154e-09 7.812166e-09 4.607223e-07 4.9990235e-06 2.1129606e-10 7.989013e-08
1.3063892e-06 0.0 2.6058911e-08 4.2061256e-08 2.0646557e-06 0.0 3.6954492e-07 6.1216133e-07
2.05443e-06 0.0 4.3561695e-07 6.400549e-07 2.031145e-06 0.0 4.2796782e-07 7.1323336e-07
1.8976518e-06 0.0 5.278006e-07 7.925793e-07 1.8636431e-06 0.0 5.4255895e-07 8.4225155e-07
2.014819e-06 0.0 3.8863854e-07 8.3374465e-07 1.8218072e-06 0.0 5.909088e-07 9.888694e-07
1.8593602e-06 0.0 5.9264397e-07 9.2832863e-07 1.9221384e-06 0.0 5.210746e-07 8.829475e-07
5.7073867e-05 0.00061927515 2.6175167e-08 2.4816015e-06 0.00025692297 0.0 3.0090728e-06 5.2511236e-06
6.594634e-07 0.0 4.1053994e-08 8.750098e-08 6.3202293e-07 0.0 5.8962517e-08 1.0681288e-07
6.623022e-07 0.0 4.0712376e-08 8.3655e-08 6.169828e-07 0.0 9.307263e-08 1.4400823e-07
6.620092e-07 0.0 4.3367365e-08 9.3493895e-08 6.302284e-07 0.0 1.03241454e-07 2.004795e-07
6.4955316e-07 0.0 6.751871e-08 1.2433993e-07 5.348965e-07 0.0 1.7412475e-07 2.911451e-07
6.4584583e-07 0.0 6.183743e-08 1.2973807e-07 1.6595259e-05 0.00018006546 7.610893e-09 1.06666825e-07
0.0001320981 0.0 6.091289e-07 9.2525397e-07 2.7486394e-06 0.0 6.969422e-07 1.0383286e-06
2.5416089e-06 0.0 9.810313e-07 1.2063301e-06 3.0005954e-06 0.0 4.2760172e-07 8.1123295e-07
2.9665885e-06 0.0 7.31405e-07 1.0247326e-06 2.7999686e-06 0.0 5.723447e-07 8.681752e-07
2.4002943e-06 0.0 1.2836216e-06 1.483282e-06 2.5865481e-06 0.0 6.7647693e-07 9.4616706e-07
2.1358148e-06 0.0 1.4431299e-06 1.6481397e-06 2.5281065e-06 0.0 8.053053e-07 1.0201744e-06
00000000: bb7d 8236 0000 0000 d050 a635 7a1e f735
00000010: ac32 8436 0000 0000 6d10 a935 abd8 f235
00000020: 00aa 8836 0000 0000 ef34 9e35 e538 ff35
00000030: 30d2 8636 0000 0000 028c 8b35 fa23 fe35
00000040: c6df 8a36 0000 0000 de63 8735 a3eb e135
00000050: 574d 8c36 0000 0000 c32b 7f35 0723 ff35
00000060: 26d0 8136 0000 0000 2f07 a335 f3b3 0436
00000070: 8aee 7536 0000 0000 e440 ce35 96f5 1836
00000080: 42bf 8636 0000 0000 b5cb a835 71b4 0336
00000090: de84 fc38 f63e ab3a d42d 6d33 4483 8e36
000000a0: ffce c939 0000 0000 09ce e836 5ba4 3e37
000000b0: 27f5 1837 0000 0000 533a 1736 0728 5c36
000000c0: bb07 1837 0000 0000 9150 1036 32ee 5036
000000d0: c40a 1337 0000 0000 fe93 1e36 dbac 6536
000000e0: dacb 2137 0000 0000 ef71 db35 8c1d 3e36
000000f0: b178 1637 0000 0000 2938 0c36 1ea4 6536
00000100: 6ea7 2037 0000 0000 d4ec f835 d435 5836
00000110: 1130 1337 0000 0000 449d 2136 42f0 7936
00000120: 3b0e 1237 0000 0000 4bb3 3f36 1a59 9036
00000130: fe6b 1137 0000 0000 f6a6 2636 179b 8036
00000140: 2de7 8939 b709 3b3b 8e86 0134 e46c e437
00000150: 9a1c 913a 0000 0000 9330 8637 6b03 bb37
00000160: 73ea 7c32 0000 0000 c4ce a331 8e38 dd31
00000170: 8c97 8f32 0000 0000 33b9 4731 2a00 b131
00000180: cd1d 8032 0000 0000 0be4 ac31 27f3 f331
00000190: 2081 8b32 0000 0000 21fc 6731 18db c231
000001a0: c872 7632 0000 0000 e3f1 a931 b0ee f931
000001b0: 89fb 8732 0000 0000 998e 8331 ac8c de31
000001c0: 52ec 8232 0000 0000 d896 af31 c685 0932
000001d0: 4819 8032 0000 0000 ecf7 a431 bbe6 f631
000001e0: 05ad 7e32 0000 0000 de24 ad31 4536 0632
000001f0: 3159 f734 49bd a736 8e52 682f 1090 ab33
00000200: 3157 af35 0000 0000 27d8 df32 d7a6 3433
00000210: 848e 0a36 0000 0000 de65 c634 6853 2435
00000220: d7de 0936 0000 0000 bdde e934 3dd0 2b35
00000230: ce4e 0836 0000 0000 73c3 e534 0675 3f35
00000240: d2b2 fe35 0000 0000 2eae 0d35 a3c1 5435
00000250: 4a22 fa35 0000 0000 5ea4 1135 1617 6235
00000260: 5436 0736 0000 0000 13a6 d034 7fce 5f35
00000270: d284 f435 0000 0000 f29e 1e35 4bb9 8435
00000280: 218f f935 0000 0000 2f16 1f35 4232 7935
00000290: 16fe 0036 0000 0000 f9df 0b35 b103 6d35
000002a0: 9962 6f38 da56 223a cdd7 e032 9789 2636
000002b0: 9eb3 8639 0000 0000 7aef 4936 cf32 b036
000002c0: fb05 3135 0000 0000 5853 3033 2ce8 bb33
000002d0: 49a8 2935 0000 0000 f93d 7d33 0061 e533
000002e0: 10c9 3135 0000 0000 bbdb 2e33 d3a5 b333
000002f0: bc9e 2535 0000 0000 38df c733 aea0 1a34
00000300: edb4 3135 0000 0000 ec42 3a33 d0c6 c833
00000310: f72c 2935 0000 0000 97b5 dd33 6343 5734
00000320: f45c 2e35 0000 0000 cefe 9033 4d82 0534
00000330: cf95 0f35 0000 0000 0cf7 3a34 ae4e 9c34
00000340: 305e 2d35 0000 0000 7dcb 8433 214e 0b34
00000350: 0c36 8b37 f4cf 3c39 10c1 0232 b510 e533
00000360: d083 0a39 0000 0000 0583 2335 f85e 7835
00000370: 4475 3836 0000 0000 8115 3b35 b35c 8b35
00000380: 8290 2a36 0000 0000 fbab 8335 30e9 a135
00000390: d65d 4936 0000 0000 2291 e534 81c3 5935
000003a0: 9a15 4736 0000 0000 c555 4435 8b89 8935
000003b0: 18e7 3b36 0000 0000 3aa3 1935 8c0c 6935
000003c0: be14 2136 0000 0000 e748 ac35 2e15 c735
000003d0: 8f94 2d36 0000 0000 2497 3535 1bfc 7d35
000003e0: 0555 0f36 0000 0000 91b1 c135 a635 dd35
000003f0: 8aa8 2936 0000 0000 292c 5835 edec 8835

exp_avg f4 [128]
-0.000547608 -0.00017454522 5.6752673e-05 -6.9674345e-05 3.478227e-05 0.00034361248 0.00020586529 -5.6436176e-05
-0.00028927863 0.0003885427 1.1351247e-05 0.0006698083 6.110915e-05 1.7109012e-05 -9.489382e-05 0.00012312684
0.00067458407 0.00055029034 0.00013256696 0.00011118023 3.2915023e-06 -6.831442e-05 -1.776134e-07 5.9591043e-06
4.520458e-06 -0.00017759971 9.0163056e-05 -0.00017651006 -0.0007465173 -5.1679024e-05 4.06065e-05 -1.2067755e-05
-0.0003815734 5.4386306e-05 -0.0001743098 2.5585168e-05 3.257578e-05 -6.267318e-06 -3.227909e-06 -4.0596944e-05
0.0002684004 -4.739706e-06 0.00024268522 0.00017279602 0.00024307145 0.0003679259 -0.0001007602 -0.00013583491
-0.00093032426 -0.0005098598 -1.683137e-05 -0.0003351338 7.377166e-07 0.0013088465 1.7442195e-05 -0.00013854688
-7.151877e-05 3.2324674e-06 -0.0006943607 -8.272783e-06 0.00016795499 -0.0006043152 -0.000967609 0.00019381304
0.00034311204 1.2702454e-05 8.158961e-06 2.2141763e-05 -0.00022753865 -0.00063641975 -0.00023937845 0.0005039504
-7.150086e-05 1.6660199e-05 1.26789555e-05 -0.00026966073 0.00012006143 -0.00034976803 -3.0175226e-05 2.41829e-05
-5.351027e-06 -0.00068593054 0.000111782996 1.3537866e-05 -0.00021375784 8.5852356e-05 0.0011684617 0.00067546143
2.2031041e-05 0.0002559339 -0.00017823509 0.00011250785 -0.00083366537 -0.0004907847 -2.8733339e-05 0.00046075258
1.6397476e-05 1.4599144e-05 6.726177e-05 0.0003609156 -0.00022626542 0.00012715688 -4.082483e-05 -4.3805805e-05
-2.2139353e-05 -0.00023530159 -0.00038962485 1.2088089e-05 4.5598044e-05 -0.00034273212 5.103463e-06 -0.00028463377
-0.00032547105 -0.00056738383 5.6347897e-05 2.0732323e-06 -0.00014354991 0.0008501179 0.0005478364 0.00010051392
5.044199e-05 -0.0002206413 0.00018778972 0.0010277419 2.4971654e-05 -0.0013911442 -0.0009286885 -7.675328e-05
00000000: 5a8d 0fba 2006 37b9 b809 6e38 211e 92b8
00000010: 2ee3 1138 e326 b439 8bdd 5739 e2b5 6cb8
00000020: 52aa 97b9 52b5 cb39 3c71 3e37 1396 2f3a
00000030: ba27 8038 5385 8f37 bb01 c7b8 9c1b 0139
00000040: 92d6 303a 5c41 103a ac01 0b39 6e29 e938
00000050: 94e3 5c36 0644 8fb8 00b6 3eb4 51f4 c736
00000060: 70ae 9736 0f3a 3ab9 ec15 bd38 8f15 39b9
00000070: eeb1 43ba eec1 58b8 e650 2a38 9d76 4ab7
00000080: ea0d c8b9 da1c 6438 eec6 36b9 bb9f d637
00000090: faa1 0838 da4b d2b6 0e9f 58b6 a346 2ab8
000000a0: 18b8 8c39 c409 9fb6 5179 7e39 9430 3539
000000b0: ffe0 7e39 2ee6 c039 384f d3b8 e86e 0eb9
000000c0: 01e1 73ba 1da8 05ba 1831 8db7 e6b4 afb9
000000d0: 8007 4635 9a8d ab3a d450 9237 e546 11b9
000000e0: 59fc 95b8 5eed 5836 c205 36ba 55cb 0ab7
000000f0: 131d 3039 e86a 1eba 24a7 7dba 4b3a 4b39
00000100: b8e3 b339 a01c 5537 78e2 0837 13bd b937
00000110: 7197 6eb9 68d5 26ba aa01 7bb9 8a1b 043a
00000120: bbf2 95b8 81c1 8b37 b3b7 5437 4061 8db9
00000130: 7dc9 fb38 1261 b7b9 ce20 fdb7 62dc ca37
00000140: f98c b3b6 05d0 33ba 0a6d ea38 b120 6337
00000150: 2f24 60b9 a20b b438 1227 993a 7311 313a
00000160: 4dcf b837 de2e 8639 9ee4 3ab9 31f2 eb38
00000170: 568a 5aba 01a8 00ba 6008 f1b7 2a91 f139
00000180: 508d 8937 d9ee 7437 e30e 8d38 4639 bd39
00000190: a941 6db9 6a55 0539 543b 2bb8 20bc 37b8
000001a0: e6b7 b9b7 4abb 76b9 9046 ccb9 f2cd 4a37
000001b0: 8740 3f38 bab0 b3b9 6a3e ab36 e63a 95b9
000001c0: fca3 aab9 7cbc 14ba 1857 6c38 dc21 0b36
000001d0: e385 16b9 72da 5e3a ae9c 0f3a 00cb d238
000001e0: ad91 5338 f35b 67b9 6be9 4439 4cb5 863a
000001f0: 387a d137 0e57 b6ba 3b73 73ba 9af6 a0b8

exp_avg_sq f4 [128]
5.161427e-06 1.1274824e-05 1.974901e-08 2.4464878e-06 7.1136105e-07 3.5396029e-06 6.963294e-07 9.713783e-09
2.5308748e-06 1.4891184e-06 1.7975672e-06 4.1898106e-06 6.11602e-07 8.696176e-09 1.9086456e-06 2.7274024e-07
4.6167784e-06 3.876189e-06 1.882029e-06 6.284703e-06 1.9863338e-09 1.3781089e-07 2.2649924e-06 1.12925225e-08
4.443047e-06 8.327484e-07 8.533456e-08 6.9171665e-06 4.867417e-06 1.6553238e-07 2.4327393e-08 6.079056e-08
4.662754e-06 4.6655862e-07 2.1340138e-06 1.3860354e-07 2.2120557e-07 5.794258e-07 7.107137e-09 2.828154e-07
7.6385163e-07 3.410583e-09 1.8099199e-06 3.8175523e-07 2.9706882e-07 7.1982963e-06 6.8512713e-07 1.0279911e-06
5.4164484e-06 5.876692e-06 4.853991e-07 3.5692995e-06 1.0492449e-07 9.949871e-06 2.6120455e-08 4.8294243e-08
1.1459629e-06 4.5583135e-07 2.5870193e-06 5.1921063e-07 1.8189027e-07 9.188469e-06 8.616553e-06 6.1658983e-07
8.0460467e-07 7.3045484e-08 1.4168913e-07 2.067835e-08 3.6247984e-06 2.9064092e-06 7.834455e-08 2.3429127e-06
1.3149422e-07 2.1109855e-08 3.559004e-10 1.6127846e-06 2.3115037e-06 7.513414e-06 9.857663e-07 3.5606098e-07
5.049779e-09 1.1806184e-06 1.4336891e-06 1.837234e-08 2.4974297e-06 9.361003e-07 3.2477728e-06 1.8123163e-06
1.2890679e-06 1.0391364e-06 4.2071215e-06 4.688554e-06 4.794157e-06 4.8415345e-06 9.663021e-07 8.495752e-07
1.2411368e-06 2.711295e-09 4.5418602e-07 2.0500622e-06 1.0766166e-06 1.6994338e-06 1.5177422e-06 3.1557174e-06
2.6985147e-08 1.1096652e-06 1.1660007e-06 5.0895604e-10 5.5002545e-07 1.134541e-06 1.8931159e-09 2.7033832e-06
5.524878e-06 8.882134e-07 1.2462499e-08 4.61779e-09 7.839052e-07 5.2450937e-06 9.293705e-07 1.4474563e-06
1.9342359e-07 6.168083e-07 7.941549e-07 3.1985103e-06 4.672873e-07 3.7389204e-06 1.6187843e-05 2.8257234e-06
00000000: 5230 ad36 0029 3d37 88a4 a932 572e 2436
00000010: 5cf4 3e35 ea89 6d36 64eb 3a35 abe1 2632
00000020: 19d8 2936 b8dd c735 f043 f135 3396 8c36
00000030: f82c 2435 3066 1532 4816 0036 226d 9234
00000040: d3e9 9a36 3610 8236 069a fc35 30e1 d236
00000050: f47f 0831 2bf9 1334 4600 1836 0a01 4232
00000060: 7c15 9536 098a 5f35 2c41 b733 021a e836
00000070: cb52 a336 32bd 3134 81f8 d032 f78b 8233
00000080: c074 9c36 547b fa34 1436 0f36 0dd3 1434
00000090: 8684 6d34 d689 1b35 0a33 f431 dad5 9734
000000a0: 7c0b 4d35 9c5f 6a31 60ec f235 0af4 cc34
000000b0: d47c 9f34 e588 f136 94e9 3735 81f9 8935
000000c0: f0be b536 6630 c536 5f4c 0235 1988 6f36
000000d0: d952 e133 5fee 2637 7d5f e032 156c 4f33
000000e0: fcce 9935 fcb8 f434 a79c 2d36 e25f 0b35
000000f0: 9e4d 4334 2d28 1a37 d08f 1037 bb83 2535
00000100: 03fc 5735 2edd 9c33 3623 1834 2ca0 b132
00000110: 9041 7336 bb0b 4336 5f3e a833 ef3a 1d36
00000120: db30 0d34 1055 b532 87a8 c32f db76 d835
00000130: 551f 1b36 bc1b fc36 ac4e 8435 a628 bf34
00000140: 5382 ad31 bd75 9e35 2f6d c035 34d1 9d32
00000150: 8499 2736 5348 7b35 50f4 5936 b73e f335
00000160: 0904 ad35 7478 8b35 e62a 8d36 5f52 9d36
00000170: 7fdd a036 7774 a236 e3b1 8135 5d0e 6435
00000180: 2395 a635 9b51 3a31 dad6 f334 cd93 0936
00000190: 4480 9035 1a18 e435 3ab5 cb35 d0c6 5336
000001a0: f7cc e732 ceef 9435 7b7f 9c35 99e6 0b30
000001b0: 76a5 1335 8846 9835 0c18 0231 c56b 3536
000001c0: 5762 b936 8f6d 6e35 a61a 5632 83aa 9e31
000001d0: 8e6d 5235 03ff af36 db79 7935 3846 c235
000001e0: dfaf 4f34 be92 2535 e92d 5535 fda5 5636
000001f0: 7adf fa34 2aea 7a36 21cb 8737 8fa1 3d36
