GameAI3/Config/results/dwarf_2/Dwarf/Dwarf-14336.onnx (onnx, 91956 bytes, 7 tensors)

network_body._body_endoder.seq_layers.0.weight f4 [128, 44]
00000000: 979e 77be 9c81 c13e b165 6a3d a7a8 3d3e
00000010: afea 043e 6067 4a3d 8a50 80bd ad60 1b3e
00000020: 300f c33d 1013 85ba ba49 debd ef63 163e
00000030: 4808 11bd 4928 843d f7ea 1abe d159 37be
00000040: a67b 893e 6b25 25be 8c0a 9cbe 4cfd 943d
00000050: e878 a2bc edeb 8bbe 12fd 223c 52aa 97bd
00000060: 67e0 5d3d 7209 c0bd e8c0 2d3d d52f a3be
00000070: f66c 073e 6c1d 4dbd e53d 8ebd 5090 553e
00000080: 852d 31be 77e4 6e3e 4ae2 2cbd 906d d13d
00000090: 9b2c f03d 2588 5b3b d2e7 d73d f2cf 27bd
000000a0: 7114 98bd 4b4d 923c de3d c43d d8f2 8d3b
000000b0: f59f cfbd 4d79 3a3d 18a0 383e 0426 fc3d
000000c0: 05d7 953b 31b8 a9bd c812 77bd 1bf9 40bc
000000d0: 71c8 2cbe bfb2 b3bd 49fe 80be f1f4 383d
000000e0: 0d4c 3cbd b9fb 353e 8ebc e0bc 4ce4 8d3d
000000f0: 7f3f 92bd a320 0cbe 3562 933d 94f1 93be
00000100: e3fa b4bc 4e66 9e3c 6125 78bd 5a60 f93c
00000110: 9a94 9abe a92e d9bc aa2e a33c aff2 eabe
00000120: 3780 78bc 3c0b 303c f298 cdbd 94bb ea3d
00000130: f01e 60be d751 63be ac93 41bd 15ea 913c
00000140: aad3 2fbe 7971 003d 63c4 b03d a788 81bb
00000150: 5357 3b3e ac03 153e 4d65 393d edd8 003e
00000160: 1618 843b f331 253e eb4b 333e bf1d 8a3e
00000170: b6ae 32be abda 84be 2457 a0bd 5c24 133d
00000180: 7ea1 aebd d291 83bc 04dc fcbe b647 7d3d
00000190: 7042 a13e 7559 56bd c29f 983d d916 0dbe
000001a0: 4681 e53d 191d 8bbd 89d9 9c3d 5cce 38bd
000001b0: 0844 6ebe e69a 8abd 4465 4bbe 50f6 36be
000001c0: 04f7 833e aadc c43d 988e 3a3e 6f9c 9cbd
000001d0: 9a25 27bd dfeb a13c c9ea 5f3c 127e 52be
000001e0: f1c0 cd3b b738 2a3e 1a24 8ebe 8a0d 3ebd
000001f0: e4f6 26be 6869 473d af58 ecbd 96b6 453e
00000200: fe08 19bd 1b1d 933d c309 70be 8ee3 9dbc
00000210: 9716 093d e6fb 4abb c27b 343d 73a3 0d3e
00000220: 1d8b 37be c98e f8bd 185b 10bd 3b8d 88be
00000230: 91e1 73bb 9028 a03d f01d 8b3e 82af 613e
00000240: adda 6b3c fe14 b33d bbff 02bb fad5 e93d
00000250: 8a20 623e 2676 573e 34c1 11be 703e cf3c
00000260: 20fd d33d e24d f9bd 4713 4f3e 70f2 8e3e
00000270: 7ec0 45bd f6ad 87bd 183c a4bd 761f f3bd
00000280: 165e 09be 4a04 393d d4d0 2abe 432a 1b3d
00000290: d24d 6d3d c667 64bc fd0d 9cbe dd5a 013d
000002a0: 1973 f2bd 0113 233e 893c 873e e33f 973d
000002b0: e639 72bc e140 d9bc aaca a5bd c20c 5c3d
000002c0: 229c 0ebe ec80 05bd 964d 953d 1ded b0bd
000002d0: f3ec a7bd 6cfe 703d 6e13 0f3e 6de0 5fbd
000002e0: c160 babd bd7f b4bb 771a efbd 2250 d6bd
000002f0: e952 4f3d 2b9e a6bd 837d 813c e937 5d3d
00000300: c2f2 0bbe d216 0dbe 19b3 193e 76bd 123c
00000310: 01c3 083e 8f04 11be d5ce 31bd ada8 5bbd
00000320: d3d9 c2bd 59d0 1e3d 4938 fa3d 30f0 0b3e
00000330: 36fa 1c3e 2332 17be eb71 253d 988a a03d
00000340: 3bf3 5bbe da09 de3d cf29 b33d 59f3 cdbc
00000350: 3d07 4a3e 0664 8f3c 9273 54be 9b99 e0bb
00000360: 5969 43bd 9070 1f3e c767 863d 48dd 973e
00000370: 1dea 013e ec18 643e 505f 7fbd 5d61 88be
00000380: ed05 f9bc d171 abbd 6dae 0f3e fac1 d63d
00000390: 0baf 583e a305 b8bd be4c b53d 341c f2bd
000003a0: 7d94 2abe 6340 383e ac2f 1abe 3a02 a43d
000003b0: efcd 6cbe b7f9 e33d 061e 733e 2a54 aebd
000003c0: cfd5 093e c26b 06bd a571 a5be a624 873d
000003d0: 26ef 903e cc5f 983d b41e 18bb 17fd b7bd
000003e0: 30fa c33d 8a00 79be 4aaa 45bd 118e 41be
000003f0: 70be 5ebe c8e9 0a3e f7c1 8e3e 6d3d b9bd
-0.24181591 0.37794197 0.057225887 0.18521367 0.1298015 0.049414992 -0.062653616 0.15173598
0.09524381 -0.0010152776 -0.10853906 0.14686559 -0.03540829 0.06452996 -0.15128694 -0.17905356
0.2685215 -0.16127555 -0.30476797 0.07274875 -0.019833043 -0.27328435 0.009948032 -0.07405533
0.054169085 -0.093768016 0.042420298 -0.3187243 0.13225159 -0.050076887 -0.06945399 0.20855832
-0.1730252 0.2332934 -0.042207994 0.102259755 0.11727258 0.0033497897 0.10542263 -0.040969796
-0.07425774 0.017859122 0.09582113 0.0043319277 -0.10137931 0.045525838 0.18029821 0.123119384
0.0045727515 -0.08287085 -0.060320646 -0.011778141 -0.16873337 -0.087743275 -0.25194004 0.04515547
-0.045970965 0.17771806 -0.02743366 0.0692831 -0.07141017 -0.13684325 0.07196466 -0.28895247
-0.022092288 0.019335892 -0.060582522 0.030441452 -0.301915 -0.026511507 0.019919712 -0.45888278
-0.015167288 0.010744866 -0.10038938 0.11461559 -0.21886802 -0.22199188 -0.04725997 0.017811814
-0.17170587 0.031358216 0.08631208 -0.003953058 0.1829503 0.14552182 0.045262624 0.1258275
0.0040311916 0.16132335 0.17509429 0.2697582 -0.1744946 -0.2594808 -0.07829121 0.035923347
-0.08526896 -0.016060743 -0.4938661 0.061835967 0.31496 -0.052331407 0.074523464 -0.13778247
0.112062976 -0.06792659 0.07658679 -0.045118675 -0.2326814 -0.06767826 -0.19862849 -0.17867398
0.25774395 0.09612401 0.18218458 -0.07647025 -0.040807344 0.019765792 0.013666817 -0.20555905
0.006279104 0.16623197 -0.27761918 -0.04639963 -0.16305119 0.048684508 -0.115403526 0.19307932
-0.03736209 0.07183286 -0.23441224 -0.019273546 0.03346881 -0.0030972897 0.044063337 0.13831882
-0.17924161 -0.12136609 -0.035243124 -0.2667025 -0.0037213305 0.07820237 0.27171278 0.22039607
0.014395398 0.08744238 -0.0019988853 0.11417766 0.22082725 0.21041164 -0.14233857 0.025298327
0.10351014 -0.12173058 0.20222197 0.2791934 -0.048279278 -0.06624977 -0.080192745 -0.11871235
-0.13414797 0.045170106 -0.16681224 0.0378821 0.057935543 -0.013940757 -0.30479422 0.031580795
-0.118383594 0.15925218 0.26413372 0.07385232 -0.014784312 -0.026520194 -0.08095296 0.053723104
-0.13926747 -0.032593653 0.07290189 -0.08638976 -0.08199491 0.058836386 0.13972256 -0.05465739
-0.091004856 -0.0055083917 -0.1167497 -0.10464503 0.05061618 -0.08135637 0.015806919 0.0540084
-0.13666824 -0.13778237 0.15009727 0.008956304 0.13355638 -0.14161895 -0.04341014 -0.05362766
-0.09514203 0.038772915 0.12217767 0.13665843 0.15329823 -0.1476522 0.040391844 0.07838935
-0.21479504 0.10841723 0.08748209 -0.025140451 0.19729324 0.01750375 -0.20747212 -0.0068542487
-0.04770789 0.15570283 0.06562763 0.29661012 0.12686963 0.22275132 -0.062346756 -0.26636782
-0.030398333 -0.08371318 0.14031382 0.10486217 0.21160524 -0.0898545 0.08852528 -0.118217856
-0.16658206 0.17993312 -0.15057248 0.08008237 -0.23125432 0.11131614 0.23741922 -0.08512147
0.13460468 -0.03281761 -0.32313266 0.06598787 0.28307456 0.07440147 -0.002321166 -0.0898382
0.09569204 -0.24316612 -0.048258103 -0.1890185 -0.21752334 0.13565743 0.27882358 -0.09044919

network_body._body_endoder.seq_layers.0.bias f4 [128]
00000000: ae0d 27ba cbc9 cbba b141 5c3a bdb1 2f39
00000010: 25b8 71ba 7225 d8b9 dd8d 32bb bcbc 81b8
00000020: e0d7 a3ba 9297 e43a 713c 0ebb 24fd 9b37
00000030: 95b4 02bb 6473 0b39 3e5c 69ba 3489 c4ba
00000040: 82ed 66ba 033e ab3a 6a12 1ebb 3abd aa3b
00000050: 8dc6 8bba 11ba 23bc a8d2 a339 def0 4e3a
00000060: 6f3c 373b 7a37 e039 2188 2dba b6ca 32bb
00000070: 547d 81bb 1461 94b9 1656 5439 0cc4 46bb
00000080: e52e 7dba 67a5 f9b9 3bc5 75ba 9068 3239
00000090: 2946 38ba 2535 433a 03ab 22b9 03b4 82bb
000000a0: b249 82b9 4788 20bb 6515 97bb b339 ffb9
000000b0: adda 55ba e317 45b9 99e2 c1ba dbbe 203a
000000c0: 94c2 0bbb a4a3 8c3a a062 e33a 9b24 bcb9
000000d0: 3fd5 0d3a d2e1 473b c998 e7b9 20b8 663a
000000e0: 2c24 743a 252f 8e3b 51d7 81b9 38a6 ab39
000000f0: ad70 e3b9 ca1d e5b9 c977 123b 0250 3e3b
00000100: e253 613b 912a 1dba efa4 c43a 2bdb beba
00000110: 53d3 59ba 7014 1bba d70f a8b9 eefa a23a
00000120: 8554 623a c720 cc3a 6d61 54ba 0f85 59ba
00000130: 3018 03bb ffd9 2a3b 6c39 caba e893 95bb
00000140: f9ea 36b9 a155 69ba 58b3 a6ba 2bdf c6ba
00000150: f36c 4a3b e74c 9d39 d18a c0ba 84e9 06bb
00000160: 8a2d 3ebb d222 ba38 bd93 e0ba efe9 05b9
00000170: c8e6 6f3a 778a 453a faab d63a c99f cfb9
00000180: dfad e8ba 253e 4dbb ca91 1d3a c605 613a
00000190: 3a7e 443a 9f7d 9bba b511 4bba f754 2fbb
000001a0: fd82 96b9 f949 10bb 507f e9b9 12d7 343b
000001b0: c108 1cbb 9ac5 27ba ddf4 8939 4c50 caba
000001c0: acff 9b3b e548 87ba 8529 c1b9 e222 90b8
000001d0: 5abb 16ba 28d4 ddba 5792 76ba 3192 6139
000001e0: a94e 80ba e27b 49ba 443b cbba 5dbf baba
000001f0: 6eca 3eba 490c 843a 1d71 af37 2867 10ba
-0.0006372583 -0.001554781 0.0008402123 0.00016755513 -0.000922086 -0.0004122663 -0.0027245202 -6.186354e-05
-0.0012500249 0.0017440191 -0.0021703506 1.8595318e-05 -0.001994406 0.0001329906 -0.000890199 -0.0014994503
-0.0008809195 0.0013064746 -0.0024119862 0.005210546 -0.0010664031 -0.009993092 0.00031246734 0.00078941684
0.0027959605 0.00042765943 -0.0006619711 -0.002728147 -0.003951708 -0.0002830109 0.00020249965 -0.0030329255
-0.0009658172 -0.00047616215 -0.0009375398 0.00017014355 -0.00070294976 0.0007446579 -0.00015513231 -0.003988744
-0.0002485044 -0.002449529 -0.0046107047 -0.0004868038 -0.00081578904 -0.00018796283 -0.0014792263 0.00061319553
-0.0021325694 0.0010729921 0.0017348118 -0.00035885427 0.0005410499 0.003049959 -0.00044173587 0.00088012405
0.00093132514 0.004339116 -0.0002476522 0.00032739504 -0.00043380764 -0.00043700478 0.002234923 0.0029039388
0.0034382273 -0.00059954176 0.0015002767 -0.0014561167 -0.0008309383 -0.0005915826 -0.0003205526 0.0012434402
0.000863381 0.0015573733 -0.0008101676 -0.00082977203 -0.002000343 0.0026069877 -0.001542849 -0.004564751
-0.00017444407 -0.00089010043 -0.0012718244 -0.001517271 0.0030887693 0.0003000267 -0.0014689808 -0.0020585964
-0.0029018843 8.875657e-05 -0.0017133873 -0.00012771015 0.00091515156 0.00075355865 0.0016378157 -0.00039601166
-0.0017752013 -0.0031317559 0.0006010799 0.0008583929 0.0007495616 -0.0011863 -0.0007746474 -0.0026753524
-0.00028707823 -0.0022016747 -0.00044536078 0.0027594012 -0.0023808929 -0.00063999894 0.00026313114 -0.0015435307
0.004760703 -0.0010321407 -0.00036842763 -6.8729525e-05 -0.00057499635 -0.0016924189 -0.00094059616 0.00021512133
-0.0009789068 -0.00076860015 -0.0015505333 -0.0014247705 -0.0007278089 0.0010074462 2.0914298e-05 -0.00055085355

network_body._body_endoder.seq_layers.2.weight f4 [128, 128]
00000000: ac4f 1b3d cec5 973c 840d 5d3d 07ec 063e
00000010: 7574 573d df2f 70bc cd47 f8bd a93a f2bd
00000020: a6a3 96bd 2c00 a13d cfa5 cf3c 3a55 f1bc
00000030: a266 eabd 675e 0d3d 5566 d23d eb46 56bd
00000040: dcd1 793d 5c37 f13d 688a bcbd c47a 7b3c
00000050: eca3 1a3e ecbd d4bd 0663 87bd f6b5 6a3d
00000060: f867 1b3d 006c a0bd 058d 573d f34e 043e
00000070: b091 aaba 127d b9bd f502 41bd 64cc e63d
00000080: b663 4f3c b669 e73d 606b 80bd a7c0 783d
00000090: b377 81bd bd7a abbd b2d2 3bbd 8b42 07be
000000a0: 992f 4f3d ff3c 993d 25b9 14be d2df 40bd
000000b0: 116c b03c cdd6 a73d eb5f 463c 07da db3c
000000c0: 5e7d 93bc 8062 15bd ad2b 153e cf0f 59bc
000000d0: daf3 293d 7bfc e03d 75cf bcbd 1dc0 663d
000000e0: 5ab5 263d aad7 82bd bc75 d13b f246 07be
000000f0: 9f74 69bd 4515 a13d bf39 833c 2938 2b3d
00000100: 6871 2dbd 9309 15bd 4e06 d9bc 841a 8fbd
00000110: 3084 733d 5722 373d 639c df3d 5ce4 dfbd
00000120: 20b5 a13d 6792 ad3d 346c 123d d99b c4bc
00000130: 4496 dbbd 41d6 703c 3d48 a43d 8870 383e
00000140: a24a 8a3d e758 afbd 7b9c 823d 4d4c 0ebc
00000150: 2d68 91bd 5229 d7bd f1f3 d63d e4c2 9f3c
00000160: 22b4 e1bd 0c03 173e c76b c03d a6aa 103c
00000170: b969 90bc 33b0 333d 246a 393d ea1e 8fbc
00000180: c9ba e63b d971 bfbd a6a9 2d3d 52c9 c53d
00000190: 9469 aaba aa43 443c 7340 44bd 9dcc b2bd
000001a0: 3c2a 093e 9aca be3d 212d 14bd 23ee 2ebd
000001b0: be98 b93d f857 7e3d c0d9 ab3b 003b 96bc
000001c0: bcda 053d 09f9 1dbd a8cb da3c 659d 98bc
000001d0: 0e6d 633d 9a1b 10be 08ab 89bd a0b9 113d
000001e0: f2ee 4b3d bb6d 9d3d 8286 333e 5bfd 59bd
000001f0: 029c 7c3c b070 c4bb 3310 c83d 5247 b2bc
00000200: dacd 4fbd 3fdf e03c 26f8 a5bd 642b b5bc
00000210: 82be c2bd 64c8 1ebe e693 56be ad51 203d
00000220: ceb8 b6bd fca8 d73d b1a2 363e 8921 0abd
00000230: dc8d a7bc b525 18be f836 28be 954a 023e
00000240: d099 15be 5fac 853b 1ffd 1d3e e133 9cbd
00000250: 6136 28bc 2840 643d 564d 27be 626a 963d
00000260: eef7 c33d 453f d3bd f49f 18be 0b0b e8bd
00000270: 8f2b 31bd 38ab 703b bb9b 2abd 3dce a73d
00000280: 6c83 123e e445 f63d 97a9 9b3c 2c77 803e
00000290: 2b3d 82bd 9cba b6bd 620f 363c a28e 32be
000002a0: cf50 7e3d 3932 763c d9da c9bd 8446 54bd
000002b0: c74d 83bc baae 35bd b395 213c c8fd 00bd
000002c0: 5014 903d 8156 dc3c b8f0 64be 8c27 133c
000002d0: 09ac 1dbe f74f 263d 17de b63c dfa4 a9bd
000002e0: 33df f5bc 6794 48be c974 a1bd 90f0 3e3d
000002f0: 429f 52be 2eaf 0fbd f2c9 333e 0372 71bc
00000300: 74d2 fbbd cd70 503e 28f2 5cbd 5a4b c83d
00000310: f577 373e 3434 e7bd 19b5 143e fd9f 833e
00000320: 4efa f0bc 96c7 243e 1ed7 67be 93ec 1cbc
00000330: 7fc2 67bd 8c9b 293c d4a9 2ebe 7779 0c3e
00000340: 29fe ee3c e90e 4d3b 250d cd3c e248 5fbc
00000350: 63a8 3dbe 10fc ddbc 65f1 e1bd a4cc 943d
00000360: ad2a 6dbd 7258 39bc 6941 92bd 58c9 82bd
00000370: e06a 993d 0fa0 2e3d 9f57 d23c 76df 1a3e
00000380: 464b dfbd 9b18 4e3d 0059 9bbd fd9d 72bb
00000390: 4375 efbd 8539 9fbd 7748 80be e02d cebd
000003a0: a25c 15be 9922 843c cd01 9f3d d97a f83d
000003b0: d157 d83d 42d5 6b3d 0a84 0d3d 1b40 263c
000003c0: 0451 e4bd fe03 60bd c00f e33a eb7b a13c
000003d0: 0735 d03c 0bb3 a0bd 8935 b53d 26dd c63b
000003e0: b5ac 5cbc fcd6 aa3c 5d5c 2e3d a289 a03b
000003f0: c85a abbd 152d d83d 07e6 eebc 2b92 33be
0.037917778 0.018526938 0.053967968 0.13175975 0.052601296 -0.014659851 -0.1212307 -0.11827595
-0.07355432 0.07861361 0.025347618 -0.029459585 -0.11445357 0.034513857 0.102734245 -0.052313726
0.060991153 0.11778137 -0.092060864 0.015349094 0.15101594 -0.10387787 -0.06610684 0.057302438
0.03794095 -0.07833099 0.05262472 0.12920742 -0.0013013389 -0.090570584 -0.04712196 0.11269453
0.01265805 0.1129946 -0.0627048 0.060730603 -0.06321659 -0.0837302 -0.04585523 -0.13208978
0.050582502 0.07482337 -0.14523752 -0.04708845 0.021535905 0.08195267 0.01210783 0.026837362
-0.018004116 -0.03647089 0.14567442 -0.013248398 0.04149232 0.10985657 -0.09219257 0.056335557
0.040700294 -0.06388791 0.006392209 -0.13210657 -0.056995984 0.07865385 0.016018746 0.041801605
-0.04234448 -0.036386084 -0.026492264 -0.06987479 0.059452236 0.044710483 0.109185 -0.10932228
0.07895875 0.0847519 0.03574772 -0.024000095 -0.1072202 0.01469952 0.08021591 0.18011677
0.06752516 -0.08561879 0.063775025 -0.008685184 -0.07099948 -0.10505928 0.10495747 0.01950211
-0.11020686 0.14747256 0.09395557 0.008829748 -0.017628537 0.04386921 0.04526724 -0.017470796
0.0070413095 -0.093478866 0.042398117 0.096575394 -0.0013001435 0.011979023 -0.047913026 -0.08730433
0.13395017 0.09315987 -0.03617585 -0.042707574 0.090623364 0.062095612 0.0052444637 -0.01833868
0.032679304 -0.038567577 0.026708439 -0.018629739 0.055523925 -0.14073029 -0.06722075 0.035577416
0.049788423 0.07686945 0.1753178 -0.053220134 0.015418055 -0.0059948787 0.09768715 -0.021762524
-0.050733425 0.027450202 -0.08103971 -0.022115417 -0.09508993 -0.1550613 -0.20954856 0.039140392
-0.089219674 0.10530278 0.178355 -0.033723388 -0.020453386 -0.14858134 -0.16427219 0.12723763
-0.14609456 0.004079386 0.1542859 -0.076270826 -0.010266871 0.055725247 -0.16338095 0.0734451
0.09568773 -0.10314802 -0.14904767 -0.11330231 -0.04325443 0.0036723148 -0.041652422 0.08193634
0.14307946 0.12025049 0.019001765 0.2509092 -0.06359323 -0.08922312 0.011112066 -0.17437223
0.062088784 0.015026622 -0.09856195 -0.05182506 -0.016028298 -0.044356085 0.009862351 -0.031492025
0.07035124 0.026896717 -0.22357452 0.008981597 -0.15397657 0.040603604 0.022322698 -0.082834
-0.030013656 -0.19587861 -0.07883603 0.046616137 -0.20568565 -0.035079174 0.17557505 -0.014736655
-0.12296 0.2035553 -0.053941876 0.09779997 0.17916854 -0.11289254 0.14522208 0.25708
-0.02941623 0.16091761 -0.22640654 -0.009577888 -0.05658197 0.010352027 -0.17056972 0.1371821
0.029173927 0.0031289405 0.025030682 -0.013628216 -0.18521266 -0.027097732 -0.110323705 0.072655946
-0.057902027 -0.011312591 -0.07141382 -0.063860595 0.07491088 0.042633113 0.025676547 0.15124306
-0.10903029 0.050316434 -0.07585335 -0.0037020438 -0.11692288 -0.07774643 -0.25055286 -0.10067344
-0.14586118 0.016129779 0.07764015 0.12132806 0.10563625 0.057576425 0.03454975 0.01014712
-0.11148265 -0.054691307 0.001732342 0.019712409 0.02541591 -0.0784665 0.08848102 0.0060688434
-0.013468911 0.020854466 0.042568553 0.0048992196 -0.083669245 0.10555474 -0.02916242 -0.17536227

network_body._body_endoder.seq_layers.2.bias f4 [128]
00000000: e4f3 5a38 d8bd 0fba 0d03 cab9 091c 033b
00000010: 4690 01bb 72ba 2cb9 b7f5 7eba ed8e 7fb9
00000020: 843a 36b9 9215 6aba c714 30bb 34f5 7eb9
00000030: 5941 a33a 2753 8bb8 0966 d139 bc46 88ba
00000040: 6b3e 193a 47ed a7ba 1c73 70b9 86cb 92ba
00000050: 23a6 82ba dc29 a2ba ab78 9b3a d83e 40ba
00000060: eec3 96ba 27c3 d1b9 a24f c6ba e92a 9cba
00000070: 1d7a 33ba 642c 3737 42d7 edba ee68 96b9
00000080: d0ec 18bb 622c 4eba 99be 39ba d864 2439
00000090: 4a2c 05ba 578c faba 4f4c ca38 21b2 54bb
000000a0: e454 863a 9dce 993a 459e ab39 e836 65bb
000000b0: 9f3b 04bb b955 fdba d6aa 35b7 1871 61b9
000000c0: daa0 7fba 8be4 84ba 86a7 07bb f1b8 d139
000000d0: 17c5 12bb ccf1 aab9 21f2 fab9 6979 fcba
000000e0: 0aa1 a2ba c4d9 e3ba b63c 50ba 93fb 81b8
000000f0: c312 ddba fe6c 9a3a 8232 aeba 319d 02ba
00000100: 8e90 26bb c846 c8ba b6b9 07bb 36a9 a8b9
00000110: 44ab 5cba 3cc7 f638 d5c1 7ab9 6054 0d3a
00000120: 44bf abb9 7c50 2eb9 aea7 dc39 669d 31b9
00000130: 6216 7eba 7b08 27ba 711d 52ba a318 0f3b
00000140: fe40 a7ba da81 1b3a 7d20 d8ba 6851 8b3a
00000150: a09e ecb9 65f0 30ba 6ec7 803a 03d5 11b9
00000160: d9c5 99ba 85b3 aaba feb0 a2ba 7635 bcba
00000170: b519 35ba 2ec0 07bb 857d 37ba 79c9 7139
00000180: deff 9db9 462c f5b8 9043 fdb9 5250 c0ba
00000190: 711a 8dba d4ec 4a3a 4723 0ebb d28d c33a
000001a0: 0f64 4a39 85eb 71ba 7edd eebb a1fb 48ba
000001b0: 0366 52b9 2a73 1b3b 1656 37b9 91e5 1abb
000001c0: f610 4eb8 1318 2d39 eabb f9b8 0acd adba
000001d0: 90cd 6539 0210 c9ba 6ca2 23bb ba7d b5ba
000001e0: 0f46 ba39 f283 25ba d28d 4eba e8b9 4d39
000001f0: aef1 413b e617 62ba 9e3f 0c39 16d6 68ba
5.220239e-05 -0.0005483306 -0.00038530715 0.0020005724 -0.0019769832 -0.00016472655 -0.00097259454 -0.00024371939
-0.00017378671 -0.0008929606 -0.0026867853 -0.00024314673 0.0012455388 -6.643525e-05 0.00039939609 -0.0010397057
0.0005845788 -0.0012811803 -0.00022931065 -0.0011199571 -0.0009967725 -0.0012372094 0.0011861523 -0.0007333583
-0.0011502483 -0.00040008986 -0.0015129934 -0.0011914644 -0.00068465044 1.09179855e-05 -0.0018145817 -0.00028688408
-0.002333451 -0.000786489 -0.0007085591 0.00015677826 -0.0005080147 -0.0019115311 9.646324e-05 -0.0032454806
0.0010248688 0.0011734549 0.00032733582 -0.0034975354 -0.0020177139 -0.0019327916 -1.0828217e-05 -0.00021499803
-0.0009751447 -0.0010138912 -0.0020699217 0.00040001379 -0.0022395307 -0.0003260508 -0.00047864116 -0.0019262257
-0.0012407613 -0.0017383625 -0.0007943617 -6.198059e-05 -0.0016866553 0.001178175 -0.0013290199 -0.000498253
-0.002541575 -0.0015279884 -0.0020710058 -0.0003216953 -0.00084178546 0.000117673044 -0.00023914066 0.0005391296
-0.00032758166 -0.00016623916 0.000420866 -0.00016938671 -0.00096926664 -0.0006371808 -0.00080152514 0.0021834753
-0.0012760458 0.000593213 -0.0016489174 0.0010629119 -0.00045131613 -0.0006749689 0.000982506 -0.0001390763
-0.0011731937 -0.0013023472 -0.0012412367 -0.0014359194 -0.00069084327 -0.0020713913 -0.00069996 0.00023058605
-0.0003013601 -0.00011690757 -0.00048306258 -0.0014672375 -0.0010765326 0.00077409786 -0.0021688507 0.0014919585
0.00019301496 -0.00092285156 -0.0072895875 -0.000766689 -0.00020065163 0.0023719766 -0.0001748431 -0.0023635367
-4.9130023e-05 0.00016507534 -0.00011908247 -0.0013259959 0.0002191572 -0.0015339854 -0.0024968637 -0.0013846674
0.00035528882 -0.0006313912 -0.0007879409 0.00019619579 0.0029593515 -0.0008624777 0.0001337514 -0.0008881999

action_model._continuous_distribution.log_sigma f4 [1, 2]
00000000: 46be 83bb 1d41 fa3b
-0.004020485 0.0076371566

action_model._continuous_distribution.mu.weight f4 [2, 128]
00000000: 662a 3d3c ad31 2dbd 3f74 003b 2cf4 0abc
00000010: 84b6 b537 4e0e 8cbc efaf 0c3c 2fcf b43c
00000020: cd13 70bc 1d1f 6b3c 7e91 533c 313a aebc
00000030: 6b64 dc3b 0ae2 9cbc e542 a33c cafa 5b3c
00000040: df9c e23c a164 a73c e0e7 c9ba ddc2 fe3b
00000050: 2a8c 7bbc 9682 a03b 30f5 d13c 0cea e03b
00000060: 1c1a e53b 2e85 793a 67bf 92bb 4b89 1d3a
00000070: 465c 3dbc 46bd b1bc f5b7 b7ba 5208 9f3c
00000080: 48c6 22bd 5338 bb3c 562f 8b3c 5767 ed3b
00000090: 6d30 1d3c 0571 c73b 4cc7 9a3c 8b26 603c
000000a0: daa8 5a3c 99e5 ff3a c94e 953c 6027 d73c
000000b0: 4314 363b c231 2d3b b2a9 933c 101f ccbc
000000c0: fde9 9b3b bd4e 783c 45de 113b cf94 123d
000000d0: 77ba 973c 3760 30bb 41bf 013d 8f6d cc38
000000e0: f99b 713b fa98 a439 e317 acbc e15c 05bd
000000f0: 3fc6 393c 8cac 00bc 06a0 ef3b 054b fc3c
00000100: 774b b0bc ead8 45bc 56c8 83bb 1230 f3bc
00000110: 69ae d83b 8267 3fbb 3440 323c 3614 89bc
00000120: 883d 87b9 cd64 043d 0601 cdbb 8a45 8b3c
00000130: 052a ddbc 1e6a 0ebc 2451 88bc 8c09 5b39
00000140: 97c9 f7bb 5ecb 973c 3b98 b4bb 6c35 77bb
00000150: 7a75 adbb 166a f7bb cc58 9f3b 1a1a 9dbc
00000160: 49f0 86bb 77ea 02bb ba6f 3f3c 4559 833c
00000170: 60b5 b3bc 4e80 b33c 8002 ce3c 93c5 f63c
00000180: a2f4 ca3c 65df e13b a993 8fbb ed71 263c
00000190: 871c 8cbc 2435 15bc d60b d4bc 6f8f 6ebc
000001a0: 4e71 29bd e898 63bc 4bca 09bc 4ae3 ae3c
000001b0: 316d 7abc ee15 38bb 91b7 9dbc 5782 adbc
000001c0: 5eaa ddbc 5576 563c 075d e5bb 2cca 9c3b
000001d0: b7b0 e73b e74c 2dbc 738f 8a3a 1b4b 013c
000001e0: 1c9d 873c a310 15bc 0ae8 5ebc 5b73 ba3b
000001f0: 6709 1e3d 9afe 483c fa14 f43c d023 3abc
00000200: 7268 503c c3a0 19bb 3fa1 5c3c f6c2 573c
00000210: 9c7d b1bb ad9c 9eba 5742 dbbb 3eb3 0ebb
00000220: ee0b 003a 7154 a8bc 8a45 cc3b 3f58 a9bc
00000230: ba3e a93c f237 2c3b 988c e23c 5480 dd3c
00000240: fe12 3d3d 5fac b83c 7b34 8cbb 913a 03bc
00000250: cbd7 91bc 8483 10bc 8636 b139 93d1 e53b
00000260: 7954 fc3c 8360 36bc 18ea 493c 931b 05bd
00000270: 6956 323c 5ebc c33b 3ee7 1fbc 6938 2f3c
00000280: d8ac bdbb dde4 eebc 2e8d 8fbc 551e 473c
00000290: 6451 963b 6c38 3dbc 2604 07ba d6e1 c4bc
000002a0: e14d 933b 1c2b afba 0466 e93c 7156 0dbd
000002b0: 658e e73a df05 463b 055e 823c 4f6e 24bc
000002c0: 72c9 683c b7e7 89bc 993d 82bb 4cb5 083b
000002d0: 7a1f cbbc 3d3f dfbc 6678 35ba 152b 2e3c
000002e0: 56ab 3abd 0653 06bc d3a9 043d 7bd1 0fbc
000002f0: 7023 0abd 3a87 9bbc 9da0 d23b 14c4 cabb
00000300: ff26 a03c 8f63 c5bc e12b 803b 65e4 02bc
00000310: d38e 9d3b 12d0 51bc 142a ad3c c5f6 16bc
00000320: b1a3 4bbd 30e9 05bb 77b8 0abc 9f9d cabc
00000330: 5747 acbc 067b 243d b4a3 81ba f062 6eba
00000340: 7dfd acbc 06bc 183d 239a 2f3c dec2 bf3b
00000350: 65c6 f03b 9219 81bb b1cb c3bc f1a9 7c3c
00000360: 1db3 debb 402f 45ba 1a7d afbb f392 73bc
00000370: c62b cf3a 8adc 653c bee2 19bd afc8 ee3b
00000380: 52ed 523c 0ad9 34bc e053 6b3c 4069 13bd
00000390: 7788 693c 72e6 8f3c 3e8c d03b 6f1f b1bc
000003a0: 0fa3 c83b 9885 803c 1d65 12bd e41a 6ebc
000003b0: e5a6 d13c 5953 c33a 5b9e ceba 77cd 873c
000003c0: cd22 33bc 622b 813c a9f1 193d 27ed 273b
000003d0: 5c61 943c 8d07 483d cc18 6939 18fb 87bb
000003e0: 2ce9 6fbc 8d9d 15bc 928f b1bb e94d 253c
000003f0: d886 1f3d f685 ecbc 5aa9 17bd 88d9 983c
0.011545753 -0.042283703 0.0019600538 -0.008481067 2.1661872e-05 -0.017096665 0.008586868 0.02207145
-0.014653158 0.01435068 0.012913106 -0.021267982 0.006725838 -0.019150753 0.019929359 0.013426492
0.027662693 0.020433726 -0.0015404187 0.0077746944 -0.015353242 0.0048983796 0.02562961 0.006863838
0.006991638 0.00095184415 -0.0044783833 0.0006009533 -0.011557644 -0.021696698 -0.0014016615 0.019413147
-0.039739877 0.022854006 0.016990345 0.007244985 0.009594065 0.006086471 0.01889386 0.013681064
0.013345921 0.0019523381 0.018226044 0.026263893 0.0027783073 0.0026427363 0.018025253 -0.024917156
0.004758118 0.015155491 0.0022257727 0.035786446 0.01852153 -0.0026912817 0.031676535 9.747885e-05
0.0036866649 0.00031394494 -0.021007484 -0.03255928 0.011338769 -0.007853638 0.0073127775 0.03079749
-0.02152036 -0.012075642 -0.0040216846 -0.029686008 0.006612588 -0.0029205983 0.010879565 -0.01673327
-0.0002579505 0.032322694 -0.0062562255 0.017000932 -0.026997576 -0.0086922925 -0.016640253 0.00020889024
-0.007561873 0.01852959 -0.0055113113 -0.003772105 -0.0052935453 -0.007550488 0.0048628803 -0.019177485
-0.0041179997 -0.0019976178 0.0116843525 0.016033778 -0.021937072 0.021911766 0.025147676 0.030123508
0.024774853 0.006893086 -0.004381616 0.010158998 -0.017103447 -0.009106908 -0.02588455 -0.014560564
-0.04136782 -0.013891436 -0.008410047 0.021348614 -0.015284822 -0.0028089243 -0.01925257 -0.021180315
-0.027058776 0.013089736 -0.006999615 0.004784843 0.0070706266 -0.010577417 0.0010571316 0.007891442
0.016554408 -0.009098205 -0.013605127 0.005690021 0.038583186 0.012267733 0.029795159 -0.011361077
0.012720214 -0.0023441769 0.013466178 0.013169041 -0.005416585 -0.0012101136 -0.006691258 -0.0021774317
0.000488459 -0.020548077 0.0062338756 -0.020671962 0.020659793 0.0026278463 0.027654931 0.02703873
0.04616069 0.02254313 -0.004278717 -0.008009569 -0.017803093 -0.008820418 0.00033800694 0.0070135086
0.030801998 -0.011131409 0.012323879 -0.032497 0.01088486 0.005973383 -0.009759722 0.010694602
-0.005788427 -0.029161865 -0.017523374 0.012153228 0.0045873392 -0.011549097 -0.00051504595 -0.024033468
0.004495368 -0.0013364288 0.028491028 -0.034506265 0.0017666338 0.0030215902 0.015913973 -0.010036065
0.014208185 -0.016834123 -0.003974628 0.0020860014 -0.024795283 -0.027251834 -0.0006922543 0.010630389
-0.045573555 -0.008198505 0.03238852 -0.008777971 -0.033725202 -0.01898538 0.006427838 -0.006187925
0.019549845 -0.024095325 0.003911481 -0.007989024 0.0048082857 -0.0128059555 0.021138228 -0.009214108
-0.049716655 -0.002043318 -0.008466831 -0.024733363 -0.021030111 0.040156387 -0.0009890706 -0.00090937223
-0.021116966 0.037288688 0.010717901 0.0058520874 0.007347869 -0.003939816 -0.023900839 0.015421377
-0.0067962543 -0.00075219944 -0.0053554894 -0.014866578 0.0015805892 0.014029631 -0.037569754 0.007287107
0.012873964 -0.011038074 0.014363259 -0.035989046 0.014253727 0.01756594 0.0063643744 -0.021621434
0.0061229537 0.015688702 -0.03574096 -0.014532778 0.025592277 0.0014902159 -0.0015763746 0.016577465
-0.01093359 0.015767757 0.03758398 0.0025623532 0.01811283 0.048835326 0.00022229849 -0.0041498058
-0.014642995 -0.009131801 -0.0054187262 0.010089376 0.038946956 -0.028872471 -0.03702674 0.018658414

action_model._continuous_distribution.mu.bias f4 [2]
00000000: e966 91b9 e394 ea39
-0.0002773323 0.00044742887
