GameAI3/Config/results/dwarf/Dwarf/Dwarf-9792.pt (torch, 444703 bytes, 36 tensors)

network_body._body_endoder.seq_layers.0.weight f4 [128, 8]
000000 75 9b 82 3e ca 96 c5 bd fe d8 98 be 8d 6c db 3e
       0.2550923 -0.09647901 -0.29853052 0.42856255
000010 e5 20 b5 3e 1c 94 e3 3e b9 1f f9 3e 2d 0f a9 be
       0.3537666 0.44448936 0.48657015 -0.3301939
000020 5d 37 82 be 24 e1 22 be c2 5a 32 bf 6d 75 04 bf
       -0.25432864 -0.15906197 -0.69669735 -0.5174168
000030 89 18 3d 3e 2c c7 a2 be e7 1e 1c 3e 94 9c ec be
       0.1846639 -0.3179258 0.15246163 -0.4621321
000040 ff 50 8e 3e 5d db 02 bf 05 c3 96 be fa a5 19 3f
       0.2779617 -0.5111597 -0.29445663 0.60018885
000050 7c 42 51 3e 29 05 b4 3d a5 20 89 3d fa 4c 2e bf
       0.20435518 0.08790047 0.066956796 -0.68086207
000060 20 06 d9 bd 88 c6 9c 3d f0 b1 d7 3e 53 87 87 be
       -0.105968714 0.07655054 0.42127943 -0.26470432
000070 cc d8 95 be 30 74 6b 3d c2 d4 89 be db f9 64 bd
       -0.29266965 0.057483852 -0.26920134 -0.055902343
000080 b0 70 96 3c f2 bb d9 3e 14 c9 52 bb f0 bf 39 3e
       0.01836428 0.42526203 -0.003216331 0.18139625
000090 d2 1d 94 3e 21 5f 6e be 66 8a b9 3d 3a 86 38 be
       0.28929 -0.23278476 0.090596005 -0.18019953
0000a0 c3 85 7c bd 9c 4e c8 3e a6 3e 22 3f f5 1b f3 be
       -0.061651003 0.39122474 0.63376844 -0.47482267
0000b0 e4 65 ac 3e 43 4d 16 bf db f7 1a 3e e6 2b 06 bc
       0.33671486 -0.5871164 0.15133612 -0.008189177
0000c0 c3 27 c6 3c c0 2f c6 be 3f 57 9d be 0c ea d9 3d
       0.024188882 -0.38708305 -0.30730626 0.10640344
0000d0 9a 1c 1a 3e e0 10 49 3e eb e1 84 bc 9a d8 af 3e
       0.15049973 0.19635344 -0.016221007 0.3434494
0000e0 70 eb c6 be 50 bb 6f be 97 be 2b bc 22 fe 66 bf
       -0.388515 -0.23411298 -0.010482452 -0.90231526
0000f0 d8 ff 90 3d fb c8 39 bc ce c6 49 bf 8a 35 85 be
       0.07080048 -0.011339421 -0.78818977 -0.2601741
000100 03 28 04 bf a7 12 a8 be 9d 60 ec be 38 e2 02 3f
       -0.51623553 -0.3282673 -0.4616746 0.5112643
000110 30 bb dd 3e b6 a3 09 be e4 e8 90 bd 0f 73 ba 3d
       0.43306875 -0.13441357 -0.0707567 0.09103977
000120 f7 bd 74 bd 04 8d 99 be 16 a8 81 3e ee 6d f6 3b
       -0.059751477 -0.299904 0.25323552 0.007520429
000130 c8 ef b3 3d a3 a5 35 be 5e f2 1e 3f d8 32 2e bf
       0.08785969 -0.17738967 0.6208857 -0.6804633
000140 1b e6 30 bc 6d 89 48 3e 1d 89 9a be 9f 43 d6 be
       -0.010797049 0.19583674 -0.30182734 -0.41848466
000150 fe 28 a5 be e8 b3 b3 3c cf 46 dd bc 86 f6 a4 bd
       -0.32257837 0.021936372 -0.027011303 -0.08054833
000160 95 e3 05 3f 81 1f 8f 3e 3d 51 18 bf a2 c5 65 bd
       0.5230039 0.27953723 -0.5949896 -0.05609668
000170 36 ba 34 be d6 c2 38 3e 9d 24 87 be 35 9d 93 3e
       -0.17649159 0.18043074 -0.2639512 0.28830877
000180 23 12 50 3e e9 e5 32 bb b6 76 fb be e8 2c b3 3e
       0.20319419 -0.0027297682 -0.49114007 0.34995198
000190 e4 d9 9b 3d 1d 3a 27 be d5 bf b3 3e 22 66 79 3d
       0.07609919 -0.16330762 0.35107294 0.060888417
0001a0 3a 67 a1 3e 4f ea 60 3e a7 b1 cb 3e 59 dc 87 be
       0.31524068 0.21964382 0.39783975 -0.265353
0001b0 98 c6 a7 3d 29 1a 02 3e 50 6b 98 3e 03 a3 15 be
       0.081921756 0.12705292 0.29769373 -0.14612965
0001c0 70 68 56 be 46 54 6d be b0 55 85 3e a0 8e b6 3d
       -0.20938277 -0.23176679 0.26041937 0.08913922
0001d0 82 04 1c 3e 39 e9 2f bf c2 0d 17 3f 56 73 58 3c
       0.15236095 -0.68715245 0.5900537 0.013211092
0001e0 4b f7 b0 3d 60 2d e5 bd 60 d0 e0 be 27 02 e8 3e
       0.086409174 -0.11190295 -0.43908978 0.45314142
0001f0 29 80 05 bf f1 87 e5 be ab a7 0b be b4 11 0c bf
       -0.5214868 -0.44830278 -0.13638179 -0.5471451
000200 6c e0 f4 3d 6e 82 07 bd 03 1f f7 bd 4e 91 b7 be
       0.119568676 -0.03308337 -0.12066462 -0.35853046
000210 45 5a 77 be 41 f9 01 3e 8f 6b fa be 0d 07 72 3e
       -0.24155529 0.12692739 -0.48910186 0.23635502
000220 ba 5d 0e bf 71 29 c9 bd 46 f9 43 be 1a 38 46 be
       -0.55611765 -0.098223574 -0.19138059 -0.19357339
000230 ee 8c 85 be 82 e6 55 3e 98 53 05 3f b8 96 46 be
       -0.26084083 0.20888713 0.5208068 -0.19393432
000240 63 54 26 3e 7d 36 42 bf a3 9d e3 bd ce 66 01 3f
       0.16243128 -0.7586439 -0.11114051 0.5054749
000250 c0 43 96 3e d7 24 1c 3e 10 8f 4f be 40 07 dd 3a
       0.29348564 0.15248428 -0.20269418 0.0016863123
000260 6d 6e d6 be 05 80 64 bb 73 2a a9 bd f4 4e 8b be
       -0.41881123 -0.0034866345 -0.0826005 -0.27208674
000270 a7 4b 9e be 6d de 23 bf 4a ee 87 3e 71 51 ee 3e
       -0.30917093 -0.6401127 0.26548988 0.4654651
000280 c8 61 29 bc 83 61 cf 3e df 12 03 ba aa 93 ca be
       -0.010338254 0.40504083 -0.00050000654 -0.39565784
000290 cd 16 72 be 61 4f 18 bc 2d 9c 85 be fc d6 77 3e
       -0.2364151 -0.009296269 -0.26095715 0.24203104
0002a0 c7 77 35 be 27 a6 ac be b6 41 28 bf 4d 67 68 3e
       -0.17721473 -0.33720514 -0.65725267 0.22695656
0002b0 0b ff a8 be 93 8b 6d 3e 04 90 95 be e8 8e af be
       -0.33007082 0.23197775 -0.29211438 -0.34288716
0002c0 a2 99 c3 bd 2b 50 4f 3e 77 30 ac bd ad e9 0e 3e
       -0.095507875 0.20245425 -0.084076814 0.13956328
0002d0 5d b4 80 be f6 9b f0 3d 17 e8 ac 3e d5 7c a3 3d
       -0.25137606 0.11748497 0.3377082 0.07982794
0002e0 3f 17 7a 3e 06 9f ca 3e a4 bb e4 be e4 b3 10 bc
       0.2442293 0.3957445 -0.44674408 -0.008831952
0002f0 80 ad 0b 3f c7 ef 9b be 63 96 f1 3e b1 cd 02 bd
       0.54561615 -0.30456373 0.47185048 -0.031934444
000300 02 3c dd 3e 62 52 8c 3e 53 7e 4c 3e 94 50 58 3e
       0.43209845 0.27406603 0.19970064 0.21124488
000310 d5 35 21 3f 15 a1 be 3e 8e db 9f be 85 a6 70 be
       0.62972766 0.3723227 -0.31222194 -0.23501022
000320 66 cb 20 3f ae 89 0c bc c0 9a 21 be b8 4a 49 3e
       0.6281036 -0.008577747 -0.15781689 0.19657409
000330 b3 e7 d8 bd 0e fe cc bd d3 04 a5 be a9 62 86 bd
       -0.10591068 -0.100093946 -0.32230243 -0.06561787
000340 02 27 c0 be ff 3d a2 be 63 d2 3e 3e 0e c5 96 3e
       -0.3752976 -0.31687924 0.18634944 0.29447216
000350 1d 4c 91 3e 01 cb b5 bd c0 5b c9 be 39 18 8c 3e
       0.28378382 -0.088766105 -0.39327812 0.2736223
000360 42 f6 c5 be f9 62 2d bf 8e d8 7f bf 2a a9 c0 be
       -0.38664442 -0.67729145 -0.9993981 -0.37629062
000370 b9 ac 77 be e4 e0 a0 be 72 77 a8 be 23 f3 0e be
       -0.24186982 -0.31421578 -0.3290363 -0.13959937
000380 c0 cd e8 3d 0e cc 76 3e 7b 07 87 bf c9 3a 36 be
       0.11367369 0.24101278 -1.0549158 -0.17795862
000390 c8 7e 34 3e 3c 05 ad bd 13 5f 38 be aa 7a 0a 3e
       0.17626488 -0.08448264 -0.18005018 0.13523355
0003a0 07 4b fb be 14 4e 01 bf 4e e5 11 bf 99 33 7d 3e
       -0.4908068 -0.5050976 -0.56990516 0.24726714
0003b0 5d 49 41 3e 4c 05 8c be f9 c5 b8 bd 3f ce b1 3d
       0.18875642 -0.2734779 -0.09022135 0.086819164
0003c0 c7 2d fb 3e f2 1e 4c bf 48 dc eb be 0a f8 58 be
       0.49058363 -0.7973472 -0.460665 -0.2118837
0003d0 e3 09 02 3f 7c 1a 79 bd b9 8a 87 3d 47 bb 4f 3e
       0.50796336 -0.060816273 0.06618256 0.20286284
0003e0 6e f0 97 3e 55 02 7f be b5 d4 1f 3e f2 1d 24 bf
       0.2967562 -0.24903233 0.15608485 -0.6410819
0003f0 8e ee 96 be d8 d3 c6 be 46 dd 8b bd f8 ed 2f be
       -0.29478878 -0.388335 -0.06829314 -0.17180622

network_body._body_endoder.seq_layers.0.bias f4 [128]
000000 e9 4b f1 bb 5d 27 96 bc 3b ce 1a bc 8a dc f6 3b
       -0.0073637855 -0.018329317 -0.009448583 0.0075336145
000010 9f 76 a4 bb 40 65 c5 bc 04 76 19 bc 23 d0 d2 3b
       -0.0050190235 -0.024096131 -0.009366516 0.0064335032
000020 4e 3b ea 3a 94 73 30 bc 93 af 39 bb 32 35 84 bb
       0.0017870457 -0.0107697435 -0.002833341 -0.0040346617
000030 f5 f9 53 bd 1c d7 44 bc 3e 62 fe 3b 13 f3 21 bd
       -0.05175205 -0.012014177 0.007763176 -0.039538454
000040 84 b2 51 bc d2 39 05 3b 43 2a 3e 3c 86 06 a7 bb
       -0.012798909 0.0020328653 0.011606756 -0.005097213
000050 98 3e 4a 3c ea 18 87 bb 4e ee 7b 3b 3f 19 91 3b
       0.012344025 -0.004122843 0.0038441601 0.0044280584
000060 a5 b7 2f 3b 0a cb 73 bc 17 22 24 bc 09 59 28 3d
       0.0026812342 -0.014879951 -0.010017893 0.041100536
000070 e8 95 ac ba 23 c4 6d bc 62 e9 ea bb bf f7 57 bc
       -0.0013167234 -0.014512095 -0.0071689347 -0.013181626
000080 d8 cf 53 bb ef 04 ff bb cc 3c c5 bb 36 eb a3 bc
       -0.003231993 -0.0077825706 -0.0060192104 -0.020009618
000090 69 a7 2e 3c 3b 8f 66 3b e2 5d ac b9 c1 12 a4 ba
       0.010660031 0.0035180587 -0.00032876345 -0.0012517796
0000a0 31 72 aa 3a 3e ca e4 3b ea 28 05 bd 69 18 64 bc
       0.0013004002 0.006982117 -0.03250972 -0.013921835
0000b0 79 2d 96 b9 f8 ea b9 bc 12 df 23 3b 9a 90 5f bc
       -0.0002864411 -0.02269505 0.0025004786 -0.013645316
0000c0 ff 19 1e bb 94 60 22 3a 9e 4e 1a bc 54 b4 4f bc
       -0.0024124382 0.0006194201 -0.009418158 -0.012677271
0000d0 11 e2 70 bc 25 0a 55 bc 82 ef 27 3c c8 58 0a 3b
       -0.014702336 -0.013002907 0.010249974 0.0021110047
0000e0 3c 46 27 3c 64 27 a8 bb e8 96 31 bc 23 9a ab bb
       0.010209616 -0.005131649 -0.0108392015 -0.0052368804
0000f0 85 07 f1 bb 3e 1f d6 bc a9 0c 31 bc 3b 7d 3e 3c
       -0.0073556327 -0.026137944 -0.010806241 0.011626537
000100 9f 9e d0 3a 5a af 52 3b 2b 49 13 bc b0 60 f0 bc
       0.0015916413 0.0032147975 -0.008989613 -0.02934298
000110 76 c3 97 3b af 5a b6 bb d6 9f b3 bc f8 63 05 bd
       0.004631455 -0.0055650095 -0.021926802 -0.03256604
000120 1b b6 0a 3c 88 a2 61 bc 3a 6d 24 bc 01 ba 98 3b
       0.008466269 -0.013771661 -0.010035807 0.0046608453
000130 b9 66 67 bc 6f 62 59 bc b0 d5 07 bc 48 c0 20 3b
       -0.014123612 -0.013268097 -0.008290693 0.002452867
000140 a9 76 5e bc dd 0e 59 bc df bf a6 3b dd 9d a9 bb
       -0.0135780955 -0.013248173 0.005088791 -0.0051762895
000150 b5 c7 9c 3c 40 f7 7d 3b 0e c3 4e bb 88 00 e6 bc
       0.019138196 0.0038752109 -0.0031549367 -0.028076425
000160 bd 98 49 bb 8e 5e 86 bc 3b 52 c9 3b 72 aa 0a 3a
       -0.0030761205 -0.016402509 0.006143836 0.00052896806
000170 7d 6d 1d bc c1 32 ba 3b 47 9c 09 bc d1 d1 9b 3b
       -0.009608624 0.00568232 -0.008399076 0.0047552367
000180 20 df 88 bc 9f e4 83 bc 19 d7 eb 3b 31 a0 f3 3b
       -0.016707957 -0.016100226 0.0071972725 0.007434868
000190 da ce 0b 3b 78 03 10 bc 9e 8b 5f 38 9f 7c 6c bc
       0.002133301 -0.0087898895 5.329737e-05 -0.014434009
0001a0 d1 d7 aa bc 7b bb d7 bb 89 cb 07 3a 62 92 4f bc
       -0.020854862 -0.0065836287 0.00051801704 -0.012669178
0001b0 05 59 90 bc fd c3 d2 3b 5d dc 57 bc ff 87 41 3b
       -0.017620573 0.006432055 -0.013175097 0.0029530523
0001c0 95 0e 1a bb 61 3f ff bb 7a 5d a8 bb dc 42 ac 3b
       -0.0023507227 -0.007789538 -0.0051380964 0.0052569937
0001d0 de 6a f8 bb cd 03 2c bb 27 c9 34 bc 10 67 3f bc
       -0.007581099 -0.0026247383 -0.011034287 -0.011682287
0001e0 fc 0e d3 bb b0 95 96 bb eb e3 49 3b 13 7b 3f 3a
       -0.0064409953 -0.004595481 0.0030806016 0.0007304411
0001f0 bf 7d 22 bc 96 20 21 39 36 1d 96 bb f4 6b dd bb
       -0.0099176755 0.00015366296 -0.004581119 -0.006757254

network_body._body_endoder.seq_layers.2.weight f4 [128, 128]
000000 ac 49 ad bd 67 0a da 3d 70 bc 10 3d 5e 0f 9c 3d
       -0.084613174 0.10646515 0.035335958 0.076201186
000010 f1 67 c6 3c 8c 7e a5 3d 5e 10 aa bc d8 81 3f bd
       0.024219485 0.080807775 -0.020759758 -0.046754688
000020 a3 5a 41 3d 74 16 96 bd b0 83 53 bd 36 09 f7 bd
       0.04720558 -0.07328501 -0.05163926 -0.12062304
000030 97 45 11 be 67 0d a8 bd 5b ad f2 bd 9e cb 3b 3d
       -0.14186703 -0.08205681 -0.11849471 0.04584848
000040 9b 74 a9 3d ff 3b 2d 3d af bf d5 3d 63 7f 85 bd
       0.08274194 0.042293545 0.10436951 -0.06518438
000050 db 47 b5 bd 5b ef b5 3d a6 8a dd 3d e2 c3 66 3e
       -0.08851596 0.08883544 0.10817461 0.22535661
000060 5a 08 7f 3d a4 98 d6 3d d9 f8 3c bd 2c 53 0f bd
       0.062263824 0.10478333 -0.046135757 -0.03499143
000070 68 94 c3 3d ed 23 01 be de 87 a3 3c 49 5e f3 3b
       0.095497906 -0.12611361 0.019962247 0.007427011
000080 ba 5c 04 bd 1f 0a 08 be 13 c3 cc 3d 2e 72 dc bc
       -0.032314993 -0.13285111 0.09998145 -0.026909914
000090 c4 3a cb bd d9 2d 98 bd 0e 61 ff 3d 9e ec 7e bc
       -0.09923318 -0.0743062 0.124696836 -0.015559344
0000a0 f8 24 27 3e a4 13 1a 3d d0 37 15 3d 01 b5 4c bd
       0.16322696 0.037616387 0.03643018 -0.049977306
0000b0 1e 53 cd bc f8 4c ff 3d a1 2c e4 3d 16 a0 0a bd
       -0.025064047 0.124658525 0.11141325 -0.033844076
0000c0 5a 3d 7b be a0 9e c4 bc 48 6b e5 3d fb 62 27 be
       -0.24535123 -0.02400142 0.11202103 -0.16346352
0000d0 46 4b 1a 3e be 69 f2 3d 54 84 c4 bd fc 87 f8 3d
       0.15067777 0.11836575 -0.09595552 0.12135312
0000e0 ae bf 11 3e 8c f6 46 3e 28 8d f7 bc 66 8d 09 bc
       0.14233276 0.19429988 -0.030218676 -0.008395528
0000f0 b1 86 0f bd 2f d5 27 3e c3 f2 15 3d 6d cd 09 be
       -0.03504056 0.16389917 0.03660847 -0.1345727
000100 66 a1 d3 3c 74 8b e3 bd 46 68 01 3d 66 ab 8b bd
       0.025833797 -0.11110583 0.031593584 -0.06819801
000110 17 b4 c1 bd 0d 20 8b bd 4c 13 ba 3d 43 7b c5 3d
       -0.094581775 -0.067932226 0.09085712 0.09642651
000120 fc d0 1d bd 0d 37 b4 3d 56 c0 07 3e d9 37 ec 3c
       -0.03852938 0.087995626 0.13256964 0.028835224
000130 86 83 10 be 0f 74 3e 3d 18 11 40 bd 79 ea 3f 3e
       -0.14112672 0.0464974 -0.046891302 0.18741788
000140 76 3e 1d 3e ac 3e ae 3d a0 44 f4 bd 4e 4f 30 3c
       0.15355858 0.085080475 -0.11927152 0.010761095
000150 41 e1 91 3d e7 b4 61 3d 82 7c d8 bb b4 3d e7 3d
       0.07123042 0.055104163 -0.0066066394 0.11291066
000160 36 3b 7c 3d ae ed b0 bb f2 e0 f2 3d e4 ae 21 bd
       0.061579905 -0.0053994274 0.11859311 -0.03947343
000170 87 57 e9 bd d4 d4 90 3d a3 3a 8c bd 5d b2 ae 3c
       -0.11393648 0.07071844 -0.068471216 0.021325285
000180 29 0f 0c 3a 7c 2b 0c be 60 fe b9 3c 3d 68 05 3c
       0.0005342835 -0.13688463 0.022704303 0.008142528
000190 b7 3f e5 bd 1c c5 35 3d 73 23 2d be 1e 91 b2 bd
       -0.11193793 0.04437743 -0.16908054 -0.08719085
0001a0 55 df 35 3d 86 23 f1 3d 65 46 97 3d 20 79 b2 3c
       0.04440244 0.11774354 0.073864736 0.021786273
0001b0 af e1 06 3e ad 87 93 bd 55 72 0c 3e e6 b1 84 bd
       0.13172029 -0.072036125 0.13715489 -0.06479244
0001c0 43 16 db 39 c0 3c ef bd 37 3f 92 bd 28 4f 68 3d
       0.0004178752 -0.11681509 -0.071409635 0.056716114
0001d0 83 37 b5 bd b0 c1 cd 3d f7 d7 c5 bb 9a 6c 88 bd
       -0.08848479 0.100467086 -0.006037708 -0.06661339
0001e0 51 6c b4 3c 2e fd 94 3d cb 4d 88 3d 66 ff 10 3e
       0.022024306 0.07274853 0.06655463 0.14159927
0001f0 9e 80 8a bd c8 5a c1 bd 39 ae a2 bd 0f 2d 1b bd
       -0.06762813 -0.09441143 -0.079433866 -0.037884768
000200 d2 5e 92 3d 4d 6d 04 bd 4b f8 05 be 69 4c 39 3c
       0.07146992 -0.0323308 -0.13082998 0.0113097215
000210 a4 cd 51 3d b1 c4 e6 3d 5b e1 a6 3d 46 da 99 bc
       0.051221505 0.11267985 0.08148452 -0.018780839
000220 9d 9f 9a bc 79 9f 13 3d 40 fd 47 3d 4b f7 cf bd
       -0.018874938 0.036040757 0.048825502 -0.10154589
000230 86 b0 8c 3b 1f 4b 25 bc cb 96 bd bd 2f a5 c5 3d
       0.004293504 -0.010088711 -0.09257277 0.09650647
000240 a1 fd f3 3c 14 c9 a4 3d dd 3b 8a 3d 5d 6a 0f be
       0.029784026 0.08046165 0.06749699 -0.14005418
000250 5d ac 6d bd 15 e6 25 bd 94 ad df 3d 6f 3e eb bb
       -0.058025707 -0.040502626 0.10921779 -0.0071790735
000260 4a ae 82 3c 7d 7c 1d bd aa 92 99 3d c4 04 9b 3d
       0.015952248 -0.0384488 0.07498677 0.07569268
000270 9e 3b c2 bb 10 fd 5c bd 7f 6f 95 ba 26 87 ea bd
       -0.005927517 -0.053952277 -0.0011401026 -0.11451559
000280 5b 1b 0b bd 0b 9e ab 3a eb d7 27 bd 65 72 82 bd
       -0.033961635 0.0013093365 -0.0409774 -0.06369475
000290 03 ac df bd f7 c5 8b bd 3b e4 65 bd 9e 0f bc bd
       -0.109214805 -0.06824868 -0.05612586 -0.09182666
0002a0 a7 2c a0 bd a7 ab 4c 3c 5c 00 5f 3d e6 64 f0 bc
       -0.07821017 0.012492097 0.054443702 -0.029344987
0002b0 6d d8 8b bd d9 ee ad 3d 7b 29 73 3d 34 2c ae 3d
       -0.06828389 0.08492822 0.05936573 0.08504525
0002c0 71 a6 0a be 6c e1 2a 3a c1 7b a3 3d 65 24 07 3d
       -0.13540055 0.0006518576 0.079825886 0.032993693
0002d0 de ff c6 3d 79 78 63 3d 28 8b 77 3b 1b e8 fa bd
       0.097167715 0.055534814 0.0037772153 -0.12251302
0002e0 36 e1 5e bd f6 78 cb bd fd 2e 5b bc 87 99 12 3e
       -0.054413997 -0.09935181 -0.013377902 0.14316379
0002f0 23 60 81 3b 7c 6f 3e 3d a8 eb b1 3d 4d 53 f6 bc
       0.003948228 0.04649304 0.08687526 -0.030069018
000300 c7 17 3f bd 93 c7 86 3d 56 2a f0 bc e7 b9 9b 3d
       -0.046653535 0.065810345 -0.029317062 0.076038174
000310 12 c7 3d bc 29 b3 af 3d 5a e4 a3 bc b4 33 aa 3d
       -0.011583107 0.08579094 -0.020006347 0.08310643
000320 3c 42 ae bd b6 c5 e6 3d b3 14 0d be 90 b5 61 bd
       -0.08508727 0.11268179 -0.13777427 -0.055104792
000330 32 4b c0 bd 16 3c c2 3c 7a 4a 3b be 14 8e d8 3d
       -0.09389342 0.023710292 -0.1829013 0.10573974
000340 23 3f 52 3d db 27 95 bd 44 2e a0 3d 84 ba 60 3d
       0.051329743 -0.072829925 0.078213245 0.054865375
000350 5a 49 1d be 0c b8 0f 3e 07 29 68 3d cf 8c d1 bd
       -0.15360013 0.14035052 0.05667975 -0.10231935
000360 e8 79 50 bc 82 aa 47 be b4 32 b6 bb 36 63 4f 3c
       -0.012724377 -0.19498637 -0.0055602435 0.012657931
000370 3e e4 15 3d 62 c9 f4 bb 78 3e d0 3d e6 36 b9 bd
       0.03659462 -0.0074702958 0.10168165 -0.09043674
000380 18 ae 12 be 37 09 0d 3c 14 f0 3b 3c 2b 85 7a 3c
       -0.14324224 0.008608154 0.011470813 0.015290539
000390 18 29 a4 bd 97 2c a2 bd a3 25 6f 3d b0 6f c1 3d
       -0.080156505 -0.07918661 0.058385503 0.09445131
0003a0 ce 05 a8 3c bb 34 3f 3e 31 ad f1 3d 46 96 0b 3e
       0.02051058 0.18672459 0.11800612 0.13631544
0003b0 35 50 05 3e 51 64 ad 3d 7f f2 f6 3d 8d 53 2c bc
       0.13018878 0.084663995 0.12057971 -0.010517967
0003c0 2e 4a 2d 3d 5b 64 65 3d ea 04 11 bd 4a e4 3d 3d
       0.04230707 0.05600391 -0.035405077 0.04636029
0003d0 64 f3 f1 bc 4a f5 a3 bd da 0c 10 bd b6 03 c3 bd
       -0.029535003 -0.080057696 -0.035168506 -0.09522192
0003e0 5a d7 86 3d d6 8d 53 3e f2 ac cb 3b e8 dd fd bc
       0.06584044 0.20659575 0.006215685 -0.030989602
0003f0 3f 71 61 3b e6 7e 39 3e 86 17 a1 3d 88 87 6b 3d
       0.0034399775 0.18114814 0.07865815 0.0575023

network_body._body_endoder.seq_layers.2.bias f4 [128]
000000 71 09 cc bb f6 94 85 3a 93 21 b2 3b 19 48 5f bc
       -0.0062267114 0.0010191489 0.0054361313 -0.013628029
000010 8c ef 27 3c 30 d1 b1 bb 1b 0f 0f 3a 73 34 d2 bb
       0.0102499835 -0.0054265484 0.0005457268 -0.006414944
000020 48 02 82 3a 50 5f fd bb 1b 8f 1f bc 47 b9 40 bc
       0.0009918893 -0.0077323094 -0.009738709 -0.011762924
000030 3d 6f 01 3b ca aa 53 bc 7c 70 ca ba 48 13 21 3c
       0.001975014 -0.012919137 -0.00154449 0.009831257
000040 05 91 97 bc 26 0d 84 3a e4 ee 97 3b 28 da 38 bb
       -0.018501768 0.0010074719 0.0046366323 -0.0028206203
000050 e8 ca fa 3b e4 6e 35 3b cd a1 67 bc ef 23 44 bc
       0.007653583 0.0027684504 -0.014137697 -0.011971458
000060 13 b9 2d bc d7 b2 90 bc 56 ca 2f 3c 23 8b 02 3b
       -0.010603207 -0.017663402 0.010729393 0.0019919358
000070 c4 32 28 3b 80 08 6c bb 7a bf 2d 3a 60 23 1d 3c
       0.0025665024 -0.0036015809 0.00066279585 0.009590954
000080 93 11 86 3b 2e c9 e7 3b 2b 05 27 bc 8f 31 3a bc
       0.0040914505 0.007073543 -0.010194103 -0.011364355
000090 d3 a9 63 ba af 58 80 bc cd 78 1a bc 3a f1 b5 3b
       -0.00086846686 -0.015667288 -0.009428215 0.005552438
0000a0 ce 3b 05 bc 19 8a 84 bb 81 6d df 3b b9 14 ec 3b
       -0.008131934 -0.004044783 0.006818474 0.007204619
0000b0 57 a4 3c bc e3 f3 a6 3b 5c 1d 8b bc b9 b2 a9 bb
       -0.011513791 0.0050949915 -0.016981773 -0.005178776
0000c0 5b 62 2b bb 6d e7 ab bb 93 7d 02 bb 74 27 3a bc
       -0.0026151154 -0.005246094 -0.0019911274 -0.011361945
0000d0 54 db b5 3b 88 7c 86 bc 39 e8 0b 3c 0f f0 1e bc
       0.0055498276 -0.016416803 0.008539253 -0.009700789
0000e0 cd f1 1f 3c 76 fc 37 bc 1b 26 54 bc 3d 0d f0 bb
       0.00976224 -0.011229625 -0.012948538 -0.007325797
0000f0 50 94 0b bc 30 87 8b bc 98 b3 17 3c 52 03 cc 3a
       -0.008519247 -0.017032236 0.009259127 0.0015564954
000100 85 9d b0 ba 9a 5f 36 3b e4 28 04 3b fb 99 19 3c
       -0.0013474679 0.002782798 0.0020165974 0.009375091
000110 a5 fb 94 bc 83 57 5d bc 47 11 2c ba 0c 76 83 bc
       -0.0181864 -0.013509634 -0.0006563854 -0.0160475
000120 b3 a1 a1 39 78 b6 ab bb 70 18 4a bb 0f c1 41 bc
       0.00030828788 -0.005240258 -0.003083732 -0.011825814
000130 36 e2 9e ba d8 49 09 bc 58 a9 37 bc e2 c3 a7 bb
       -0.001212186 -0.008379422 -0.011209808 -0.0051197866
000140 67 cc 50 ba cd 08 1b bc e8 7f 3a bc 1a d0 4f 3c
       -0.00079650286 -0.0094625475 -0.011383034 0.012683893
000150 35 95 2c 3c 95 dd c5 3b 43 e8 87 bb 75 05 4f bc
       0.010533621 0.0060383775 -0.004147561 -0.012635578
000160 12 94 cb ba b8 6c 21 bc 9e a3 2c 3c 88 07 41 bc
       -0.0015531799 -0.009852581 0.010537056 -0.011781581
000170 68 89 7d 39 d3 38 70 bb 15 76 87 bc 05 c5 cf bb
       0.00024179148 -0.0036654964 -0.016535798 -0.006340625
000180 bb 88 7a bb 91 5c 18 3c 81 da eb 3b f9 36 3e 3a
       -0.003822847 0.009299413 0.0071976786 0.00072561164
000190 18 0a ed ba 5d 84 8c bc 77 dc 41 bc 6e 14 be 3a
       -0.0018084673 -0.01715296 -0.011832348 0.0014501938
0001a0 1b 1d 7b bc d2 9f 47 3b 06 fa 86 3b c3 43 26 3c
       -0.0153267635 0.003046025 0.0041191606 0.010147992
0001b0 32 0b 67 3b 22 e9 48 bb 9f 32 d7 bb 5d 5d 18 3c
       0.0035254476 -0.0030656536 -0.006567314 0.009299603
0001c0 e9 ee bb bb 18 dc 25 bc 49 d8 99 bc b7 f1 e7 3b
       -0.0057352674 -0.010123275 -0.01877989 0.007078375
0001d0 56 b7 ae 38 d2 59 a9 3b 50 1a 7c bc 35 0b ae bb
       8.3311155e-05 0.005168178 -0.015387133 -0.0053113946
0001e0 f4 61 2d 3b 75 ce 8e 3b bf 8f 85 3b 7a a8 87 3b
       0.002645609 0.0043581077 0.0040759738 0.004139957
0001f0 55 5f 58 bc 90 61 85 bb 12 c7 16 bc 46 1b 6a bc
       -0.013206323 -0.0040704682 -0.0092027355 -0.014288729

action_model._continuous_distribution.log_sigma f4 [1, 2]
000000 45 83 92 bc 61 f3 97 bd
       -0.01788486 -0.07419468

action_model._continuous_distribution.mu.weight f4 [2, 128]
000000 23 d1 fd 3c 81 76 49 bc 8b e7 95 bc 14 da ce 3c
       0.030983513 -0.01229632 -0.018298885 0.025250472
000010 24 a2 ee bc 53 4f 74 3b 6f f4 4c bc c5 34 98 b9
       -0.029130049 0.0037278726 -0.012509449 -0.00029031016
000020 0c fd 93 3c a7 39 c0 3c ae eb cf 3b 1c 7d ad 39
       0.018064998 0.02346499 0.006345234 0.00033090345
000030 11 c0 42 3c f6 8b 3b ba d7 f5 56 3d 99 c4 18 bd
       0.0118866125 -0.00071543397 0.052480545 -0.037296865
000040 e5 21 38 bb 67 62 0e 3d cd 0b 7a bc f8 c4 a4 b9
       -0.0028096375 0.034761813 -0.015261603 -0.0003142727
000050 e7 f6 43 bd 7a de bc 3c ec 7c cf 3b 93 4f 0c bd
       -0.047842886 0.023055304 0.0063320305 -0.034255575
000060 7f 48 06 3c 6b 6b 9b 3b 86 71 29 bd be bc 9b bb
       0.008195995 0.00474303 -0.04136803 -0.0047527244
000070 bf 0c f7 3b 45 49 e4 ba 4a 9f fb ba 6c d8 b5 3c
       0.0075393612 -0.0017416856 -0.0019197252 0.022197925
000080 48 ab 93 3a b7 74 08 bd dc c5 19 3c 8a 54 25 3d
       0.0011266256 -0.033314433 0.009385552 0.040363826
000090 db 0a 22 3d 5e ce 96 bc 34 78 b4 3c f0 43 8f bc
       0.039561134 -0.01840895 0.022029974 -0.01748845
0000a0 40 73 73 3a a1 43 03 bc dc ad 9b bc 90 31 ce bc
       0.0009286888 -0.008011729 -0.019003801 -0.025170118
0000b0 1f 6e 5d b9 c5 42 bc 3c c7 d0 42 3b 1b 58 c2 3c
       -0.00021117226 0.022981057 0.0029726492 0.023723653
0000c0 95 d8 a6 3a 7c 29 07 3d 6c 2a a0 3a ab 90 26 bb
       0.0012729341 0.032998547 0.0012219674 -0.0025415819
0000d0 ee 2f 12 3d d9 20 bb bc 49 51 cc 3c 5d 3b 5f b9
       0.03569024 -0.022842811 0.024941104 -0.00021289052
0000e0 98 3f de bc 1c e7 ce bb e3 1e 74 3b 16 17 39 3d
       -0.027129933 -0.0063141715 0.0037249855 0.045188032
0000f0 2a ad 03 bb bb 16 93 bc e8 56 05 bd 66 bb 51 bc
       -0.0020092227 -0.017955175 -0.032553583 -0.012801027
000100 ac 08 ad 3c 60 d8 cd 3c df 82 3f bc 04 a2 1f 3d
       0.0211223 0.02512759 -0.011688917 0.03897287
000110 6b 6a 09 3c 72 3f a7 3a 95 33 48 bc 1b 50 1b bc
       0.008387188 0.0012759997 -0.012219329 -0.009479548
000120 e3 90 fb 3c 5d 37 28 3c 70 be 58 bc ca dd c6 3c
       0.030708736 0.010267106 -0.013228998 0.02427568
000130 02 41 1b 3d cc 8a e9 3b e8 7f c6 3b 5a c9 ea b8
       0.037903793 0.0071271416 0.006057728 -0.00011195494
000140 1d c0 16 bd 41 17 64 3c 57 76 b5 3b fe a0 59 bd
       -0.036804307 0.01392156 0.005537789 -0.05313205
000150 1f 79 93 3c bb 8f 14 3d a9 bd 5d 39 d1 ae cd 3b
       0.018002091 0.036269885 0.00021146856 0.0062769433
000160 83 78 4d b9 c4 cb b8 b8 dc 36 00 bd 5b dc 1c 3d
       -0.00019595218 -8.811758e-05 -0.031302318 0.038296085
000170 12 58 31 3d 2f 28 52 3d 85 5b 11 39 6c ba d0 bb
       0.04329688 0.051307853 0.00013862371 -0.0063698795
000180 ed ef 7c 3b 09 a4 33 3d e8 0d 0b bd fb e4 0d 3d
       0.0038595155 0.043857608 -0.03394881 0.0346422
000190 00 f0 b0 3c 91 c0 b6 3c 9f cb bf 3b 01 fb 8a 3c
       0.021598816 0.02230862 0.005853131 0.016965391
0001a0 98 18 7b 3c 49 3c 9e 3c d5 02 7a bc 99 5c 29 bd
       0.015325688 0.019315856 -0.015259464 -0.041348074
0001b0 8f 2c 9a bc 24 77 22 3c 89 e2 a9 bb 90 d4 8e 3c
       -0.018820075 0.009916101 -0.005184476 0.017435342
0001c0 52 b5 0f 3d f5 33 b5 b8 e6 b8 bd b9 e5 a2 80 3c
       0.03508503 -8.64043e-05 -0.0003618665 0.015702674
0001d0 1f 4c 5a 3c 3e 7c 8f bc d3 36 11 bb e6 22 26 3c
       0.013323813 -0.017515298 -0.0022157922 0.010140156
0001e0 3c ff 54 39 a0 89 6e 3a fe 37 5e bc 4b ec ff 3c
       0.00020312978 0.0009099487 -0.013563154 0.031240603
0001f0 06 49 eb 3a 33 16 d2 39 1a 04 a5 39 c1 c5 52 bc
       0.001795084 0.0004007086 0.00031474308 -0.012864531
000200 c3 73 97 3c 7d ec d4 bb 1f 55 e2 bb 78 cf 26 bb
       0.018487817 -0.006497918 -0.00690712 -0.002545325
000210 01 7d c5 bc 93 e2 46 bc fc eb 82 bc b0 53 3a ba
       -0.024107458 -0.01213898 -0.015981667 -0.00071078073
000220 e7 9d 15 3c 18 f1 ff 39 04 b3 0d 3c 9e d9 28 bb
       0.009131885 0.0004881702 0.008648638 -0.0025764476
000230 ac 0e 6c 3c 54 83 33 3a 73 69 2e bc 36 25 d4 bb
       0.014407795 0.00068478775 -0.010645258 -0.0064741625
000240 94 13 11 bc 95 23 d3 3c f9 d6 9c bc 44 4f e9 37
       -0.008854765 0.025773803 -0.019145476 2.7812675e-05
000250 f7 f6 8e 3b 23 64 3e ba e6 47 1e bb b6 1b 10 3b
       0.0043629366 -0.00072628463 -0.0024151742 0.0021989173
000260 48 6a 01 bc 2c a4 9b b9 ad 50 95 bb af 27 fd 3c
       -0.007898875 -0.0002968622 -0.0045567364 0.030902712
000270 24 30 bb 3c 9c 05 1d 3d 01 96 a8 bb 41 ea d5 3c
       0.022850104 0.038335428 -0.005144835 0.026112678
000280 eb c2 16 ba 94 b3 85 bc bb 8e 64 bc 2b d7 87 3c
       -0.0005751091 -0.016320981 -0.013950045 0.016582092
000290 21 0d 27 ba 03 eb 7b bc ef f3 f0 3c 94 05 59 bc
       -0.0006372501 -0.015375855 0.029413192 -0.013245959
0002a0 5e a4 df 3c 31 7d 0f bc 7e 69 a6 bc 32 21 99 bb
       0.027300056 -0.008757875 -0.020313974 -0.0046731466
0002b0 76 d4 c1 36 f1 fa b3 3c b5 23 3c 3b 2a 6f bb bc
       5.776582e-06 0.021970244 0.0028707806 -0.022880156
0002c0 ef 5d 15 3a 74 8f a0 bb 08 2e dd 39 49 95 98 3b
       0.0005697896 -0.0048999134 0.000421867 0.004656468
0002d0 86 98 0f 3d f1 3f 18 bc 00 ba 74 3c 74 6e be 37
       0.035057567 -0.009292589 0.014936924 2.2701199e-05
0002e0 04 9b 8b bc 5b 34 a0 bc ca f8 0f 3b 33 9f d1 3c
       -0.01704169 -0.019556215 0.0021968358 0.025588607
0002f0 91 92 b4 3b e9 27 42 bc c5 20 3c bb f6 d9 e9 bb
       0.005510636 -0.011850336 -0.0028706056 -0.0071365787
000300 c7 a2 08 3c e3 d7 e2 3c b0 c0 a3 bc d0 7b ad 3c
       0.00833959 0.027690833 -0.019989341 0.021177202
000310 12 8f 1f 39 d5 a6 eb bb 5b 07 c6 bc b0 5e 98 3b
       0.0001521672 -0.007191519 -0.02417343 0.0046499595
000320 50 51 43 3c a1 aa ad 3b d0 e9 0f 3c b2 b7 77 3b
       0.011921242 0.0052998816 0.008783773 0.00377987
000330 89 35 86 bc e2 3b f0 bb 81 7e 57 bc 0e 8b 92 b9
       -0.01638295 -0.0073313573 -0.0131527195 -0.00027950894
000340 4f fb fa 3c 35 d8 de 3c 5b 55 ea 3b d9 62 ab bc
       0.030637411 0.027202705 0.0071512884 -0.020921158
000350 61 b3 81 3c ea d4 0d 3c c4 66 85 39 95 c8 a8 bb
       0.015832605 0.00865672 0.00025444303 -0.0051508644
000360 4d 1e 23 ba 84 4c 81 b6 fe c4 db bc 4e 55 07 ba
       -0.0006222472 -3.853407e-06 -0.026827332 -0.00051625527
000370 69 cd 63 3a 64 6d 59 3b f5 34 f5 b7 d6 73 fe 3c
       0.00086899713 0.0033176774 -2.9230936e-05 0.031061094
000380 6c 8c f8 bc e4 d6 f5 3b ed 76 d3 3b 40 ce b3 bb
       -0.030340396 0.0075024236 0.006453386 -0.0054872334
000390 82 42 13 bd 2f 85 14 3c 04 7c 33 bc 9f 86 bd 3c
       -0.0359521 0.009064957 -0.010954861 0.023135481
0003a0 be 83 16 3c 68 2a f0 3b f2 f4 f3 bc 2c c0 91 b8
       0.009186683 0.007329274 -0.029779885 -6.9499336e-05
0003b0 c6 36 82 bc 14 a7 0a 3c 39 b6 b1 bb fc 62 5e 3c
       -0.015895259 0.008462686 -0.005423334 0.013573404
0003c0 84 cc 5e bc 5d 12 4b 38 0c a1 8c 3a 81 73 34 3c
       -0.013598565 4.8416074e-05 0.0010729148 0.011013866
0003d0 1b eb a5 39 f1 cb 0f bc 7f fe 03 bc d7 9c e1 3b
       0.0003164642 -0.008776651 -0.008056282 0.006885152
0003e0 81 7d 01 3a 1b 8a 13 3b ca 46 c5 bc 3d 1d fd bc
       0.0004939661 0.0022512737 -0.024081606 -0.030897731
0003f0 d8 1b 10 3c c5 9a e5 bc 5b 32 87 3c 32 19 68 3c
       0.008795701 -0.028027901 0.016503504 0.014166163

action_model._continuous_distribution.mu.bias f4 [2]
000000 50 ef 68 bc 1a 1d c8 bb
       -0.014217213 -0.006106985

exp_avg f4 [128, 8]
000000 00 00 00 00 f7 a1 84 b8 f4 d7 30 37 f8 0e c1 36
       0.0 -6.324419e-05 1.0540698e-05 5.753591e-06
000010 0e 52 75 38 f7 a1 04 38 06 00 90 b4 8b e3 f3 b3
       5.848897e-05 3.1622094e-05 -2.6822107e-07 -1.1356959e-07
000020 00 00 00 00 29 29 c9 b7 6d 1b 86 36 70 9e 14 36
       0.0 -2.3980234e-05 3.996704e-06 2.2145941e-06
000030 26 d0 b9 37 29 29 49 37 00 45 9b 32 78 30 48 33
       2.2150645e-05 1.1990117e-05 1.8075752e-08 4.661021e-08
000040 00 00 00 00 5e e3 f5 b8 e7 ec a3 37 88 64 33 37
       0.0 -0.00011724861 1.954143e-05 1.0692638e-05
000050 9c 5b e3 38 5e e3 75 38 87 fd dc b4 11 80 01 b4
       0.00010841267 5.8624304e-05 -4.116266e-07 -1.2060651e-07
000060 00 00 00 00 b1 fd a5 b9 42 52 5d 38 d2 d8 f9 37
       0.0 -0.00031660267 5.2767115e-05 2.9784078e-05
000070 53 19 99 39 b1 fd 25 39 7f 0a e2 35 d9 63 37 36
       0.00029201302 0.00015830134 1.6841367e-06 2.7327244e-06
000080 00 00 00 00 37 be 4f bb cf 7e 0a 3a 61 ea 97 39
       0.0 -0.003169907 0.0005283178 0.0002897559
000090 43 0d 40 3b 37 be cf 3a 35 0f 17 b7 fc a8 af b5
       0.002930478 0.0015849535 -9.003842e-06 -1.3087697e-06
0000a0 00 00 00 00 82 74 1d bb b2 f0 d1 39 5e 19 66 39
       0.0 -0.0024025743 0.00040042918 0.0002194396
0000b0 4f 92 11 3b 82 74 9d 3a 37 79 f8 b6 76 d5 c9 b5
       0.002221245 0.0012012871 -7.405087e-06 -1.5037792e-06
0000c0 00 00 00 00 d0 f1 42 39 8a f6 01 b8 90 4b 8e b7
       0.0 0.00018591364 -3.0985604e-05 -1.6962906e-05
0000d0 e0 3e 34 b9 d0 f1 c2 b8 c0 fe 26 35 f8 95 4a 34
       -0.0001718956 -9.295682e-05 6.221053e-07 1.8867274e-07
0000e0 00 00 00 00 6f 6e ab 36 3d 93 64 b5 38 c6 fa b4
       0.0 5.1090533e-06 -8.515088e-07 -4.6710352e-07
0000f0 e2 49 9e b6 6f 6e 2b b6 c2 04 f2 31 e1 18 88 32
       -4.717368e-06 -2.5545266e-06 7.043668e-09 1.5843797e-08
000100 00 00 00 00 ef 72 85 b8 96 ee 31 37 cd eb c2 36
       0.0 -6.363342e-05 1.0605572e-05 5.8091014e-06
000110 e5 c3 76 38 ef 72 05 38 3d a3 5a b4 92 2e 48 b3
       5.883341e-05 3.181671e-05 -2.0362218e-07 -4.6608484e-08
000120 00 00 00 00 d8 05 2b b9 cb 07 e4 37 ea 13 79 37
       0.0 -0.00016310008 2.7183347e-05 1.4846193e-05
000130 3d 28 1e 39 d8 05 ab 38 cc b3 2f b5 b4 22 97 b4
       0.00015083044 8.155004e-05 -6.545422e-07 -2.8151192e-07
000140 00 00 00 00 b8 e6 c8 ba 25 ef 85 39 eb 83 12 39
       0.0 -0.0015327549 0.00025545913 0.00013972788
000150 2b c4 b9 3a b8 e6 48 3a 69 99 ba b6 26 f4 f2 b5
       0.0014172842 0.00076637743 -5.5610913e-06 -1.8101462e-06
000160 00 00 00 00 66 21 5e bb 45 16 14 3a 8c 0b a2 39
       0.0 -0.0033894419 0.00056490704 0.0003090765
000170 5f 64 4d 3b 66 21 de 3a a6 d5 48 b7 be b0 76 b6
       0.0031340343 0.0016947209 -1.1970673e-05 -3.6759734e-06
000180 00 00 00 00 37 af c9 b9 cf 74 86 38 77 16 13 38
       0.0 -0.00038468253 6.411375e-05 3.5068453e-05
000190 53 7e ba 39 37 af 49 39 72 69 bf b5 97 e5 a4 b4
       0.00035570803 0.00019234126 -1.4261298e-06 -3.071443e-07
0001a0 00 00 00 00 09 a0 42 3b 05 c0 01 ba 93 1c 8e b9
       0.0 0.002969744 -0.00049495726 -0.0002710564
0001b0 0a f2 33 bb 09 a0 c2 ba 19 5d 22 37 ea a0 31 36
       -0.00274575 -0.001484872 9.677628e-06 2.646872e-06
0001c0 00 00 00 00 60 0b d6 35 f0 b1 8e b4 10 d0 54 b4
       0.0 1.5947553e-06 -2.6579028e-07 -1.9819731e-07
0001d0 80 9b c0 b5 60 0b 56 b5 62 d1 23 b4 fc fb 59 b4
       -1.4350371e-06 -7.9737765e-07 -1.5256731e-07 -2.0301371e-07
0001e0 00 00 00 00 5c b5 c6 ba e8 78 84 39 52 f2 10 39
       0.0 -0.001516025 0.00025267084 0.00013823182
0001f0 e4 bc b7 3a 5c b5 46 3a ee 1e b5 b6 45 14 d2 b5
       0.0014018086 0.0007580125 -5.397821e-06 -1.5652118e-06
000200 00 00 00 00 b4 2f dd ba 24 75 93 39 59 a6 21 39
       0.0 -0.0016875179 0.00028125301 0.00015416126
000210 ac 7d cc 3a b4 2f 5d 3a 14 1b aa b6 22 4f 5e b5
       0.0015601418 0.0008437589 -5.069547e-06 -8.28166e-07
000220 00 00 00 00 bc 1e bf ba a6 d3 7e 39 02 44 0b 39
       0.0 -0.0014581303 0.00024302173 0.00013281408
000230 0b bc b0 3a bc 1e 3f 3a 47 f8 bc b6 7a f8 0b b6
       0.0013483776 0.00072906516 -5.63174e-06 -2.0857246e-06
000240 00 00 00 00 aa 47 18 b7 3d 0a cb 35 c9 c2 5e 35
       0.0 -9.076592e-06 1.5127658e-06 8.2984894e-07
000250 77 c6 0c 37 aa 47 98 36 3a 47 d9 b2 ee 7c 52 b1
       8.390859e-06 4.538296e-06 -2.5294515e-08 -3.0630036e-09
000260 00 00 00 00 2c 28 49 b8 cb 1a 06 37 7c b9 91 36
       0.0 -4.7959547e-05 7.993261e-06 4.34293e-06
000270 6c 19 3a 38 2c 28 c9 37 7f 3c 99 b4 2d 8d ed b3
       4.436953e-05 2.3979774e-05 -2.8542487e-07 -1.1061852e-07
000280 00 00 00 00 65 96 8e bb de 1d 3e 3a 88 9d d0 39
       0.0 -0.0043514245 0.00072523754 0.00039790221
000290 5f d0 83 3b 65 96 0e 3b 80 8e 47 b7 92 9e a3 b5
       0.0040226425 0.0021757123 -1.1894503e-05 -1.2190596e-06
0002a0 00 00 00 00 48 f3 a9 3a b6 99 62 b9 59 b5 f7 b8
       0.0 0.001296618 -0.00021610301 -0.000118116564
0002b0 a8 27 9d ba 48 f3 29 ba 30 c5 a5 36 96 d4 00 36
       -0.0011989968 -0.000648309 4.940339e-06 1.9197228e-06
0002c0 00 00 00 00 c1 75 ac bb 54 f2 65 3a 6f e7 fb 39
       0.0 -0.005263061 0.00087717664 0.00048046882
0002d0 3a 73 9f 3b c1 75 2c 3b 22 c1 8d b7 2b ca 88 b6
       0.004866031 0.0026315304 -1.6898444e-05 -4.0766513e-06
0002e0 00 00 00 00 85 9e 4b bb 05 bf 07 3a 51 79 94 39
       0.0 -0.0031069827 0.00051783054 0.00028319148
0002f0 32 48 3c 3b 85 9e cb 3a dd 76 3e b7 ca 0e 84 b6
       0.0028729555 0.0015534913 -1.13525575e-05 -3.9356282e-06
000300 00 00 00 00 d9 31 90 38 74 42 40 b7 a9 86 d1 b6
       0.0 6.87574e-05 -1.1459564e-05 -6.244362e-06
000310 9e 5e 85 b8 d9 31 10 b8 42 c6 aa 34 c7 e2 3a 34
       -6.359558e-05 -3.43787e-05 3.180922e-07 1.7405101e-07
000320 00 00 00 00 80 0b e5 3a 55 b2 98 b9 e8 53 27 b9
       0.0 0.0017474741 -0.00029124567 -0.00015957619
000330 fa c2 d3 ba 80 0b 65 ba 72 3f b5 36 e6 7f ae 35
       -0.001615613 -0.00087373704 5.4016064e-06 1.3001234e-06
000340 00 00 00 00 a7 91 4a b9 c6 0b 07 38 22 bf 93 37
       0.0 -0.00019318481 3.2197473e-05 1.7612769e-05
000350 9c 4e 3b 39 a7 91 ca 38 7a 1e 3a b5 30 59 68 b4
       0.00017862994 9.6592405e-05 -6.933475e-07 -2.163913e-07
000360 00 00 00 00 7c 05 a5 39 50 07 5c b8 6b db f0 b7
       0.0 0.0003147534 -5.2458898e-05 -2.8712404e-05
000370 ed 94 98 b9 7c 05 25 b9 7a b5 90 35 d3 9e 9a 34
       -0.00029102658 -0.0001573767 1.0781653e-06 2.8800295e-07
000380 00 00 00 00 5c 8e 4e bb 3d b4 09 3a e0 d1 96 39
       0.0 -0.0031517958 0.0005252993 0.000287666
000390 47 fa 3e 3b 5c 8e ce 3a 18 b4 2c b7 80 39 2e b6
       0.0029140876 0.0015758979 -1.029393e-05 -2.596149e-06
0003a0 00 00 00 00 8f 93 29 39 14 1a e2 b7 e5 51 78 b7
       0.0 0.00016172066 -2.6953443e-05 -1.48010195e-05
0003b0 47 c0 1c b9 8f 93 a9 b8 a4 3a d8 34 5e 70 cb 32
       -0.00014948948 -8.086033e-05 4.0275802e-07 2.3683409e-08
0003c0 00 00 00 00 dd f5 37 38 d2 47 f5 b6 1a 55 86 b6
       0.0 4.3859578e-05 -7.30993e-06 -4.0034183e-06
0003d0 a5 15 2a b8 dd f5 b7 b7 3a 08 18 34 ab c3 25 33
       -4.0551316e-05 -2.1929789e-05 1.4159096e-07 3.8595015e-08
0003e0 00 00 00 00 6e 88 38 bb 3e 0b f6 39 88 b0 86 39
       0.0 -0.002815749 0.00046929152 0.00025689998
0003f0 fb 9e 2a 3b 6e 88 b8 3a f7 b5 1f b7 22 3a 22 b6
       0.00260347 0.0014078745 -9.5195055e-06 -2.417372e-06

exp_avg_sq f4 [128, 8]
000000 00 00 00 00 00 19 65 34 91 a4 cb 31 81 0b ed 30
       0.0 2.1336382e-07 5.9267866e-09 1.7247289e-09
000010 37 f1 42 34 00 19 65 33 8d bb 57 2d 02 6f 14 2d
       1.8155411e-07 5.3340955e-08 1.226298e-11 8.437475e-12
000020 00 00 00 00 68 8a ab 35 d9 7a 18 33 88 6a 2d 32
       0.0 1.2780774e-06 3.5501987e-08 1.0094148e-08
000030 64 ac 8f 35 68 8a ab 34 e8 c2 0f 2f 0e cf 1a 2f
       1.0704503e-06 3.1951936e-07 1.3075019e-10 1.4079779e-10
000040 00 00 00 00 81 1f 15 34 c8 8d 84 31 45 60 9b 30
       0.0 1.3888167e-07 3.8578243e-09 1.1305096e-09
000050 0e 1b fe 33 81 1f 15 33 9b 67 f3 2c d6 7c be 2c
       1.1832718e-07 3.472042e-08 6.917978e-12 5.4139844e-12
000060 00 00 00 00 59 d8 fe 39 68 87 62 37 43 53 86 36
       0.0 0.00048607847 1.3502176e-05 4.003204e-06
000070 28 d0 d9 39 59 d8 fe 38 0f 47 90 32 b7 39 ef 31
       0.00041544554 0.00012151962 1.679612e-08 6.962377e-09
000080 00 00 00 00 4b 95 92 39 db 4b 02 37 7e 29 1b 36
       0.0 0.00027958522 7.766265e-06 2.3120951e-06
000090 ae b9 7a 39 4b 95 92 38 42 65 17 32 a6 4d 5f 31
       0.00023911029 6.9896305e-05 8.81238e-09 3.249491e-09
0000a0 00 00 00 00 c0 88 02 39 93 0f 68 36 92 37 8a 35
       0.0 0.0001244871 3.457976e-06 1.0297974e-06
0000b0 f1 45 df 38 c0 88 02 38 a6 88 88 31 83 61 cf 30
       0.00010646496 3.1121774e-05 3.973656e-09 1.5088947e-09
0000c0 00 00 00 00 a9 20 10 35 08 1d 80 32 67 85 96 31
       0.0 5.3691707e-07 1.4914363e-08 4.3807407e-09
0000d0 5d 1b f6 34 a9 20 10 34 7b 3e d9 2d c0 46 5c 2d
       4.584098e-07 1.3422927e-07 2.469779e-11 1.2521262e-11
0000e0 00 00 00 00 35 1d 93 32 a9 c4 02 30 12 a7 18 2f
       0.0 1.7126334e-08 4.7573195e-10 1.3883675e-10
0000f0 75 80 7a 32 35 1d 93 31 87 40 cf 2b af ba 4e 2b
       1.4581123e-08 4.2815835e-09 1.4726145e-12 7.344498e-13
000100 00 00 00 00 38 55 0e 34 22 09 7d 31 23 4d 92 30
       0.0 1.3255783e-07 3.6821537e-09 1.0644822e-09
000110 82 f3 f1 33 38 55 0e 33 46 e9 1c 2d 83 34 c5 2c
       1.1266731e-07 3.3139457e-08 8.9193705e-12 5.6049067e-12
000120 00 00 00 00 0d 60 2f 35 95 e3 9b 32 c2 2a b9 31
       0.0 6.533235e-07 1.8147867e-08 5.3890696e-09
000130 b1 f1 15 35 0d 60 2f 34 1d 78 b7 2d fe 17 11 2d
       5.585853e-07 1.6333088e-07 2.0858032e-11 8.247623e-12
000140 00 00 00 00 e6 ef 23 38 be b8 91 35 54 6d a9 34
       0.0 3.908565e-05 1.0857109e-06 3.155825e-07
000150 7c a0 0b 38 e6 ef 23 37 29 9a 28 31 d5 5c dc 30
       3.3289645e-05 9.771413e-06 2.4534847e-09 1.6033491e-09
000160 00 00 00 00 e4 9f 0f 39 09 55 7f 36 fc 8a 95 35
       0.0 0.00013697107 3.8047458e-06 1.1141815e-06
000170 c3 13 f5 38 e4 9f 0f 38 6d 70 f3 31 b0 2b a4 31
       0.00011686191 3.4242767e-05 7.085012e-09 4.777995e-09
000180 00 00 00 00 46 61 43 36 d5 ab ad 33 07 b2 cd 32
       0.0 2.9113885e-06 8.087196e-08 2.3946098e-08
000190 1d 70 26 36 46 61 43 35 06 24 ff 2e ac 32 b8 2e
       2.4801186e-06 7.278471e-07 1.16024565e-10 8.3763524e-11
0001a0 00 00 00 00 56 90 47 39 ef 63 b1 36 e1 95 cf 35
       0.0 0.00019031888 5.286645e-06 1.5466322e-06
0001b0 00 28 2a 39 56 90 47 38 e4 d3 25 32 44 67 b7 31
       0.00016227365 4.757972e-05 9.652442e-09 5.337741e-09
0001c0 00 00 00 00 dd 83 d8 35 2c 75 40 33 c0 cf 63 32
       0.0 1.6131631e-06 4.481005e-08 1.3260376e-08
0001d0 8b dd b8 35 dd 83 d8 34 d6 cc 84 2e a2 73 e5 2d
       1.3773546e-06 4.0329078e-07 6.039051e-11 2.6085637e-11
0001e0 00 00 00 00 62 28 95 37 b8 95 04 35 1f cb 1c 34
       0.0 1.7780989e-05 4.93917e-07 1.4602527e-07
0001f0 b2 4d 7e 37 62 28 95 36 3d 5c 28 30 00 58 0d 30
       1.515767e-05 4.445247e-06 6.124912e-10 5.1420557e-10
000200 00 00 00 00 cd 2d 7c 38 b8 28 e0 35 1c 19 04 35
       0.0 6.0124137e-05 1.6701151e-06 4.921037e-07
000210 37 44 57 38 cd 2d 7c 37 72 35 37 31 88 40 de 30
       5.1323525e-05 1.5031034e-05 2.6660385e-09 1.6170967e-09
000220 00 00 00 00 77 c9 2e 38 cd 5d 9b 35 69 5d b6 34
       0.0 4.167246e-05 1.15757e-06 3.3968107e-07
000230 c1 3f 15 38 77 c9 2e 37 ea 79 0f 31 5d 3c a2 30
       3.5583744e-05 1.0418115e-05 2.087854e-09 1.1804208e-09
000240 00 00 00 00 6e 64 a6 31 86 e7 13 2f de 52 2c 2e
       0.0 4.8426534e-09 1.3451826e-10 3.9181873e-11
000250 f9 81 8d 31 6e 64 a6 30 60 a1 95 2a ea 04 2f 2a
       4.1184163e-09 1.2106633e-09 2.6579693e-13 1.5544827e-13
000260 00 00 00 00 39 d8 a4 36 41 87 12 34 27 ea 25 33
       0.0 4.9127525e-06 1.3646515e-07 3.8630017e-08
000270 01 a0 8b 36 39 d8 a4 35 63 6c 0e 30 c8 0c d6 2f
       4.1611497e-06 1.2281881e-06 5.1813326e-10 3.8935455e-10
000280 00 00 00 00 23 69 45 3a e3 79 af 37 3e 8f cf 36
       0.0 0.000753062 2.0918384e-05 6.1857563e-06
000290 34 92 28 3a 23 69 45 39 37 ff ed 32 19 56 64 32
       0.00064304774 0.0001882655 2.770649e-08 1.3290923e-08
0002a0 00 00 00 00 05 6e 28 38 18 b7 95 35 eb d0 af 34
       0.0 4.0156785e-05 1.1154652e-06 3.2748298e-07
0002b0 69 e6 0f 38 05 6e 28 37 9e 63 f9 30 19 73 85 30
       3.4308443e-05 1.0039196e-05 1.8145447e-09 9.709736e-10
0002c0 00 00 00 00 ee 65 ec 39 c2 21 52 37 42 e2 78 36
       0.0 0.0004508937 1.2524835e-05 3.708658e-06
0002d0 30 fa c9 39 ee 65 ec 38 fd d1 8d 32 67 15 0c 32
       0.00038524112 0.00011272343 1.6510052e-08 8.153939e-09
0002e0 00 00 00 00 1d d3 07 39 63 77 71 36 89 cc 8d 35
       0.0 0.00012953249 3.598129e-06 1.0564846e-06
0002f0 71 b7 e7 38 1d d3 07 38 e9 70 d9 31 e2 5b 80 31
       0.00011049107 3.2383123e-05 6.3283676e-09 3.735736e-09
000300 00 00 00 00 b8 af 69 35 93 b8 cf 32 2d 07 f3 31
       0.0 8.705497e-07 2.4181906e-08 7.0730466e-09
000310 a2 2f 47 35 b8 af 69 34 fb 1b 46 2e ce 43 ef 2d
       7.420259e-07 2.1763742e-07 4.504484e-11 2.7201266e-11
000320 00 00 00 00 51 b1 99 38 92 9d 08 36 cc 18 1f 35
       0.0 7.328636e-05 2.0357297e-06 5.92682e-07
000330 fd cd 82 38 51 b1 99 37 1b cc 81 31 ad b7 29 31
       6.2372514e-05 1.832159e-05 3.7775982e-09 2.4697144e-09
000340 00 00 00 00 ea f4 ed 34 54 84 53 32 aa 46 77 31
       0.0 4.4322888e-07 1.2311904e-08 3.5983398e-09
000350 c3 e1 ca 34 ea f4 ed 33 8e 91 d1 2d b3 ac 8a 2d
       3.7789695e-07 1.1080722e-07 2.3825188e-11 1.5765477e-11
000360 00 00 00 00 30 38 8a 35 3b b9 f5 32 69 db 12 32
       0.0 1.0298154e-06 2.8605987e-08 8.548207e-09
000370 4b 79 6c 35 30 38 8a 34 36 92 e9 2d 4d 36 87 2d
       8.8093356e-07 2.5745385e-07 2.6553964e-11 1.5371837e-11
000380 00 00 00 00 39 6e 21 39 5e 7e 8f 36 b1 c1 a8 35
       0.0 0.00015395218 4.276443e-06 1.2573347e-06
000390 d4 be 09 39 39 6e 21 38 56 78 f9 31 ad c7 96 31
       0.00013136427 3.8488044e-05 7.2605344e-09 4.388275e-09
0003a0 00 00 00 00 71 ef 0c 36 33 8d 7a 33 52 0b 94 32
       0.0 2.1001e-06 5.833608e-08 1.7234616e-08
0003b0 eb c4 f0 35 71 ef 0c 35 4e 59 b5 2e 17 d0 11 2e
       1.7938704e-06 5.25025e-07 8.246791e-11 3.3154004e-11
0003c0 00 00 00 00 b8 3c 13 33 9e e0 82 30 36 96 99 2f
       0.0 3.4281328e-08 9.522585e-10 2.793727e-10
0003d0 17 b3 fa 32 b8 3c 13 32 9f b4 e4 2b cb 1a 7b 2b
       2.9185271e-08 8.570332e-09 1.6250507e-12 8.9210296e-13
0003e0 00 00 00 00 8a ad c0 38 ec 44 2b 36 d1 16 4a 35
       0.0 9.1875976e-05 2.5521103e-06 7.5284066e-07
0003f0 a4 81 a4 38 8a ad c0 37 10 a8 86 31 a2 ef 34 31
       7.844277e-05 2.2968994e-05 3.9190198e-09 2.6329663e-09

exp_avg f4 [128]
000000 f4 d7 30 b7 6d 1b 86 b6 e7 ec a3 b7 42 52 5d b8
       -1.0540698e-05 -3.996704e-06 -1.954143e-05 -5.2767115e-05
000010 cf 7e 0a ba b2 f0 d1 b9 8a f6 01 38 3d 93 64 35
       -0.0005283178 -0.00040042918 3.0985604e-05 8.515088e-07
000020 96 ee 31 b7 cb 07 e4 b7 25 ef 85 b9 45 16 14 ba
       -1.0605572e-05 -2.7183347e-05 -0.00025545913 -0.00056490704
000030 cf 74 86 b8 05 c0 01 3a f0 b1 8e 34 e8 78 84 b9
       -6.411375e-05 0.00049495726 2.6579028e-07 -0.00025267084
000040 24 75 93 b9 a6 d3 7e b9 3d 0a cb b5 cb 1a 06 b7
       -0.00028125301 -0.00024302173 -1.5127658e-06 -7.993261e-06
000050 de 1d 3e ba b6 99 62 39 54 f2 65 ba 05 bf 07 ba
       -0.00072523754 0.00021610301 -0.00087717664 -0.00051783054
000060 74 42 40 37 55 b2 98 39 c6 0b 07 b8 50 07 5c 38
       1.1459564e-05 0.00029124567 -3.2197473e-05 5.2458898e-05
000070 3d b4 09 ba 14 1a e2 37 d2 47 f5 36 3e 0b f6 b9
       -0.0005252993 2.6953443e-05 7.30993e-06 -0.00046929152
000080 a2 4b 17 39 7a e4 1f b8 9b 99 03 ba 5a 2d d6 b6
       0.00014428658 -3.812134e-05 -0.00050201424 -6.3829766e-06
000090 46 69 0f ba 90 d5 e5 35 9f 2c ed b7 76 46 ef b6
       -0.0005470704 1.7123984e-06 -2.827338e-05 -7.130958e-06
0000a0 8c 3e c7 b7 83 0b 3b 39 76 1c 02 b7 40 2d b6 b8
       -2.3751774e-05 0.00017837998 -7.75523e-06 -8.686865e-05
0000b0 5c dc 5a ba e4 f0 69 b9 f2 45 a6 b7 f1 dd a0 b7
       -0.0008348876 -0.0002231035 -1.9821313e-05 -1.9176836e-05
0000c0 fa 2e ca b7 5a 57 cf b7 1b 53 c5 37 53 a9 82 37
       -2.4102152e-05 -2.4717e-05 2.3522929e-05 1.5576055e-05
0000d0 e5 3a f6 b9 2a db 70 38 b9 d0 80 b8 22 c8 45 b9
       -0.00046964656 5.742457e-05 -6.142393e-05 -0.0001886194
0000e0 70 71 53 b5 a8 1c 7d 39 a2 dd f4 39 ac 5b 01 b7
       -7.87687e-07 0.00024138635 0.00046704436 -7.710343e-06
0000f0 45 9b 07 39 7e 80 e9 b7 50 04 a2 31 7a de 3f b9
       0.00012932446 -2.7835598e-05 4.715311e-09 -0.00018298058
000100 f9 25 b2 b9 3e 4f 54 36 a3 97 8d 37 31 ac 8f b9
       -0.00033979097 3.1636587e-06 1.6879121e-05 -0.00027403378
000110 45 af 8c b9 52 7e 62 38 4a f7 3f 37 ec 17 3b b7
       -0.00026833467 5.4000244e-05 1.1442064e-05 -1.1151638e-05
000120 e1 e4 1c ba f9 e7 5c b9 22 e5 11 38 2e 7c 8e b9
       -0.00059850333 -0.00021067252 3.478409e-05 -0.00027176872
000130 90 58 39 38 73 63 04 36 ef e9 bf 38 5b 21 50 38
       4.4189917e-05 1.972742e-06 9.151163e-05 4.962213e-05
000140 8e 48 81 37 3e 8b b8 37 b0 64 22 ba e0 99 8c b9
       1.5411784e-05 2.1999349e-05 -0.0006194813 -0.00026817527
000150 12 8d db 35 58 62 7a ba 80 c7 4e b7 7c b7 ee 36
       1.6357828e-06 -0.00095513975 -1.23250065e-05 7.114313e-06
000160 56 6b 80 37 0f 17 ae b7 42 04 c5 b6 94 c7 82 b8
       1.5308771e-05 -2.0753154e-05 -5.871553e-06 -6.2360574e-05
000170 94 a6 3f 39 be 77 fe b7 4a 75 4b 39 4d d5 01 ba
       0.00018277235 -3.0334919e-05 0.00019403282 -0.0004952744
000180 8d 65 08 39 7d 50 36 39 2b dd 0b ba 2b c9 8f b9
       0.00013007801 0.00017386857 -0.0005335386 -0.00027424967
000190 30 f4 f9 38 04 9c ac 37 6f bc 12 b8 e4 99 0b 37
       0.00011918729 2.0576648e-05 -3.4984605e-05 8.320876e-06
0001a0 e2 46 b5 39 aa d4 1a b8 14 66 1c 37 97 65 b1 39
       0.00034575822 -3.691452e-05 9.3220915e-06 0.0003383576
0001b0 c6 01 89 37 0e e4 0b 38 7a 79 1e 38 44 2c bf b9
       1.6332498e-05 3.3352575e-05 3.778327e-05 -0.0003646334
0001c0 87 a2 cd b7 35 d3 6b b9 8f e5 04 39 48 0c 72 ba
       -2.4513587e-05 -0.00022490027 0.00012674018 -0.00092333974
0001d0 37 56 bb b7 97 78 0e ba 6b 94 87 38 6a 8a 4b b9
       -2.2332284e-05 -0.00054348394 6.464947e-05 -0.00019411152
0001e0 96 31 5b 37 9c d2 94 b6 fa 91 df b4 89 12 e3 b9
       1.3064962e-05 -4.435262e-06 -4.16432e-07 -0.00043310624
0001f0 27 79 73 37 5c 73 06 b7 21 f9 89 b9 a0 6f 43 b9
       1.4512137e-05 -8.013882e-06 -0.00026316292 -0.00018638233
